Assets/Model/Colab2.onnx (onnx, 72074 bytes, 8 tensors)

network_body.observation_encoder.processors.0.normalizer.running_mean f4 [4]
0	0x40e7a0d4	7.2383823
1	0xbff1a616	-1.887881
2	0x40c17d94	6.0465794
3	0x4086412b	4.195455

network_body._body_endoder.seq_layers.0.weight f4 [128, 4]
0	0x3f52eb47	0.82390255
1	0xbf7de2b5	-0.9917405
2	0xbf015c85	-0.505318
3	0xbf323ce4	-0.6962416
4	0x3f0a873f	0.5411262
5	0x3de9f77e	0.114241585
6	0x3f3383c9	0.70122963
7	0x3d2fee70	0.042952
8	0x3e91d091	0.28479436
9	0x3f264724	0.649523
10	0x3f0ebe5f	0.55759233
11	0xbdfca529	-0.12336189
12	0x3e363325	0.17792948
13	0xbeff133f	-0.4981937
14	0xbf2b991b	-0.67030495
15	0x3de2a9af	0.11067521
16	0x3f0bfe2d	0.54684716
17	0xbdb7a1c0	-0.08966398
18	0x3ef82ab4	0.4847008
19	0xbf0ae46d	-0.542548
20	0x3e675425	0.22590692
21	0x3d430047	0.047607686
22	0xbe33db09	-0.17564024
23	0xbec37e08	-0.38182092
24	0x3f59386f	0.84851736
25	0xbf6a3733	-0.9149048
26	0xbf62e9c2	-0.88637936
27	0x3e199a2d	0.1500022
28	0x3ef0ea82	0.47053915
29	0xbf507df8	-0.81442213
30	0xbe38b673	-0.18038349
31	0x3e616a18	0.22013128
32	0x3e6739d6	0.22580656
33	0xbeb735aa	-0.3578313
34	0xbdd5a75e	-0.104323134
35	0x3d9cf4fa	0.07663913
36	0x3eea189e	0.45721906
37	0xbec0f2be	-0.37685198
38	0x3ee68c7d	0.4502906
39	0xbe4ce41c	-0.20008892
40	0x3ecdd9fc	0.4020537
41	0x3c30b5c5	0.010785525
42	0xbee105e0	-0.43949795
43	0x3fb6c813	1.4279808
44	0x3eda2e0e	0.42613262
45	0xbd2864c3	-0.04111172
46	0x3f081542	0.53157437
47	0x3f08543b	0.53253525
48	0xbed0ef62	-0.40807635
49	0x3ee84d12	0.453713
50	0x3f8ab018	1.083499
51	0x3e854b1b	0.26033863
52	0xbf4594a1	-0.77179915
53	0xbeabb17c	-0.33533847
54	0x3ef9938b	0.4874538
55	0xbd58bca2	-0.05291427
56	0x3eb22b4e	0.34798664
57	0xbdf58c2f	-0.119896285
58	0x3f2bd3a8	0.67119837
59	0xbf3625ab	-0.71151227
60	0x3e6345d0	0.221946
61	0x3e8087a5	0.2510349
62	0x3d8d8e4b	0.06911906
63	0x3d14cd8f	0.03632885
64	0x3e0d287a	0.13784972
65	0x3d3d0207	0.04614451
66	0xbef72946	-0.48273677
67	0x3d29feb4	0.04150267
68	0x3d935104	0.07193187
69	0xbf06c199	-0.52639157
70	0x3ed03d4e	0.40671772
71	0xbe1a9852	-0.15097168
72	0xbe555e2f	-0.2083671
73	0x3e1e6438	0.15467918
74	0xbf16f2e8	-0.58964396
75	0x3d51c2c2	0.051211126
76	0xbe19813e	-0.14990708
77	0xbe75703c	-0.23968595
78	0x3ee9133b	0.45522484
79	0xbc7c4a58	-0.015398584
80	0x3e40f148	0.18842041
81	0x3f07eaf3	0.5309288
82	0x3e62abf0	0.22135901
83	0xbf63fece	-0.89060676
84	0xbe161699	-0.14657058
85	0xbdce7cae	-0.100823745
86	0xbf3c271a	-0.73497164
87	0x3f68ed60	0.90987206
88	0xbe4bb177	-0.19891916
89	0xbe632ee7	-0.2218586
90	0xbe31da3b	-0.17368405
91	0xbfbcd3de	-1.4752157
92	0x3ea645a6	0.32475013
93	0xbe4baaeb	-0.19889419
94	0xbe11b436	-0.14228901
95	0x3d640adf	0.05567443
96	0x3dbff03f	0.09371995
97	0xbdbbeaad	-0.0917562
98	0x3e91949a	0.28433686
99	0xbd6e5915	-0.058190424
100	0x3f41f866	0.7576965
101	0xbf47938d	-0.7795952
102	0x3e4cf59f	0.20015572
103	0xbf308c67	-0.68964237
104	0x3e1c8b48	0.15287507
105	0xbd2f182e	-0.04274767
106	0x3f4bda43	0.79629916
107	0x3f2b87c8	0.6700406
108	0xbdc57057	-0.09640568
109	0x3eb0822b	0.3447431
110	0xbd8360ce	-0.064149484
111	0xbdac618b	-0.08417042
112	0xbdb8d5d0	-0.090251565
113	0x3dbf6712	0.09345831
114	0xbe9d9072	-0.30774266
115	0xbf5434a5	-0.8289283
116	0x3bcab079	0.006185588
117	0xbf0c75cc	-0.54867244
118	0xbed49178	-0.41517234
119	0xbca21ab2	-0.01978812
120	0xbfcf0eed	-1.617643
121	0x3e9bab48	0.30404115
122	0xbe8f0e7c	-0.27940738
123	0xbf0b4c88	-0.5441365
124	0x3f465fef	0.77490133
125	0x3f20567b	0.6263196
126	0xbcaa634b	-0.0207993
127	0xbef6944d	-0.4816002
128	0xbf21a70b	-0.6314551
129	0x3cc26bd9	0.023733066
130	0x3f16a86b	0.58850735
131	0x3eaff0e8	0.34363484
132	0xbf03c966	-0.51479185
133	0xbf1ba746	-0.60802114
134	0xbd58f96e	-0.05297225
135	0xbf1e9ddd	-0.6195963
136	0xbdcce973	-0.100054644
137	0x3e9e4124	0.30909073
138	0xbec4a468	-0.38406682
139	0x3f1313d7	0.5745215
140	0xbf2a24a0	-0.66462135
141	0xbe1337f4	-0.14376813
142	0x3e10a195	0.14124139
143	0x3cb2cf74	0.021827437
144	0x3efe5fe1	0.49682525
145	0xbeeae471	-0.45877412
146	0xbf0a3eb4	-0.5400193
147	0xbf4fcc64	-0.8117125
148	0xbe820eca	-0.25401908
149	0xbf058563	-0.52156657
150	0xbf591413	-0.84796256
151	0xbf133d26	-0.5751518
152	0x3ec782a6	0.38966864
153	0x3ecbcb79	0.39803675
154	0x3d572c75	0.052532632
155	0xbe3494e7	-0.17634927
156	0xbf638cf6	-0.88886964
157	0xbdb05775	-0.08610431
158	0xbf1924a9	-0.59821564
159	0xbe9246e6	-0.28569716
160	0xbe02204b	-0.12707631
161	0xbfa82c16	-1.3138454
162	0x3f18bae2	0.5966016
163	0xbf0e375f	-0.5555324
164	0x3ec5d928	0.3864224
165	0xbedca8e5	-0.43097606
166	0xbe00e13a	-0.12585917
167	0x3e4edf3f	0.20202349
168	0x3f2c7523	0.67366236
169	0xbe9e14a4	-0.30875123
170	0x3e1ca31f	0.15296601
171	0xbdcae50c	-0.099069685
172	0x3d36f834	0.0446703
173	0x3f021cbc	0.50825095
174	0x3e0c67a3	0.1371141
175	0x3e169663	0.14705805
176	0xbdc9b412	-0.09848799
177	0xbe51e8a0	-0.20498896
178	0xbf2ea79c	-0.682245
179	0xbecea907	-0.40363333
180	0xbe31ee18	-0.17375982
181	0xbdbec179	-0.09314246
182	0xbed7408b	-0.4204143
183	0x3eb3ef51	0.3514352
184	0xbe8156fa	-0.2526167
185	0x3e4f7a25	0.20261438
186	0xbec76722	-0.38945872
187	0x3f2e4413	0.68072623
188	0x3e899aa3	0.2687579
189	0xbee09e08	-0.43870568
190	0xbeef0670	-0.466846
191	0xbe9598a2	-0.29218012
192	0xbe7f7e9c	-0.24950641
193	0x3f04b9df	0.51846117
194	0xbd3c4c70	-0.045971334
195	0xbd80ba7b	-0.06285568
196	0xbec85436	-0.39126748
197	0x3eb17ec7	0.34667036
198	0x3d2d6050	0.04232818
199	0x3e79b820	0.24386644
200	0x3f60d396	0.87822855
201	0xbf0a4945	-0.5401805
202	0x3f02a0fa	0.5102688
203	0xbd710664	-0.058843985
204	0x3e6a9fe6	0.22912559
205	0x3d4f94f2	0.050679155
206	0x3e47c734	0.19509584
207	0x3f0c5cc6	0.5482906
208	0x3dd33ae9	0.103139706
209	0xbe41b863	-0.18917994
210	0x3f351514	0.7073529
211	0xbe5cd84b	-0.21566884
212	0xbdb927cd	-0.090407945
213	0xbd908a91	-0.070576794
214	0x3f4d0277	0.80081886
215	0xbf73ff1e	-0.9531115
216	0xbd26eb9a	-0.04075203
217	0xbeb06e8c	-0.3445934
218	0xbeb2365e	-0.34807104
219	0x3e3de61e	0.18544814
220	0x3f1166e9	0.56797653
221	0x3f009066	0.50220335
222	0xbf2d0d9d	-0.675989
223	0xbedbf950	-0.42963648
224	0x3eff6232	0.49879605
225	0x3f4db3fb	0.80352753
226	0xbf64eacb	-0.89420766
227	0xbf9937b9	-1.197013
228	0xbfadf3fe	-1.3590086
229	0xbf085bff	-0.53265375
230	0xbed82f89	-0.42223766
231	0x3c1253f4	0.008931149
232	0x3d0372a8	0.032091767
233	0x3f02d37f	0.5110397
234	0xbf21ad22	-0.63154805
235	0xbdea7eeb	-0.11449989
236	0x3fb73c49	1.4315273
237	0x3f2d2aaa	0.67643225
238	0xbe409009	-0.18804945
239	0xbf2446a9	-0.6417032
240	0x3e282c28	0.16423094
241	0x3eb2db44	0.3493291
242	0xbebda952	-0.37043244
243	0xbe601e72	-0.21886614
244	0xbe3309cb	-0.17484204
245	0x3d91adc5	0.07113222
246	0x3ee01882	0.43768698
247	0x3e8d4ba3	0.2759677
248	0xbeb05f8a	-0.3444789
249	0xbf5aa6ef	-0.8541097
250	0x3f8b7108	1.0893869
251	0x3e08a286	0.13343248
252	0x3f5b4cf1	0.8566428
253	0x3d6385e1	0.0555476
254	0xbf0e242b	-0.5552394
255	0x3e96671b	0.29375538

network_body._body_endoder.seq_layers.0.bias f4 [128]
0	0x3e56f249	0.20990862
1	0x3d2e4c1d	0.042553056
2	0x3e61a903	0.22037129
3	0x3e315040	0.17315769
4	0x3cc594c3	0.024118787
5	0x3d86a669	0.06574709
6	0x3ea70d3c	0.32627285
7	0x3e74b862	0.23898461
8	0x3e88ee12	0.26744133
9	0x3e5bed6f	0.21477292
10	0xbe37c920	-0.17947817
11	0x3eade275	0.33961836
12	0x3dc62659	0.09675283
13	0xbdea5f5d	-0.1144397
14	0x3dd1db54	0.10246912
15	0xbe6c3971	-0.23068787
16	0xbe92451d	-0.28568354
17	0xbda349b4	-0.07973042
18	0x3e871d3f	0.263895
19	0xbb3f8b9d	-0.0029227503
20	0x3da8d2e0	0.08243346
21	0x3e8e97b5	0.27850118
22	0xbc9961bc	-0.018723361
23	0x3e976c48	0.295748
24	0xbda6232a	-0.08112176
25	0x3dd47bf3	0.10375204
26	0x3ee63ee3	0.44969854
27	0x3e31fb26	0.17380962
28	0xbe3b1ee4	-0.18273503
29	0x3e78d88e	0.24301359
30	0x3cc48e1d	0.023993546
31	0xbe166417	-0.14686619
32	0xbcd69fc7	-0.026199235
33	0xbc96f485	-0.018427143
34	0x3e9767c4	0.29571354
35	0x3cf6f390	0.030145437
36	0xbcaa8e61	-0.020819845
37	0x3ddd0bdb	0.10793277
38	0x3e2f3147	0.17108642
39	0x3e3765be	0.17909905
40	0x3dc1f0a9	0.094697304
41	0xbe72a889	-0.23697104
42	0x3e608dcf	0.21929096
43	0x3e672329	0.22572006
44	0x3e225a30	0.15854716
45	0x3e6582b4	0.2241314
46	0x3e19e7ca	0.15029827
47	0x3e649cc1	0.22325422
48	0x3e61767c	0.22017854
49	0x3cd6e3b2	0.02623162
50	0x3e2796c0	0.163661
51	0x3eaf7dcf	0.34275672
52	0xbd1be9f1	-0.0380649
53	0x3b706565	0.003668153
54	0x3e2ce82f	0.16885446
55	0xbea2929e	-0.31752485
56	0xbe13fdbe	-0.14452264
57	0x3d04694d	0.032326985
58	0xbecd9578	-0.40153098
59	0xbdffc628	-0.12488967
60	0xbea2ebe9	-0.3182061
61	0x3d8a0ed6	0.06741111
62	0x3d4f199c	0.050561532
63	0xbecfaab8	-0.40559936
64	0x3d234a76	0.039865933
65	0xbe9c572a	-0.3053525
66	0x3cba5386	0.022744905
67	0xbd887ea4	-0.0666478
68	0x3e2ce752	0.16885117
69	0x3e00be01	0.1257248
70	0x3b91c6d8	0.004448753
71	0x3eb412da	0.35170633
72	0x3e52f578	0.20601451
73	0x3e045ce6	0.12926063
74	0x3e4604ee	0.19337818
75	0xbe11868b	-0.1421148
76	0xbeb7b9f3	-0.35884055
77	0xbe99a747	-0.30010435
78	0x3e5470e8	0.20746195
79	0x3ea107e3	0.3145133
80	0xbe8fb615	-0.28068605
81	0xbd7b560c	-0.061361358
82	0x3cca5098	0.024696633
83	0xbe955338	-0.29165053
84	0xbc84c0bb	-0.016205182
85	0x3d4088d6	0.047005497
86	0xbeacfa76	-0.33784837
87	0x3df00a9b	0.11720773
88	0x3ca65e86	0.020308744
89	0x3e787695	0.24263985
90	0x3b69c0de	0.0035667936
91	0x3da8dc12	0.082451
92	0x3e52e488	0.2059499
93	0x3e6c4869	0.23074497
94	0x3e857a76	0.26069993
95	0x3e9534f3	0.2914196
96	0x3e23a2a3	0.1598001
97	0x3eaaca2b	0.33357367
98	0xbe8da8eb	-0.27667937
99	0x3e00baff	0.12571333
100	0x3d9c6b49	0.076376505
101	0x3e67e11f	0.2264447
102	0x3e4aec01	0.19816591
103	0xbe8ca0da	-0.2746647
104	0xbed0119d	-0.40638438
105	0x3ea2fc0e	0.31832927
106	0x3e6b0939	0.22952737
107	0xbddd4b00	-0.10805321
108	0xbc56e4f9	-0.013116115
109	0x3ea7892b	0.32721838
110	0x3e637360	0.22211981
111	0xbe5f9c7e	-0.21837041
112	0xbe3c9142	-0.18414786
113	0x3e57703a	0.21038905
114	0xbe54a3b6	-0.20765576
115	0xbecd642c	-0.40115488
116	0x3e40472a	0.18777147
117	0x3c241e87	0.010017044
118	0xbea91d26	-0.3303005
119	0xbbc998e6	-0.00615226
120	0xbeb662cc	-0.3562225
121	0x3e8e913a	0.27845174
122	0xbe5a6b1b	-0.2132992
123	0xbe7f7b4f	-0.24949382
124	0xbe41a053	-0.18908815
125	0xbe36cd93	-0.17851858
126	0x3e4d124d	0.20026512
127	0xbe8094f8	-0.25113654

network_body._body_endoder.seq_layers.2.weight f4 [128, 128]
0	0x3d51325d	0.05107342
1	0x3d8ce588	0.06879717
2	0xbd6f2056	-0.058380447
3	0xbe1515ae	-0.14559051
4	0xbcf02e5a	-0.029318977
5	0xbca9eb7c	-0.02074217
6	0xbda8a416	-0.08234422
7	0x3e18de3f	0.1492853
8	0x3dcd6b1f	0.10030197
9	0x3abd101e	0.0014424359
10	0x3df20c23	0.11818721
11	0x3e0c9871	0.13730027
12	0x3d99e48c	0.07514295
13	0x3dfe00c1	0.124024875
14	0x3d2364a0	0.039890885
15	0x3de2b364	0.11069372
16	0x3d0e4f61	0.03474367
17	0x3e3f545e	0.18684527
18	0xbdd07015	-0.10177628
19	0x3dbc5d7b	0.091975175
20	0x3c423b57	0.011854968
21	0x3d82761e	0.06370185
22	0x3e1c63bc	0.1527242
23	0xbcd3455a	-0.025789905
24	0x3d80e731	0.06294096
25	0x3e09b0cc	0.13446349
26	0x3e05c234	0.13062364
27	0xbccc0892	-0.02490643
28	0x3d1b3d22	0.037900098
29	0xbe0c71fe	-0.1371536
30	0xbd53e0e0	-0.05172813
31	0xbe112eba	-0.14177981
32	0x3e91e0c2	0.2849179
33	0xbd8cad4c	-0.06868991
34	0xbdfa64e9	-0.12226278
35	0x3d44dc25	0.04806151
36	0x3dae4ed4	0.08511129
37	0x3aad41b7	0.0013218437
38	0xb9c5cb84	-0.000377264
39	0xbe4814f4	-0.19539243
40	0xbd937d80	-0.072016716
41	0x3e1e7c18	0.15477026
42	0xbd0d8067	-0.034546282
43	0x3b89313a	0.0041867765
44	0xbbf625f8	-0.0075118504
45	0x3d1372cf	0.035998162
46	0xbd06435e	-0.03277909
47	0xbd8c9d7d	-0.06865976
48	0xbe50f7c3	-0.20407014
49	0x3ba1bb0f	0.004935629
50	0xbdb75b5f	-0.089529745
51	0xbd082d3d	-0.033246268
52	0x3e8095a1	0.25114158
53	0x3d98d205	0.07461933
54	0x3d8b2d87	0.06795793
55	0xbd7d476b	-0.061835688
56	0x3e053d72	0.13011721
57	0x3e06251f	0.13100098
58	0x3d16e29e	0.036837213
59	0x3cab6e04	0.020926483
60	0xbd807c9f	-0.062737696
61	0x3d8986aa	0.06715138
62	0x3de5ce1f	0.11220955
63	0xbd4b053e	-0.049565546
64	0x3e2a67dc	0.16641182
65	0x3cee940e	0.029123332
66	0x3e02ee8d	0.12786312
67	0x3d780c26	0.06055846
68	0x3e44ac74	0.1920641
69	0x3df8e577	0.12153142
70	0x3e726a33	0.23673324
71	0xbd6e84eb	-0.05823223
72	0xbbad88d3	-0.0052958517
73	0x3e40206b	0.18762366
74	0x3c1b053e	0.009461699
75	0x3e83b2c5	0.25722328
76	0x3d3bb0ec	0.045823023
77	0xbe257621	-0.16158344
78	0xbc21a047	-0.009864873
79	0x3e2a880c	0.1665346
80	0x3cf46242	0.02983201
81	0xbc50ef66	-0.01275239
82	0x3d8ebb8f	0.06969368
83	0x3c147c8d	0.009062898
84	0x3d9dff25	0.077146806
85	0x3ddfaa4a	0.10921152
86	0xbd3ba6dc	-0.045813426
87	0x3dbf0867	0.093277745
88	0xbe1ae163	-0.1512504
89	0xbc959b45	-0.018262515
90	0x3e37592f	0.17905115
91	0x3d2d6518	0.04233274
92	0x3c2cafde	0.010539977
93	0xbe434f8f	-0.19073318
94	0xbe313a48	-0.17307389
95	0xbeb106b0	-0.34575415
96	0x3d9289fa	0.07155223
97	0xbcce5209	-0.025185602
98	0xbdb0f853	-0.08641114
99	0x3e586c4d	0.21135063
100	0x3d56f456	0.05247911
101	0xbca3efba	-0.020011771
102	0x3d085983	0.03328849
103	0x3ddcd6ec	0.107831806
104	0x3d47a26c	0.048738882
105	0xbe93440f	-0.28762862
106	0xbe47657d	-0.19472308
107	0x3ca9def6	0.020736199
108	0x3e915112	0.28382164
109	0x3da0dbda	0.07854433
110	0xbd862468	-0.06549913
111	0xb87a8f0e	-5.9737875e-05
112	0x3cbd906a	0.023140151
113	0x3df0cf45	0.117582835
114	0xbc8681d9	-0.016419338
115	0xbd292a9f	-0.041300412
116	0xbd8775ee	-0.0661429
117	0x3ded29ef	0.11580264
118	0xbd8c3f90	-0.06848061
119	0xbaaeb546	-0.001332917
120	0x3e04edcc	0.12981337
121	0x3dd565c2	0.104197994
122	0x3e378813	0.17923002
123	0xbd66c31d	-0.05633842
124	0x3e6174af	0.22017168
125	0x3d46590c	0.048424765
126	0x3d85ea9c	0.06538889
127	0x3e8d199a	0.27558595
128	0x3df7974b	0.12089404
129	0x3cbd9ab4	0.023145057
130	0xbe27b6cb	-0.16378324
131	0x3d8a5ce2	0.06755997
132	0xbd68be8c	-0.056822345
133	0x3c3be714	0.011468668
134	0x3ea9d495	0.3317
135	0xbd823063	-0.06356885
136	0x3e1accc3	0.15117173
137	0xbdb3cd32	-0.08779372
138	0xbdc779f6	-0.09740059
139	0x3d321310	0.04347521
140	0x3ccf1e53	0.025283014
141	0xbd9281fe	-0.071537
142	0xbcf8473c	-0.030307405
143	0xbb854d1c	-0.00406803
144	0xbe3a64e3	-0.18202548
145	0xbd32f704	-0.043692604
146	0x3d92821f	0.07153725
147	0xbd7aec14	-0.061260298
148	0xbc234678	-0.0099655315
149	0x3e14bd35	0.14525302
150	0xbcd6bede	-0.02621406
151	0x3e43e275	0.19129355
152	0x3e2fb51a	0.17158929
153	0xbdda6ba2	-0.106650606
154	0xbe291480	-0.16511726
155	0x3d4bf176	0.049790822
156	0x3da6d821	0.08146692
157	0x3c42d7ca	0.011892268
158	0x3c0881ff	0.008331775
159	0xbb8958e4	-0.004191505
160	0xbe99f4f8	-0.3006971
161	0xbc9c1d44	-0.019056924
162	0x3b479d90	0.0030458905
163	0xbe056688	-0.13027394
164	0x3d86dd19	0.0658514
165	0x3e5eae96	0.21746287
166	0xbd90ce10	-0.07070553
167	0x3d6ea73d	0.05826496
168	0xbb98319a	-0.004644585
169	0xbe14b34a	-0.14521518
170	0x3c8d86ac	0.01727613
171	0x3e16a3b6	0.14710888
172	0x3dfc4d34	0.12319413
173	0x3e23b958	0.15988672
174	0xbdbfd39f	-0.093665354
175	0x3e4441a4	0.19165665
176	0x3e32a733	0.17446594
177	0x3d8ad30d	0.06778536
178	0xbcc75027	-0.024330212
179	0x3d0572e3	0.032580268
180	0xbe1344f9	-0.1438178
181	0xbd08819a	-0.033326723
182	0x3deb28d2	0.11482395
183	0xbdb7c829	-0.089737244
184	0xbdfa0c5b	-0.12209388
185	0x3bae369c	0.0053165685
186	0x3cd19e70	0.025588244
187	0xbd8043a3	-0.06262901
188	0xbd7d5bf3	-0.061855268
189	0x3e176a51	0.1478665
190	0xbc67b339	-0.014141851
191	0x3bb3e539	0.005489972
192	0x3cebba07	0.028775228
193	0x39a8f7a6	0.0003222797
194	0xbd8e0378	-0.06934255
195	0xbdaf32c1	-0.085546024
196	0xbd067e29	-0.03283516
197	0x3e335318	0.17512167
198	0xbd63a06c	-0.055572912
199	0x3e7a5c57	0.24449287
200	0x3aeb88c4	0.0017969836
201	0xbddc2754	-0.10749689
202	0x3e419ce4	0.18907505
203	0xbdfe1b57	-0.124075584
204	0xbe2eecc5	-0.17082508
205	0xbd4cf61b	-0.050039392
206	0xbc5383c6	-0.012909835
207	0x3d264352	0.040591545
208	0x3d60c42f	0.054874595
209	0x3c992726	0.018695425
210	0xbd9597ce	-0.07304345
211	0xbdd82e2b	-0.10555681
212	0xbd4028f6	-0.046914063
213	0x3d601df8	0.05471608
214	0x3dd08343	0.10181286
215	0x3e2f8d4f	0.17143749
216	0x3dc9acf4	0.09847441
217	0x3e4d7e3d	0.20067687
218	0xbe40fb1b	-0.18845789
219	0xbd857ae0	-0.06517577
220	0x3d119531	0.03554267
221	0x3df171e2	0.117892995
222	0x3e8353b8	0.2564981
223	0x3ed2ad1b	0.41147694
224	0x3d45d5f4	0.048299745
225	0x3d0acd24	0.033887044
226	0xbdb9e95a	-0.090777114
227	0xbd770a2f	-0.060312446
228	0xbd075d7d	-0.03304814
229	0x3e30ca59	0.1726469
230	0x3d2f4492	0.042790003
231	0xbe53e36e	-0.20692226
232	0xbe4fda30	-0.20298076
233	0x3e86e54b	0.26346812
234	0x3e070adc	0.13187736
235	0xbe1439f3	-0.14475231
236	0xbe52f235	-0.20600207
237	0xbdcafaa2	-0.09911086
238	0x3e641f4e	0.22277567
239	0xbc4b5ce3	-0.012412283
240	0xbd1c3245	-0.03813388
241	0x3df115a2	0.11771704
242	0xbe1a8db1	-0.15093113
243	0xbcfa43ea	-0.030549962
244	0x3e19db29	0.15025009
245	0xbdb8b083	-0.09018042
246	0xbda85b3e	-0.08220528
247	0xbd6e4499	-0.05817089
248	0xbd906ccd	-0.07052002
249	0xbaea2aae	-0.0017865503
250	0xbe309e62	-0.17247918
251	0xbc28607c	-0.01027691
252	0xbdb7299f	-0.089434855
253	0xbe0f94fd	-0.14021678
254	0xbd05592f	-0.032555755
255	0xbe5431f1	-0.20722176

network_body._body_endoder.seq_layers.2.bias f4 [128]
0	0xbe045289	-0.1292211
1	0x3e850f4d	0.25988236
2	0xbdb1e96a	-0.08687098
3	0x3e564bb1	0.20927311
4	0x3e7a9ffd	0.24475093
5	0x3e82e0ea	0.2556222
6	0x3e6b8b30	0.23002315
7	0x3e752b2d	0.23942252
8	0x3e726f4d	0.2367527
9	0x3e764824	0.24050957
10	0x3e661b9d	0.22471471
11	0xbdc7c8ea	-0.09755118
12	0xbdf4eaa1	-0.119588144
13	0xbdc9291d	-0.09822295
14	0x3e8c9b60	0.27462292
15	0x3e5f4b2b	0.21806018
16	0x3e8c261b	0.27372822
17	0x3e820230	0.25392294
18	0x3e3b180c	0.18270892
19	0xbe19f1a4	-0.15033585
20	0x3e7efd94	0.2490142
21	0x3e8a4d13	0.27011928
22	0x3e7e78b0	0.24850726
23	0xbdc0a799	-0.09406967
24	0x3e97699c	0.2957276
25	0xbe16b84b	-0.1471874
26	0xbd42e9f6	-0.047586404
27	0xbcc99559	-0.024607347
28	0x3e4ca864	0.19986111
29	0x3e5152b3	0.20441703
30	0x3e4b413d	0.19849105
31	0xbdbf2dca	-0.093349054
32	0x3e2ff0ab	0.17181651
33	0xbe126019	-0.14294471
34	0x3e741c4d	0.23838921
35	0xbd860110	-0.065431714
36	0xbe4e8f09	-0.20171751
37	0x3e8785b8	0.26469207
38	0xbd5d68b0	-0.054054916
39	0xbdc52bd3	-0.096274994
40	0xbdc5b3aa	-0.09653409
41	0x3e5656ca	0.20931545
42	0x3e822150	0.2541604
43	0x3e73517a	0.2376155
44	0xbe3e52b3	-0.18586235
45	0xbdc451f8	-0.09585947
46	0x3e6e7ee4	0.23290592
47	0xbe2cc2ca	-0.16871181
48	0x3e8e8fca	0.27844077
49	0x3e88a802	0.2669068
50	0x3e202e28	0.15642607
51	0x3e4dac26	0.200852
52	0xbe41f7d6	-0.18942198
53	0xbdaafd08	-0.08349043
54	0xbe0bab42	-0.13639548
55	0xbc8ac9ad	-0.01694187
56	0x3e5f9ff5	0.21838363
57	0xbdbcfaec	-0.09227547
58	0x3da3edbc	0.080043286
59	0x3e83937d	0.25698462
60	0x3e6f0a0a	0.23343673
61	0x3e83c4ed	0.2573618
62	0x3e6ac35e	0.22926089
63	0x3e6496a0	0.22323084
64	0x3e8204d3	0.25394306
65	0xbe049404	-0.12947088
66	0x3e734455	0.23756535
67	0xbe0bf68f	-0.13668273
68	0xbe48c89e	-0.1960778
69	0x3e3fb76a	0.1872231
70	0xbd3e5bef	-0.046474393
71	0x3e49fce1	0.19725372
72	0x3e4f53fc	0.20246881
73	0x3e8fecc8	0.28110337
74	0xbe175e88	-0.14782155
75	0xbe229bea	-0.15879789
76	0x3e849563	0.25895223
77	0xbd788259	-0.060671184
78	0xbd974923	-0.073869966
79	0x3e7b5733	0.24544983
80	0x3e70eee0	0.23528624
81	0xbe20578c	-0.15658396
82	0xbdfc556c	-0.123209804
83	0x3e84c6ed	0.25933018
84	0x3e843fe0	0.25829983
85	0xbdda6ccf	-0.10665285
86	0xbdabf5a2	-0.0839646
87	0x3e897e18	0.26854014
88	0xbd8e6b02	-0.06954004
89	0x3e160f16	0.14654192
90	0x3e80ecaa	0.2518056
91	0x3e740ba0	0.2383256
92	0x3e75fcad	0.2402217
93	0x3e43e281	0.19129373
94	0x3e58d5a8	0.21175253
95	0xbd39bca1	-0.045345906
96	0x3e3736ca	0.17891994
97	0x3e47872c	0.19485158
98	0xbd8d06e8	-0.06886083
99	0xbe056ee8	-0.13030589
100	0x3e8518b9	0.25995424
101	0xbdb52a63	-0.08845975
102	0xbe1eca03	-0.15506749
103	0x3e844214	0.25831664
104	0xbe02f6ed	-0.12789507
105	0xbe047fb9	-0.12939347
106	0x3e7d0ed8	0.24712694
107	0xbe08363d	-0.1330194
108	0x3e8ab3a5	0.27090183
109	0x3e64649e	0.22304007
110	0x3e89e97b	0.26935944
111	0x3e46fbfd	0.19432063
112	0xbd2ebbde	-0.042659633
113	0x3e673b00	0.225811
114	0x3e6cc05d	0.23120256
115	0x3e615e1d	0.22008558
116	0x3e642ef6	0.22283539
117	0x3e869a59	0.26289633
118	0x3e55ae14	0.20867187
119	0x3e79f729	0.2441069
120	0xbd893e54	-0.06701341
121	0x3e8e73e2	0.27822787
122	0xbdac270f	-0.08405887
123	0xbd777171	-0.06041092
124	0x3e6f6474	0.23378164
125	0xbe1ca760	-0.15298223
126	0xbe424132	-0.18970183
127	0x3e3c2471	0.18373276

action_model._discrete_distribution.branches.0.weight f4 [2, 128]
0	0xbe175fe8	-0.14782679
1	0x3e4b672f	0.1986358
2	0xbeaf16b7	-0.34197018
3	0x3dfad75e	0.12248109
4	0x3dc69a7f	0.096974365
5	0x3e458882	0.19290355
6	0x3ddce231	0.1078533
7	0x3e877b5c	0.26461303
8	0x3e67410e	0.2258341
9	0x3e483663	0.19551997
10	0x3e27951d	0.16365476
11	0xbe32d3c5	-0.17463596
12	0xbe59f80a	-0.21286026
13	0xbe9751fe	-0.29554743
14	0x3e9e3bd7	0.3090503
15	0x3d627c68	0.055294424
16	0x3e5cc64c	0.21560019
17	0x3e976d96	0.29575795
18	0x3da60c57	0.081078224
19	0xbe3987df	-0.18118237
20	0x3e98e710	0.29863787
21	0x3e8ef5ab	0.27921805
22	0x3e7ef49e	0.24898002
23	0xbebfba12	-0.37446648
24	0x3e3ed0d7	0.18634354
25	0xbe5ed970	-0.21762633
26	0xbec12ba5	-0.3772861
27	0xbeda68ed	-0.42658177
28	0x3dd3ac54	0.10335603
29	0x3e0ed127	0.13946973
30	0x3ddd8428	0.108162224
31	0xbea9dd21	-0.3317652
32	0x3dcedd4f	0.10100805
33	0xbe2b38f8	-0.1672095
34	0x3e3aa4d6	0.18226942
35	0xbeb39591	-0.35075048
36	0xbe8210d4	-0.25403464
37	0x3e43c20e	0.19116995
38	0xbed5a058	-0.41723895
39	0xbeb042b0	-0.3442588
40	0xbea44eac	-0.32091272
41	0x3e268a15	0.16263612
42	0x3e4da20d	0.20081349
43	0x3e3a66bf	0.18203257
44	0xbe374fe6	-0.17901573
45	0xbeac2a9b	-0.33626255
46	0x3e290c63	0.16508631
47	0xbe2ef0cd	-0.17084046
48	0x3e75d91e	0.24008605
49	0x3e794d00	0.2434578
50	0x3db5e3e8	0.0888136
51	0x3e1f11ae	0.15534088
52	0xbe4d6db4	-0.2006138
53	0xbebc4def	-0.3677821
54	0xbe7213e9	-0.23640408
55	0xbdd6626e	-0.10467993
56	0x3e171d52	0.14757279
57	0xbebf184d	-0.37323228
58	0x3cd975f9	0.026545512
59	0x3e478e02	0.19487765
60	0x3e89700a	0.26843292
61	0x3e7fcb15	0.24979813
62	0x3e7d44a9	0.24733223
63	0x3e219c3a	0.15782252
64	0x3e8e4131	0.27784112
65	0xbe66c8f9	-0.22537602
66	0x3e1560cd	0.14587708
67	0xbe3a27a3	-0.18179183
68	0xbe3bb02d	-0.18328924
69	0x3daf6c86	0.08565621
70	0xbeb6b1ed	-0.35682622
71	0x3e15a3fd	0.14613338
72	0x3e213c23	0.15745597
73	0x3e650304	0.22364432
74	0xbe59ca69	-0.2126862
75	0xbe8e5adb	-0.27803692
76	0x3e756ddb	0.23967688
77	0xbeae3473	-0.3402439
78	0xbebca34d	-0.3684334
79	0x3e4f77e2	0.20260575
80	0x3e0b145d	0.13581987
81	0xbe4d8afc	-0.2007255
82	0xbde3f756	-0.1113116
83	0x3e335633	0.17513351
84	0x3de45be4	0.11150339
85	0xbe13ed3f	-0.14445971
86	0xbe93dfa2	-0.28881556
87	0x3eacc83e	0.33746523
88	0xbec511b5	-0.38490072
89	0x3de58bc2	0.11208297
90	0x3e6f1f9b	0.233519
91	0x3e7a9956	0.24472556
92	0x3e551a5e	0.2081084
93	0x3e5eee8a	0.21770683
94	0x3e12d6bb	0.14339726
95	0xbed95646	-0.42448634
96	0x3dc3f6e9	0.09568579
97	0x3e82f140	0.25574684
98	0xbe9dcefb	-0.30821976
99	0xbe183381	-0.14863397
100	0x3e638c0e	0.22221395
101	0xbeaa7c61	-0.3329802
102	0xbe0c1455	-0.13679631
103	0x3e9aea77	0.30257007
104	0xbe59dfbb	-0.21276753
105	0xbe46ce59	-0.19414653
106	0x3e77544e	0.24153253
107	0xbe26f9b4	-0.16306192
108	0x3e10fcc6	0.14158925
109	0x3e06c536	0.13161168
110	0x3e8bd32c	0.2730955
111	0x3e04a02b	0.12951724
112	0xbed52357	-0.41628525
113	0x3e81b05c	0.25329864
114	0x3e31d3af	0.17365907
115	0x3e358f78	0.1773051
116	0x3e46e594	0.19423515
117	0x3e4dd914	0.2010234
118	0x3e0eab82	0.13932613
119	0x3e928158	0.28614306
120	0xbec22786	-0.3792078
121	0x3e464a84	0.19364363
122	0xbe9aa5e8	-0.302047
123	0xbeb3bff3	-0.35107383
124	0x3df22627	0.11823683
125	0xbe163050	-0.14666867
126	0xbe29d27d	-0.16584201
127	0x3e0027b4	0.12515146
128	0x3e2e10b5	0.1699856
129	0xbe527313	-0.2055171
130	0x3eaffb19	0.3437126
131	0xbdf89d78	-0.1213941
132	0xbde4487d	-0.111466385
133	0xbe3fd307	-0.18732844
134	0xbdf0d83f	-0.11759996
135	0xbe8b1ed0	-0.27171946
136	0xbe67979a	-0.22616425
137	0xbe4cb4b7	-0.19990812
138	0xbe236dce	-0.15959856
139	0x3e1f8106	0.15576562
140	0x3e5a335b	0.21308653
141	0x3e951f7b	0.2912558
142	0xbea9f892	-0.33197457
143	0xbd1f7d41	-0.03893781
144	0xbe658145	-0.22412594
145	0xbe87e063	-0.2653838
146	0xbd92d893	-0.071702145
147	0x3e3c216a	0.18372121
148	0xbe985f7c	-0.2976035
149	0xbe975643	-0.29558
150	0xbe7dcfb0	-0.24786258
151	0x3ebb5cee	0.36594337
152	0xbe405e45	-0.18785961
153	0x3e52de90	0.20592713
154	0x3ec672fb	0.38759598
155	0x3edd17b3	0.43182144
156	0xbdc7f8fa	-0.097642854
157	0xbe2204fb	-0.15822212
158	0xbdc61863	-0.0967262
159	0x3eb23412	0.34805351
160	0xbdd64c47	-0.104637675
161	0x3e305a6c	0.17221993
162	0xbe366985	-0.1781369
163	0x3eb0b791	0.3451505
164	0x3e74cc33	0.23906021
165	0xbe49a72e	-0.1969268
166	0x3ed569f5	0.416824
167	0x3eb25abf	0.3483486
168	0x3e9e00ab	0.30859885
169	0xbe17bd72	-0.14818361
170	0xbe4c9b9a	-0.19981232
171	0xbe54801f	-0.20752
172	0x3e1db35f	0.15400456
173	0x3ea51349	0.32241276
174	0xbe1cefaa	-0.153258
175	0x3e208646	0.15676221
176	0xbe7bb46f	-0.24580549
177	0xbe75ed5a	-0.24016324
178	0xbdddfb19	-0.10838909
179	0xbe1b37d5	-0.15158017
180	0x3e4c74d8	0.19966447
181	0x3eb7026a	0.3574403
182	0x3e6e397f	0.2326412
183	0x3dd299c4	0.10283235
184	0xbe120841	-0.14260961
185	0x3ec55679	0.38542536
186	0xbd051bd6	-0.03249725
187	0xbe5036a2	-0.20333341
188	0xbe773e59	-0.24144877
189	0xbe7229ef	-0.23648809
190	0xbe8362cb	-0.2566131
191	0xbe298efd	-0.16558452
192	0xbe83a067	-0.25708315
193	0x3e70b279	0.23505582
194	0xbe0e6d18	-0.13908803
195	0x3e36b38a	0.17841926
196	0x3e3cd248	0.18439591
197	0xbdc3da4c	-0.09563121
198	0x3ebba053	0.36645755
199	0xbe15d6b7	-0.14632688
200	0xbe23543c	-0.15950102
201	0xbe5f840b	-0.21827714
202	0x3e525d17	0.20543323
203	0x3e918c33	0.28427276
204	0xbe6c1d87	-0.23058139
205	0x3ea78943	0.3272191
206	0x3ebaad7b	0.3646048
207	0xbe3e5598	-0.18587339
208	0xbe162bae	-0.146651
209	0x3e4fc533	0.2029007
210	0x3df83688	0.12119776
211	0xbe35dfd7	-0.1776117
212	0xbdc2fa60	-0.095204115
213	0x3e15a802	0.14614871
214	0x3e96f746	0.2948553
215	0xbeb2eef9	-0.34947947
216	0x3eccbb44	0.39986622
217	0xbdda9894	-0.10673633
218	0xbe6df3a8	-0.23237479
219	0xbe681e60	-0.22667837
220	0xbe5031c1	-0.2033148
221	0xbe64937f	-0.2232189
222	0xbe19c9dc	-0.1501841
223	0x3edd7bbc	0.43258464
224	0xbdc6c618	-0.09705752
225	0xbe721b2f	-0.23643182
226	0x3e903474	0.2816502
227	0x3e1f3537	0.15547644
228	0xbe58048c	-0.21095484
229	0x3eb1bce2	0.3471442
230	0x3e206ce2	0.15666535
231	0xbe91255c	-0.28348815
232	0x3e58a0c9	0.21155085
233	0x3e35ba62	0.1774688
234	0xbe7633e3	-0.2404323
235	0x3e2bf980	0.16794395
236	0xbe1379ae	-0.14401886
237	0xbe00242d	-0.125138
238	0xbe8ecf56	-0.2789256
239	0xbe0f2cd5	-0.13981946
240	0x3ed27d5a	0.4111126
241	0xbe84ede9	-0.2596276
242	0xbe2b7421	-0.16743518
243	0xbe33a678	-0.17543972
244	0xbe419c39	-0.1890725
245	0xbe56a789	-0.20962347
246	0xbe1b1df3	-0.15148143
247	0xbe937c7e	-0.28805918
248	0x3ec6e01d	0.3884286
249	0xbe39bb09	-0.18137754
250	0x3ea1bdaf	0.3159003
251	0x3ebb5217	0.36586067
252	0xbdb1de2d	-0.08684955
253	0x3e2168fe	0.15762708
254	0x3e37e363	0.17957835
255	0xbde0b071	-0.109711535

action_model._discrete_distribution.branches.0.bias f4 [2]
0	0x3e424e31	0.1897514
1	0xbe424df9	-0.18975057

49 f4 [4]
0	0x3fb32aa5	1.3997389
1	0x40e4867c	7.1414165
2	0x40459a47	3.0875413
3	0x4058d3af	3.3879201
