Assets/Model/Colab1.onnx (onnx, 72074 bytes, 8 tensors)

network_body.observation_encoder.processors.0.normalizer.running_mean f4 [4]
000000 3c ad e6 40 37 23 06 c0 ab 8c b6 40 be 25 80 40
       7.208647 -2.0958993 5.7046714 4.004607

network_body._body_endoder.seq_layers.0.weight f4 [128, 4]
000000 d7 34 58 3f 77 ba 7a bf a0 fa 00 bf e7 2d 3c bf
       0.8445563 -0.9794077 -0.50382423 -0.7350754
000010 9d 0d 0c 3f d1 3d 02 3e 30 ec 33 3f 5d 86 50 3d
       0.5470827 0.12718894 0.7028227 0.05090939
000020 f7 fa 94 3e be d7 1d 3f 1d 31 0f 3f 01 72 11 be
       0.2909772 0.6165732 0.55934316 -0.14203645
000030 e9 f8 35 3e c6 b9 f9 be 58 6c 2a bf 9a 0f dc 3d
       0.17770733 -0.48774546 -0.6657157 0.10745163
000040 03 f0 0a 3f 94 1d be bd 11 b5 fc 3e b1 dd 04 bf
       0.5427248 -0.09282985 0.49356893 -0.51900774
000050 37 2d 69 3e 02 9e 02 3d 6e a1 f0 bd 3c 5b d9 be
       0.22771154 0.03188897 -0.1174954 -0.4245242
000060 a1 b8 59 3f e3 0f 66 bf 02 5d 62 bf e2 50 0a 3e
       0.85047346 -0.8986799 -0.8842317 0.13507417
000070 fa 00 ed 3e 5c 10 4e bf bf e6 32 be 32 5f 6c 3e
       0.46289808 -0.8049371 -0.17470835 0.23083189
000080 26 08 61 3e dd a9 b5 be 45 e1 cc bd 65 d0 aa 3d
       0.21975765 -0.35481158 -0.10003904 0.08340529
000090 26 2c ed 3e 38 ef bf be d2 d1 e3 3e fe 0f 21 be
       0.46322745 -0.37487197 0.44496018 -0.15728757
0000a0 5f fa eb 3e 75 86 ac 3d b7 cb 00 bf 91 a4 b4 3f
       0.46089455 0.08424083 -0.50310844 1.4112722
0000b0 f9 9b df 3e 6a 2a 49 bc 08 86 00 3f 7f bc 0b 3f
       0.43673685 -0.012278179 0.50204515 0.545845
0000c0 c9 20 c6 be 29 a2 f2 3e ff 16 89 3f ae 13 80 3e
       -0.38696888 0.47389343 1.0710143 0.25015014
0000d0 d8 a6 46 bf c5 30 ad be 48 d4 f4 3e 41 e7 67 bd
       -0.77598333 -0.3382627 0.47818208 -0.056617025
0000e0 30 0a ae 3e 86 5f fd bd 57 c3 2c 3f e8 fc 2f bf
       0.33992147 -0.12371735 0.67485565 -0.6874528
0000f0 b7 47 68 3e d0 3c 8b 3e ba d7 8e 3d ed 83 33 3d
       0.22683607 0.27194834 0.0697474 0.043826986
000100 0b e1 0a 3e 43 9a 57 3d d6 4f f3 be 2d 49 21 3d
       0.1356241 0.05263735 -0.47521847 0.039376426
000110 e9 7f 92 3d 3b 66 08 bf b6 d6 cc 3e f0 bc 10 be
       0.07153303 -0.5328099 0.4000756 -0.14134574
000120 f0 ac 53 be 33 3d 13 3e a7 ab 16 bf 5c d5 48 3d
       -0.20671439 0.14378814 -0.5885567 0.0490316
000130 35 67 18 be c7 52 76 be f2 08 e5 3e a8 e6 5d bc
       -0.1488312 -0.24055015 0.44733387 -0.013543762
000140 19 17 40 3e 49 af 0d 3f bb 3a 75 3e ea 1f 59 bf
       0.18758811 0.5534559 0.23948185 -0.8481432
000150 8a 95 20 be c4 ec d3 bd d8 2c 3b bf 4b c7 6e 3f
       -0.15682045 -0.10347894 -0.731153 0.93272847
000160 5d 07 6f be dd dd 81 be e4 e6 11 be 5e 31 b9 bf
       -0.23342653 -0.2536458 -0.14248234 -1.4468191
000170 29 90 a4 3e 6a f4 4a be 6c 1c 0e be fe 40 54 3d
       0.32141235 -0.19819799 -0.1387803 0.051819794
000180 84 44 c1 3d 23 2f b7 bd 90 d3 8f 3e c3 db 44 bd
       0.094368964 -0.089445375 0.28091097 -0.048061144
000190 6c 57 3f 3f 12 5a 4a bf 6b 33 52 3e a7 c6 25 bf
       0.7474277 -0.79043686 0.20527427 -0.64756244
0001a0 d7 61 54 3e a5 3f 3a 3c 8d 05 3c 3f 88 cb 28 3f
       0.20740448 0.011367713 0.7344597 0.65935564
0001b0 24 bb bd bd 42 32 a7 3e f3 92 7c bd 1d 1e c3 bd
       -0.0926421 0.3265553 -0.06166358 -0.09527228
0001c0 5f 88 f5 bd c6 9a b3 3d 8d 4f 99 be f1 c0 48 bf
       -0.11988901 0.08769755 -0.29943505 -0.78419405
0001d0 fe 62 af 3b ba d1 0a bf 49 f6 d0 be c9 55 be bc
       0.005352377 -0.5422627 -0.408129 -0.023234265
0001e0 cf 5d cf bf 63 c5 98 3e 1c 6a a4 be c5 63 00 bf
       -1.6200503 0.29838094 -0.32112205 -0.50152236
0001f0 2a be 46 3f 24 68 2b 3f cf ae 83 bc 47 38 e8 be
       0.7763392 0.6695578 -0.016074566 -0.45355436
000200 eb a5 20 bf 11 a5 da 3c 56 11 14 3f c1 90 a3 3e
       -0.6275317 0.026690038 0.5783895 0.31946376
000210 6d 72 05 bf d1 88 1d bf 71 af 5f bd 9e a4 1c bf
       -0.52127725 -0.6153689 -0.054610673 -0.61188686
000220 77 69 93 bd c5 16 ab 3e 65 df ea be 3a 51 12 3f
       -0.0719785 0.3341581 -0.45873562 0.5715519
000230 d9 7e 2b bf a6 c4 13 be 57 a4 06 3e 64 95 8f 3c
       -0.6699043 -0.14430484 0.13148628 0.01752729
000240 b9 36 f7 3e c4 dd fc be 5f 2d ff be 72 52 4b bf
       0.48283938 -0.49387944 -0.49839303 -0.79422677
000250 9c 19 77 be ae 8e 04 bf 50 45 52 bf 9c 78 1f bf
       -0.24130863 -0.5178021 -0.8213701 -0.6229341
000260 73 9d cc 3e 04 2c be 3e 78 00 6e 3d a6 a2 5b be
       0.39963874 0.37142956 0.058105916 -0.21448764
000270 a3 e1 61 bf 4c 7e b1 bd 0b a0 18 bf 2b 6f 92 be
       -0.8823492 -0.08666667 -0.59619206 -0.2860044
000280 b0 31 fa bd ec 72 a8 bf 9b b4 15 3f 58 66 0b bf
       -0.122165084 -1.3160071 0.5847871 -0.5445304
000290 83 75 c9 3e 57 9b e2 be 33 dd 00 be ef 40 40 3e
       0.39347467 -0.4425914 -0.12584381 0.1877477
0002a0 22 b0 2c 3f 98 8a 9b be b3 61 20 3e 83 d8 e2 bd
       0.6745626 -0.30379176 0.1566227 -0.110764526
0002b0 31 3a 2d 3d 1e be f6 3e 19 7a 0d 3e 74 11 1a 3e
       0.042291824 0.48191923 0.13816108 0.1504572
0002c0 b9 06 b8 bd 8b ef 50 be b5 ec 2b bf c6 4e de be
       -0.08985657 -0.20403878 -0.6715806 -0.43419474
0002d0 d1 20 35 be c4 1a c0 bd 63 7c d4 be e2 8b bc 3e
       -0.176883 -0.09380105 -0.4150115 0.36825472
0002e0 df 82 4e be 11 23 86 3e f1 bc f0 be 60 98 03 3f
       -0.20167111 0.2619863 -0.4701915 0.5140438
0002f0 cb 46 8d 3e 9e f2 dc be 14 5f ec be de 2e a2 be
       0.27593073 -0.43153852 -0.4616629 -0.31676382
000300 3a 9f 7b be 6d 68 fc 3e 37 4a 37 bd b2 fe 8e bd
       -0.24572459 0.4929842 -0.04474851 -0.06982173
000310 ce de c2 be 5a 7f b5 3e c6 42 d8 3a 84 52 6c 3e
       -0.3806061 0.35448724 0.0016499392 0.23078352
000320 23 b5 5e 3f ba 27 0c bf ba f9 03 3f 74 f5 c1 bc
       0.8699514 -0.5474812 0.5155293 -0.023676611
000330 4f cb 60 3e c9 ea 54 3d c0 d8 3d 3e 9c 16 13 3f
       0.21952556 0.05198172 0.18539715 0.57456374
000340 2f 4a ce 3d 44 9a 41 be 9f 8c 33 3f 93 33 4f be
       0.10072743 -0.18906504 0.70136446 -0.20234518
000350 74 ee da bd 03 a8 a2 bd da 6e 4e 3f 7e 0b 70 bf
       -0.106900126 -0.07942202 0.80637896 -0.93767536
000360 46 31 2d bd 0b e7 ad be c1 8b af be 86 01 44 3e
       -0.04228332 -0.33965334 -0.3428631 0.19141206
000370 ae 2f 11 3f 82 b3 0b 3f 07 44 2d bf 59 d0 c3 be
       0.5671338 0.5457078 -0.67681926 -0.38244894
000380 15 27 04 3f fc b4 64 3f 06 3d 6f bf 93 62 8e bf
       0.51622134 0.8933866 -0.9345249 -1.1123832
000390 39 1c b3 bf 36 19 0c bf b6 25 e1 be 6b ae aa bc
       -1.3992988 -0.5472597 -0.43974084 -0.020835122
0003a0 34 a4 48 3c 61 05 0e 3f 2c 54 1c bf a8 cf b0 bd
       0.01224618 0.5547696 -0.61065936 -0.08633357
0003b0 11 6d b8 3f 0b 3e 3c 3f cf b1 46 be 55 75 15 bf
       1.4408284 0.7353217 -0.19403766 -0.5838216
0003c0 bf 76 1a 3e 0c fc bf 3e 18 38 b9 be 89 ad 41 be
       0.1508436 0.37496984 -0.3617561 -0.18913855
0003d0 c6 e5 27 be 34 24 b3 3d 26 1d d8 3e 84 ce 88 3e
       -0.16396245 0.087471396 0.42209738 0.2672006
0003e0 4c b1 b0 be 8c 84 5b bf 84 eb 89 3f 22 d0 11 3e
       -0.34510267 -0.85749125 1.0774999 0.14239553
0003f0 98 69 60 3f e8 22 43 3d a1 a3 0a bf 9f de 9c 3e
       0.87661123 0.04764071 -0.5415593 0.30638596

network_body._body_endoder.seq_layers.0.bias f4 [128]
000000 26 3f 4d 3e 3d 19 5f 3d 32 20 58 3e ac 14 2a 3e
       0.2004362 0.05446743 0.21106032 0.16609448
000010 92 2b 12 3d c9 fc f6 3d 52 ba a2 3e e9 a9 6f 3e
       0.035686083 0.12059934 0.31782776 0.2340466
000020 66 6a 84 3e d9 b1 4c 3e 18 86 6a be 24 cb 9c 3e
       0.25862426 0.19989718 -0.22902715 0.30623734
000030 e6 87 ca 3d 96 bd e1 bd d6 42 e3 3d 71 b9 5c be
       0.09889202 -0.11022489 0.11096732 -0.21555115
000040 62 f4 84 be d9 fa 9e bd 1c 20 81 3e 6a 22 1d 3a
       -0.259677 -0.07762689 0.2521981 0.0005994203
000050 ca ca c9 3d ab 12 87 3e ef 5c 87 3c f2 a9 92 3e
       0.09853132 0.2638143 0.016523806 0.28645283
000060 ff 0a 98 bd 41 34 db 3d 34 fc c9 3e dd d6 26 3e
       -0.07423972 0.10703326 0.39450228 0.16292901
000070 3f 83 2b be 7c 37 75 3e 84 76 39 bb 47 f1 0e be
       -0.16749285 0.23946947 -0.00282994 -0.13959228
000080 b1 22 93 bc e2 8c 66 bc b4 fe 4f 3e cc 08 15 3d
       -0.017960878 -0.014071675 0.20312005 0.036385342
000090 b4 84 af 3c f3 32 fa 3d bc ba 2c 3e a8 07 30 3e
       0.021425582 0.12216749 0.16868109 0.1719042
0000a0 82 0e b7 3d b6 d4 67 be 03 73 58 3e c9 26 55 3e
       0.08938314 -0.22639737 0.21137623 0.20815577
0000b0 3e d6 24 3e c6 bd 58 3e 05 22 b1 3d a9 b5 60 3e
       0.16097352 0.21166143 0.08649067 0.21944298
0000c0 4e c9 53 3e 29 19 02 bc 01 4e 1e 3e ab af a3 3e
       0.2068226 -0.007940569 0.15459444 0.31969962
0000d0 48 ab 0c bd 58 9a 8b 3c 11 90 24 3e 48 38 a2 be
       -0.034343034 0.01704137 0.16070582 -0.31683564
0000e0 a4 ca 41 be bc 2b 53 3d 6e d8 b9 be cd d8 0c be
       -0.18924958 0.05155538 -0.36297935 -0.13754578
0000f0 d4 b5 97 be be 25 8b 3d 14 1a 4d 3d bf 84 be be
       -0.2963091 0.06794308 0.0500737 -0.37210652
000100 62 8e 6f 3d 4a 7c 91 be 30 84 a9 3c 87 04 6c bd
       0.058485396 -0.28415138 0.020692915 -0.057621505
000110 c1 2a 0f 3e 75 31 04 3e c5 64 04 3c 07 01 ae 3e
       0.13981153 0.12909491 0.008080666 0.3398516
000120 4f 34 41 3e 39 87 03 3e 1e 80 37 3e 65 ee 0b be
       0.1886761 0.12844552 0.17919967 -0.13665159
000130 ff d7 b1 be 1e 8a 8d be 1f a5 4c 3e 41 0f 80 3e
       -0.34735104 -0.27644438 0.19984864 0.25011638
000140 b6 34 86 be 27 78 cf bc 3c d2 0a 3d cf dc 8e be
       -0.2621209 -0.025325848 0.0338919 -0.2790284
000150 3d 26 ed 3b bf ed 7a 3d cb 65 9e be 1e b8 f2 3d
       0.0072372244 0.06126189 -0.30937037 0.11851524
000160 40 12 da bc 17 52 70 3e d4 33 3b 3d 36 d4 ae 3d
       -0.02662003 0.23468815 0.045703724 0.0853657
000170 27 f6 4d 3e 11 dc 61 3e 0e 87 81 3e f8 6f 91 3e
       0.20113431 0.22056605 0.2529835 0.28405738
000180 9c cf 21 3e 09 dd a4 3e 4d ae 84 be 41 1e 06 3e
       0.15801853 0.32199886 -0.2591423 0.13097478
000190 cf f4 9b 3d aa bc 52 3e 39 bc 3a 3e f9 be 8a be
       0.07615053 0.20579782 0.18235864 -0.27098826
0001a0 de 46 b4 be 4d 1a 9d 3e e8 d6 66 3e 3f 02 b6 bd
       -0.35210317 0.30684128 0.22542918 -0.08887147
0001b0 bd f7 2a bc 36 8a 8d 3e 70 fe 54 3e 8f 13 52 be
       -0.010435042 0.2764451 0.20800185 -0.20515274
0001c0 33 01 33 be 7f 6a 4e 3e 57 8d 4b be fe c4 bf be
       -0.17480926 0.20157813 -0.19878136 -0.3745498
0001d0 18 f5 34 3e 39 c5 8e 3c 98 4c 90 be 4d 7f 10 3b
       0.17671621 0.017428027 -0.28183436 0.0022048533
0001e0 6f 39 a9 be 4b 89 7a 3e 3d 43 53 be 2b 62 76 be
       -0.3305163 0.24466436 -0.20631118 -0.24060886
0001f0 af 69 32 be 2a 98 2e be aa 04 47 3e 7c 6b 7c be
       -0.17423128 -0.17050233 0.19435373 -0.24650377

network_body._body_endoder.seq_layers.2.weight f4 [128, 128]
000000 23 db 21 3d e2 f9 84 3d 2d b0 4a bd 94 0d 06 be
       0.039515626 0.06492974 -0.04948442 -0.13091117
000010 a1 4e 46 bd 67 fa 32 bd 4d 65 5f bd 71 ba 1d 3e
       -0.04841483 -0.043695834 -0.054539967 0.15403153
000020 c1 5d cb 3d 60 85 cd bb 6c dc f4 3d 9b e2 0a 3e
       0.099299915 -0.006272003 0.11956105 0.13563006
000030 35 5d 93 3d bc 14 f0 3d df 9e bb 3c 44 30 f4 3d
       0.07195512 0.11722705 0.022902904 0.119232684
000040 23 97 1e 3d fc 5e 37 3e ef e3 a8 bd d0 a2 a7 3d
       0.038718354 0.17907327 -0.082466 0.08185351
000050 37 b7 cd bc 20 ef 5d 3d 39 75 02 3e b2 a2 bf bc
       -0.025111778 0.054183125 0.1274003 -0.023393009
000060 00 0a 4c 3d f3 8c fe 3d 43 65 fe 3d 2d 4d 6e bb
       0.049814224 0.12429228 0.12421658 -0.0036361918
000070 ae d9 c4 bb 91 6f 0b be 62 19 40 bd 48 fd 13 be
       -0.0060073948 -0.13616778 -0.046899207 -0.14452088
000080 7d f0 8b 3e 0a ea 99 bd c4 4d e0 bd 68 5a 39 3d
       0.27331915 -0.075153425 -0.109523326 0.045252234
000090 90 a1 4b 3d 13 d2 c7 bb eb 6b 85 ba 31 57 46 be
       0.049714625 -0.006098041 -0.0010179257 -0.19369198
0000a0 e8 f8 a0 bd 67 c2 2a 3e 97 14 2a bd ea 74 0a 3d
       -0.07859975 0.16675721 -0.041523542 0.033802904
0000b0 7d 06 94 bc 4b 49 1e 3d 72 61 db bc da 5c 9c bd
       -0.0180695 0.038644116 -0.026779864 -0.076348975
0000c0 57 ff 30 be 47 d8 89 3c f2 96 c1 bd a4 41 0a bd
       -0.17284904 0.016826762 -0.09452619 -0.033754006
0000d0 10 e3 73 3e f0 1a 70 3d 47 1d 8f 3d a7 bb 78 bd
       0.23817086 0.05861944 0.06988006 -0.060725834
0000e0 ed 73 be 3d 48 32 09 3e d8 ad 36 3d 8f 8f 73 3c
       0.09299455 0.13398087 0.044599384 0.01486577
0000f0 58 b4 75 bd bc 6f 79 3d 72 fa d3 3d 71 05 2e bd
       -0.059986442 0.060897574 0.10350503 -0.042485658
000100 c2 df 1d 3e fd 67 08 3d 5c b6 0b 3e cd 55 59 3d
       0.15417388 0.033302296 0.13643783 0.05306034
000110 bf 75 38 3e e7 9f ee 3d 1e 36 6a 3e 2f fa 4a bd
       0.18013667 0.11651593 0.22872207 -0.049555
000120 42 88 38 bc 69 2f 3d 3e d6 f0 b6 3c f4 01 80 3e
       -0.011262955 0.18475117 0.022331636 0.2500149
000130 31 5d ea 3c 31 e4 1d be 4b 5c 0a bb f8 17 11 3e
       0.02860889 -0.1541908 -0.002111214 0.141693
000140 42 c9 1a 3d 41 b9 69 bb 68 e1 98 3d 20 77 44 3b
       0.03778959 -0.0035663398 0.07464868 0.002997823
000150 8a 5f 06 3d 70 c2 d5 3d 4f 08 12 bd 9a 16 b4 3d
       0.032805957 0.10437477 -0.035652455 0.087933734
000160 7b e4 03 be d9 12 d6 bc 14 fd 30 3e 0f 4f 3e 3d
       -0.12880127 -0.026132034 0.17284042 0.046462115
000170 eb b2 5d 3c b6 e3 33 be c9 f5 34 be 14 bd a9 be
       0.013531427 -0.17567334 -0.17671885 -0.33152068
000180 fc 6b 89 3d b8 cd f4 bc d3 18 a2 bd 4a 76 4c 3e
       0.067100495 -0.02988325 -0.07914891 0.19966999
000190 30 72 57 3d 05 52 4a 3c 4c b6 76 3d 5d c2 eb 3d
       0.052599132 0.012348657 0.060232446 0.11511681
0001a0 db 0b 50 3d a5 3b 8d be 03 b2 3f be 6e 84 9b bb
       0.050792556 -0.27584568 -0.1872025 -0.0047460115
0001b0 d6 6d 8b 3e 26 9e 94 3d e8 6d 82 bd a1 a0 30 3c
       0.27232236 0.07256727 -0.06368619 0.010780484
0001c0 b4 53 6d 3c b1 96 f1 3d a2 a5 46 bc e0 e4 1f bd
       0.014485288 0.1179632 -0.012124451 -0.03903663
0001d0 b8 8a 3e bd 44 ac a4 3d 7b d9 6a bd 71 a5 1f bc
       -0.04651901 0.080406696 -0.05733631 -0.009744034
0001e0 82 df 0b 3e 49 f1 f2 3d 66 c6 2e 3e a7 fa 3c bd
       0.1365948 0.11862428 0.1706787 -0.04613748
0001f0 f5 8c 36 3e 69 b8 8e 3d 22 5c 7a 3d 48 8f 86 3e
       0.17827208 0.06968767 0.06112302 0.2628119
000200 a7 25 03 3e 4c f8 ad 3c c8 ad 2c be 1f d2 2e 3d
       0.12807332 0.021236561 -0.16863167 0.042680856
000210 99 5d 23 bd 1b c2 0f 3d e5 87 97 3e b3 1e a5 bd
       -0.039884184 0.035097223 0.29595867 -0.08062496
000220 62 1a 0f 3e cd e5 b4 bd 97 6a c8 bd 11 c2 0a 3d
       0.13974908 -0.088328935 -0.097859554 0.033876482
000230 83 e9 01 3d ac 6c 95 bd 66 7f 8b bc 98 e2 91 bb
       0.031716835 -0.07296118 -0.017028522 -0.004452061
000240 df ac 36 be 4f 3a 3f bd e1 f8 78 3d b7 1a 7e bd
       -0.17839383 -0.046686467 0.060784224 -0.062037196
000250 61 e6 ec 3c 87 4c 20 3e 4d f3 a3 bb 9e 4e 35 3e
       0.028918447 0.15654193 -0.005003369 0.17705771
000260 32 cf 33 3e ff 7b ce bd a5 11 2c be 32 9a 35 3d
       0.17559507 -0.10082244 -0.16803606 0.044336505
000270 98 95 02 3e ea 5e af 39 57 36 31 3b 48 73 3a 3a
       0.12752378 0.00033449318 0.0027040446 0.0007112515
000280 4b 09 95 be 1e 28 a9 bc c4 ce 3d 3b b3 db 07 be
       -0.29108652 -0.020649012 0.0028962353 -0.13267402
000290 ff c2 ca 3d 25 07 5f 3e 4f 8d 87 bd 32 b8 57 3d
       0.09900474 0.21780069 -0.06618749 0.052665897
0002a0 a4 5a ec bb 5a 27 2a be 95 11 8f 3c 57 d6 03 3e
       -0.0072129536 -0.16616574 0.017464438 0.12874733
0002b0 d5 ca 03 3e 84 1f 20 3e b9 d4 b1 bd 55 91 44 3e
       0.12870343 0.15637022 -0.08683152 0.19196065
0002c0 a8 d8 24 3e 1c cb 97 3d e4 be e0 bc d9 bb d8 3c
       0.16098273 0.07411787 -0.027434774 0.02645676
0002d0 a7 72 0e be d1 d5 b2 bc bd 0f d3 3d 59 c9 b0 bd
       -0.13910924 -0.021830471 0.10305736 -0.08632154
0002e0 4f e7 ac bd c3 68 7c bb fa 78 d8 3c 90 f3 69 bd
       -0.08442556 -0.0038514591 0.026424874 -0.057117045
0002f0 7c 2d 67 bd f4 be 1a 3e 47 ba 8e bc d6 6c 40 3b
       -0.05643986 0.15111905 -0.017422808 0.0029361746
000300 3f d5 10 3d 76 46 3b 3b a4 b3 8a bd d4 b1 a7 bd
       0.035359617 0.0028575934 -0.06772545 -0.08188215
000310 ea 25 dd bc df 73 2e 3e a4 fc 5f bd 49 0f 68 3e
       -0.026995618 0.17036389 -0.054684296 0.22662081
000320 f5 69 94 b9 2f ab e6 bd 9e 94 2f 3e ba cc f9 bd
       -0.00028307704 -0.112631194 0.17146537 -0.121972516
000330 5d 98 14 be f6 0d 5a bd d1 54 f3 bc 01 f8 6a 3d
       -0.14511247 -0.05323597 -0.02970353 0.05736542
000340 27 5a 52 3d 9f 30 42 3c 61 71 94 bd 68 d8 b9 bd
       0.051355507 0.0118524125 -0.07248188 -0.09074479
000350 d2 bc e5 ba a5 d8 5b 3d 46 38 d0 3d ac fa 26 3e
       -0.0017527586 0.053673405 0.10166983 0.16306561
000360 38 c1 b8 3d e0 e8 4d 3e a6 24 40 be eb b3 95 bd
       0.090212286 0.20108366 -0.1876398 -0.07309707
000370 3f 07 e2 3c 32 21 d7 3d fd 59 83 3e 97 c7 c5 3e
       0.027591346 0.105043784 0.25654593 0.38628837
000380 6c 3a 35 3d 23 af e5 3c a1 9d bf bd 35 5e 6d bd
       0.04424517 0.028037613 -0.09356237 -0.05795117
000390 47 f2 38 bd 3f 68 10 3e f6 19 ba 3c de 9b 58 be
       -0.04515293 0.14102267 0.022717457 -0.21153209
0003a0 52 5f 4c be e9 89 76 3e 2d ee e9 3d aa d4 f6 bd
       -0.19958237 0.24076046 0.114223816 -0.12052281
0003b0 cd 82 52 be 9e cb a8 bd ba 36 66 3e eb 27 e9 bc
       -0.20557709 -0.08241962 0.22481814 -0.028461417
0003c0 f7 a4 10 bd fd b2 d9 3d d6 32 18 be c3 14 d7 bc
       -0.035313573 0.106298424 -0.14863142 -0.026255017
0003d0 cc 34 06 3e 4e b6 71 bd 2f 1c b0 bd 33 e2 52 bd
       0.13106078 -0.05901175 -0.085991256 -0.05148525
0003e0 c0 ae 93 bd 4f 5c 95 bc aa 3d 2f be 69 4e 66 bc
       -0.07211065 -0.018232493 -0.17113367 -0.01405678
0003f0 e1 7d 42 bd 63 36 13 be f7 b3 07 bd 8a 38 45 be
       -0.04748333 -0.14376216 -0.033130612 -0.19259849

network_body._body_endoder.seq_layers.2.bias f4 [128]
000000 c1 50 02 be 87 22 80 3e 5d d0 bb bd 97 80 52 3e
       -0.12726118 0.25026342 -0.091706015 0.20556866
000010 d6 aa 5f 3e d3 03 65 3e e3 90 58 3e 25 0f 68 3e
       0.21842512 0.2236474 0.2114902 0.22662027
000020 98 12 68 3e c9 ad 72 3e 45 91 55 3e 37 f4 cb bd
       0.22663343 0.23699106 0.20856197 -0.0995869
000030 cb d8 02 be 25 0c ce bd cd e2 85 3e 18 d3 52 3e
       -0.12778012 -0.1006091 0.26149598 0.20588338
000040 a8 bf 87 3e b2 73 71 3e f1 0f 33 3e 46 15 1a be
       0.2651341 0.2357929 0.1748655 -0.15047178
000050 fe 83 6e 3e 08 09 81 3e f4 7d 74 3e 45 12 d7 bd
       0.23292539 0.25202203 0.23876172 -0.105015315
000060 90 6c 8b 3e 34 e2 20 be 3c 07 68 bd b7 e8 2f bd
       0.27231264 -0.1571129 -0.056647524 -0.042946544
000070 b1 a8 45 3e e0 0c 48 3e 85 8e 3d 3e 95 7b d3 bd
       0.19302632 0.19536161 0.18511398 -0.10326306
000080 7e 0d 26 3e 91 4a 0e be f6 ca 6a 3e a0 12 95 bd
       0.16216084 -0.13895632 0.22928986 -0.07278943
000090 57 3e 34 be 79 52 83 3e aa 84 94 bd 73 fc dc bd
       -0.17601906 0.2564886 -0.07251866 -0.10790338
0000a0 f5 76 d8 bd 22 2d 43 3e c9 09 7f 3e 0a d8 5f 3e
       -0.10569564 0.19060186 0.24906076 0.21859756
0000b0 be 38 21 be 12 ae d7 bd 5a c5 69 3e f1 e1 27 be
       -0.15744302 -0.10531248 0.2282919 -0.16394784
0000c0 29 ae 85 3e b0 d4 80 3e e9 24 0e 3e 31 a1 45 3e
       0.26109436 0.25162268 0.13881268 0.19299771
0000d0 47 a1 27 be 53 53 c0 bd d4 03 0e be d2 0f a0 bc
       -0.16370116 -0.09390893 -0.13868648 -0.019538794
0000e0 5e 80 5e 3e 1c 28 d3 bd 9a 65 82 3d d2 e3 81 3e
       0.21728656 -0.10310385 0.06367035 0.25369126
0000f0 3d c7 60 3e 35 29 7a 3e b5 37 5d 3e 83 9a 58 3e
       0.21951003 0.24429782 0.21603282 0.21152692
000100 99 15 75 3e 3c 7e 07 be 6b 05 60 3e fa e2 0d be
       0.2393402 -0.13231748 0.21877067 -0.13856116
000110 37 d5 4a be 61 70 3c 3e 5b 7a 7d bd 7d 51 43 3e
       -0.19807898 0.18402244 -0.061884265 0.19074054
000120 83 0d 42 3e 64 49 8a 3e fb 16 21 be 3b da 12 be
       0.18950467 0.27009118 -0.15731423 -0.14341061
000130 f3 fd 7a 3e b1 5c 85 bd 04 f1 ac bd d1 22 73 3e
       0.24510936 -0.0651182 -0.084444076 0.2374375
000140 e1 60 6d 3e 10 08 08 be f0 1e fa bd 04 c4 78 3e
       0.23181488 -0.13284326 -0.12212932 0.24293524
000150 0d 07 7b 3e e3 f9 d6 bd c0 34 bc bd b5 0a 80 3e
       0.24514408 -0.10496881 -0.09189749 0.2500817
000160 b9 72 a8 bd db 10 0f 3e a8 dd 78 3e 24 cb 67 3e
       -0.082250066 0.13971274 0.24303305 0.22636086
000170 0d 10 5d 3e c4 1e 2c 3e b2 31 4f 3e 18 ad 65 bd
       0.21588154 0.16808611 0.20233801 -0.05607328
000180 1d 0a 34 3e 74 c4 38 3e 13 5e a3 bd e0 fb 03 be
       0.17581983 0.18043691 -0.079769276 -0.12889051
000190 1a 16 7c 3e 47 79 ca bd fd 17 1c be 08 03 7a 3e
       0.24617806 -0.09886413 -0.15243526 0.24415219
0001a0 c0 86 05 be c0 93 06 be f1 3f 6a 3e f5 00 02 be
       -0.13039684 -0.131423 0.22875954 -0.12695678
0001b0 ff 43 82 3e 8e 2c 55 3e 8e e3 82 3e 2d 1e 3d 3e
       0.25442502 0.20817778 0.25564235 0.18468542
0001c0 81 f1 75 bd 79 09 5d 3e 28 26 63 3e ce 21 56 3e
       -0.06004477 0.21585645 0.22182524 0.20911333
0001d0 4a c3 55 3e 9a 12 81 3e c4 91 58 3e d7 8a 64 3e
       0.20875278 0.25209504 0.21149355 0.22318588
0001e0 22 e3 9f bd f2 cc 85 3e 1f 1c b6 bd 22 9b 8f bd
       -0.07806994 0.26132923 -0.088920824 -0.07012011
0001f0 63 7a 5f 3e 2a 0b 17 be 26 b6 23 be c1 ab 35 3e
       0.2182403 -0.14750353 -0.15987453 0.177413

action_model._discrete_distribution.branches.0.weight f4 [2, 128]
000000 16 25 04 be b5 17 32 3e b9 5c a2 be d2 16 e8 3d
       -0.12904772 0.17391856 -0.31711367 0.11332478
000010 25 a8 7f 3d c1 00 09 3e 01 be a5 3d 5c 41 6a 3e
       0.062416214 0.13379194 0.08092881 0.22876495
000020 9a 78 53 3e 43 4a 47 3e f0 cb 02 3e 36 1f 21 be
       0.20651475 0.19461922 0.12773108 -0.15734562
000030 96 ac 41 be 6a d6 8b be c8 49 8d 3e 93 f5 3a 3d
       -0.18913493 -0.27312022 0.27595353 0.045644354
000040 82 87 52 3e 98 0a 76 3e d4 cf 97 3d 51 66 29 be
       0.20559505 0.24027479 0.07412687 -0.16542937
000050 21 50 7f 3e 1a 7f 62 3e 19 45 67 3e 1d 3c b0 be
       0.2493291 0.22118798 0.22584952 -0.34420863
000060 7b e0 15 3e 03 ef 5a be 2c 52 b2 be 70 bf c9 be
       0.14636414 -0.21380238 -0.34828317 -0.39403868
000070 b5 ca a0 3d f4 6f f2 3d b2 e9 9f 3d 9c fe 9c be
       0.07851163 0.118377596 0.07808246 -0.30663002
000080 b2 ec 94 3d 61 f7 18 be 2e 81 24 3e f9 8d a7 be
       0.072717085 -0.14938118 0.16064903 -0.32725504
000090 74 b9 2f be 63 82 33 3e 47 09 c4 be c0 1a a2 be
       -0.17160589 0.17530207 -0.38288328 -0.31661034
0000a0 e0 24 96 be 45 01 e3 3d 2c 3e 49 3e d7 0a 06 3e
       -0.29325008 0.110842265 0.19652623 0.13090073
0000b0 fa 87 28 be 08 fd 9c be e9 b8 28 3e de 42 1f be
       -0.16458121 -0.30661798 0.16476788 -0.15552852
0000c0 df 1e 3e 3e db 1d 49 3e cb 13 38 3c de bd 0b 3e
       0.18566464 0.19640295 0.011235188 0.13646647
0000d0 e0 ec 35 be 49 15 ab be a1 00 65 be 83 a1 9a bd
       -0.17766142 -0.33414677 -0.22363521 -0.07550337
0000e0 f3 59 14 3e d8 b8 b0 be b2 c0 54 bb 36 c9 35 3e
       0.14487438 -0.34516025 -0.0032463488 0.17752537
0000f0 f1 1a 67 3e 7f 61 5d 3e 9e 19 55 3e 48 10 04 3e
       0.22568871 0.21619223 0.20810553 0.12896836
000100 7a ef 70 3e fb 21 4d be c4 ad d5 3d 1b 9a 2d be
       0.23528853 -0.20032494 0.10433534 -0.16953318
000110 34 e0 1d be a9 9a ad 3d 5c a8 a7 be 43 b7 f3 3d
       -0.15417558 0.08476765 -0.32745636 0.11900189
000120 32 fc fa 3d c3 8e 50 3e 24 e4 38 be 67 ff 7d be
       0.12255134 0.2036696 -0.18055779 -0.2480446
000130 7b 94 42 3e ca 75 a1 be fb 2d ad be 96 11 3f 3e
       0.19001953 -0.31535178 -0.33824143 0.18659052
000140 d5 b1 07 3e c1 01 37 be c7 57 c0 bd b5 e9 13 3e
       0.13251431 -0.17871763 -0.09391742 0.14444621
000150 54 91 be 3d 23 6e f2 bd 0a 3a 86 be 0b ee 8c 3e
       0.09305063 -0.11837413 -0.26216155 0.27525362
000160 84 cc b5 be a0 5f c0 3d bc 63 62 3e f5 7b 51 3e
       -0.35507596 0.09393239 0.22108358 0.20457442
000170 8a 4d ff 3d e7 c5 f0 3d 44 3c f6 3d 96 51 cb be
       0.12465961 0.11756497 0.120232135 -0.39710683
000180 38 2a b0 3d 57 4d 52 3e 7d 27 91 be cc 07 09 be
       0.086018026 0.20537315 -0.2835044 -0.1338188
000190 94 e7 3f 3e 21 94 9b be 1d 67 f5 bd 86 06 85 3e
       0.18740684 -0.3038645 -0.11982558 0.2598154
0001a0 4c d6 47 be bb 17 36 be c4 77 3e 3e 4d 9e 15 be
       -0.19515342 -0.1778249 0.18600374 -0.14611168
0001b0 24 76 f0 3d 76 d5 cd 3d a0 36 6d 3e 18 48 e4 3d
       0.117412835 0.1005048 0.23165369 0.11146563
0001c0 98 8f c3 be 78 35 6b 3e c5 02 16 3e 52 93 18 3e
       -0.3819549 0.22969615 0.14649494 0.14899948
0001d0 93 4a 1d 3e 21 89 37 3e cb 78 02 3e ef 93 52 3e
       0.15360479 0.17923404 0.12741391 0.20564245
0001e0 5e 84 b3 be 36 81 21 3e 99 3f 8f be 08 96 a5 be
       -0.35061926 0.15771946 -0.2797821 -0.32341027
0001f0 3f c4 db 3d 6b 15 08 be 24 51 1d be 1d 4f e6 3d
       0.1073079 -0.1328942 -0.15362984 0.112455584
000200 d6 d5 1a 3e aa 23 39 be 24 41 a3 3e 08 dd e5 bd
       0.15120634 -0.18080011 0.31885636 -0.11223799
000210 51 82 9d bd 5e 4b 03 be 2e b4 b9 bd 3d 88 71 be
       -0.076908715 -0.12821719 -0.0906757 -0.23587127
000220 37 cf 53 be a3 c8 4b be 72 49 fd bd 6c cc 0d 3e
       -0.20684515 -0.19900756 -0.12367524 0.13847512
000230 fb e7 41 3e fb a3 89 3e 8f 06 99 be 52 ed ef bc
       0.1893615 0.2688292 -0.29887816 -0.029287968
000240 87 42 5b be 61 f0 56 be 3d 9c 84 bd d4 ff 2b 3e
       -0.21412097 -0.20990135 -0.064751126 0.1679681
000250 1a 41 7e be cd 40 73 be 4f 20 66 be 07 df ab 3e
       -0.24829522 -0.23755188 -0.22473262 0.33568594
000260 00 6e 17 be 1f f4 4e 3e 90 99 b7 3e 41 6e cc 3e
       -0.14788055 0.20210312 0.35859346 0.39927867
000270 5c 17 95 bd 08 6c 0c be 18 7e 88 bd 9e 55 a5 3e
       -0.07279846 -0.13713086 -0.066646755 0.32291883
000280 ee 5b 9c bd ca 18 1e 3e 12 46 20 be 07 b0 a4 3e
       -0.07634722 0.15439144 -0.1565173 0.32165548
000290 e2 63 20 3e 91 67 39 be f6 d2 c3 3e db 32 a4 3e
       0.15663102 -0.18105914 0.38246888 0.3207005
0002a0 eb d6 8f 3e 41 68 c5 bd c9 37 48 be 6c 24 20 be
       0.28093657 -0.096390255 -0.1955253 -0.15638894
0002b0 74 eb 0e 3e ba e5 95 3e 44 9c 1c be 4e d8 10 3e
       0.13957006 0.2927683 -0.15293986 0.14145014
0002c0 50 fa 43 be 42 be 45 be b1 65 fc bc 15 e4 07 be
       -0.19138455 -0.19310859 -0.030810209 -0.132706
0002d0 15 f4 34 3e cf c9 a5 3e 34 26 61 3e cb d8 96 3d
       0.17671235 0.3238053 0.2198723 0.07365569
0002e0 e2 44 0f be 0b f7 b6 3e b8 56 31 bb d9 71 3e be
       -0.1399112 0.35735354 -0.0027059745 -0.18598117
0002f0 c1 78 4b be 68 c0 4f be af 9a 5e be 31 03 0c be
       -0.19870283 -0.20288241 -0.21738695 -0.13673092
000300 fc ad 5b be 9b 0b 57 3e 8f c6 c7 bd fc 25 2a 3e
       -0.21453089 0.21000521 -0.09754669 0.16616052
000310 4a 02 1f 3e 95 08 c2 bd cc 96 ac 3e da 1c f4 bd
       0.15528217 -0.09474293 0.337088 -0.119195655
000320 dd 2c ff bd e4 0f 4b be e9 76 31 3e 00 31 82 3e
       -0.12459729 -0.1983028 0.17330517 0.2542801
000330 60 44 39 be a9 ca 9a 3e 38 38 ab 3e 57 ef 2d be
       -0.18092489 0.30232742 0.3344133 -0.16985832
000340 33 c9 12 be 08 3c 39 3e ef 96 d4 3d 65 73 16 be
       -0.14334564 0.18089306 0.10380351 -0.14692457
000350 f3 2f 9d bd 9c e3 f5 3d be 51 89 3e d8 14 93 be
       -0.07675161 0.12006304 0.26820177 -0.2872684
000360 1e 76 bd 3e 91 6c b5 bd d4 37 61 be 0c 01 3f be
       0.3700418 -0.08858598 -0.21993953 -0.18652743
000370 af 7c f5 bd 42 10 fc bd 44 11 02 be 17 77 cf 3e
       -0.11986672 -0.123077884 -0.12701899 0.40520546
000380 6d f9 b2 bd 3e 86 3e be 02 8d 83 3e 7a 09 10 3e
       -0.087389804 -0.18605897 0.25693518 0.14066115
000390 37 60 34 be ad d4 a2 3e 24 0c 0f 3e fb 82 76 be
       -0.17614828 0.31802884 0.13969475 -0.24073403
0003a0 51 97 46 3e bf 03 25 3e 7c 57 3d be 15 9e 1a 3e
       0.1939366 0.1611471 -0.18490404 0.15099366
0003b0 e3 6f f5 bd 86 93 c0 bd 2b 2f 73 be 9a 61 f9 bd
       -0.11984231 -0.09403138 -0.23748462 -0.12176819
0003c0 a1 e9 c0 3e 85 b0 71 be 3e a3 0f be 72 aa 16 be
       0.37678245 -0.23602493 -0.14027116 -0.14713457
0003d0 5f 01 18 be a2 57 40 be 3f eb 0e be 6b 8a 54 be
       -0.14844273 -0.1878343 -0.13956927 -0.20755927
0003e0 fe 3c b8 3e e3 f1 14 be 68 57 96 3e 39 28 ad 3e
       0.35984033 -0.14545397 0.2936356 0.3381975
0003f0 61 7c 9b bd 10 4e 13 3e 12 62 2b 3e 2d b0 c6 bd
       -0.07592083 0.14385247 0.1673663 -0.097015716

action_model._discrete_distribution.branches.0.bias f4 [2]
000000 3a 44 3a 3e 1c 44 3a be
       0.18190089 -0.18190044

49 f4 [4]
000000 1c cb bc 3f 00 75 e6 40 0b e6 53 40 2c b8 5b 40
       1.4749484 7.201782 3.3109157 3.433116
