Assets/Model/FlappyAgent.onnx (onnx, 536293 bytes, 10 tensors)

network_body.observation_encoder.processors.0.normalizer.running_mean f4 [4]
00000000: 4216 3c3f 02f1 8c3d 514c 363f ee93 8a3e
0.7347146 0.06881906 0.712102 0.27065986

network_body._body_endoder.seq_layers.0.weight f4 [256, 4]
00000000: 42c2 9a3e 0446 053f 4ab1 ba3e b4ba 5d3e
00000010: f811 c23d 39fa 27bf 9381 60be 30d2 3d3e
00000020: c413 21bf 30d6 bebe 7f9a 843d 019c 34bf
00000030: 9bc2 583f 10d5 073f dfd1 01bf 82f3 3abe
00000040: 2522 67be 5be7 7cbe 40c3 8c3e 4753 b23e
00000050: e70b e5be 437f 26bf a1bc 063e 13d5 9cbe
00000060: 69cb 14bf 7afd 65be f709 72be 55f4 b53d
00000070: 2815 a03e 0d90 613d 9977 1e3f 82ba 1abf
00000080: 2d32 afbe c3ea 0fbf 0016 6d3f 7d5e 0ebf
00000090: f09d 053c 72eb 143f ef93 11bf 6587 d5be
000000a0: 3425 8f3e be88 86be 4cb4 d33d f3ce 3dbf
000000b0: de3f 9fbd 37a4 84be bc18 8b3c 6279 85bf
000000c0: 3678 563f 5d5d d13d 4159 873f 4a68 933f
000000d0: 586f 923d f8cc abbe 99f3 d83e 2fe7 0a3e
000000e0: 22f2 393c f447 a6be b6bf c43e 3ba0 973e
000000f0: 2469 6c3f 4b3a 91be 1cff 4e3e 2159 48be
00000100: 6ba0 ea3d d182 8fbd 5e23 2bbf 3a0b eebe
00000110: 1cf3 5abe 5750 31bf b07d f03e c62d 18bf
00000120: abe5 4dbf 33a8 52bf e40e 103f 81c2 563e
00000130: eb54 7ebe 165e d3be b2fb c33e c8cb 83bc
00000140: fbb3 2f3f 44e2 493e 8379 c8be af1f 21bf
00000150: afc7 22bf 7c73 d4be b767 a33d d14f afbd
00000160: 1401 0dbf da25 0dbf 143f 33bf 277a 9e3f
00000170: f90b cebe d59b 443d e54f c5be 53c4 1b3e
00000180: 056c 65be 8b08 4bbe 18fd 03bf 8fc3 c8be
00000190: edbc 043f 00fc fe3e 73d4 4d3e 9b8b c4be
000001a0: e3c1 bbbc 6518 cfbd ec47 363f dc50 923e
000001b0: c4ba 7dbe 11d8 57bf 1f99 4bbf 45c3 0dbf
000001c0: a8a6 f2bd f62a d5bd 64f2 e5be 8f4f 4fbe
000001d0: f1e2 823c 979a 61be b217 73be 9aeb c43c
000001e0: 811f b73e 8789 803e 36dd c23b 9031 c53e
000001f0: d07b d13b e73e 343f 623f 08bf 725d 05bf
00000200: dd65 893f 5b31 c2be 54cd 58bf a507 d53e
00000210: db02 4e3e 451c 003f 9e50 f3bd eeee cf3e
00000220: 3d07 b1be c01e 6ebc 43be 97bf ead4 e3bd
00000230: e44b be3e a14a 03bf 1628 183f 2267 4ebe
00000240: a867 843e b87d b5be 45cc 4ebe 0544 79be
00000250: 85f5 b63e 296e 30bf 392b 9f3f b11b c7bc
00000260: 14cd 973e 6dd8 8fbe db6f dcbe bd26 de3d
00000270: 56e4 e3bd 2e08 473d 16d3 5a3c 5ac1 ec3d
00000280: ba86 943f 43e3 aabe a527 2e3f d3d3 523f
00000290: 8ef7 e13c f1a9 493f 1f7d 213f cbb0 143f
000002a0: 928f 6d3e e236 873f de6e fdbe 67f3 ee3e
000002b0: 1cdc cd3e 9141 f9be 89f7 303f c7bf c5be
000002c0: a519 3fbe 158a 4c3e cf2f 9fbe 658e 8e3f
000002d0: 2c00 bcbe 92c7 53bd 6a2d 35bf 646e 24bf
000002e0: ea03 193e e813 143f e447 b53e bee3 28bf
000002f0: 4d84 a6be 19aa cabf 9d75 303f fce1 3d3e
00000300: 567a c23e aa23 3d3e 5e59 09bf 9be9 a0be
00000310: 64fd f2bd 6d1d 563f b6e5 d13e c153 2ebf
00000320: d72f 153e fc26 aebe 2fa8 7cbe ea1d 393e
00000330: 8d7c 183f 653c 19bd 72fb cbbe 69b2 1e3e
00000340: 3680 8e3e 50aa b7be 50d6 00be 1b8f 013f
00000350: 2bc8 cebc f0b1 73be 5fc2 02be 13d7 93bd
00000360: 70ea ac3e efde e83e 5457 27bf cd80 9abe
00000370: 28cd 3ebe 41bc 48be 7440 2b3c 3560 e7be
00000380: 5cab 16bf f0a9 03bf e763 25bf fc17 1e3d
00000390: 0188 fb3e f91d 553e ff88 08be 2fad 1a3f
000003a0: 8d9b c6bd fe5a 64bf 234f 793e 95b0 a73e
000003b0: 8a83 7a3f d4fc 1b3f 5b33 c6be ab7e c0be
000003c0: 3678 0b3f 09fe 15be 0c4d a1bf eb9e d33d
000003d0: 37b9 08bf f2af 6c3e f51a dd3d bf5f 00bf
000003e0: 5657 913e 6525 033f e42d 0c3d 2655 2c3f
000003f0: 4f87 033c 0922 bf3f d1aa f1bd 23d7 0cbd
0.30226332 0.5205996 0.36463386 0.21653253 0.094760835 -0.65616184 -0.21924429 0.18537211
-0.62920785 -0.37272787 0.0647478 -0.70550543 0.84671944 0.5305948 -0.5071086 -0.18256953
-0.22571619 -0.2469763 0.27492714 0.3482916 -0.44735643 -0.65037936 0.13157894 -0.30631313
-0.5812288 -0.22459975 -0.23636614 0.08884493 0.3126614 0.05506902 0.6190124 -0.6044084
-0.3421797 -0.5621759 0.92611694 -0.5561293 0.008155331 0.5817176 -0.56866354 -0.4170486
0.2795807 -0.262762 0.10337123 -0.74143904 -0.077758536 -0.25906536 0.016979568 -1.0427668
0.8377718 0.10222886 1.0574113 1.1516201 0.071501434 -0.33554816 0.4237335 0.13564752
0.011349233 -0.3247677 0.38427514 0.29614434 0.9234793 -0.28364787 0.20214504 -0.1956525
0.114563785 -0.07007373 -0.6685084 -0.4649294 -0.21381801 -0.69263214 0.46970892 -0.59444845
-0.8042857 -0.822879 0.5627272 0.20972635 -0.24837081 -0.4128272 0.38277966 -0.016088381
0.68634003 0.1971522 -0.39155206 -0.6293897 -0.63585943 -0.41494358 0.079787664 -0.08560146
-0.5507977 -0.5513588 -0.70018125 1.2381028 -0.4024351 0.048000176 -0.38537517 0.1521161
-0.22404487 -0.19827478 -0.51558065 -0.392117 0.5185078 0.49801636 0.20100574 -0.3838776
-0.0229196 -0.10112075 0.71203494 0.28577316 -0.24778277 -0.84314066 -0.7953052 -0.5537608
-0.118481934 -0.10408585 -0.44911492 -0.20245193 0.015977355 -0.22031628 -0.23739508 0.024038125
0.35766223 0.25104925 0.0059467806 0.38514376 0.0063929334 0.7040848 -0.53221714 -0.5209571
1.0734211 -0.3792828 -0.84688306 0.41607395 0.20118277 0.50043136 -0.11880611 0.40611976
-0.34575835 -0.014533699 -1.1854938 -0.111245945 0.37167275 -0.5128575 0.59436166 -0.2015653
0.25860333 -0.35447478 -0.2019511 -0.24342354 0.35734192 -0.6891809 1.2435066 -0.024305196
0.2964865 -0.28094807 -0.4305409 0.108472325 -0.11127536 0.048591785 0.013355991 0.115603164
1.1603615 -0.33376512 0.6802924 0.8235447 0.027583864 0.78774935 0.63081545 0.58082265
0.23199299 1.0563624 -0.49498647 0.46670076 0.40206993 -0.48682836 0.6912771 -0.38622877
-0.18662126 0.19974549 -0.31091163 1.1137205 -0.3671888 -0.051703997 -0.7077242 -0.6423094
0.149429 0.57842875 0.3540641 -0.65972507 -0.32522812 -1.583316 0.68929464 0.18543237
0.3798396 0.18470636 -0.5365199 -0.31428227 -0.11864737 0.8363865 0.40995568 -0.6809655
0.1456903 -0.34014118 -0.24673532 0.18077818 0.5956505 -0.037411112 -0.39840275 0.15497746
0.27832192 -0.35872126 -0.12581754 0.50608987 -0.025241932 -0.23798347 -0.12769459 -0.072187565
0.33772612 0.45482585 -0.6536763 -0.30176392 -0.18632948 -0.19603063 0.010452379 -0.45190588
-0.58855224 -0.5143118 -0.64605564 0.038597092 0.491272 0.20812215 -0.1333351 0.6042051
-0.09697638 -0.89201343 0.24346595 0.3275191 0.9785696 0.6093266 -0.38711056 -0.3759664
0.544803 -0.14647688 -1.2601638 0.103330456 -0.53407615 0.23113993 0.10796157 -0.50146097
0.28386945 0.51228935 0.034223452 0.67317426 0.008027866 1.4932262 -0.11800159 -0.034384858

network_body._body_endoder.seq_layers.0.bias f4 [256]
00000000: 2428 593d 469e 81bd 0a52 dc3c 0b41 0ebe
00000010: 250d 033e d34f ac3c 5774 093d ad23 cebc
00000020: c6bd 05bd e772 c03d 9cb8 93bc 94b1 d43d
00000030: 4741 ec3d 07a8 18bd d86a 0cbd cebb c7bd
00000040: 026b d23d f210 a2bb cb1f 473d f93c 313d
00000050: e89a a8bd 7a9b 943d 1ecc 013e 6781 d53c
00000060: 283c a7bd 885c 90bd 526b fa3d b2a5 e13c
00000070: 491b ee3d 8f80 cdbd bc71 a3bb 693b bf3c
00000080: e3bc c9bd cd2c 9fbd 1be2 d73d 6db7 5a3d
00000090: d910 05bd 2be4 853d b647 cfbd 8090 0f3e
000000a0: 2c81 fb3d 7cd2 a63c 466b 4f3d 48d4 8c3d
000000b0: 453f f03d a989 ca3d bb56 cb3d 5761 0b3d
000000c0: 2cb6 a5bd 6dcf b93d 5f11 d6bd f44d 07be
000000d0: e516 e6b9 e544 e2bd dd92 edbd 3550 30bc
000000e0: 3d38 eb3d d5f9 66bd 337a 31bc 4725 733d
000000f0: 2bc7 c8bd 1847 9f3c 2c8d d33d ea35 0e3d
00000100: 65f7 57ba f5cf 67bb dfa8 ba3c cf27 813d
00000110: 4548 d43d 896e c13d 5b86 a23d 76dc 793d
00000120: 18bc 2fbb c4f4 bbbd 7b21 563d dfa9 a63d
00000130: 109a 023e 67c6 8f3d 2298 823d acb2 863d
00000140: a1d3 f0bc 2bc5 be3d e683 113e 0021 0e3d
00000150: 5f60 6a3d 0254 57bc 5ec3 c03d e980 b23d
00000160: 8143 c63d 232c 1cbd d4fd ba3d a6da fe3c
00000170: 5772 2cbd 2738 abbc bb4a 39bd 562f d13d
00000180: c105 cfbd f80d aabd 8e15 ce3d 5f7a 4e3d
00000190: 3818 003e 93d5 ed3d d5a8 fc3d 04ea ba3d
000001a0: 3560 44bd 0215 ce3d fb3c 8b3c adee 213d
000001b0: 7efa cf3d b63f b33d 681d af3d bc2d 963d
000001c0: 64fe 09be 9872 dcbd 5d61 9e3b f172 fe3d
000001d0: c58b c53d 056f a03d bce1 a53c 5c76 b73d
000001e0: c8e0 fcbb 34f8 af3c 727b c6ba be9c 3cbd
000001f0: 5e1f 943d 2027 bc3d e727 f33d bf4e a6bd
00000200: 95f7 d53d d080 893d df42 873d 41ba 29bd
00000210: b1a2 a63d 2ad7 11bc 11d3 23bd ecef b13d
00000220: 3949 9a3d 1174 d63d 3040 6f3d 7cd5 bf3d
00000230: f365 863d c986 733d c18a d63c 5747 b23d
00000240: e00b ea3d ddb4 cc3d b629 ae3d 7e4f b63d
00000250: 8635 8e3d adc1 d83d fe84 d33d a60a d03d
00000260: df92 80bd 1159 81bb 90db cd3d 4f85 8bbd
00000270: debe d73d 2a39 9d3d 0660 723d 5a96 e23d
00000280: a060 2ebc da38 253d d4f6 ec3d 34e3 3b3d
00000290: 67ea 9fbd 7df6 a6ba dd3e 723d dfd3 cc3d
000002a0: 834e b7bc b1ed d13c 91b9 0c3d 27c4 5c3d
000002b0: ccba f13d ae11 95bd a18f a73d 336d 8c3c
000002c0: b956 0bbe db47 be3d f61d 21bd 9d1f cfbc
000002d0: db9a ae3d e32a 28bd 3de0 643d a2b7 d13d
000002e0: ad7d 68bc ed60 c73d e86e 16bd 2a17 013e
000002f0: a790 c43d 6890 763d 8102 5fbd 9aaa bf3d
00000300: 7bec 9d3c 449b 843d b8f6 913d cca5 803d
00000310: 597b f23d 6657 fa3d 1585 f43d c6ce 1ebc
00000320: 5c7f fd3d 1439 d13d f117 d03d adc2 b93d
00000330: 4298 73bd 8ec6 02be 3db0 df3d c7d7 843d
00000340: 64aa 7a3d 30a2 033e 978b 9e3d 6e09 803d
00000350: d760 f2bc d149 b7bd 3b35 ad3d 8894 c43d
00000360: 6e0d d53d 38df c43d 8179 b63d bdd0 17bd
00000370: 228f b63d 7812 ccbc 9124 d33d 630a 41bd
00000380: cca3 653c 218e b93d 0f93 923d 92f2 1abd
00000390: dc16 afbd ce6f 1d3d 7e87 b83c 3fc1 813d
000003a0: 5c75 383c b2c8 c23d 4ed1 863c 065e ae3d
000003b0: 7f2a f33d 14ab 393d 8bd2 c33d 4ec7 c73d
000003c0: c3de c13d 1b21 c2bc 89d0 42bc ae71 013e
000003d0: 7789 9d3d 4430 43bd 7ba3 b23d e247 813c
000003e0: 214c 983c 7613 f33d 61e5 283d 4ae8 06be
000003f0: 37ef 0f3e 3985 d23c 60a1 d33d b265 cebd
0.053016797 -0.063290164 0.026894588 -0.13892 0.12797983 0.021034157 0.033558216 -0.025163496
-0.032651685 0.09396916 -0.018032365 0.10385433 0.11535888 -0.03726962 -0.03428158 -0.09752618
0.10274316 -0.0049458677 0.048614305 0.04327104 -0.08232671 0.07256217 0.12675521 0.02606268
-0.08165771 -0.07048899 0.12227501 0.02754483 0.11626298 -0.10034286 -0.0049879234 0.023343759
-0.098504804 -0.07772217 0.10541173 0.053397585 -0.03248677 0.0653766 -0.101211 0.14019966
0.12280497 0.020364039 0.050639413 0.06876427 0.11730818 0.09889538 0.09928652 0.034028377
-0.08091387 0.090727665 -0.10452532 -0.1321333 -0.00043886076 -0.11048297 -0.116002776 -0.01076131
0.11485336 -0.056390602 -0.010832357 0.059361722 -0.09803613 0.01944308 0.10329661 0.034719385
-0.0008238464 -0.0035371755 0.022785602 0.06306421 0.10365347 0.09444911 0.079357825 0.061001264
-0.0026814993 -0.09177545 0.052278023 0.08137869 0.12754083 0.07020264 0.06376673 0.06577048
-0.029397788 0.093149506 0.14210472 0.03469944 0.057220813 -0.013142588 0.09412263 0.08715994
0.09680844 -0.03812803 0.09130445 0.03111012 -0.04210123 -0.020900799 -0.045237284 0.10214107
-0.10108519 -0.083034456 0.10062705 0.05040967 0.12509239 0.11613002 0.1233689 0.09126666
-0.047943313 0.10062601 0.016996851 0.03953426 0.101551995 0.08752386 0.08550531 0.07332942
-0.13475949 -0.107640445 0.004833384 0.12424267 0.096457995 0.07833675 0.02024924 0.08958122
-0.0077172257 0.021480657 -0.0015142991 -0.04604792 0.07232545 0.0918715 0.11872845 -0.081204884
0.10447613 0.06714022 0.066045515 -0.04143739 0.081365 -0.008901397 -0.03999621 0.086883396
0.07533497 0.10471357 0.058410823 0.09366891 0.06562414 0.059454713 0.02618921 0.08705013
0.11428046 0.099954344 0.085040495 0.08901881 0.069438025 0.10583816 0.103281006 0.10158281
-0.062780134 -0.003947385 0.10051644 -0.06812536 0.10534452 0.07676919 0.059173606 0.110638335
-0.010643154 0.04033742 0.11570516 0.045870975 -0.078083806 -0.0012738254 0.059141982 0.10001349
-0.022376304 0.025626035 0.034356657 0.053898003 0.11803207 -0.07278763 0.08181692 0.017141914
-0.13607301 0.09291049 -0.039335214 -0.02528363 0.0852563 -0.041056525 0.055877913 0.10240103
-0.01419012 0.09735284 -0.036726862 0.12606493 0.09597903 0.06019631 -0.054445747 0.093587115
0.019277802 0.06474927 0.07127136 0.06281623 0.11839933 0.12223701 0.11939446 -0.009692853
0.123778075 0.10215965 0.101608165 0.090703346 -0.059471376 -0.12771055 0.10922287 0.06486469
0.061197653 0.12854838 0.077414684 0.062517986 -0.029587192 -0.08949626 0.084574185 0.095986426
0.10402952 0.09612888 0.08909894 -0.037064303 0.08914019 -0.02491115 0.10309709 -0.047129046
0.014016103 0.09060312 0.071569555 -0.03782899 -0.08549282 0.038436703 0.022525545 0.06335687
0.011258449 0.09510936 0.016457226 0.08514027 0.1187334 0.04532917 0.09561642 0.09754811
0.094663166 -0.023697427 -0.011890539 0.12641022 0.07692235 -0.04765345 0.08722588 0.015781347
0.018590989 0.11868946 0.041234378 -0.13174549 0.14056097 0.025698291 0.10333514 -0.100779906

network_body._body_endoder.seq_layers.2.weight f4 [256, 256]
00000000: f81e 7f3d 1c10 fbbd 7010 de3c e95c 00be
00000010: c782 383e 5869 353c 2841 ac3d bae7 9e3d
00000020: a00f 5b3d 9ff6 243d 5983 f3bb 46ee 383e
00000030: e2ec c1bc 3e38 dc3d c494 543d 9d9d cfbc
00000040: 88ee cf3d a7ba 913d 9186 f1bd 9077 4e3b
00000050: fea8 97bd 230b 553d 9734 bdbd f44b 67bc
00000060: 370b b93d 5411 823d d1ff 9b3d f0e1 993d
00000070: d88f 1abb 38c9 5f3d d81f a4bc 9750 093c
00000080: b57e a13d d718 a63d 039c 32bc 8a9e 193d
00000090: 947b 823a 1e14 273c 1e10 eabd 81a0 ffbd
000000a0: 7a4f de3d 01d7 cebd 5b26 3cbd 6b5b 54bd
000000b0: de68 52bc dd5a 0b3d 5f55 093e 874b 543c
000000c0: 5ac0 8bbd 50fa be3d 7d23 d6bc 2cc8 023d
000000d0: 62ea e1bc ded9 903d 1074 383d b2a9 0c3e
000000e0: 4fcc 97bd fc86 2ebd e05c ffbc 201a 12be
000000f0: 9415 9bbd e7df 773d c1ad b0bd d92c b53d
00000100: 971a 7d3c ecac f63d 1801 00bd 01e5 99bc
00000110: d506 bebd 319f be3c 33ed 043c a48a 22bc
00000120: 0146 203d 52fa b5bd b318 e13c c5f4 413c
00000130: c7aa 6b3d 2ca5 143c 9885 0a3e 4e7c a6bd
00000140: 4d3f b53c 2819 df3d 6f1d 4a3d 33ad 4dbd
00000150: e0bb 5dbd b089 e23c 6f2f be3d cd7a 3fbd
00000160: d22b 023c 891f 05bc 1fcc 7f3d d3a0 68bc
00000170: 9642 553c f6e3 31bc e960 103d 22e5 d53b
00000180: 007b 79bd fd3f 86bd ec4b 10bd 4a77 02bd
00000190: dbc5 d23c 72cd b93c 10c0 5f3d c3a9 2a3d
000001a0: b649 d23d 8974 0d3e 4330 d73d 0a0e f63c
000001b0: 0a1a 29bd 4417 153e 1dbd b0bd fcc9 7abd
000001c0: 3917 7dbd cd01 3e3d 77c1 073d 1d16 483d
000001d0: 088e c3bc 3055 40bd 1de6 7b3c cc78 213e
000001e0: 7f7c 9f3d c9c1 17bd f23f 543d 97d3 843d
000001f0: cb80 073d a64c 443b 1641 a8bb 242e 073d
00000200: 0137 d03c 8c08 2c3d 0119 9fbd e361 a43d
00000210: 6aa7 763c 0c2b d53d c694 14bd 7eaa 223b
00000220: 4200 39bd 3629 aebd aa85 86bc 148e 90bc
00000230: 5f38 ba3c 67bf 433d 3830 293d f1ef bcbc
00000240: a2af d33c 9976 133d 3831 ae3d de73 523d
00000250: a544 41bd 8c71 1e3d 3f76 533c f18a b43d
00000260: 522c a43d 608c 5e3c 83e4 0b3c f0af 3ebc
00000270: 76eb 913d dbcb 21bd f36c babc 2564 b73d
00000280: eaf9 bb3c 3ffc 00bd 9b65 6a3d 3bbe c03d
00000290: a5d5 73bd 1feb 20bd 7e8e f73d b806 543d
000002a0: a6ce 9e3b 4f66 823d 1530 353d 7af9 11bd
000002b0: 612e 713c 9f73 6d3d 48e8 f5bc cdb2 ff3d
000002c0: c9c7 4fbd 3f95 653c 66c0 1e3c ca6e 83bc
000002d0: f842 95bc d1c8 36bc 3d77 25bd 421b b4bc
000002e0: d10f 3f3d fee0 803d a6de 6c3c 89e6 6c3d
000002f0: 3afb 9f3b fb7c 2cbd eab9 22bc 915a 9bbd
00000300: 852c bbba a470 48bc 6551 8bbd 954c 3bbd
00000310: fac0 0cbc 5b61 e93b 5c46 d73d f08f 2cbe
00000320: f929 f2bb 1add b2bd 9224 91bc 074e 053c
00000330: 4d06 34bd 34eb 51bd 77d1 8a3d 83d9 413c
00000340: 1ff8 df3d 7438 09bd 1810 20bd b560 0ebd
00000350: 3b4d df3d 5072 5d3d dde6 853d 40fd 013e
00000360: f9ae 473d bdb7 b73d 1c4d 983c bc13 22bc
00000370: 5af3 c5bb 6285 0f3d f39d 8fbd df40 88bd
00000380: 4d9d 523d 6463 cb3c 088f 803b 8254 b63d
00000390: ef3e 82bd 630e f23c 0973 a3bd 271f b43d
000003a0: 7ad0 8d3d 87e2 5a3b 53a4 23be a446 0d3e
000003b0: c0ee 2b3d 100b 5a3d cb69 30bc f4e4 d4bb
000003c0: 506e 863d 5cce 173d 0607 3a3c ef9a 3fbd
000003d0: 20b6 f03d 6aa3 803d 22aa 30bc bbd6 5dbc
000003e0: de29 3fbd 9323 98bc 023c 44bc 7384 0f3c
000003f0: 91f9 bd3d 4be6 b73d b7aa 1c3d 2809 d1bc
0.062285393 -0.12258932 0.027107447 -0.12535442 0.18018638 0.011072479 0.08410865 0.07759042
0.053481698 0.04027426 -0.0074314293 0.18059644 -0.023672525 0.10752915 0.051899686 -0.02534371
0.10152918 0.07115679 -0.11793245 0.003150437 -0.074052796 0.052012574 -0.09238546 -0.01411723
0.09035342 0.06350961 0.076171525 0.07513797 -0.0023584273 0.054635257 -0.020034716 0.0083810305
0.078854956 0.081102066 -0.010901454 0.03750471 0.0009955042 0.010197667 -0.11428855 -0.124817856
0.10855003 -0.100996025 -0.045935016 -0.051844995 -0.012842385 0.0340222 0.13411473 0.01295746
-0.068237975 0.09325087 -0.026139969 0.03192918 -0.027577583 0.07072805 0.04503256 0.13736609
-0.07412016 -0.0426092 -0.031172216 -0.14267778 -0.07572475 0.060516264 -0.08626891 0.08846445
0.015448234 0.12044701 -0.031251043 -0.018785955 -0.09278647 0.023269268 0.008113193 -0.00992075
0.03912926 -0.088856354 0.027477598 0.011838143 0.057535913 0.009072583 0.13527524 -0.08129178
0.02212491 0.1089347 0.049344476 -0.050214004 -0.05413425 0.027653545 0.09286391 -0.04674797
0.007945018 -0.008125194 0.062450524 -0.0141985 0.013016364 -0.010857573 0.03524867 0.006527559
-0.060908318 -0.065551735 -0.035228655 -0.031852044 0.02572911 0.022680972 0.054626524 0.041665804
0.102679655 0.13813986 0.10507252 0.030035991 -0.0412846 0.14559656 -0.086298205 -0.061227784
-0.061789725 0.046388436 0.033143487 0.048849214 -0.023871437 -0.04695624 0.0153746875 0.15768737
0.077874176 -0.037050042 0.051818796 0.0648567 0.03308181 0.0029952913 -0.005134712 0.033002988
0.025416853 0.04200034 -0.07768441 0.08026483 0.015054563 0.10408601 -0.036274694 0.002482086
-0.04516626 -0.08503954 -0.016421158 -0.017645873 0.022731958 0.047789957 0.04130575 -0.023063632
0.025840584 0.036001775 0.085054815 0.05138003 -0.047184605 0.038682505 0.01290661 0.088155635
0.08016266 0.013583273 0.008538368 -0.011638626 0.07124989 -0.039501052 -0.02275703 0.08954648
0.022946317 -0.03149056 0.057225805 0.094112836 -0.05952992 -0.03928673 0.12087725 0.05176422
0.0048464118 0.0636717 0.044235308 -0.03563831 0.01472053 0.057971593 -0.030017987 0.124852754
-0.05072764 0.014012634 0.009689426 -0.01604404 -0.01822041 -0.011156277 -0.040396918 -0.021985654
0.046645943 0.06292914 0.01445738 0.057837043 0.0048822435 -0.04211138 -0.009932021 -0.075856335
-0.0014280236 -0.012233887 -0.06802634 -0.04572733 -0.008590931 0.0071222014 0.10511467 -0.16851783
-0.0073902574 -0.08733578 -0.017717633 0.008136279 -0.04395132 -0.051249698 0.067782335 0.011831644
0.10935997 -0.033501104 -0.03907785 -0.034760196 0.109034024 0.054064095 0.06538174 0.12694263
0.04875085 0.08970592 0.018591456 -0.0098924 -0.0060409727 0.035039313 -0.07012548 -0.06652998
0.051419545 0.024827667 0.0039233007 0.08902837 -0.0635966 0.029547876 -0.079809256 0.08795004
0.069245294 0.003339918 -0.15980653 0.13796479 0.041975737 0.053233206 -0.0107674105 -0.00649702
0.06564009 0.037062034 0.011354214 -0.046778616 0.117534876 0.06281169 -0.01078275 -0.013539965
-0.046670787 -0.01857165 -0.011977198 0.008759606 0.09276117 0.08979472 0.038248744 -0.025517061

network_body._body_endoder.seq_layers.2.bias f4 [256]
00000000: bfa7 0ebd 0968 ccbd 4960 03be e005 ac3d
00000010: 2e8e c4bd 4089 23bc 7396 8dbc f9b0 bd3d
00000020: 8d7d c53d 26ed 80bd 7da1 9f3d c81b 9a3d
00000030: 4103 5bbd 043b ac3d 92d2 dabd d8cd bb3d
00000040: 03ca edbb 1be8 8a3d 9a1a be3d a86c eabd
00000050: d78f 893d 646a efbd f8ff febd 7641 efbd
00000060: cdd9 38bd 5b2c ddbd bb4f ccbd 0a75 97bd
00000070: c01b 4a3b fe97 fcbd a1fd eebd 2e7f 023d
00000080: 8d12 01be a173 983d ac0c a03d bc62 a0bb
00000090: cac3 debd fda8 b53d ccdc 6bbd e7da ae3d
000000a0: 6200 50bd 8f63 a63d 73c6 a73d 8adc 9b3d
000000b0: 96e2 00bc 8604 e2bd 7d99 023d d033 80bc
000000c0: caa1 3a3d f26d 4dbd 5f0d 2cbd a48f f3bd
000000d0: cab4 24bd 2be4 b23d 0559 9e3d 3b53 9d3d
000000e0: 5ad2 b13d a394 a63d 835a b73d adc8 dcbd
000000f0: 6fb9 c23d 742f fabd 6fdc 8abd 8dc1 c13d
00000100: da10 fa3c bc4f c63d 9282 8bbd 8224 b53d
00000110: 9863 a5bd 63ba 853d 6531 febd d155 c0bd
00000120: 44db cb3d b872 f6bd 8698 99bd 2a59 a63d
00000130: ab29 ba3d edb6 eb3c 12ad 9abd 4aa9 963d
00000140: acf9 ba3d 53b0 f4bd e68d 9f3d f2ee 64bd
00000150: 2c0a f8bd 839e e1bd d658 efbd 4543 e8bd
00000160: 85f8 af3d ff5d 843d b069 f3bd 470f 6e3d
00000170: 6ddc 00be 750e 973d 884e a33d f023 95bd
00000180: ca10 a93d cae0 f4bd 5729 00be 5d77 0b3d
00000190: d4db f2bd e111 8ebd 5842 8ebc e8dc cf3d
000001a0: 5816 cc3c 91a1 a13d 865e 4abd 925b 54bd
000001b0: 81a2 fcbd d3ea bf3d 0764 ca3d 9240 923d
000001c0: 3d15 edbd 4681 f4bd d8ac ac3d 57c8 b53d
000001d0: 14a1 cd3d 496e 753d 00f9 b33d 6719 a23d
000001e0: e8eb 993d 49f9 23bd feae c5bd ba62 d03c
000001f0: 89fd d4bd 0b61 ffbd 87a7 debd f438 773d
00000200: 254d 4c3c 010b 22bd bb7b 4cbc d3ab 333d
00000210: fbc5 00be fc82 89bd cfb6 d1bd d858 34bd
00000220: 221a acbd 6a11 debd b616 a33d 8731 5cbd
00000230: 434d e93c d304 933d 9ff7 19bd a398 993d
00000240: cf9c e1bd 91c6 9b3d 3c3c a43d ae9a a73d
00000250: 3610 a93d 1d31 3e3d 1268 58bd c666 bb3c
00000260: 3588 8f3d 61db 5b3d 0fe4 58bd 82fd cfbd
00000270: c637 a03d 6ea2 8a3d 2972 8c3d 17f2 6fbd
00000280: b5cf f1bd dc96 9c3d c774 67bd 5188 19bd
00000290: 3270 913d 0687 8f3d a561 babd 36e8 24bd
000002a0: 0080 503d d5f7 d23d a34d 1dbd 0a48 7c3d
000002b0: 9ac8 c93d 24e6 c23d d40d b23d 789f 873d
000002c0: e563 c13d 812e 6d3d f890 edbd 3c99 ae3d
000002d0: 6459 a13d 4007 f3bd 4311 3e3d 984a e9bd
000002e0: 98ef 983d 226d 10bd 1c9b 00be 213c a53d
000002f0: 4f09 fabd 4b94 fabd 54c0 8d3d 4ea8 a93d
00000300: 8f1a a9bd e20d 00be d6cb a03d f687 b83d
00000310: 9d06 0ebd 4e5b c93d 0200 98bd c8bd cc3d
00000320: 1b18 d5bc e960 053d cfc1 7d3d 3da4 c83d
00000330: b96d 183d 6498 923d ff49 70bd e7eb b73d
00000340: e232 6bbd d423 c53d 3ebc 6dbc f7d8 ad3d
00000350: 8a08 cc3d aeee 9dbd 5a59 37bd 74c3 953d
00000360: c90c c73d 2fd1 cc3c 3ef9 fcbd dc1b 56bd
00000370: b6d3 7c3d 9c0c a8bd dbff 2e3d 2538 be3d
00000380: 4bd8 ad3d add4 92bd 5bc5 b83d 7744 993c
00000390: 2920 42bd 2338 9ebd 16b4 a63d 0146 eabd
000003a0: 7514 e93b c043 dcbd a462 393d b961 4cbd
000003b0: ef78 90bc 96cd f03c 7437 f9bd 1111 9c3d
000003c0: f485 a73d e81a d73d 0904 993d 721a efbc
000003d0: 20df 5fbd 6109 efbd 9847 e2bd 3b13 05be
000003e0: 6517 b03d f5d3 f1bd 3b5d 3abd eef2 dbbd
000003f0: d638 10bd d956 a43d 1539 313d b4e6 00bd
-0.034827944 -0.09980781 -0.12829699 0.08399558 -0.09597431 -0.009981453 -0.017283654 0.092622705
0.096430875 -0.062952325 0.07794473 0.0752483 -0.0534699 0.08409694 -0.10684694 0.09170121
-0.0072567477 0.06782552 0.092824176 -0.11446506 0.067168884 -0.11690214 -0.12451166 -0.116824076
-0.045129586 -0.10799476 -0.09976145 -0.0739537 0.0030839294 -0.12333678 -0.116694696 0.03185957
-0.12604733 0.074439295 0.07814917 -0.0048945826 -0.108771876 0.088701226 -0.057583615 0.08537846
-0.050781615 0.08124458 0.08192148 0.07610424 -0.007866522 -0.11036019 0.03188466 -0.015649706
0.04556445 -0.05015368 -0.04200494 -0.11892632 -0.040211476 0.08734926 0.07731823 0.076818906
0.086826995 0.08133819 0.089528106 -0.10780463 0.09508025 -0.12216082 -0.067803256 0.09460745
0.030525614 0.09683177 -0.06812014 0.08844854 -0.080756366 0.06529691 -0.12411765 -0.09391368
0.09953931 -0.120335996 -0.07499795 0.081224754 0.09089979 0.02877375 -0.07552542 0.07356508
0.091296524 -0.11947694 0.07790737 -0.05589194 -0.12111315 -0.11016562 -0.11686866 -0.11340956
0.08592323 0.06463241 -0.11885393 0.05812004 -0.12584086 0.07375804 0.07973963 -0.07282245
0.082551554 -0.119569376 -0.1251577 0.03404938 -0.11858335 -0.06937004 -0.01736562 0.101495564
0.024912998 0.078921445 -0.04940655 -0.05184514 -0.12335683 0.09370961 0.0988236 0.07141222
-0.115763165 -0.119387195 0.08431405 0.088761024 0.10040489 0.05991963 0.08787727 0.07915001
0.07515699 -0.04003266 -0.09652518 0.025437701 -0.103999205 -0.12469681 -0.10871797 0.06035705
0.012469565 -0.039561275 -0.0124806715 0.043865036 -0.12575524 -0.067144364 -0.10239946 -0.04403004
-0.08403422 -0.10843165 0.07963316 -0.05375817 0.028479224 0.071786545 -0.037589666 0.07499816
-0.11016237 0.07606233 0.08019301 0.081838 0.08255045 0.046433557 -0.052833624 0.022876155
0.07008401 0.053676013 -0.05295187 -0.10155775 0.07823138 0.06769262 0.06857712 -0.058580484
-0.11807195 0.07645962 -0.056507852 -0.037483517 0.07101478 0.070081756 -0.091006555 -0.040260516
0.05090332 0.103011765 -0.03840412 0.06159214 0.09852715 0.09516552 0.08694044 0.06622213
0.094428815 0.057905678 -0.11599916 0.08525321 0.07878378 -0.11866617 0.04640318 -0.11391181
0.07467574 -0.035260327 -0.1255917 0.08068109 -0.12208807 -0.12235316 0.06921449 0.08284055
-0.08257019 -0.12505296 0.078513786 0.090103075 -0.034674276 0.09831868 -0.074218765 0.099971354
-0.026012471 0.032563124 0.06195241 0.09796951 0.037214015 0.071579725 -0.05866432 0.08980542
-0.057421573 0.09625974 -0.0145102125 0.084886484 0.09962566 -0.0771154 -0.044762947 0.0731267
0.097192355 0.02500209 -0.12352227 -0.052272663 0.06172534 -0.0820553 0.04272447 0.092880525
0.0848852 -0.07169471 0.090220176 0.018709404 -0.04739395 -0.07725551 0.081398174 -0.114391334
0.0071130344 -0.1075511 0.045260087 -0.049897883 -0.01763579 0.029394906 -0.1216878 0.07620443
0.081798464 0.10503179 0.07471473 -0.029187415 -0.054656148 -0.11671711 -0.11048812 -0.12995617
0.08598212 -0.11808006 -0.045499068 -0.107396945 -0.035210453 0.080243774 0.04326733 -0.031470016

network_body._body_endoder.seq_layers.4.weight f4 [256, 256]
00000000: ea5e de3c 4f76 e1ba 787d 373d 1090 c03c
00000010: 8b34 b0bc 7c2e 12bc 81fe 9e3d 237f c9bd
00000020: 7c0e b6bd 55e2 03bd b5ff 00be 4f49 893c
00000030: b8a4 6a3d c64c 8fbc 3fd8 823d 275a eabc
00000040: fefe d13d 0998 d93c 61d1 e2bc 304b c8bd
00000050: f121 02bd 055d 283e 7db8 fc3d 2f1b b13c
00000060: 1407 723d 87a5 593d 873a 7d3d e827 a33d
00000070: 6457 48be b8d2 ca3d 6e32 8d3d d2e8 893d
00000080: 7d58 ce3d cfcc 033d 1422 64bd ca4e ce3d
00000090: 73aa a13c 66ec 553d ff09 3b3c a58d d63d
000000a0: a7e2 ef3c f7c6 acbd 7736 b4bc e673 b43d
000000b0: 1f94 27bd f773 b83c 5a88 763c 5b0f 27be
000000c0: 77ea 683d a953 623d 855f 9bbd bdd4 d03d
000000d0: 69fa 15bc cfaa 42bc e9c5 59bd 47de 81bb
000000e0: b203 16be a4b5 2dbd 3edd 42bd 0709 703d
000000f0: e3e5 2bbd aff0 7a3d 2112 9d3d dcea a7bd
00000100: c108 27bc 809d 72bc 3cda fe3c c5dd c1bd
00000110: f972 fe3c fefb 91bc a38f 303e 0547 adbc
00000120: 4052 91bc 3acd 803c a514 563b 86c6 dbbd
00000130: c3b1 9bbd dead 5dbd 33ee c73d e81b 183d
00000140: cad2 263d 68a8 db3d 1728 e6bd 982d af3c
00000150: d8b6 633d fc58 203d 6da6 c13c b70e 2cbc
00000160: b5c4 81bd 34e0 5ebd c052 5c3d 2d53 13be
00000170: 3e4c 523d cd19 f8bb a443 17bd f6d8 87bd
00000180: 9abc 50bd ae28 47bd 57e5 f83d 88ee a9bc
00000190: 332b 973d da33 dc3d 826e bdbc 969c 62bd
000001a0: c480 e8bd 1243 dabc 79e0 c6bd e99f 61bd
000001b0: 787b 54bd 5bb1 f1bd 354e 78bc 614f 84bc
000001c0: c76e 283c 27f1 1e3e 2ad7 34bd b28c 7a3c
000001d0: 835b 2abd f0cb e6bd 7601 84bd 6617 8bbd
000001e0: 3dae d7bb b57f 083c 2024 943d c5d8 0f3d
000001f0: c133 853d 54f9 82bd 7f2c 07bd 8dcd 4abd
00000200: 635f 673c 5acd 5fba c81e a9bc 8385 173d
00000210: cd16 003b cdca 973c 8d9b cabb 0950 913b
00000220: 3539 e03d c2ca dd3d e156 adbc c42d 923b
00000230: 5a59 213c 7dc3 b2bd 6481 92bc 7a73 753d
00000240: 4a9b 83bc aea2 3cbd 9557 b63d 4f7a dc3d
00000250: 5c75 86bd 9651 8a3c 5b14 27bd e337 51bd
00000260: 20dc b6bc b788 84bd 6703 43bd 3920 1f3d
00000270: 17b6 1d3d 12c5 e0bc c97a 4bbd fb53 5dbc
00000280: afd4 163d 0d1c dfbd 4810 c2bd 7ca3 96bd
00000290: 5147 2e3d 09cf 953d b5a7 c03d c5de 8b3c
000002a0: 7ae2 28bc c890 99bd eca6 193d 928c 3bbe
000002b0: 6bd3 97bd 6e06 b0bd e032 3dbc 44e0 ac3d
000002c0: e711 d4bd d788 103d f756 f03d 5cff 9c3c
000002d0: ea48 893d 054d bdbd 1f73 e739 5eec be3d
000002e0: 3cc8 953d e7b8 60bb 9cf7 e53d 9f05 833d
000002f0: e8ee c7bc 0e96 3bbd cb2b dbbd 8b15 ca3d
00000300: 6f1b 373d 79a5 afbd 14c5 63bc 3bab 05be
00000310: 1a13 24bc 05b4 6ebd 8186 7f3d af1f bf3b
00000320: fae0 9cbb c0c2 42bd b6bb afbd e2d7 f7bd
00000330: 91e7 6bbd 4cb4 d83b 77a0 af3d 5fc6 033c
00000340: 81e4 2a3d 1fb2 5abd a576 8eb8 1eb0 91bd
00000350: 7cf7 8ebd e132 3c3d bb4b 5c3d 9813 d03a
00000360: 7cb4 a93c 4dd5 893c a03c 543d 6d38 05bc
00000370: c9bf a83c 2f38 683d a737 29be 333d f8bc
00000380: 8b13 883a d448 7c3d 2336 65bd 9d81 863c
00000390: 0129 81bd b0d8 163d 8a15 62bd b2dd 4b3d
000003a0: 6718 c9bc 0af9 453c d4b8 c1bd c5f9 fdbb
000003b0: 7524 df3d 2d79 993c d5ea 963d 3575 15bd
000003c0: f3ba 05be 6596 d8bc 5965 4b3c 57e9 dbbb
000003d0: 16fd 6f3d 5695 823d 089b e33d 9861 4d3d
000003e0: 5645 efb9 a873 3e3d 695a 68bd 4b53 303d
000003f0: f8cc 83bd ea84 87bd 908e 903d 6e0e 2bbc
0.027144868 -0.0017201396 0.04479739 0.023506194 -0.02150943 -0.008922216 0.077633865 -0.098387025
-0.088894814 -0.03219827 -0.12597544 0.01675859 0.057285994 -0.017492663 0.06388902 -0.028607441
0.10253714 0.026561754 -0.02768773 -0.09779966 -0.03177065 0.16441734 0.12339876 0.021619407
0.05908878 0.053136375 0.061823394 0.07966596 -0.19564587 0.09903473 0.06894384 0.0673386
0.100754716 0.032177743 -0.055696562 0.100736216 0.019734597 0.0522274 0.0114159575 0.10476235
0.029282881 -0.08436387 -0.021998627 0.088111684 -0.040912744 0.022516234 0.015047157 -0.16314451
0.056864228 0.055255566 -0.07586578 0.101968266 -0.009153941 -0.011881544 -0.053167257 -0.003963265
-0.14649847 -0.042409554 -0.047574274 0.05860236 -0.041967284 0.06126469 0.076694734 -0.08199093
-0.010194958 -0.014808059 0.031109922 -0.09466127 0.031060683 -0.017820355 0.17242293 -0.021152029
-0.017739415 0.01572286 0.0032666114 -0.10731225 -0.07602265 -0.05412089 0.0976223 0.03713599
0.040728368 0.1072548 -0.11238115 0.021384045 0.055594295 0.039147362 0.023638928 -0.010501555
-0.06336347 -0.054413036 0.053789854 -0.14387198 0.05134224 -0.007571435 -0.03692974 -0.06633179
-0.050961114 -0.04862278 0.12153118 -0.020743623 0.073812865 0.107520774 -0.023123983 -0.055325113
-0.11352685 -0.02664331 -0.097107835 -0.055084143 -0.05187556 -0.11801406 -0.015155365 -0.016151132
0.010280318 0.1552168 -0.04415051 0.015292333 -0.04159118 -0.11269367 -0.06445591 -0.06791572
-0.00658205 0.008331229 0.07233453 0.035118837 0.06504012 -0.06395212 -0.03300142 -0.049512435
0.014121863 -0.00085373747 -0.02064456 0.03699256 0.001954484 0.01852932 -0.006183094 0.0044345898
0.109484114 0.108296886 -0.021159591 0.004461022 0.009847963 -0.08728693 -0.017883964 0.05992458
-0.016065259 -0.04605358 0.08903424 0.10765516 -0.06565353 0.016884606 -0.040790897 -0.05107869
-0.02232176 -0.06471389 -0.047610667 0.03884909 0.038503733 -0.02743772 -0.049677644 -0.013508792
0.036823925 -0.10894022 -0.09475762 -0.07355401 0.04254848 0.073148794 0.094069876 0.017073998
-0.0103079025 -0.07498318 0.037512705 -0.18315342 -0.07413372 -0.08594976 -0.011547774 0.08441213
-0.10354977 0.03528675 0.11735337 0.019164734 0.067033604 -0.09243206 0.00044145525 0.09322427
0.07313582 -0.0034289898 0.11228868 0.063975565 -0.024405912 -0.0457974 -0.10701712 0.0986739
0.044703897 -0.08576483 -0.013901968 -0.130536 -0.01001432 -0.05827715 0.062384132 0.0058326344
-0.0047875615 -0.04754901 -0.08580725 -0.12101723 -0.057593886 0.00661329 0.08575528 0.008042901
0.041721825 -0.053392526 -6.793187e-05 -0.0711367 -0.06980798 0.04594696 0.05378316 0.001587498
0.020715944 0.016825343 0.05181563 -0.008131129 0.020599263 0.056694206 -0.16525136 -0.03030262
0.0010381801 0.06159289 -0.055959832 0.016419226 -0.06306649 0.036827743 -0.055196323 0.049771972
-0.024547769 0.012083301 -0.09459081 -0.007750722 0.108956255 0.018734539 0.073690094 -0.03648873
-0.13059597 -0.026438901 0.0124143 -0.006711166 0.05859097 0.0637614 0.11113554 0.0501419
-0.00045637292 0.046497017 -0.056726847 0.043048184 -0.06435579 -0.06617148 0.07058442 -0.010440452

network_body._body_endoder.seq_layers.4.bias f4 [256]
00000000: dcd7 9bbd b29f b43d 84d6 a73d 5965 4abd
00000010: 9899 aa3d fda2 2abd 3972 c03d 0098 37bd
00000020: b4ed 47bd 4c89 713d ee78 6c3d 6147 3abd
00000030: 4946 9b3d cb7e a93d b042 8dbd 7a70 9d3d
00000040: f65d 923d 3666 41bd ee28 9a3d 4b2e ae3d
00000050: fcb1 59bd 35a1 8c3d 9906 a33d 54df 39bd
00000060: 1a47 753d 245c 1e3d 8c53 2abd c84a 933d
00000070: 389b 4fbd 6b65 9f3d 7c46 893d 2b24 90bd
00000080: a839 98bd 993a 38bd cbdc abbd 4ca9 28bd
00000090: 3c2b 3bbd 993e 4cbd 27f6 60bd 499f 20bd
000000a0: 64fe be3d 16a7 55bd 27d0 953d bd1d 8d3d
000000b0: fe6c 45bd eba0 b93d cf35 9a3d 05c5 9d3d
000000c0: c3ec 53bd 4af1 7ebd 6ace 81bd ca04 97bd
000000d0: 527a 2ebd 38af 26bd 4062 a7bd a207 f3bc
000000e0: 2584 b23d 09f7 a8bd 6066 9a3d 7384 41bd
000000f0: 0b94 853d 85cf 45bd bff2 98bd 27d2 3abd
00000100: aed1 a93d 4ff3 953d 62d0 43bd 3eab 49bd
00000110: a24b b03d 53c4 c83d 4493 81bd a2ab 90bd
00000120: aa70 903d 9b5a 8cbd e9c7 9bbd c0e5 70bd
00000130: 00f0 a7bd f395 3bbd 152d 3abd f56a a5bd
00000140: 45cc 9a3d 275d 95bd 9c86 9d3d 742c b13d
00000150: 0c14 b23d fce5 b33d c92c 4cbd 5562 97bd
00000160: d328 63bd c633 b13d 15e6 b53d 2fa5 973d
00000170: 5a85 8a3d fe24 97bd 368f 62bd 07d1 833d
00000180: 7417 693d 29c1 79bd 8cd0 acbd 963e 97bd
00000190: 6742 a83d fcc3 3ebd 9d58 82bd 1130 57bd
000001a0: 9623 b43d 9eb9 33bd 2de1 8b3d d621 2dbd
000001b0: d5ff 37bd 103a b63d 4c32 993d 300d 5fbd
000001c0: 8bae 19bd f4e4 3abd 3490 9f3d 3088 b23d
000001d0: e846 56bd 50b6 c13d c4c4 a63d 4e6c 833d
000001e0: fdf5 973d cc39 b03d 3b03 993d 0d28 a23d
000001f0: ebf9 8f3d de50 8e3d 8dfd 9d3d 28ba abbd
00000200: 9d8f 95bd 7aa4 8b3d e102 68bd 3017 9fbd
00000210: 34b8 e9bc 76a0 8cbd 307c 61bd dd3f 803d
00000220: ac48 9d3d 215f 43bd 6660 a63d 5edb 893d
00000230: c5cc b73d 9983 cd3d 22b8 58bd 148e 9bbd
00000240: 7de3 cc3d 6497 89bd 6ac3 ab3d bb2a a53d
00000250: c3ef a63d ff0d 50bd a593 3bbd 8667 88bd
00000260: ebca a9bd 9f20 843d 66d1 b1bd aa72 b73d
00000270: 7eee 9a3d b04c 6bbd 39be ca3d ca2b 68bd
00000280: 0401 8bbd b06a a0bd 96a1 923d 4e4e 8cbd
00000290: 68ef 923d 2352 a5bd 7eac 6b3d 7013 88bd
000002a0: a570 963d b482 49bd ae24 b2bd 0257 953d
000002b0: 8b2d b6bd 7cd3 9c3d 0064 8cbd 77f6 9b3d
000002c0: 960e 6ebd 850e a4bd e290 92bd cba8 12bd
000002d0: adbf a03d 31a0 a1bd bd1d a3bd 1d45 3ebd
000002e0: 3809 bf3d f17a 32bd ec58 c43d 75a8 a23d
000002f0: 6f42 563d c5e8 b8bd 6e2e 983d f7dd a73d
00000300: 7f4c a63d 8b30 bb3d 4524 adbd 4849 ae3d
00000310: 9693 883d f7aa a23d 9dae 713d da56 ab3d
00000320: 3c9e a13d 141b 0cbd 9781 a13d 66a0 983d
00000330: 2b0d a63d 1f2a 1bbd d419 b1bd 4115 42bd
00000340: 53cc 40bd 396d 8bbd 2c3a 87bd 6ed9 9d3d
00000350: 4c45 a63d 3fd4 4cbd a32b a03d 9ef5 9a3d
00000360: 565a 44bd 108e 4fbd b701 aebd d982 91bd
00000370: ca40 48bd 7e0e 2bbd 0b5f 9b3d 0aed 843d
00000380: 074e a73d 1225 91bd a690 b9bd 3907 26bd
00000390: 1deb 8abd 2897 9cbd de0c 23bd da44 8dbd
000003a0: 535e 5ebd 5502 9bbd 933f 4cbd b814 97bd
000003b0: 233c 5c3d d5d4 58bd 70a9 8c3d 8525 37bd
000003c0: 0aa5 97bd 0344 7abd 5606 563d 92f1 a93d
000003d0: b915 993d 8be5 8bbd 069d 933d 16ef 693d
000003e0: 228e 5bbd 4b93 8b3d 7fa0 44bd e48a 44bd
000003f0: a582 48bd 272c 7ebd 6d92 ae3d 3f98 68bd
-0.07609531 0.08819522 0.081952125 -0.04941306 0.08330077 -0.041659344 0.09396786 -0.044822693
-0.048810676 0.058968827 0.057732515 -0.04547823 0.07581765 0.08276137 -0.06897485 0.07687469
0.07146828 -0.047216617 0.07527338 0.085049234 -0.053148255 0.06866685 0.07960243 -0.045378998
0.05988226 0.03866209 -0.041583583 0.07191998 -0.050685138 0.07783016 0.06702897 -0.070381485
-0.07432872 -0.044977758 -0.08391722 -0.04117708 -0.04569553 -0.049864385 -0.05492225 -0.039214406
0.09325865 -0.0521613 0.073150925 0.06890438 -0.048199646 0.09063896 0.075297944 0.07703594
-0.051739465 -0.06224183 -0.063381985 -0.0737396 -0.042597122 -0.040694445 -0.081730366 -0.029666726
0.08716611 -0.08250243 0.07539058 -0.047245454 0.065223776 -0.04829361 -0.07468175 -0.045610573
0.08291946 0.07321798 -0.04780615 -0.049235575 0.08608176 0.09803071 -0.06326917 -0.07063986
0.07052739 -0.06853219 -0.07606489 -0.058812857 -0.08200073 -0.0457973 -0.04545315 -0.08077041
0.075584926 -0.07293158 0.0769169 0.08651057 0.0869523 0.087841004 -0.049847398 -0.07391802
-0.055458855 0.08652453 0.08881775 0.07404553 0.06763716 -0.073801026 -0.055312358 0.06436353
0.056907132 -0.060975228 -0.08438215 -0.07384984 0.0821579 -0.046573624 -0.06364558 -0.052536074
0.0879585 -0.04387819 0.06830058 -0.042268597 -0.044921715 0.08897793 0.074802965 -0.054455936
-0.037519973 -0.045628503 0.077911764 0.08717382 -0.052313715 0.094586015 0.08142999 0.06417142
0.074199654 0.08604774 0.07471319 0.07917795 0.0703009 0.06949018 0.077143766 -0.08385116
-0.07302783 0.06818481 -0.05664337 -0.077680945 -0.028530218 -0.06866543 -0.055050075 0.06262181
0.07679877 -0.047698144 0.08123855 0.06731294 0.089746036 0.10034866 -0.052909978 -0.075954586
0.100043274 -0.067183286 0.08386882 0.08064791 0.081512 -0.050794598 -0.0457951 -0.066603705
-0.08290657 0.064515345 -0.08682518 0.08957417 0.0756502 -0.05744618 0.09899563 -0.056682386
-0.06787303 -0.07832849 0.07159726 -0.06850873 0.07174569 -0.08072307 0.05753755 -0.066443324
0.07345704 -0.049196914 -0.08698402 0.07291986 -0.088954054 0.07657525 -0.06855011 0.07615369
-0.05811938 -0.08010582 -0.071565405 -0.035805505 0.07849059 -0.07891882 -0.079646565 -0.04645263
0.0932793 -0.043574277 0.09587273 0.07942287 0.05230945 -0.09028772 0.07430731 0.08196633
0.08120059 0.09140118 -0.084541835 0.08510071 0.06668775 0.07942765 0.059004415 0.08366175
0.07891509 -0.03420551 0.078860454 0.074524686 0.0810798 -0.037881967 -0.086475044 -0.04738355
-0.04706986 -0.06807942 -0.06602892 0.07707487 0.08118686 -0.0500071 0.07820823 0.07566379
-0.047937714 -0.05067259 -0.08496421 -0.07105035 -0.048889913 -0.041761868 0.075864874 0.06490524
0.081691794 -0.07087149 -0.090607926 -0.04053423 -0.067831255 -0.07646018 -0.039807193 -0.06897898
-0.054289173 -0.07568804 -0.049865317 -0.07376999 0.05376829 -0.052937347 0.06868255 -0.044713516
-0.074045256 -0.061100017 0.052252136 0.08298029 0.074748464 -0.06830891 0.07207684 0.057112776
-0.053602345 0.06815203 -0.048004624 -0.04798402 -0.048952717 -0.062053826 0.08524022 -0.05678582

action_model._discrete_distribution.branches.0.weight f4 [2, 256]
00000000: f0e0 03bd 3f6e 463d 92a2 a93d e25e edbc
00000010: d906 a13d 5017 b7bc 9771 593d 2e96 efbc
00000020: da65 b2bc f5eb 123d a691 313c 9206 28bd
00000030: 9d2c 013d 8c9c 593d d0cc 2fbd 18a1 273d
00000040: cc2e eb3c f5d5 2bbd 7c57 fd3c 1581 163d
00000050: f354 0fbd 9e74 f63c 0a3c 283d 60f5 f5bc
00000060: 63d8 9f3c 8c3a 4c3c 5141 ccbc d9a3 233d
00000070: a031 02bd 5e06 263d 6930 dd3c ef2e 39bd
00000080: 01ad 80bd 8426 fabc 73a6 40bd 87f6 e1bc
00000090: 09d7 37bd 09dd 5abd fffc edbc 9b59 1fbd
000000a0: 34ba 763d b721 65bd 1b56 013d 762c 263d
000000b0: f706 1dbd 1d7e 953d 90be 1b3d f19c 983c
000000c0: 06ad 31bd 4145 0ebd e764 60bd 9e98 3abd
000000d0: de16 29bd 5fe3 5bbd c66b 3dbd 9cc2 d9bc
000000e0: dffc 633d 9dce 37bd f7af c03c a24a 01bd
000000f0: d408 1a3d e02e f6bc baa6 49bd 674f b3bc
00000100: d496 933d 1dc6 0b3d a0b1 2ebd 6ac0 25bd
00000110: a1ba 7a3d 61ae 953d ad4f 5fbd 361a 65bd
00000120: 1e87 3a3d 71e6 66bd 1a0e 72bd 7c5d 5fbd
00000130: 8691 64bd 3f0b abbd a025 37bd a9ac 62bd
00000140: acd8 003d 0bdc 84bd 83af 4d3d b914 9b3d
00000150: b840 483d 4f25 913d 76d7 0ebd b7ac 74bd
00000160: a422 2abd ef68 113d c907 7b3d 1947 583d
00000170: 61c4 123d 8dc4 81bd 6a23 d4bc acf7 4a3d
00000180: 5e71 df3c 32ec b2bc 6ba0 46bd 9dbc 4bbd
00000190: 07fd 063d 21c0 dfbc 16d6 42bd f391 8dbd
000001a0: 10d7 173d c162 50bd ddca 2a3d 2ced 23bd
000001b0: e497 00bd 4b3c 5c3d 7af8 cc3c 835e 98bc
000001c0: 1fff f5bc cef1 e2bc 95ad 133d b0af 3d3d
000001d0: 01d5 19bd e22b 653d cb45 7a3d ab0b 9e3c
000001e0: 2158 1e3d 8cfa 423d 2138 4c3d afdd 143d
000001f0: e132 a83c 3098 e03c 1606 483d 6672 87bd
00000200: 6738 66bd 4988 d33c 8849 78bd b4f8 32bd
00000210: 8856 0bbd 1fb5 3ebd b5a9 5fbd 02af 003d
00000220: 942c 243d 8eb0 1abd 247b 5c3d 066c fd3c
00000230: cdb7 7c3d a012 903d ed77 6cbd ac9c 7dbd
00000240: fafb 933d 96d4 58bd 4b88 653d ba89 203d
00000250: 2d69 fa3c 54ba 67bd c15e a2bc 4fc6 49bd
00000260: 5376 65bd 3056 ca3c 571f 61bd 806a 7b3d
00000270: ecb8 223d 589b 27bd ff05 863d 7266 52bd
00000280: 712f 81bd aeaa 82bd 879b 513d 9aa4 6fbd
00000290: bcdb 3c3d 7a52 76bd e38a de3b 684e 20bd
000002a0: 006f 533d 0601 29bd 7360 80bd 5ae4 363d
000002b0: 3410 48bd adf3 263d ead9 4cbd 5ddc 913d
000002c0: 4d56 5bbd f8af 68bd 123c 2bbd c6cc 6abd
000002d0: c9be 3e3d ac02 58bd f0bb 42bd 31fa e0bc
000002e0: 79ed 833d cd4a 09bd 9cb7 8b3d 8205 043d
000002f0: dd98 c33b e71c 74bd 063d 0c3d 13c6 9d3d
00000300: 313e 653d 5446 843d 8e77 7cbd 69a9 223d
00000310: 7378 1a3d eb3d 463d 7ce2 4d3c 946b 523d
00000320: c367 343d 06f3 11bc 70e6 ea3c 2e2b 513d
00000330: c7fa 5b3d 7c86 00bd 1f3b 5cbd 6dc5 10bd
00000340: 0f82 24bd b34a 34bd 69c2 41bd 3d98 463d
00000350: e358 403d 07cd 1abd 276c 123d 6023 2a3d
00000360: d136 03bd 4e0a ebbc 6bce 3bbd 3118 51bd
00000370: 1a65 b3bc 2101 0abd 207c 2a3d c354 043d
00000380: b0d5 663d 9909 6abd 462b 56bd c6b7 eabc
00000390: 3c51 6ebd 9072 63bd 72ad 6dbd 649b 83bd
000003a0: aed7 bbbc c8f7 56bd c1cb bebc 26f7 6bbd
000003b0: b68f 0e3c 98f5 cfbc 49e2 1f3d 5893 46bd
000003c0: a507 74bd 9382 47bd 7d8d 2a3c 9ce2 4e3d
000003d0: 162a 0f3d 5d9c 32bd 67c4 143d dc27 7b3c
000003e0: e64d 12bd d620 f43c d0ee 14bd f932 41bd
000003f0: eb6e 16bd 457b 6ebd a341 863d dd33 35bd
-0.03219694 0.048444983 0.08282961 -0.028975908 0.07862634 -0.022349983 0.053086843 -0.029246416
-0.021777082 0.035869557 0.010837948 -0.04102189 0.031536687 0.05312781 -0.042919934 0.040925115
0.028708838 -0.041952092 0.030925505 0.036744196 -0.034993123 0.030084904 0.041072883 -0.03002423
0.01951236 0.012465131 -0.024933489 0.03995118 -0.031785607 0.040533416 0.027000623 -0.045210775
-0.06282998 -0.030535944 -0.04703374 -0.027583374 -0.044882808 -0.05343345 -0.029051302 -0.038903814
0.06023617 -0.055940356 0.031576257 0.040569745 -0.03833672 0.07299445 0.03802353 0.018629523
-0.0433779 -0.034734014 -0.054783728 -0.045555703 -0.041281573 -0.053683635 -0.04624536 -0.026582055
0.05566108 -0.044874776 0.023521407 -0.031565316 0.037606075 -0.030051649 -0.04923127 -0.021888448
0.072065026 0.034124482 -0.042649865 -0.040466703 0.06121314 0.07308651 -0.054519344 -0.0559332
0.045539014 -0.05637211 -0.05909548 -0.054532513 -0.055802844 -0.083517544 -0.044713616 -0.055340443
0.031456634 -0.06487282 0.05021621 0.07572312 0.048889846 0.07087194 -0.03487345 -0.059735026
-0.041536942 0.035500463 0.06128672 0.05280218 0.035831813 -0.06336317 -0.025895793 0.049552605
0.027275737 -0.021841142 -0.04849283 -0.049740423 0.03295615 -0.027313294 -0.04756745 -0.06912603
0.037070334 -0.05087543 0.04169737 -0.040021107 -0.031394854 0.053768437 0.025020827 -0.018599754
-0.030028878 -0.027703192 0.036054213 0.046310127 -0.037556652 0.055950053 0.061101716 0.019292673
0.038658265 0.04760222 0.049858216 0.036344226 0.020532073 0.027416319 0.04883393 -0.06613617
-0.056206133 0.025821822 -0.060617 -0.043694213 -0.03401807 -0.04655945 -0.054605205 0.0314169
0.040081576 -0.037766032 0.053828374 0.030935299 0.061698724 0.070348024 -0.057731558 -0.061916992
0.07225795 -0.052937113 0.056038182 0.039193846 0.03056773 -0.05657418 -0.019820573 -0.049261387
-0.056021046 0.0246993 -0.05496153 0.061380863 0.039727136 -0.04091963 0.065441124 -0.05136723
-0.06307877 -0.06380211 0.051173713 -0.058506586 0.046107993 -0.06013725 0.006791459 -0.039137274
0.05161953 -0.04126074 -0.06268396 0.044651367 -0.048843578 0.04075973 -0.050012507 0.07122109
-0.0535491 -0.056808442 -0.041805334 -0.057324193 0.046568666 -0.052736923 -0.047542512 -0.02746305
0.06441779 -0.0335186 0.0682213 0.032231815 0.0059691505 -0.059597876 0.034237884 0.07703795
0.055967513 0.064587265 -0.061637454 0.039712343 0.037712526 0.048398893 0.012566205 0.051372126
0.044044267 -0.008908039 0.028674334 0.05106657 0.053705957 -0.031378254 -0.05376732 -0.03534453
-0.040163096 -0.04401655 -0.047304545 0.04848503 0.04695977 -0.037793186 0.035747673 0.041537642
-0.0320347 -0.028691437 -0.045851152 -0.05104846 -0.021898795 -0.033692483 0.04162228 0.032307398
0.056356132 -0.05713806 -0.052287363 -0.028652083 -0.05818294 -0.055529177 -0.05802674 -0.06426123
-0.022929993 -0.052482396 -0.023290517 -0.057608746 0.008701256 -0.025385663 0.03903416 -0.04848036
-0.059577603 -0.04870851 0.01040971 0.05050908 0.034952246 -0.04360615 0.036320116 0.015329327
-0.03571882 0.029800814 -0.03636056 -0.047167752 -0.036726873 -0.058223028 0.06555488 -0.044238914

action_model._discrete_distribution.branches.0.bias f4 [2]
00000000: 6c0c 4f3d 6b0c 4fbd
0.050548956 -0.050548952

54 f4 [4]
00000000: b740 2c3e e40c f03e bd9e 403e f1c0 4b3e
0.16821562 0.46884835 0.18810554 0.1989782
