results/flappy1/FlappyAgent/FlappyAgent-16369.pt (torch, 439634 bytes, 41 tensors)

network_body.observation_encoder.processors.0.normalizer.running_mean f4 [6]
000000 be 63 26 bf 1b bc 23 41 00 00 00 00 d8 6a 9c 3f
       -0.64995944 10.233424 0.0 1.2220106
000010 00 00 00 00 00 00 00 00
       0.0 0.0

network_body.observation_encoder.processors.0.normalizer.running_variance f4 [6]
000000 87 13 b6 3f 36 af 15 47 00 00 80 3f c6 d2 42 49
       1.4224709 38319.21 1.0 797996.4
000010 00 00 80 3f 00 00 80 3f
       1.0 1.0

network_body.processors.0.normalizer.running_mean f4 [6]
000000 be 63 26 bf 1b bc 23 41 00 00 00 00 d8 6a 9c 3f
       -0.64995944 10.233424 0.0 1.2220106
000010 00 00 00 00 00 00 00 00
       0.0 0.0

network_body.processors.0.normalizer.running_variance f4 [6]
000000 87 13 b6 3f 36 af 15 47 00 00 80 3f c6 d2 42 49
       1.4224709 38319.21 1.0 797996.4
000010 00 00 80 3f 00 00 80 3f
       1.0 1.0

network_body._body_endoder.seq_layers.0.weight f4 [128, 6]
000000 b3 08 b8 3e 60 06 e6 bc 93 3f 95 3f cb 60 a5 3d
       0.35944137 -0.028079212 1.1660026 0.080751024
000010 22 33 bf 3e 6a 47 81 be 75 27 82 bd 06 c2 f3 be
       0.373437 -0.25249797 -0.06355182 -0.47608966
000020 b4 32 cd 3e 9e 5c 10 3f 56 61 d4 3e af fa 1f be
       0.40077746 0.5639132 0.4148051 -0.15622972
000030 2d b6 eb 3e e1 33 11 3e bf a1 af bd 8a e7 e0 bd
       0.46037427 0.14179946 -0.085757725 -0.109816626
000040 d5 89 46 be af 2b 08 bf a1 79 d6 be dd a7 06 bf
       -0.19388516 -0.53191656 -0.4188967 -0.5259989
000050 9d bc 28 3f a1 ad 4c 3e 7c d4 e3 be a9 30 23 3c
       0.659128 0.19988109 -0.4449805 0.009960332
000060 0c ba 42 3b 2d 2b 8e bd 93 e6 39 bf 3f 39 a2 bd
       0.0029712943 -0.06941829 -0.72617453 -0.07921075
000070 59 13 c8 3e fc f9 8d be 46 d4 24 3f fc 4e b3 3d
       0.3907726 -0.27729785 0.64386404 0.087552994
000080 46 c9 cc bd 9e cb 58 3e 31 13 b1 be 82 a9 17 bf
       -0.09999327 0.21171424 -0.34584954 -0.59243023
000090 97 f3 59 3e 31 ee 26 3f e8 83 1e be fc 17 1b bf
       0.21284328 0.652072 -0.15480006 -0.6058347
0000a0 c9 8a d7 3d 66 fb af 3e f1 7b 88 3e ad 49 87 3d
       0.10524518 0.3437149 0.2665706 0.066058494
0000b0 84 0b ec 3e bf 07 8e 3d e3 bb cf 3e 99 49 72 3e
       0.46102536 0.06935071 0.40573034 0.23660888
0000c0 d3 19 95 3f e2 4e 11 3e c4 dd 49 3f cd dc 30 3f
       1.1648506 0.14190248 0.7885401 0.69086915
0000d0 87 95 1f bd e3 ac 6d 3e 8f 23 6d bd 5d 26 39 bf
       -0.03896096 0.23210482 -0.05789524 -0.7232416
0000e0 36 69 0a 3f f9 a2 0c bf 96 67 e5 3e 8c 81 1e be
       0.5406679 -0.54936177 0.44805592 -0.15479106
0000f0 53 e9 f7 be 27 bc 4d 3e da b0 04 bd da 0a 6b 3e
       -0.484202 0.20091306 -0.03239522 0.22953358
000100 e4 9d 58 3e f6 2d 4c be 35 e6 fc be 2c 46 11 bd
       0.2115398 -0.19939408 -0.49394384 -0.03546731
000110 2a f2 e5 3e 35 af e1 3e 1c 39 6e be dc 47 94 be
       0.4491132 0.44078985 -0.23263973 -0.28961074
000120 1a a8 8c 3e 3b f5 89 be d3 87 f4 bc 84 3e bb be
       0.27472 -0.26944908 -0.029849922 -0.36571133
000130 9f 9f cc 3d be 1c 14 bf 31 d8 fb be be da b7 be
       0.09991383 -0.5785636 -0.49188378 -0.35909075
000140 84 04 ae 3e c0 8c 6a be ed 52 8c be cf f8 60 3e
       0.3398782 -0.22905254 -0.27407017 0.21969913
000150 42 e5 82 3e 1c 23 ae 3e 5a e0 3a 3f c3 e7 1a be
       0.25565535 0.3401116 0.72998583 -0.15127473
000160 ee 48 a6 3c 71 63 13 3f 9c 9f 0a 3f 5e c3 12 be
       0.020298447 0.5757361 0.54149795 -0.14332339
000170 1a 89 0f 3f c5 93 ae bd 05 28 55 3f 98 9c c3 bd
       0.56068575 -0.085242786 0.8326419 -0.09551352
000180 dc cc b6 3e 13 87 04 be 15 28 18 bf 0e 69 ce be
       0.3570317 -0.12942152 -0.5943616 -0.40314525
000190 a2 a9 97 be 9f e5 61 be d9 56 af 3e 33 54 16 be
       -0.29621607 -0.2206025 0.34245947 -0.14680557
0001a0 10 09 24 3f fe 9b f3 be 01 73 10 3f a4 ee 23 3b
       0.6407633 -0.4757995 0.5642548 0.0025014067
0001b0 18 23 10 3f 63 41 c7 3e 6a 1f dc 3d bb e1 87 3c
       0.5630355 0.38917074 0.10748179 0.016587129
0001c0 7f f3 b3 be 11 8b 5f be d6 c1 89 3d d7 e6 c8 be
       -0.3514671 -0.21830393 0.067264244 -0.39238617
0001d0 3b 8a 44 bf 7b fd a6 be 39 47 b3 3e 09 77 8c 3e
       -0.7677342 -0.32615265 0.35015276 0.27434567
0001e0 5c 51 4b be fe c3 04 bf 7a fd ca 3d 54 14 fa bc
       -0.19855255 -0.5186156 0.09911628 -0.030527271
0001f0 c1 c1 00 bf 3a 9f da be bc 79 e0 bd 30 75 0b bf
       -0.50295645 -0.42699605 -0.10960719 -0.5447569
000200 15 43 b0 3e 01 45 11 3f 97 75 9d 3c 62 7a aa 3e
       0.3442618 0.56745917 0.01922111 0.33296496
000210 67 1c a7 be 79 58 53 3f 04 3e 00 bf 0d db ba 3d
       -0.32638857 0.82556874 -0.5009463 0.09123812
000220 18 90 9a be 6d 9f ec be 1f cc fd 3d f9 cc 3d 3e
       -0.3018806 -0.46215382 0.12392449 0.18535222
000230 83 47 9b 3d 1c 91 da 3e 79 48 a7 bd 19 59 b5 be
       0.07581999 0.42688835 -0.0816812 -0.3541954
000240 dd a0 a8 be 84 e9 2f bf 21 6b b0 3e 24 ef 88 3e
       -0.3293523 -0.6871569 0.34456733 0.2674495
000250 e9 47 3f bf b3 43 4a bd 7e 95 98 be ba 20 a3 3e
       -0.747191 -0.04938097 -0.29801553 0.31860906
000260 d7 9c bb 3e 0d 5b 40 3e 83 73 21 3e 92 f4 55 3f
       0.36643097 0.18784733 0.1576672 0.8357631
000270 79 1b a0 be c2 0a 65 be 71 ba 5f 3e 61 be 9d be
       -0.3127096 -0.22367385 0.21848466 -0.3080931
000280 60 fb bf 3d 0d f4 ea 3d e9 1c 49 3e 6a a6 d0 bd
       0.09374118 0.1147233 0.19639935 -0.10187991
000290 3a 17 e2 bb c4 b5 c7 3e 27 87 67 bf 13 0f b1 be
       -0.0068997415 0.39005864 -0.904406 -0.34581813
0002a0 87 27 91 3e 6d c6 03 bf d5 c9 72 3d 32 38 43 3e
       0.2835047 -0.5147465 0.059274513 0.19064406
0002b0 97 6e 74 3f 9d 97 0d bd bc 86 d1 be ee 42 20 bf
       0.95481247 -0.034568418 -0.40923107 -0.62602127
0002c0 1e a3 8a 3e a7 01 16 bf 68 33 88 be 52 e8 f3 be
       0.27077574 -0.5859627 -0.2660172 -0.47638184
0002d0 3f c0 72 3e 0b bc 86 be 3b 2c 66 be 0b 15 7e be
       0.23706149 -0.2631534 -0.2247781 -0.24812715
0002e0 ba 42 bf be 04 4e a1 3e c8 a6 c5 bd e5 29 9c bd
       -0.37355596 0.31504834 -0.096509516 -0.07625178
0002f0 6b 72 fb be 9a 3d e6 3e 95 bf bf 3e 4f 43 81 be
       -0.4911073 0.44968873 0.37450853 -0.25246665
000300 44 34 44 3c 82 20 24 3e be 91 85 be 24 fd c0 3d
       0.011975352 0.16028026 -0.26087755 0.09423283
000310 20 12 80 3e 3a 89 a5 be 25 33 70 bf 0b 5e 9b be
       0.25013828 -0.32331258 -0.9382804 -0.30345187
000320 45 76 75 3e 9d a8 57 3e 2d dc 35 be eb 5a ff be
       0.23970897 0.21060415 -0.17759772 -0.49874052
000330 ef 07 01 3e 3a 5a fc be 12 e9 84 3f 7a 91 1c 3e
       0.12600683 -0.49287587 1.0383627 0.1528987
000340 5c 1f ce 3e a4 24 72 3d 09 29 6f 3e 23 43 bb be
       0.402583 0.059116974 0.23355497 -0.3657466
000350 85 2b 05 bf 3c d2 46 be 37 d4 b1 3e bd 29 30 3e
       -0.5201953 -0.19416136 0.3473222 0.17203422
000360 66 48 17 bf b4 87 00 be 65 25 1a be 7b 57 74 3f
       -0.59094846 -0.12551767 -0.15053327 0.95445985
000370 fd e1 2f 3e 2a 22 a7 3a 6f a4 a9 3a 40 5c a7 be
       0.17176051 0.001275127 0.0012942682 -0.3268757
000380 04 dd ed be 04 d7 d9 3e 6f be 3a 3e da 46 ea be
       -0.46457684 0.42546856 0.18236707 -0.4575718
000390 07 7f 8e be c9 2b e9 3e 46 61 d3 be 2c d1 fb 3e
       -0.2783129 0.45541218 -0.4128515 0.49183023
0003a0 41 0f 98 be 8e 56 b6 3d ba b9 bd be 58 43 1a bf
       -0.29699138 0.08903228 -0.3705576 -0.6025901
0003b0 eb 99 0f bf 9f 33 64 bf 34 f8 22 3d 9b 69 29 3f
       -0.56094235 -0.8914127 0.039787486 0.66176766
0003c0 28 64 fb 3e 01 bb 3a bf b7 7c 7b be 42 e6 64 3e
       0.4909985 -0.72941595 -0.24559294 0.22353461
0003d0 1b b2 ca 3e e2 a5 59 3e 7e 87 9b bd 20 ea 87 be
       0.3958901 0.21254686 -0.075942025 -0.2654581
0003e0 8a 90 35 bf a1 0b 96 bd 82 90 f4 3d 04 5f d4 be
       -0.70923674 -0.07326437 0.11941625 -0.4147874
0003f0 64 52 c3 3d c6 6b 0b 3e 81 7c 5a bd 31 fc 69 3e
       0.09537199 0.13615331 -0.053341392 0.2285011

network_body._body_endoder.seq_layers.0.bias f4 [128]
000000 19 58 b7 bb c7 ca b0 3a 7d 88 66 3b d4 2b e7 3a
       -0.005595219 0.0013488167 0.0035176568 0.0017636963
000010 6f 1b 36 bb 5b c0 a2 bb 63 78 12 3c 8e fd 2d ba
       -0.0027787348 -0.004966778 0.008939835 -0.0006637209
000020 ef 05 9a 3a 10 ca cd bb d5 06 2d 3b d0 74 22 3b
       0.0011751036 -0.0062801912 0.0026401777 0.0024788864
000030 20 02 56 3b ab 9a e1 bb 31 7a fd bb e4 f1 7d 3a
       0.0032655075 -0.006884893 -0.0077355136 0.00096872286
000040 fc 78 5a bb 26 42 cb 3a e2 8b 1f bb 86 ba 5c 3a
       -0.0033336272 0.0015507385 -0.0024344851 0.0008420128
000050 8d df ca bb af 97 86 3a f1 01 f3 3a f8 f0 ea ba
       -0.0061912 0.0010268594 0.0018540007 -0.0017924597
000060 f8 a8 6e bb 4d 78 b8 3b e8 9f a1 3a e5 69 0b bb
       -0.0036416631 0.0056295753 0.0012330981 -0.0021272835
000070 b1 57 c9 3a a7 2e d1 ba c7 fa 24 bb 75 36 94 ba
       0.0015361217 -0.0015959338 -0.002517389 -0.0011307733
000080 e7 de 14 bb d8 cd 85 3b c0 6d b6 bb 98 f7 89 3a
       -0.0022715868 0.0040833764 -0.0055672824 0.0010526059
000090 13 8a 63 3b a7 fc cc ba ee 25 0d 3a 24 21 7d 3a
       0.003471975 -0.0015639261 0.0005384375 0.00096561224
0000a0 93 82 0a 3b a2 c1 1f bb 58 6a 30 3b 37 2c a5 3b
       0.0021134957 -0.0024376889 0.0026918855 0.005040671
0000b0 2a 40 2a bc 27 97 a1 3a 6e 9e 4d bb 25 b1 8e 3b
       -0.0103912745 0.0012328372 -0.003137495 0.0043546134
0000c0 f0 b0 97 bb ae 36 47 3b 33 cc 8c bb d8 a5 41 ba
       -0.004629247 0.0030397582 -0.0042968034 -0.00073870784
0000d0 76 a3 24 3c 87 de 03 ba ed 4c 57 3c 76 38 c6 38
       0.010048738 -0.00050304126 0.013140899 9.4518924e-05
0000e0 b4 89 f4 3b 1e 75 da ba 7a ee 61 bb 59 cc 95 bb
       0.0074627046 -0.0016666984 -0.0034474418 -0.0045714793
0000f0 14 e8 81 3a 41 72 2b 3b 4a 7c 85 b8 82 09 96 ba
       0.0009911084 0.002616063 -6.365085e-05 -0.0011446925
000100 bf ef 9c 3b 44 f8 cf 3a 2c 44 5b 3b d8 d5 b1 3a
       0.004789322 0.0015866836 0.0033457382 0.0013567759
000110 d8 d2 0b 3c 7c 22 44 ba b0 e8 b3 3b 09 b0 47 3a
       0.008534156 -0.0007481945 0.005490385 0.0007617479
000120 b8 b9 0d 3a e9 74 87 3a e7 37 97 3a 07 c7 63 3c
       0.00054063974 0.0010334525 0.0011537046 0.013902432
000130 64 a5 46 bb 8a 72 17 3a 2e 69 83 bb dc aa b1 3a
       -0.0030310983 0.00057772605 -0.004010341 0.0013554948
000140 4f ce 0b 39 2f 5f fd 3b 94 8d 95 39 d3 f6 84 bb
       0.00013332929 0.007732294 0.0002852498 -0.004057744
000150 ba 0c 06 39 04 29 7d 3a 91 a5 9f 3a 45 26 bb ba
       0.00012783977 0.0009657296 0.001218008 -0.0014278373
000160 ac a4 d9 3b 31 c2 44 3b 49 d6 81 3a fd a2 0b 3c
       0.006641945 0.0030022974 0.0009905781 0.008522746
000170 08 ca 0e ba d6 e8 10 ba a0 8d e0 bb 3d d8 29 ba
       -0.0005446975 -0.00055278593 -0.0068528205 -0.00064790604
000180 73 72 a7 bb f5 06 a4 bb aa 39 20 3a f4 21 f2 b9
       -0.005110079 -0.005005712 0.0006112108 -0.00046183134
000190 f7 38 e1 bb 43 88 b8 ba 75 e0 4b 3b da 75 2a 3b
       -0.006873246 -0.0014078695 0.0031109129 0.0026010186
0001a0 24 74 8d bb df 37 1e bb 81 13 21 3c 01 f9 6e ba
       -0.0043168236 -0.0024142188 0.00983131 -0.0009116084
0001b0 b9 78 a4 39 5c 6a 0f 3c 95 9c 1a 3c ba df 1b 3b
       0.00031370463 0.008753385 0.009436746 0.0023784474
0001c0 c1 bc 47 ba e0 51 df bb 2c 26 55 3b d9 7b a9 b9
       -0.0007619374 -0.00681518 0.0032523973 -0.00032326466
0001d0 e3 43 dd bb 1e 8a 3b 3a a2 4a 68 3b a4 14 a6 ba
       -0.0067524775 0.0007154065 0.0035444875 -0.0012670946
0001e0 0b af ed 3b e5 6b d9 39 16 5f c1 3b c8 dd 04 3a
       0.0072535328 0.00041469853 0.0059012277 0.00050684484
0001f0 9f 21 93 3b e9 b9 09 3b 7b 6a 66 bb 8d 11 52 3a
       0.004490092 0.0021015352 -0.0035158682 0.00080134795

network_body._body_endoder.seq_layers.2.weight f4 [128, 128]
000000 79 3b 12 3d bb 8d a7 3c be 2b f4 bd 7c 73 d2 3d
       0.03570125 0.020453325 -0.11922406 0.10275933
000010 14 27 9b bc d4 97 88 bd fc d8 95 3d e4 3c 0d be
       -0.018939532 -0.06669584 0.07316777 -0.13792759
000020 c9 b1 40 3e e7 8d 67 3c 02 0b a1 bd be 14 9f 3d
       0.1881782 0.014132953 -0.07863428 0.07767628
000030 5e a1 c0 3d 49 89 c0 bd aa 24 b8 bc 11 18 5e 3c
       0.09405778 -0.09401185 -0.02247842 0.013555543
000040 f4 ca 39 3e 48 93 d7 3d 2f dc b4 3d 9c 19 ad bd
       0.18143827 0.105261385 0.08831059 -0.0845215
000050 04 86 9a bd 48 2e 78 3d 23 c4 8f bd 24 da 3c bd
       -0.07545093 0.060591012 -0.07019832 -0.046106473
000060 f0 d5 9f 3d 60 d0 c7 bc 07 cd 8b bd 09 a5 87 bd
       0.07804477 -0.024391353 -0.06826215 -0.06623275
000070 84 c2 46 bd 8c 98 ef 3c f5 76 1a 3e 69 e7 06 3d
       -0.04852535 0.029247545 0.15084441 0.032935534
000080 49 c8 32 bd 90 7e 11 bd 91 9a d2 3d 90 55 01 bd
       -0.043648038 -0.03552109 0.102833875 -0.03157574
000090 50 ca a8 3d c0 82 00 3e 62 61 61 bd 7b 5b 21 3e
       0.08241713 0.12549877 -0.055024512 0.15757553
0000a0 cd 37 17 3d 14 89 5d bb 6f d2 55 bd 34 6e 11 3e
       0.03691845 -0.0033803629 -0.05220264 0.14202195
0000b0 b1 dd da 3d 2f 07 48 3c 03 72 09 bd c8 f5 30 bd
       0.106868155 0.012208744 -0.033555996 -0.043203145
0000c0 41 ec d0 bd 8d 33 a9 bd a6 1c 4d 3d 19 1a ea 3a
       -0.10201312 -0.08261786 0.05007615 0.0017860561
0000d0 6a 38 f8 bd db 81 99 b9 67 0f bd 3b 73 ce 34 bd
       -0.12120135 -0.00029279184 0.0057696584 -0.044142198
0000e0 e5 c4 c9 bc dc 04 01 3e 48 d8 2c 3e 4f 82 96 bc
       -0.02463002 0.1259951 0.1687938 -0.018372683
0000f0 26 4f 5a 3d 97 38 a9 3d 1c a1 36 bd e3 5b 81 3d
       0.053298138 0.08262747 -0.04458724 0.06316354
000100 f3 5d 24 bd 3b 11 90 bc c2 52 0a bc 7e 19 10 3d
       -0.04012866 -0.017586341 -0.008442583 0.03518056
000110 05 46 91 bd 0a f8 a5 3d e2 ba ce bc 38 09 04 3d
       -0.07093433 0.0810395 -0.025235597 0.032235354
000120 ef 7d b3 bc 5b 6b 51 3d a1 d2 57 3d d8 5a a6 3d
       -0.021910636 0.051127773 0.052691106 0.08122796
000130 ad f4 88 3d d7 c1 a0 bc ff 8f 94 bd 9e 1a 9b bd
       0.06687293 -0.01962368 -0.072540276 -0.07573436
000140 9a e6 d9 bd de f4 9f bd e5 e9 0d bc cc 5b 92 3d
       -0.10639687 -0.078103766 -0.008661722 0.07146415
000150 70 b3 42 3e d4 15 c9 bd 9d 1b da 3d eb 9c 30 3d
       0.19013762 -0.098186165 0.10649798 0.0431184
000160 35 d8 9f bd 58 46 5e 3d 7b 0a 32 3c de 17 81 bd
       -0.0780491 0.054266304 0.010866757 -0.063033804
000170 67 02 8b bd 7a 84 8b 3b 08 09 03 be f6 43 6e bd
       -0.067875676 0.004257736 -0.12796414 -0.05817028
000180 78 0e d2 bd f7 2f 8a bd cc f1 5b 3e 04 28 81 3d
       -0.10256666 -0.0674743 0.21478957 0.063064605
000190 ba b7 85 bd 14 7b 62 be 39 cf 11 bd cf 83 b8 3d
       -0.06529184 -0.22117263 -0.035598014 0.090095155
0001a0 48 69 cb bc 4b 64 10 3d 1d f0 76 3d 53 fa aa bc
       -0.024830475 0.035251897 0.060287584 -0.020871317
0001b0 87 e9 26 be db 18 18 3c e3 df 04 be bb 71 47 bc
       -0.16300021 0.00928327 -0.12976031 -0.012173112
0001c0 dc 79 a0 3d f6 43 df bd 1a a0 23 3c 69 c4 ee bc
       0.07835743 -0.109016344 0.009986902 -0.02914639
0001d0 01 9d 7c bd 50 f7 19 3e 5f 48 7b 3d d1 88 e2 bc
       -0.061673168 0.15035748 0.061348315 -0.02765313
0001e0 ea c5 ee 3d 97 0a 1a be 6e e8 bf 3d 79 5c d0 bc
       0.11658843 -0.15043102 0.09370504 -0.02543472
0001f0 d6 19 4f be 04 69 3e 3e 9b e4 21 3d 0c e2 9e 3d
       -0.202247 0.18594748 0.039524656 0.07757959
000200 b2 2f a9 bd ac b2 06 be 2c 59 2e 3d 9a 73 13 be
       -0.0826105 -0.13154095 0.04256551 -0.14399567
000210 cd 97 e5 3c d6 13 1f 3e 41 6f 03 3b e1 e2 77 bd
       0.028026486 0.1553491 0.0020055326 -0.060519103
000220 56 c8 76 be 80 55 8f bd df f4 61 ba 0e 98 13 be
       -0.2409986 -0.0699873 -0.00086195575 -0.14413473
000230 69 1e 45 3d 5d 58 87 bd a2 1b 2b 3d ef cf f5 3d
       0.048124705 -0.06608651 0.0417744 0.12002551
000240 c1 32 2c 3d 5f cb 24 bd 4b a5 4c bd 64 a6 33 bd
       0.04204059 -0.040233012 -0.049962323 -0.043859854
000250 ba aa ea 3c 14 08 01 3d f1 0f b9 bc eb 76 8b bd
       0.028645862 0.031501845 -0.02259061 -0.06809791
000260 c8 40 51 3d b4 27 b0 3c 83 fe 44 3d b0 e9 41 bd
       0.05108717 0.021503307 0.048094284 -0.047342002
000270 c8 f2 70 bd 21 8d 91 bc dc e1 01 be 10 bc 1c bd
       -0.058825284 -0.01776749 -0.12683815 -0.038265288
000280 64 60 59 bd 2d 5b 04 be 13 e0 ce bd ec 5c 94 3d
       -0.05307044 -0.12925406 -0.101013325 0.07244286
000290 94 fc c3 3d a1 5d 44 bd 42 2f 14 be fb 11 b3 3d
       0.0956966 -0.047940854 -0.14471152 0.08743664
0002a0 24 84 d0 3d c9 f0 14 be 22 ed 23 3c 87 af 0e 3d
       0.10181454 -0.14544977 0.010005267 0.034835365
0002b0 f7 ba 8c bd b6 d9 0b be 3f c1 03 3e a0 bf cb bd
       -0.06871598 -0.13657269 0.12866686 -0.09948659
0002c0 4f 82 1c be 81 62 31 bd 15 5a df 3d 82 16 86 bd
       -0.15284084 -0.04330683 0.10905854 -0.06547262
0002d0 27 ff 84 3d db 99 12 3c 99 b4 1f 3d f4 d6 06 3d
       0.06493979 0.008947815 0.03899059 0.03291984
0002e0 be 77 ee bd 16 ae 5b 3d cb d7 ce 3d 09 d8 88 bd
       -0.11643933 0.05363282 0.10099753 -0.066818304
0002f0 f1 86 d2 3c 1e 27 2a 3c 6c 7b 19 be e6 44 ac 3d
       0.02569911 0.010385303 -0.14988488 0.08411579
000300 d3 b2 86 3d 57 32 72 3c a2 ca a1 3d 92 9c 26 be
       0.06577077 0.01478251 0.07899977 -0.16270664
000310 1b c7 6e 3d d0 ed 31 bc 99 d8 0a bd 24 46 c0 bd
       0.05829535 -0.010859922 -0.03389797 -0.09388378
000320 eb e2 c4 bd 07 00 70 3c 83 df fc bd 2d b0 73 3e
       -0.09613594 0.014648444 -0.12347319 0.23797674
000330 5e 77 11 bd 8a 67 8a bd 14 46 15 3e 11 0b 54 bd
       -0.035514228 -0.0675803 0.14577514 -0.051768366
000340 8c 8c 90 3c 8d a2 e8 3c a3 a4 92 bd f0 f5 a3 3d
       0.017645143 0.028397823 -0.07160308 0.08005893
000350 af 92 4e 3d f0 16 17 3e 28 8e 24 3e bb 35 48 3c
       0.050432857 0.14754844 0.16069853 0.012219842
000360 ff 83 09 3e 2f 78 e5 bd dc 35 24 3c 5a b8 07 3e
       0.13429259 -0.11204564 0.010022607 0.13253918
000370 0a 58 53 3d ef fa 90 bc 05 e9 b4 3c e3 fe 1f bd
       0.051597632 -0.01769778 0.022083769 -0.03906144
000380 0c 10 40 3d a6 7c 0b be 57 a6 4b bd 7a 19 9d 3d
       0.046890303 -0.13621768 -0.04971918 0.07670875
000390 e8 0f 03 3d 52 ea 38 3d 14 15 b1 bc c5 d4 0b 3d
       0.03199759 0.04514534 -0.021616496 0.03413846
0003a0 b1 07 b1 bd 7e c9 62 be 29 d9 e3 bc 7e c4 98 bc
       -0.08644045 -0.22147176 -0.027813511 -0.018648382
0003b0 f0 71 94 bc 3a 87 7f bc 0b 9a bc bd 41 99 41 bd
       -0.018120736 -0.015596205 -0.09209069 -0.047265295
0003c0 ce ce 9e bd a4 7a ca bd b3 3a 1f be 35 07 1c 3d
       -0.077542886 -0.09886673 -0.15549736 0.03809281
0003d0 43 7b f4 3c b2 c0 91 bc 28 5b b8 bd 10 58 d0 bc
       0.029843932 -0.01779208 -0.09001762 -0.025432616
0003e0 13 c5 01 3e 11 4b 51 bb 9f 36 76 3d 78 2c 11 3c
       0.12672834 -0.0031935612 0.060110684 0.0088607
0003f0 d6 e6 0d bd 0d 32 1d 3c 10 20 11 be f7 9e a6 3d
       -0.03464397 0.009594453 -0.14172387 0.08135789

network_body._body_endoder.seq_layers.2.bias f4 [128]
000000 2f bc 5b 3a ed 35 e5 3b f5 bf a8 3a 74 87 92 bb
       0.00083822286 0.006994954 0.001287459 -0.0044717137
000010 f6 c7 36 3b 55 35 83 ba 57 9a 93 39 95 83 29 3a
       0.0027890182 -0.0010010401 0.00028153017 0.00064664456
000020 1f 49 97 b9 fd 37 93 3b 78 f7 c0 39 4f 2e a1 3b
       -0.00028855444 0.0044927583 0.00036805472 0.0049188505
000030 9a 22 19 3b 88 f5 31 3a 49 41 96 bb ac 7d 7a ba
       0.0023366571 0.0006788601 -0.0045854193 -0.000955547
000040 cd 43 bd 3b 04 7a 84 ba da c1 66 3b ce 45 72 39
       0.0057759047 -0.0010107164 0.003521076 0.00023104923
000050 5a 0f a8 3a c7 44 0c 3a d6 d4 19 ba 2e 92 36 3b
       0.0012821958 0.0005350825 -0.0005868202 0.0027858126
000060 12 19 06 3c fc af 4d bb 2a 81 1a ba e1 6e b7 3b
       0.008184688 -0.0031385412 -0.0005893881 0.0055979346
000070 da dd a7 bb 29 f7 9a b9 14 23 0c 3b 4c 95 a8 3b
       -0.0051228823 -0.00029557318 0.0021383213 0.0051447507
000080 a9 bf 4d 3b 1d 60 5e 3a e5 c6 1d ba 2c ba d8 3b
       0.0031394756 0.000848295 -0.00060187123 0.0066139903
000090 e2 49 31 ba 09 45 c4 3b 1f f4 10 bb 6d dc 39 3b
       -0.00067630236 0.005989675 -0.0022118164 0.0028360144
0000a0 07 04 31 b9 40 ca ad 3b a7 67 23 3b 9d 4a 02 3b
       -0.00016881536 0.005303651 0.0024933608 0.0019880899
0000b0 7b a1 d5 3b bc db 77 39 43 d8 56 ba a0 be 89 3b
       0.006519494 0.00023637613 -0.00081956777 0.0042036325
0000c0 1a 86 8a b7 9a 8c f6 ba 32 1a 96 b8 a4 e0 49 ba
       -1.6513328e-05 -0.0018810213 -7.1574366e-05 -0.00077010156
0000d0 81 50 78 3a 19 71 3f ba db 3f 05 3b 37 d8 4f 3b
       0.0009472445 -0.00073029246 0.002033225 0.0031714567
0000e0 70 07 3c bb 10 c5 fb ba fc a9 38 ba e7 b9 50 3a
       -0.0028690957 -0.001920851 -0.00070443726 0.0007962272
0000f0 97 84 48 b9 02 ea 56 bb 66 79 c2 3b 1e 1e 58 3b
       -0.0001912288 -0.0032793288 0.005934882 0.0032976936
000100 61 d9 8f 39 49 74 9c 3b 03 a2 fb ba 1d 8e db ba
       0.00027437045 0.0047746045 -0.0019198064 -0.0016750727
000110 e4 22 94 ba a9 a5 10 bb 5d 62 51 3a 31 5a f9 ba
       -0.0011301902 -0.0022071397 0.00079873746 -0.0019024072
000120 70 d8 63 bb 5c 7f 21 bb 8d 33 ec 39 f0 67 82 ba
       -0.0034766458 -0.0024642562 0.00045051836 -0.0009949189
000130 2b 82 9c bb ce 0a 0d 3b 3c 99 3a ba b4 eb c5 3a
       -0.0047762594 0.0021521333 -0.00071181706 0.0015100152
000140 32 d2 7b ba d7 93 49 bb 83 4f 0c 3a 29 a9 1b bb
       -0.00096062117 -0.0030758285 0.00053524243 -0.002375195
000150 99 c1 53 39 36 b5 0e 3a 80 71 c0 ba 0b 65 93 b9
       0.00020194649 0.00054438727 -0.0014682263 -0.00028113308
000160 7d e5 f6 ba bc 10 73 3a b3 c4 4e 39 ca 58 1e 3b
       -0.0018836703 0.0009272208 0.00019718967 0.002416181
000170 2c 2e 88 bb 15 62 ad 3a 05 3c 29 b9 32 2f 82 b8
       -0.0041558947 0.0013228083 -0.00016139455 -6.207674e-05
000180 6e bb ad 3b 32 7e 7f b8 c1 35 c4 ba 81 9a 13 3b
       0.0053018844 -6.0914266e-05 -0.0014969633 0.0022522511
000190 cf 3e c4 ba fc 7e 1a bb dc 7a c9 ba 4c 48 c7 ba
       -0.0014972332 -0.0023574224 -0.0015371698 -0.0015204041
0001a0 68 70 23 3b d3 21 89 3a b4 84 68 ba 19 e5 91 39
       0.0024938826 0.0010462351 -0.0008869872 0.00027827246
0001b0 dc 85 35 3a 5d 4e 25 38 53 4e 11 3b 48 b5 05 bb
       0.00069245487 3.9412047e-05 0.002217193 -0.0020402241
0001c0 c5 30 eb 3b ba 28 0c 3a 52 7c 3b bb 3a 4f 99 3a
       0.0071774446 0.0005346645 -0.0028608036 0.0011696585
0001d0 e5 1d cd 39 9d 8b 71 3b 19 60 0a 3b bd 63 82 bb
       0.0003912292 0.0036856898 0.0021114408 -0.003979175
0001e0 81 64 d4 39 a7 60 0d bb fe 90 3c bb 1a 5e ab 3b
       0.00040510672 -0.0021572502 -0.0028772946 0.0052297236
0001f0 a6 de 9f 3b cd 77 a2 ba 5e f1 30 bb df d3 f0 3a
       0.0048788367 -0.0012395323 -0.0026999335 0.0018373689

action_model._discrete_distribution.branches.0.weight f4 [2, 128]
000000 b8 9f c7 bb c1 71 87 3b 7f 92 54 3b 30 d0 1f 3c
       -0.006092038 0.0041334336 0.0032435951 0.009754226
000010 ce 48 58 3c e2 bf 5e 3c 55 67 5d bc a7 ea 52 3b
       0.013200952 0.013595553 -0.013513406 0.003218332
000020 d1 43 a3 3b 87 e6 2a 3c 55 97 15 39 05 d2 6c 3b
       0.0049824496 0.010430939 0.00014266123 0.0036135924
000030 e3 c6 6f 3c 85 04 92 bc 87 ab 69 3b f3 a0 0f 3c
       0.014634821 -0.01782442 0.0035655217 0.008766401
000040 c5 4a bf 3c 54 3e 90 bc 1b a9 47 bb 41 4f 81 3b
       0.023351083 -0.017607845 -0.0030465785 0.0039462154
000050 0f f6 32 3c 61 6c c4 bb 35 89 69 bc a2 84 ad 3a
       0.010922923 -0.005994365 -0.014253904 0.001323838
000060 58 c3 30 3c 72 fd 59 3c 12 fc b1 bb be a3 a8 3c
       0.010788761 0.013305055 -0.0054316605 0.02058589
000070 96 11 90 3b 40 14 83 bc f3 8c 61 3c b6 44 29 3c
       0.0043966277 -0.016000867 0.013766515 0.010331323
000080 c0 3b 6a 3c e6 f0 11 3c ae 5f 23 3b 62 ed 7d 3c
       0.014296472 0.008907532 0.0024928856 0.015498491
000090 c2 4a bc bc f9 4e 82 3b 5e 7d bd b9 24 ab 89 bc
       -0.022984866 0.0039766994 -0.00036142295 -0.016805239
0000a0 c2 4d 18 3a 4e 9d e9 3b ee 5f 2b bc ae ca 5f bc
       0.00058099267 0.007129348 -0.010459883 -0.013659162
0000b0 aa a8 9b 3c 41 25 05 bc c4 a3 3a bc 49 55 bc bb
       0.019001324 -0.008126558 -0.011391584 -0.0057474715
0000c0 61 64 35 bc f3 15 f6 3a e1 ac 6f bc 95 d7 27 3b
       -0.0110712955 0.0018774852 -0.01462862 0.0025610675
0000d0 58 e2 07 bc d7 44 69 39 7e 6e 89 3a 42 93 40 3c
       -0.008293711 0.00022246256 0.00104852 0.011753859
0000e0 23 55 ee bb 21 75 3d bb 74 5e d3 bb 7a d7 46 3b
       -0.0072733327 -0.0028908926 -0.0064504687 0.0030340836
0000f0 68 10 28 bc 14 43 29 bc 27 d6 10 3c 04 0a 61 3c
       -0.010257818 -0.010330934 0.00884012 0.013735298
000100 78 87 9b 3b 0b 25 d1 3c f8 f4 73 3b d7 3e 4d 3a
       0.0047463737 0.025530359 0.003722487 0.0007829493
000110 44 97 c7 bb 08 07 0a bc 95 74 f8 3b f7 6e 49 bc
       -0.0060910303 -0.008424528 0.007582257 -0.0122945225
000120 8d e5 2e bb a9 a8 14 3b 15 01 44 3b d2 be 83 3b
       -0.0026687116 0.0022683537 0.0029907872 0.0040205503
000130 26 44 2c bc f1 c5 b8 3c c9 8b 15 bc a9 77 f7 3b
       -0.010514295 0.022555323 -0.009127566 0.0075521064
000140 99 a3 e7 bb 94 79 5f bc fb df 78 bc 2e 2e 82 bc
       -0.007069063 -0.013639826 -0.01519012 -0.01589116
000150 71 e9 38 bc 46 65 2b 3c 58 5e ea 3b 80 72 e0 bb
       -0.0112861255 0.010461157 0.00715236 -0.006849587
000160 27 7e 20 bc 62 4d 6a 3b ed 2d 25 3b b8 63 5e 3c
       -0.009795702 0.003575169 0.0025204376 0.0135735795
000170 72 db b2 3a 67 5c 94 bc 5d 97 84 3a 7f 0f 89 bc
       0.0013645722 -0.018110467 0.001011591 -0.016731022
000180 c0 48 23 3c 3b 9f 27 bc cf 1b f6 bb 24 6d 84 39
       0.009966075 -0.010230835 -0.0075106393 0.00025258318
000190 28 0e df bc 99 15 43 3a 9a a6 3f bc 84 cf 37 3c
       -0.02722843 0.0007441878 -0.011697436 0.011218909
0001a0 83 95 ce bb 87 49 b7 bb 78 2d e4 3b 0f 65 34 3b
       -0.0063044443 -0.005593482 0.006963428 0.0027526056
0001b0 6e b8 11 3b 50 b9 3a bc 4b 03 8d 3c 5d ef a1 bc
       0.0022235173 -0.011396721 0.017213484 -0.019767458
0001c0 90 7a d4 3b 9b 14 7a 3b f6 a3 a9 3b 78 41 df 3b
       0.006484337 0.0038159254 0.0051770164 0.0068132244
0001d0 94 7b c9 3b 07 c2 d0 3c 4f 41 88 3c 4d d5 b8 3b
       0.006148765 0.025483144 0.016632704 0.005640662
0001e0 91 fe 14 3c fd a1 2a bc b9 4f 4a 3c 13 9e ad 3c
       0.0090938965 -0.010414598 0.012348109 0.02119354
0001f0 b8 17 d1 3c e9 6e 87 bc 73 17 4d bb e9 53 ea 3b
       0.025524005 -0.016532378 -0.0031294494 0.007151116
000200 2a ab 50 3c 2a 1f c7 bc 6a fd bf ba da f7 6a 3c
       0.012736121 -0.024306852 -0.0014647667 0.014341319
000210 ed 7b dd bb f6 89 89 3b 80 3f f1 3b 08 60 66 3c
       -0.006759158 0.0041973544 0.007362306 0.014060982
000220 cb 21 3b ba 0e bd 40 bc 58 49 fd bb 0b cf 81 bc
       -0.00071385194 -0.011763824 -0.0077296905 -0.015845796
000230 37 c7 c3 bc 6c 65 ff 3b cb 5f 23 3c f9 a9 16 3b
       -0.023898704 0.007794073 0.009971569 0.0022989495
000240 75 5f 9d bc 57 13 92 3b 6b 92 77 bc 86 43 59 bb
       -0.019210557 0.004457872 -0.015110592 -0.003315182
000250 66 e6 2d bc a1 1f 6b bb 7f 8c f4 3a c4 24 78 3c
       -0.010614013 -0.0035877007 0.0018657594 0.015145484
000260 61 29 92 bc ca 5c b1 3b fb e4 6a 3c 60 0f 37 bc
       -0.017841997 0.0054126726 0.01433682 -0.011173099
000270 f0 d5 93 3c 04 e8 a4 3a 23 26 2a bc 5c d3 62 bc
       0.01804635 0.0012581353 -0.010385069 -0.013844337
000280 6a ac 64 bc 98 08 15 3c 06 fb db bb 7f e3 2e bc
       -0.013957122 0.009096287 -0.006713274 -0.0106743565
000290 3e 0e 77 3c 0b c7 1d bc bc 6d db 3a dc e9 b7 3b
       0.015079079 -0.009629975 0.0016741077 0.005612595
0002a0 e8 38 64 3c b4 67 f2 bb 67 57 68 3c 5f 9e 53 3c
       0.013929583 -0.0073976163 0.014180995 0.012916177
0002b0 bf 2b 95 bc db 4b 67 bc dc f5 24 3c 64 ef cb bc
       -0.018209336 -0.014117206 0.010068383 -0.024894424
0002c0 12 fd 86 3c 18 1c 74 ba 37 50 9e 3b 86 95 93 3b
       0.016478095 -0.00093120476 0.0048313397 0.0045039086
0002d0 02 22 c0 3c 3d 60 97 bb 62 55 d4 bb b3 80 52 bc
       0.023453716 -0.004619627 -0.006479905 -0.012848067
0002e0 6d ca df bb ad 52 57 bb ab c5 28 3c 0b 6f 95 bb
       -0.006829551 -0.0032855675 0.010301034 -0.0045603565
0002f0 78 2e 71 3c 99 d8 64 3c 3f 95 66 bb 71 7f b4 bb
       0.014720552 0.0139676565 -0.0035184172 -0.0055083563
000300 ae 97 c9 bb 95 c5 d8 bb db 1e 93 3b 6c 81 45 3c
       -0.006152115 -0.0066153505 0.0044897622 0.012054782
000310 d3 26 9b 3b 96 0d cc 3b c5 3b 17 bc 16 50 83 3b
       0.004734853 0.0062272055 -0.009230559 0.0040073497
000320 9f 35 50 3c f6 50 1f 3c ec ff 19 bc 59 43 91 ba
       0.012708097 0.009723892 -0.009399395 -0.0011082693
000330 0b 62 5f bc 3e 93 01 bb d6 de d7 3b a7 26 29 bc
       -0.013634215 -0.00197716 0.0065878434 -0.010324157
000340 a0 98 2a 3c 00 e5 9c 3b 94 77 6e 3b 31 37 ea 38
       0.010412365 0.004788041 0.0036387192 0.0001116827
000350 53 f6 0a 3c 3b 49 82 3c 9d 68 45 ba 4a d4 bc bb
       0.00848158 0.01590406 -0.0007530542 -0.0057626115
000360 fb 98 ff 3b 09 1c 96 3c 0e 89 07 39 dc a3 35 bc
       0.007800219 0.018323915 0.0001292566 -0.01108643
000370 5d 49 a0 3b 1b 5d 95 bb a8 de 9f 3a 4b 4a 1d 3c
       0.004891558 -0.004558218 0.0012197094 0.009600232
000380 cb 3d 2a bc 06 58 8f 3b 92 eb 60 bb ea 57 40 bc
       -0.010390709 0.004374507 -0.0034320098 -0.01173971
000390 80 8d a9 3b 67 51 0b 3b 69 bc 60 3b dc 80 01 3c
       0.005174339 0.0021258236 0.0034291989 0.007904258
0003a0 c1 bd a3 bc e6 9e df bb 55 05 b5 bb 5b a3 dd bb
       -0.019987943 -0.006824362 -0.0055243173 -0.0067638583
0003b0 22 99 16 3b 9d 9b 22 3c 45 3d 48 bc f4 78 27 3b
       0.0022979458 0.009924796 -0.012221639 0.0025554271
0003c0 4d 0d c2 bc b2 9a 1c bc e6 a4 73 3b 48 69 87 bb
       -0.023687983 -0.009558367 0.0037177145 -0.0041324235
0003d0 8f 1d 9d bb ac c1 1e bc 80 be dc bb a0 d4 11 3c
       -0.0047947834 -0.00968973 -0.0067365766 0.008900791
0003e0 1f ef a5 3b be 69 da bb 2c 7d 72 3c 19 d1 19 39
       0.005063906 -0.0066654375 0.014800351 0.00014669112
0003f0 90 23 82 bb 6c b8 9e bb d8 45 fb 39 49 36 10 bc
       -0.0039715245 -0.004843762 0.00047926488 -0.008802005

action_model._discrete_distribution.branches.0.bias f4 [2]
000000 15 ad c8 3a 16 ad c8 ba
       0.0015310372 -0.0015310373

exp_avg f4 [128, 6]
000000 05 58 9e b3 d2 b9 2f 37 00 00 00 00 34 d3 c8 b7
       -7.373459e-08 1.04740775e-05 0.0 -2.3940207e-05
000010 00 00 00 00 00 00 00 00 77 36 74 33 c8 08 51 38
       0.0 0.0 5.6860213e-08 4.983766e-05
000020 00 00 00 00 da b7 b6 37 00 00 00 00 00 00 00 00
       0.0 2.1781703e-05 0.0 0.0
000030 76 1b 54 34 e1 17 80 b8 00 00 00 00 9e 23 7e 38
       1.9754029e-07 -6.1079634e-05 0.0 6.059149e-05
000040 00 00 00 00 00 00 00 00 14 89 f2 33 4c 90 b4 38
       0.0 0.0 1.12939375e-07 8.609946e-05
000050 00 00 00 00 89 c7 e3 37 00 00 00 00 00 00 00 00
       0.0 2.7153425e-05 0.0 0.0
000060 83 3e d7 31 96 8e 6f 38 00 00 00 00 00 c8 02 34
       6.2644303e-09 5.7114834e-05 0.0 1.2179953e-07
000070 00 00 00 00 00 00 00 00 6a 0d 37 b3 86 96 41 37
       0.0 0.0 -4.2620208e-08 1.1538743e-05
000080 00 00 00 00 b4 ec 6e b7 00 00 00 00 00 00 00 00
       0.0 -1.4241017e-05 0.0 0.0
000090 eb db 2f 35 3e 75 e3 b8 00 00 00 00 43 25 2d 39
       6.5512603e-07 -0.000108460416 0.0 0.00016512447
0000a0 00 00 00 00 00 00 00 00 79 49 33 b3 f0 00 ba 35
       0.0 0.0 -4.1743508e-08 1.3858353e-06
0000b0 00 00 00 00 f1 9b 8e b7 00 00 00 00 00 00 00 00
       0.0 -1.7000335e-05 0.0 0.0
0000c0 a2 ab 01 b3 9b d9 06 b8 00 00 00 00 18 af da 36
       -3.0191252e-08 -3.215075e-05 0.0 6.51729e-06
0000d0 00 00 00 00 00 00 00 00 14 66 22 33 0e 54 63 38
       0.0 0.0 3.7811404e-08 5.41993e-05
0000e0 00 00 00 00 41 72 0a 38 00 00 00 00 00 00 00 00
       0.0 3.300817e-05 0.0 0.0
0000f0 58 cc 74 33 8c b8 2e 36 00 00 00 00 76 f9 ee 37
       5.6996527e-08 2.603544e-06 0.0 2.8487975e-05
000100 00 00 00 00 00 00 00 00 00 f2 6f 32 44 99 d5 35
       0.0 0.0 1.3966655e-08 1.5914343e-06
000110 00 00 00 00 e0 8d a1 b4 00 00 00 00 00 00 00 00
       0.0 -3.0091815e-07 0.0 0.0
000120 d6 19 1c 34 0c 2a f1 b8 00 00 00 00 40 d9 05 38
       1.4538031e-07 -0.00011499607 0.0 3.1912e-05
000130 00 00 00 00 00 00 00 00 b6 02 45 b4 65 61 c9 b5
       0.0 0.0 -1.8348041e-07 -1.5004013e-06
000140 00 00 00 00 bc 2d 70 b8 00 00 00 00 00 00 00 00
       0.0 -5.7263052e-05 0.0 0.0
000150 57 01 82 b3 19 9d fc b7 00 00 00 00 50 ba ac b6
       -6.0538405e-08 -3.0113895e-05 0.0 -5.147689e-06
000160 00 00 00 00 00 00 00 00 14 8b cd 32 d0 6a 0f b8
       0.0 0.0 2.3928386e-08 -3.4193334e-05
000170 00 00 00 00 85 6c 2c 37 00 00 00 00 00 00 00 00
       0.0 1.0277266e-05 0.0 0.0
000180 62 db 46 b3 fc 36 27 39 00 00 00 00 60 c9 39 b6
       -4.6299995e-08 0.00015946844 0.0 -2.7684364e-06
000190 00 00 00 00 00 00 00 00 49 e9 59 33 96 9d f7 b8
       0.0 0.0 5.073642e-08 -0.000118072305
0001a0 00 00 00 00 62 25 6c 37 00 00 00 00 00 00 00 00
       0.0 1.40754e-05 0.0 0.0
0001b0 90 33 c5 31 9e bb 22 b7 00 00 00 00 a0 9c 61 37
       5.7393166e-09 -9.6996355e-06 0.0 1.3447512e-05
0001c0 00 00 00 00 00 00 00 00 c4 39 18 34 7e 5c 38 39
       0.0 0.0 1.4177118e-07 0.00017582063
0001d0 00 00 00 00 08 45 9b 38 00 00 00 00 00 00 00 00
       0.0 7.403834e-05 0.0 0.0
0001e0 fd a9 26 b4 e2 3b 6b 37 00 00 00 00 f1 d8 3c b8
       -1.5521796e-07 1.4021034e-05 0.0 -4.5024735e-05
0001f0 00 00 00 00 00 00 00 00 fa 94 44 34 ee bd aa 38
       0.0 0.0 1.830812e-07 8.141609e-05
000200 00 00 00 00 79 14 03 38 00 00 00 00 00 00 00 00
       0.0 3.12519e-05 0.0 0.0
000210 d5 51 87 33 be 1c 01 37 00 00 00 00 1a a5 88 37
       6.3013125e-08 7.695691e-06 0.0 1.6289345e-05
000220 00 00 00 00 00 00 00 00 a4 ad b2 b3 3e 5a 45 b6
       0.0 0.0 -8.320356e-08 -2.9407815e-06
000230 00 00 00 00 a0 41 d2 b7 00 00 00 00 00 00 00 00
       0.0 -2.506451e-05 0.0 0.0
000240 b6 08 f2 32 27 f2 21 38 00 00 00 00 60 27 e1 b4
       2.817647e-08 3.8610913e-05 0.0 -4.1938165e-07
000250 00 00 00 00 00 00 00 00 e3 af 09 b2 b7 30 b2 35
       0.0 0.0 -8.0144416e-09 1.3276211e-06
000260 00 00 00 00 08 53 a4 35 00 00 00 00 00 00 00 00
       0.0 1.2243117e-06 0.0 0.0
000270 11 9c 97 34 e2 ee 60 39 00 00 00 00 b2 0d e4 38
       2.8239495e-07 0.00021451295 0.0 0.00010874438
000280 00 00 00 00 00 00 00 00 5c 55 bd b2 e6 7b 10 38
       0.0 0.0 -2.2041313e-08 3.4447665e-05
000290 00 00 00 00 ee a2 40 b7 00 00 00 00 00 00 00 00
       0.0 -1.1482027e-05 0.0 0.0
0002a0 7d 47 22 34 20 25 09 39 00 00 00 00 bf ba 6f 38
       1.5113433e-07 0.00013079168 0.0 5.715596e-05
0002b0 00 00 00 00 00 00 00 00 6e 1d c3 33 00 53 18 37
       0.0 0.0 9.085748e-08 9.079231e-06
0002c0 00 00 00 00 5e 3e c1 37 00 00 00 00 00 00 00 00
       0.0 2.3036435e-05 0.0 0.0
0002d0 12 81 11 33 9c 83 fe 38 00 00 00 00 ce 08 cd 37
       3.3877832e-08 0.00012136178 0.0 2.4442004e-05
0002e0 00 00 00 00 00 00 00 00 9c 2b 8d b1 76 5b a3 37
       0.0 0.0 -4.108598e-09 1.9473704e-05
0002f0 00 00 00 00 a4 fe 17 37 00 00 00 00 00 00 00 00
       0.0 9.0595895e-06 0.0 0.0
000300 7b d3 4e b4 49 05 82 38 00 00 00 00 52 55 ab b8
       -1.9262181e-07 6.1998675e-05 0.0 -8.1698076e-05
000310 00 00 00 00 00 00 00 00 98 04 cc 33 88 6f d1 b7
       0.0 0.0 9.500326e-08 -2.4966677e-05
000320 00 00 00 00 d8 96 73 38 00 00 00 00 00 00 00 00
       0.0 5.80762e-05 0.0 0.0
000330 3b f6 aa 33 54 7b a9 38 00 00 00 00 3a cd 07 38
       7.961031e-08 8.0815196e-05 0.0 3.237764e-05
000340 00 00 00 00 00 00 00 00 ed 03 e8 b2 f6 f5 9e b8
       0.0 0.0 -2.701014e-08 -7.579841e-05
000350 00 00 00 00 79 fb 97 b7 00 00 00 00 00 00 00 00
       0.0 -1.8117704e-05 0.0 0.0
000360 e4 cc e9 32 aa a1 a8 b7 00 00 00 00 50 5f 97 37
       2.7217943e-08 -2.0102441e-05 0.0 1.8044986e-05
000370 00 00 00 00 00 00 00 00 61 82 1e 33 16 d1 db 37
       0.0 0.0 3.690582e-08 2.6204198e-05
000380 00 00 00 00 96 27 9d 36 00 00 00 00 00 00 00 00
       0.0 4.683573e-06 0.0 0.0
000390 1a 5a 79 b3 5d 1a 5c b6 00 00 00 00 7e 40 47 b7
       -5.8056777e-08 -3.27979e-06 0.0 -1.187634e-05
0003a0 00 00 00 00 00 00 00 00 9a 8c d3 33 64 d8 b9 38
       0.0 0.0 9.8510284e-08 8.861793e-05
0003b0 00 00 00 00 06 57 2a 38 00 00 00 00 00 00 00 00
       0.0 4.0612205e-05 0.0 0.0
0003c0 44 be af 34 56 02 6d 39 00 00 00 00 23 50 c8 38
       3.2734727e-07 0.00022602952 0.0 9.55167e-05
0003d0 00 00 00 00 00 00 00 00 3d 5d de b3 14 c8 01 39
       0.0 0.0 -1.03546405e-07 0.00012376934
0003e0 00 00 00 00 d0 c0 05 b8 00 00 00 00 00 00 00 00
       0.0 -3.188924e-05 0.0 0.0
0003f0 02 f7 e2 33 39 46 9f b7 00 00 00 00 4e 76 0c 38
       1.05688756e-07 -1.8986977e-05 0.0 3.348878e-05

exp_avg_sq f4 [128, 6]
000000 b7 fd d1 26 ff b5 50 2f 00 00 00 00 ad 8e c0 2e
       1.4571058e-15 1.8982148e-10 0.0 8.7564934e-11
000010 00 00 00 00 00 00 00 00 fe 59 36 27 d2 d0 c4 2f
       0.0 0.0 2.5306359e-15 3.5800568e-10
000020 00 00 00 00 36 98 3d 2f 00 00 00 00 00 00 00 00
       0.0 1.7243526e-10 0.0 0.0
000030 f1 8b 23 29 c3 11 98 30 00 00 00 00 57 ca e3 30
       3.631465e-14 1.1064504e-09 0.0 1.6573932e-09
000040 00 00 00 00 00 00 00 00 5c c1 d9 27 56 d9 46 30
       0.0 0.0 6.043924e-15 7.2340833e-10
000050 00 00 00 00 7e 9e f3 2f 00 00 00 00 00 00 00 00
       0.0 4.4314058e-10 0.0 0.0
000060 2e ef 72 28 e8 33 90 30 00 00 00 00 31 21 82 30
       1.34855624e-14 1.0492132e-09 0.0 9.468178e-10
000070 00 00 00 00 00 00 00 00 2f 60 3b 26 d6 dd 45 2e
       0.0 0.0 6.500901e-16 4.4989644e-11
000080 00 00 00 00 12 0c ee 2d 00 00 00 00 00 00 00 00
       0.0 2.7062828e-11 0.0 0.0
000090 97 9e 74 29 1d 61 f0 30 00 00 00 00 a5 44 8d 31
       5.431644e-14 1.74899e-09 0.0 4.111444e-09
0000a0 00 00 00 00 00 00 00 00 ec b7 2a 28 bc 20 23 30
       0.0 0.0 9.476777e-15 5.9345573e-10
0000b0 00 00 00 00 d7 60 ec 2f 00 00 00 00 00 00 00 00
       0.0 4.299696e-10 0.0 0.0
0000c0 c8 94 b0 27 c2 5e 78 2f 00 00 00 00 51 b2 71 2f
       4.901112e-15 2.2589133e-10 0.0 2.1982173e-10
0000d0 00 00 00 00 00 00 00 00 94 8b b6 28 e7 3b 23 31
       0.0 0.0 2.0266591e-14 2.3753672e-09
0000e0 00 00 00 00 58 f8 e8 30 00 00 00 00 00 00 00 00
       0.0 1.6950805e-09 0.0 0.0
0000f0 86 50 1b 28 b6 58 0e 2f 00 00 00 00 19 a9 b5 2f
       8.621689e-15 1.2946341e-10 0.0 3.304386e-10
000100 00 00 00 00 00 00 00 00 bd b1 15 27 83 91 93 2e
       0.0 0.0 2.0774256e-15 6.710634e-11
000110 00 00 00 00 e6 f1 e1 2e 00 00 00 00 00 00 00 00
       0.0 1.0274785e-10 0.0 0.0
000120 1c cd d1 28 90 fc 04 31 00 00 00 00 f4 3b f4 30
       2.3292613e-14 1.9352093e-09 0.0 1.7770376e-09
000130 00 00 00 00 00 00 00 00 42 31 f5 27 64 8a ae 30
       0.0 0.0 6.8054566e-15 1.2699499e-09
000140 00 00 00 00 cb b4 20 30 00 00 00 00 00 00 00 00
       0.0 5.8464583e-10 0.0 0.0
000150 1a 5e a5 26 27 f5 d3 2e 00 00 00 00 ca 80 8e 2e
       1.1474681e-15 9.638717e-11 0.0 6.48029e-11
000160 00 00 00 00 00 00 00 00 11 f0 db 26 3a 3a e1 2e
       0.0 0.0 1.5261248e-15 1.02421585e-10
000170 00 00 00 00 20 48 a4 2e 00 00 00 00 00 00 00 00
       0.0 7.4706685e-11 0.0 0.0
000180 74 96 22 29 74 3e 91 31 00 00 00 00 14 d1 88 31
       3.6101723e-14 4.2271555e-09 0.0 3.9818904e-09
000190 00 00 00 00 00 00 00 00 31 15 cf 28 4f ef 36 31
       0.0 0.0 2.2990807e-14 2.6620517e-09
0001a0 00 00 00 00 29 15 fb 30 00 00 00 00 00 00 00 00
       0.0 1.8268668e-09 0.0 0.0
0001b0 40 0c 15 27 8c a4 4c 2e 00 00 00 00 36 09 ba 2e
       2.0684545e-15 4.6530377e-11 0.0 8.459937e-11
0001c0 00 00 00 00 00 00 00 00 89 7f 96 29 ea 1e 4d 32
       0.0 0.0 6.683462e-14 1.19395995e-08
0001d0 00 00 00 00 3d 3d f0 31 00 00 00 00 00 00 00 00
       0.0 6.9918813e-09 0.0 0.0
0001e0 38 4a 16 28 b1 6c d5 30 00 00 00 00 93 56 38 30
       8.342766e-15 1.5528682e-09 0.0 6.706184e-10
0001f0 00 00 00 00 00 00 00 00 0d f7 0c 28 bf 90 3a 30
       0.0 0.0 7.825132e-15 6.78721e-10
000200 00 00 00 00 26 94 d6 2f 00 00 00 00 00 00 00 00
       0.0 3.903164e-10 0.0 0.0
000210 61 ad 2c 27 2d ef 49 2e 00 00 00 00 9a 58 0d 2f
       2.3963784e-15 4.591454e-11 0.0 1.2855353e-10
000220 00 00 00 00 00 00 00 00 e0 1d 14 28 ef 60 ea 2e
       0.0 0.0 8.2221285e-15 1.0658307e-10
000230 00 00 00 00 59 1a 73 2f 00 00 00 00 00 00 00 00
       0.0 2.2110082e-10 0.0 0.0
000240 66 97 20 28 5d 7c a6 30 00 00 00 00 fe c6 2a 30
       8.9146135e-15 1.2113436e-09 0.0 6.2128425e-10
000250 00 00 00 00 00 00 00 00 b4 a2 f9 25 4d 9a 2c 2d
       0.0 0.0 4.3304866e-16 9.81133e-12
000260 00 00 00 00 5f 0f c7 2d 00 00 00 00 00 00 00 00
       0.0 2.2630507e-11 0.0 0.0
000270 5f 63 96 29 62 2d 5c 32 00 00 00 00 e5 cc 05 32
       6.678576e-14 1.2816004e-08 0.0 7.7882065e-09
000280 00 00 00 00 00 00 00 00 4b bf 31 28 6e 33 e2 2f
       0.0 0.0 9.866954e-15 4.1145704e-10
000290 00 00 00 00 a2 ec db 2f 00 00 00 00 00 00 00 00
       0.0 4.0004006e-10 0.0 0.0
0002a0 87 84 b0 28 6a a5 43 31 00 00 00 00 2b b5 01 31
       1.95974e-14 2.8470262e-09 0.0 1.8874953e-09
0002b0 00 00 00 00 00 00 00 00 d3 aa 32 27 ac 6d d9 2f
       0.0 0.0 2.4795066e-15 3.9549997e-10
0002c0 00 00 00 00 db 03 41 2f 00 00 00 00 00 00 00 00
       0.0 1.7554617e-10 0.0 0.0
0002d0 a3 7e db 28 a2 5b 69 31 00 00 00 00 81 ee 5a 31
       2.4368804e-14 3.395805e-09 0.0 3.185875e-09
0002e0 00 00 00 00 00 00 00 00 b8 1d 20 27 cf 4a fe 2e
       0.0 0.0 2.2220571e-15 1.15638714e-10
0002f0 00 00 00 00 b5 3e ee 2e 00 00 00 00 00 00 00 00
       0.0 1.0834126e-10 0.0 0.0
000300 de 85 ac 29 81 0c f3 30 00 00 00 00 07 c9 3d 31
       7.661557e-14 1.7684131e-09 0.0 2.761739e-09
000310 00 00 00 00 00 00 00 00 23 bb 02 28 9d 49 8f 2f
       0.0 0.0 7.2570285e-15 2.6063854e-10
000320 00 00 00 00 8c 14 f2 2f 00 00 00 00 00 00 00 00
       0.0 4.4034143e-10 0.0 0.0
000330 b0 bd 89 28 3c d2 ef 30 00 00 00 00 e7 15 9d 30
       1.529232e-14 1.7449291e-09 0.0 1.1429478e-09
000340 00 00 00 00 00 00 00 00 5b e9 87 27 af c0 08 30
       0.0 0.0 3.772303e-15 4.975033e-10
000350 00 00 00 00 58 6a 99 2f 00 00 00 00 00 00 00 00
       0.0 2.79061e-10 0.0 0.0
000360 b0 7e 59 28 a5 0e 23 30 00 00 00 00 89 c0 10 30
       1.2073391e-14 5.9319866e-10 0.0 5.2660504e-10
000370 00 00 00 00 00 00 00 00 4a 36 e5 27 12 9a ff 2f
       0.0 0.0 6.361913e-15 4.6493703e-10
000380 00 00 00 00 3d d1 9c 2f 00 00 00 00 00 00 00 00
       0.0 2.8524907e-10 0.0 0.0
000390 fe eb a6 26 36 23 87 2d 00 00 00 00 89 7f 2d 2e
       1.158253e-15 1.536336e-11 0.0 3.944892e-11
0003a0 00 00 00 00 00 00 00 00 58 f8 4e 28 d4 34 ee 30
       0.0 0.0 1.1489148e-14 1.7331794e-09
0003b0 00 00 00 00 90 25 80 30 00 00 00 00 00 00 00 00
       0.0 9.323902e-10 0.0 0.0
0003c0 a1 b3 8d 29 74 e8 14 32 00 00 00 00 76 cd bd 31
       6.2928185e-14 8.6675875e-09 0.0 5.523982e-09
0003d0 00 00 00 00 00 00 00 00 2c 70 fc 28 f6 43 23 31
       0.0 0.0 2.8026267e-14 2.3758253e-09
0003e0 00 00 00 00 fa ff 2e 31 00 00 00 00 00 00 00 00
       0.0 2.5465838e-09 0.0 0.0
0003f0 e0 ba e5 28 71 c7 30 30 00 00 00 00 89 62 68 30
       2.5505151e-14 6.431185e-10 0.0 8.4541135e-10

exp_avg f4 [128]
000000 c0 1b 66 37 8a 72 31 b7 82 1e 1a b8 8c 3a b0 b7
       1.3715529e-05 -1.057669e-05 -3.6744874e-05 -2.1008098e-05
000010 50 66 9c b5 f8 01 05 37 d1 8f ff b8 90 45 02 37
       -1.1652683e-06 7.927876e-06 -0.000121861354 7.7648e-06
000020 84 70 bc 36 42 00 ec b6 70 df 31 b7 b4 58 2e b6
       5.615935e-06 -7.033378e-06 -1.0602045e-05 -2.5979652e-06
000030 56 d9 e2 b7 5a 26 0f 38 1c ed 3c 37 87 59 95 b6
       -2.7042504e-05 3.4129574e-05 1.126088e-05 -4.4509684e-06
000040 c4 7d 10 37 1a 56 1e b7 cc 49 8f b5 a0 37 dd b7
       8.612351e-06 -9.437581e-06 -1.0675808e-06 -2.6371155e-05
000050 0e 33 f2 37 9f d6 0e b8 33 a6 44 b7 56 d4 81 37
       2.8872422e-05 -3.405532e-05 -1.1721207e-05 1.5476875e-05
000060 48 dd af b6 e3 16 c8 35 76 52 5c b8 4c 92 89 36
       -5.241167e-06 1.4907822e-06 -5.2528885e-05 4.0999494e-06
000070 cc d3 eb b7 bf c5 8d b7 24 73 d3 b6 9c 26 4d 35
       -2.8112809e-05 -1.6900593e-05 -6.301694e-06 7.6424635e-07
000080 2b 48 16 38 ce 3d 94 b7 e6 71 78 b7 aa 95 a8 36
       3.583e-05 -1.7671755e-05 -1.4808471e-05 5.0242134e-06
000090 a0 e1 a9 b6 49 59 e6 b6 7c 2e 35 37 ba b6 99 b7
       -5.0628587e-06 -6.8649283e-06 1.0799264e-05 -1.832411e-05
0000a0 bc 64 7f b8 6e 92 a1 37 39 ea a4 b7 7e 5d 18 b8
       -6.0890554e-05 1.9260882e-05 -1.9659392e-05 -3.6326695e-05
0000b0 72 cb 97 37 08 3c ad b7 c3 7f fa 36 9c f9 4b b8
       1.809534e-05 -2.0651161e-05 7.465454e-06 -4.863144e-05
0000c0 1d f5 6e 37 f4 43 71 b7 30 e9 a6 35 3d 13 90 b6
       1.4242975e-05 -1.4380541e-05 1.243583e-06 -4.293774e-06
0000d0 f1 81 23 b9 58 4d 0c 37 e2 29 5f b8 18 33 b3 36
       -0.00015593298 8.362658e-06 -5.320635e-05 5.340564e-06
0000e0 1c 53 b4 b7 08 7f aa 37 08 4a cf 37 4a 8c e9 37
       -2.1496373e-05 2.0324733e-05 2.4710796e-05 2.7841092e-05
0000f0 66 08 27 b7 a7 e5 05 b6 15 69 23 b7 e6 22 bb b6
       -9.955931e-06 -1.995222e-06 -9.740023e-06 -5.577097e-06
000100 e7 6f b9 b7 53 ae 32 b7 7f fa 51 b8 2a 6c 38 b8
       -2.2105827e-05 -1.0650215e-05 -5.0062776e-05 -4.3969754e-05
000110 56 c0 dd b7 9b d9 06 37 20 fe af b7 80 6b 56 36
       -2.6434816e-05 8.037688e-06 -2.0979962e-05 3.1951058e-06
000120 38 6e cc b7 d2 77 a1 b7 83 ed bd b6 06 88 0d b9
       -2.437002e-05 -1.9248491e-05 -5.660289e-06 -0.0001349748
000130 a4 9d ba 37 b0 9b 81 b7 28 13 18 b7 9f 2b 68 b7
       2.2246335e-05 -1.5450496e-05 -9.064366e-06 -1.3838434e-05
000140 48 98 ce 36 6f 4b 0b b8 90 e2 e7 35 44 dd 92 b7
       6.1570063e-06 -3.3210436e-05 1.727678e-06 -1.7507591e-05
000150 2a c3 f3 b4 88 e3 45 b7 7c ad b8 b7 d6 66 7c b8
       -4.5404278e-07 -1.1795091e-05 -2.2015294e-05 -6.0177255e-05
000160 68 99 36 b8 6f a5 1e b8 66 f7 6a b5 a6 79 5c b8
       -4.3535052e-05 -3.7824208e-05 -8.7531805e-07 -5.256538e-05
000170 32 ad 56 b7 76 ed a2 36 7e 61 3e 38 11 03 72 b7
       -1.2795719e-05 4.8556203e-06 4.5390327e-05 -1.4425038e-05
000180 9f bb 4f 37 94 37 30 38 e0 c4 ba b7 4c 9f c0 b6
       1.2381845e-05 4.201343e-05 -2.2264605e-05 -5.7405905e-06
000190 35 ce 70 38 64 91 54 37 f0 9e f4 b7 d7 9f b7 b7
       5.7412504e-05 1.2670036e-05 -2.9161078e-05 -2.1889731e-05
0001a0 04 ab a2 38 69 45 20 37 a6 c8 b6 b8 d3 0a 0b b7
       7.756616e-05 9.552904e-06 -8.71581e-05 -8.287566e-06
0001b0 9e 0b f4 36 ed 4c c0 b8 13 13 15 b8 ee a9 5a b7
       7.273119e-06 -9.169602e-05 -3.5542133e-05 -1.3033377e-05
0001c0 9f e2 2c 37 c9 73 09 38 d0 57 9d b7 e7 c2 a7 37
       1.0304763e-05 3.277118e-05 -1.875675e-05 1.999871e-05
0001d0 c8 8c 8a 37 e6 96 c3 b7 5e c2 ab b7 47 53 56 37
       1.6516438e-05 -2.3316079e-05 -2.0475298e-05 1.27747835e-05
0001e0 b4 2b 80 b8 ab 44 a6 b6 ca cb 8c b8 e0 f7 c7 34
       -6.111656e-05 -4.9551795e-06 -6.713679e-05 3.724699e-07
0001f0 38 b5 b4 b8 c8 e0 74 b7 49 a6 06 37 ca 6f 4a 37
       -8.6168235e-05 -1.4595869e-05 8.025739e-06 1.2066166e-05

exp_avg_sq f4 [128]
000000 0e bc 5d 2e a5 8c c0 2e 52 b1 ac 30 d5 ee 65 2f
       5.041661e-11 8.7561326e-11 1.2565045e-09 2.0912279e-10
000010 91 42 00 30 be da c5 2d 57 26 01 31 0b 44 b4 2f
       4.6660725e-10 2.2493448e-11 1.8793764e-09 3.2790157e-10
000020 ce 74 3a 2f f8 c0 40 30 1a 00 a4 2f d3 10 9e 2e
       1.6958099e-10 7.012342e-10 2.9831498e-10 7.187997e-11
000030 b5 88 5d 30 c2 73 81 2f 96 9d 2e 2e ca 3c 68 2e
       8.0593604e-10 2.3547214e-10 3.9702984e-11 5.2804684e-11
000040 1c ae ab 30 df a9 5a 30 17 62 9d 2e 20 ea 1e 31
       1.2491372e-09 7.954934e-10 7.156958e-11 2.312511e-09
000050 d5 b1 9e 2f 2b d9 94 2f 83 55 b6 2e 66 66 9c 2f
       2.886639e-10 2.707535e-10 8.291592e-11 2.8448993e-10
000060 84 92 a9 2f 4a cc 83 2d 64 cc 1e 31 f9 af bb 2f
       3.0845027e-10 1.4983698e-11 2.3108209e-09 3.4140138e-10
000070 a5 63 3a 30 b9 a8 bc 2e 04 c5 67 30 00 12 a9 2e
       6.780801e-10 8.5792214e-11 8.4317286e-10 7.688428e-11
000080 c8 2b 36 31 c0 0a 8a 2f a7 71 11 30 1f 83 0f 2f
       2.6509372e-09 2.5109692e-10 5.29122e-10 1.3052358e-10
000090 72 a8 e5 2f ce 07 72 2f b8 41 30 2e 6b 8b da 2f
       4.1774545e-10 2.2012545e-10 4.0076137e-11 3.9753031e-10
0000a0 4b a0 15 31 18 47 85 30 cb 93 72 30 83 cd 37 30
       2.177347e-09 9.69723e-10 8.8249114e-10 6.686706e-10
0000b0 d1 b6 1b 2f c1 57 58 30 af 8c ce 2e 75 b2 b9 30
       1.4162117e-10 7.870505e-10 9.392786e-11 1.3511242e-09
0000c0 7a 92 2b 30 55 f6 be 2f 3e 10 8c 2f 07 a1 80 30
       6.2417593e-10 3.4735828e-10 2.5477392e-10 9.358992e-10
0000d0 7c b0 82 31 8c 68 a3 2f cb 2b 62 2f df 27 ce 2e
       3.803562e-09 2.9723812e-10 2.0570139e-10 9.374878e-11
0000e0 ed 28 db 2e 81 3d 1b 30 e0 90 71 30 2f 8a 3a 2e
       9.966237e-11 5.6476074e-10 8.788117e-10 4.2414235e-11
0000f0 a7 f9 09 30 eb a3 be 2e d7 09 0d 31 78 cf 79 30
       5.0195087e-10 8.6693173e-11 2.0523794e-09 9.0880503e-10
000100 e9 cc 85 2e 2e bc 2c 30 56 a7 71 2f e4 f1 d7 30
       6.084539e-11 6.2840655e-10 2.1978272e-10 1.5712058e-09
000110 d8 74 f8 2e ef 2b 20 2f b6 42 3d 2f f2 75 f3 2f
       1.129849e-10 1.4567524e-10 1.721315e-10 4.4285248e-10
000120 f1 c6 35 2f 2e 6c bc 2f 1b 15 ac 2f 01 aa 0f 31
       1.6532532e-10 3.4273867e-10 3.1301614e-10 2.0905875e-09
000130 54 ba ab 30 e8 53 8f 2f 38 14 ba 2f 0b b6 25 30
       1.2494845e-09 2.6071167e-10 3.384757e-10 6.028535e-10
000140 ad 09 0d 31 f7 09 2b 30 ae d2 49 2f cb a1 ad 2e
       2.05237e-09 6.22236e-10 1.8355692e-10 7.8958694e-11
000150 9a 22 be 2f f6 9d cc 2f 23 2b c8 2f 0c c7 3a 30
       3.4585385e-10 3.7219622e-10 3.6410439e-10 6.794927e-10
000160 23 88 8a 30 83 75 02 31 bb 10 b3 2f ce 68 9f 2f
       1.0079514e-09 1.8984287e-09 3.2571798e-10 2.89964e-10
000170 c0 98 a1 30 89 6b b3 2e ba 82 58 30 d1 86 ce 2e
       1.1757706e-09 8.15908e-11 7.8766116e-10 9.3917436e-11
000180 55 e3 ba 2e a3 99 29 30 27 4d 15 30 1d 95 38 30
       8.498683e-11 6.170017e-10 5.4315524e-10 6.715071e-10
000190 88 41 ff 2f 35 1c b5 2e 44 64 fc 30 64 b0 fb 2f
       4.6430793e-10 8.2359376e-11 1.836391e-09 4.5781967e-10
0001a0 e8 89 84 31 b2 89 12 30 fc 59 aa 30 ad 50 7a 31
       3.8573837e-09 5.331017e-10 1.2394703e-09 3.6425647e-09
0001b0 fd 3c 96 2e aa fd f6 30 79 1c dd 2f a6 48 0a 2f
       6.832044e-11 1.7970951e-09 4.0219897e-10 1.2576837e-10
0001c0 7f 49 be 2f df 93 0b 2f e7 c4 e4 2f 9e b4 82 2f
       3.461302e-10 1.2694511e-10 4.1612866e-10 2.3775198e-10
0001d0 54 0f 90 2f 46 f2 26 31 22 9b 83 30 4c 14 4a 30
       2.620434e-10 2.4293896e-09 9.575596e-10 7.3516015e-10
0001e0 1d fe f7 30 23 67 8a 2f ce 9c dd 30 2f 08 38 30
       1.8043839e-09 2.5175337e-10 1.6124433e-09 6.695044e-10
0001f0 6c e4 9c 30 ee 21 34 30 90 0e 20 2f 9c d9 b8 2d
       1.1415415e-09 6.5531836e-10 1.4557089e-10 2.1015016e-11
