results/flappy-colab-Master_Model/FlappyAgent/FlappyAgent-1499966.onnx (onnx, 536293 bytes, 10 tensors)

network_body.observation_encoder.processors.0.normalizer.running_mean f4 [4]
0	0x3f3cfb4c	0.7382095
1	0x3d9efbf3	0.07762899
2	0x3f35157f	0.70735925
3	0x3e8ed132	0.27893978

network_body._body_endoder.seq_layers.0.weight f4 [256, 4]
0	0x3e99e437	0.30056927
1	0x3f0592b3	0.5217697
2	0x3ebb9155	0.36634317
3	0x3e5ed8fd	0.21762462
4	0x3dbe12aa	0.09280904
5	0xbf28526b	-0.6575076
6	0xbe600ada	-0.2187914
7	0x3e3c10d4	0.18365794
8	0xbf209a42	-0.6273538
9	0xbebeb4d6	-0.37247342
10	0x3d83d74b	0.06437548
11	0xbf348337	-0.7051272
12	0x3f58b28c	0.8464744
13	0x3f08955f	0.5335292
14	0xbf021568	-0.50813913
15	0xbe3787f2	-0.17922953
16	0xbe673bb3	-0.22581367
17	0xbe7ce8f1	-0.24698235
18	0x3e8cd534	0.2750641
19	0x3eb3331f	0.3499994
20	0xbee4db2a	-0.4469846
21	0xbf26a334	-0.6509278
22	0x3e057c0a	0.13035598
23	0xbe9ccba0	-0.30624104
24	0xbf147b20	-0.58000374
25	0xbe66384d	-0.22482415
26	0xbe72d647	-0.23714553
27	0x3db585cc	0.0886341
28	0x3ea0ec2c	0.31430185
29	0x3d64cd56	0.055859886
30	0x3f1e55f1	0.61849886
31	0xbf1ab4d7	-0.6043219
32	0xbeae70ee	-0.34070534
33	0xbf0fc6da	-0.561628
34	0x3f6d02bb	0.9258229
35	0xbf0e574e	-0.55601966
36	0x3bc97263	0.006147669
37	0x3f14e2e4	0.5815871
38	0xbf11c0ed	-0.56935006
39	0xbed512b4	-0.41615832
40	0x3e8f82d2	0.28029495
41	0xbe86941b	-0.2628487
42	0x3dd622f6	0.10455887
43	0xbf3db421	-0.7410298
44	0xbd9b210a	-0.07574661
45	0xbe84d47a	-0.25943357
46	0x3c86d412	0.016458545
47	0xbf85737f	-1.0425872
48	0x3f56bc40	0.83880997
49	0x3dce54d2	0.10074772
50	0x3f8792ab	1.0591635
51	0x3f932a56	1.1497295
52	0x3d93f46c	0.07224354
53	0xbeab793e	-0.33490938
54	0x3ed87cf6	0.42282838
55	0x3e0b0fb1	0.13580205
56	0x3c5215aa	0.012822548
57	0xbea71f46	-0.32641047
58	0x3ec4c1f3	0.38429222
59	0x3e96d48a	0.2945903
60	0x3f6c8b30	0.92399883
61	0xbe90d64a	-0.2828849
62	0x3e50397f	0.20334433
63	0xbe4757d4	-0.19467098
64	0x3de8be16	0.11364381
65	0xbd9160fe	-0.07098578
66	0xbf2b14f7	-0.66828865
67	0xbeedc7eb	-0.46441588
68	0xbe5942f8	-0.21216953
69	0xbf312dbd	-0.69210416
70	0x3ef03804	0.46917737
71	0xbf181683	-0.5940935
72	0xbf4da6ae	-0.8033246
73	0xbf52c9d3	-0.8233921
74	0x3f0fed56	0.5622152
75	0x3e57283f	0.21011446
76	0xbe7d4302	-0.24732593
77	0xbed38def	-0.41319224
78	0x3ec3b642	0.3822499
79	0xbc7de304	-0.015496019
80	0x3f2f8120	0.68556404
81	0x3e4a7953	0.19772844
82	0xbec88458	-0.3916347
83	0xbf20c326	-0.6279777
84	0xbf228366	-0.6348175
85	0xbed48e16	-0.41514653
86	0x3da22a75	0.07918254
87	0xbdae18b6	-0.08500807
88	0xbf0e07d6	-0.55480707
89	0xbf0d5879	-0.55213124
90	0xbf335ebc	-0.7006643
91	0x3f9e15c8	1.2350397
92	0xbecd7b74	-0.4013325
93	0x3d4179d9	0.047235344
94	0xbec5b48b	-0.38614306
95	0x3e1b288d	0.15152188
96	0xbe651fa9	-0.22375359
97	0xbe4b1865	-0.19833525
98	0xbf04750f	-0.5174112
99	0xbec8e0e3	-0.39234075
100	0x3f04de26	0.5190147
101	0x3f002834	0.50061345
102	0x3e4e38e0	0.20138884
103	0xbec397a3	-0.38201627
104	0xbcba580b	-0.02274706
105	0xbdcd62f4	-0.100286394
106	0x3f36500a	0.7121588
107	0x3e92f304	0.2870103
108	0xbe7d396d	-0.24728937
109	0xbf583b8a	-0.8446585
110	0xbf4bf41d	-0.7966936
111	0xbf0db339	-0.553516
112	0xbdf328d6	-0.11873023
113	0xbddc2745	-0.107496776
114	0xbee64f44	-0.4498235
115	0xbe4feab7	-0.2030438
116	0x3c6ef05a	0.014583671
117	0xbe61eb58	-0.22062433
118	0xbe7365eb	-0.23769347
119	0x3cc1a430	0.023637861
120	0x3eb56feb	0.3543695
121	0x3e81cf34	0.25353396
122	0x3c02d6d5	0.00798579
123	0x3ec5b1e2	0.38612276
124	0x3b73f257	0.0037223303
125	0x3f3430d5	0.7038701
126	0xbf08f41a	-0.5349747
127	0xbf051b4f	-0.51994795
128	0x3f8949a8	1.0725603
129	0xbec29389	-0.38003185
130	0xbf591c99	-0.8480926
131	0x3ed4d5ff	0.41569516
132	0x3e4f09f4	0.2021864
133	0x3f00f0ad	0.5036724
134	0xbdf57c5e	-0.11986612
135	0x3ed0bb2e	0.40767807
136	0xbeb1bd83	-0.34714898
137	0xbc8d05d0	-0.017214686
138	0xbf97bf41	-1.1855241
139	0xbde57a54	-0.11204973
140	0x3ebefd98	0.37302852
141	0xbf033325	-0.51249915
142	0x3f1835f0	0.594573
143	0xbe4e4c6a	-0.20146337
144	0x3e84453b	0.2583407
145	0xbeb5b98e	-0.3549313
146	0xbe4d5c63	-0.20054774
147	0xbe79369a	-0.24337235
148	0x3eb769c0	0.35822868
149	0xbf306859	-0.6890922
150	0x3f9f12f1	1.2427655
151	0xbcd06d9c	-0.02544289
152	0x3e975447	0.29556486
153	0xbe8fb605	-0.28068557
154	0xbedbeb65	-0.4295303
155	0x3ddf4530	0.10901868
156	0xbde5558b	-0.11197957
157	0x3d432017	0.047638025
158	0x3c694939	0.014238649
159	0x3df110f3	0.11770811
160	0x3f948aae	1.1604822
161	0xbeac6eca	-0.33678275
162	0x3f2e9139	0.6819034
163	0x3f522246	0.8208355
164	0x3cf0899a	0.029362489
165	0x3f499c0d	0.7875374
166	0x3f2149c7	0.630032
167	0x3f145e3a	0.5795628
168	0x3e6b3819	0.22970618
169	0x3f872f82	1.0561373
170	0xbefbad75	-0.49155775
171	0x3eeef2a5	0.46669498
172	0x3eceb928	0.40375638
173	0xbef98e49	-0.48741367
174	0x3f314bfe	0.6925658
175	0xbec62e15	-0.38707033
176	0xbe423767	-0.18966447
177	0x3e4ce3a3	0.20008712
178	0xbe9e71e1	-0.30946258
179	0x3f8e9834	1.1140199
180	0xbebcb189	-0.368542
181	0xbd553f55	-0.05206235
182	0xbf35211e	-0.7075366
183	0xbf244409	-0.64166313
184	0x3e1a25e4	0.15053517
185	0x3f145ad8	0.57951117
186	0x3eb57b79	0.35445765
187	0xbf282b66	-0.6569122
188	0xbea67352	-0.32509857
189	0xbfcac929	-1.5842639
190	0x3f30490a	0.6886145
191	0x3e3e20a8	0.18567145
192	0x3ec17803	0.37786874
193	0x3e3dc586	0.1853238
194	0xbf09cc63	-0.53827494
195	0xbea02d29	-0.31284454
196	0xbded41d4	-0.11584821
197	0x3f567556	0.8377279
198	0x3ed2a4c7	0.4114134
199	0xbf2e0bf4	-0.6798699
200	0x3e1400e3	0.14453463
201	0xbeae64dd	-0.34061328
202	0xbe7bafd4	-0.24578792
203	0x3e3898e5	0.18027075
204	0x3f186f56	0.59544885
205	0xbd0fdba9	-0.035121594
206	0xbecc7626	-0.3993389
207	0x3e20879a	0.15676728
208	0x3e8e6c07	0.27816793
209	0xbeb7c62e	-0.35893387
210	0xbdfecb77	-0.124411516
211	0x3f017bf6	0.50579774
212	0xbcddd5fb	-0.027079573
213	0xbe73ee38	-0.23821342
214	0xbe02cf7a	-0.12774459
215	0xbd96ccc3	-0.07363274
216	0x3eac5902	0.33661658
217	0x3ee90d55	0.45517984
218	0xbf27c05c	-0.6552789
219	0xbe99b0e9	-0.30017784
220	0xbe3d94da	-0.18513814
221	0xbe490899	-0.19632186
222	0x3c1e999d	0.009680179
223	0xbee73934	-0.4516083
224	0xbf1763ff	-0.59136957
225	0xbf041ef6	-0.5160974
226	0xbf256296	-0.64603555
227	0x3d1b6d4a	0.037946023
228	0x3efb0d65	0.49033657
229	0x3e575700	0.21029282
230	0xbe06c457	-0.13160835
231	0x3f1ad952	0.60487854
232	0xbdc57a3b	-0.09642454
233	0xbf644b61	-0.8917752
234	0x3e78d009	0.24298109
235	0x3ea7d6f4	0.32781184
236	0x3f7a18b5	0.9769395
237	0x3f1c0bad	0.60955316
238	0xbec61815	-0.38690248
239	0xbebf7486	-0.37393588
240	0x3f0b4cb6	0.54413927
241	0xbe14714e	-0.14496347
242	0xbfa177a8	-1.2614641
243	0x3dd79045	0.10525564
244	0xbf0843bd	-0.5322836
245	0x3e6cecec	0.23137254
246	0x3ddc6c40	0.107628345
247	0xbf003481	-0.50080115
248	0x3e9070ca	0.2821105
249	0x3f03185d	0.5120905
250	0x3d12ab72	0.035808034
251	0x3f2c523a	0.6731297
252	0x3c32ce83	0.010913494
253	0x3fbf4a35	1.4944521
254	0xbdefc03a	-0.11706586
255	0xbd0c0389	-0.03418306

network_body._body_endoder.seq_layers.0.bias f4 [256]
0	0x3d5a9c30	0.05337161
1	0xbd7d37fc	-0.06182097
2	0x3cd9211d	0.026505047
3	0xbe0d5bb6	-0.13804516
4	0x3e00aace	0.12565157
5	0x3caae912	0.02086309
6	0x3d094de7	0.03352156
7	0xbccdfbe4	-0.025144525
8	0xbd05de92	-0.032682963
9	0x3dbd6f5d	0.092497565
10	0xbc95d763	-0.018291181
11	0x3dd18330	0.102301
12	0x3dea39e7	0.11436825
13	0xbd1922ed	-0.037386823
14	0xbd04a56a	-0.032384314
15	0xbdc53a88	-0.096303046
16	0x3dcf96a0	0.10136151
17	0xbba8673d	-0.00513926
18	0x3d46471c	0.04840766
19	0x3d2d8761	0.042365436
20	0xbda91e75	-0.08257762
21	0x3d936ec3	0.071988605
22	0x3e01fa48	0.12693131
23	0x3cdac825	0.026706764
24	0xbda5fd2c	-0.08104929
25	0xbd8d5c7a	-0.06902404
26	0x3df6d96c	0.12053189
27	0x3cd5dac2	0.026105288
28	0x3dea088b	0.11427411
29	0xbdc8af66	-0.097990796
30	0xbbc86812	-0.006115922
31	0x3cc2c849	0.023777144
32	0xbdc62d7e	-0.09676646
33	0xbd9b1bd7	-0.075736694
34	0x3dd44585	0.10364822
35	0x3d5291e6	0.05140867
36	0xbd052ee5	-0.032515425
37	0x3d862dd3	0.06551709
38	0xbdcddca8	-0.100518525
39	0x3e0c9b14	0.13731033
40	0x3df9578f	0.121749036
41	0x3cbe89b5	0.023259023
42	0x3d4e0c9f	0.050305005
43	0x3d8a58fc	0.06755254
44	0x3debb65a	0.1150939
45	0x3dc82528	0.09772712
46	0x3dc5ca95	0.0965778
47	0x3d0bc5e2	0.034124263
48	0xbda4d3eb	-0.08048233
49	0x3db79729	0.089643784
50	0xbdd34b7a	-0.103171304
51	0xbe05e210	-0.13074517
52	0xba8227bd	-0.0009930056
53	0xbddc789f	-0.10765194
54	0xbdeb0691	-0.11475862
55	0xbc36d9f6	-0.011160364
56	0x3dea098b	0.114276014
57	0xbd6aa809	-0.057289157
58	0xbc32cde6	-0.010913348
59	0x3d6b7cd4	0.057492092
60	0xbdc6fbe7	-0.09716015
61	0x3c9a1619	0.018809365
62	0x3dcf97e4	0.10136393
63	0x3d16e7a6	0.03684201
64	0xbb42aeb6	-0.0029706187
65	0xbb4c63f3	-0.0031187504
66	0x3cbaed87	0.02281834
67	0x3d7d7090	0.061874926
68	0x3dd070a3	0.10177734
69	0x3dbf5046	0.09341483
70	0x3da253f7	0.07926171
71	0x3d758eb3	0.05995054
72	0xbb3b03ce	-0.0028536203
73	0xbdba8f78	-0.09109396
74	0x3d5495a9	0.05190054
75	0x3da3a9d1	0.07991374
76	0x3e007b71	0.12547089
77	0x3d8e057d	0.069346406
78	0x3d80c7b3	0.062880896
79	0x3d898099	0.06713981
80	0xbcf1c1cd	-0.029511357
81	0x3dbcbb71	0.09215439
82	0x3e0f0abe	0.13968942
83	0x3d19009a	0.03735409
84	0x3d67c8c7	0.05658796
85	0xbc55fd27	-0.0130608445
86	0x3dbf7e8d	0.093503095
87	0x3db16e8a	0.08663662
88	0x3dc52eb6	0.0962805
89	0xbd1c8a58	-0.038217872
90	0x3db80b4b	0.08986529
91	0x3d07ad55	0.033124287
92	0xbd2662ed	-0.040621687
93	0xbca8f041	-0.020622374
94	0xbd37d747	-0.04488304
95	0x3dcdce47	0.1004911
96	0xbdcbe9e7	-0.09956723
97	0xbda95442	-0.08268024
98	0x3dce3545	0.10068754
99	0x3d444e27	0.047926094
100	0x3dfc5e17	0.12322634
101	0x3dec7473	0.115456484
102	0x3df7ac6b	0.12093433
103	0x3db809e1	0.08986259
104	0xbd3e8b13	-0.04651935
105	0x3dc8b08e	0.097993
106	0x3c879133	0.016548729
107	0x3d205f52	0.039153405
108	0x3dcb72d3	0.0993401
109	0x3db19ec4	0.0867286
110	0x3dac90d9	0.08426065
111	0x3d96c919	0.07362575
112	0xbe089b20	-0.13340425
113	0xbdd9aab7	-0.106282644
114	0x3ba58060	0.005050704
115	0x3dfb20a1	0.12262083
116	0x3dc0f2f1	0.094213374
117	0x3d9f4af7	0.0777797
118	0x3ca158c1	0.019695641
119	0x3db406ce	0.087903604
120	0xbbfce61b	-0.0077178604
121	0x3cb15cf3	0.021650767
122	0xbafc08ad	-0.001922866
123	0xbd3f7bbe	-0.04674887
124	0x3d920716	0.07130258
125	0x3dba4be3	0.090965055
126	0x3dee0b88	0.11623293
127	0xbda6d6e3	-0.08146455
128	0x3dd32904	0.103105575
129	0x3d8599ff	0.06523513
130	0x3d86539f	0.06558918
131	0xbd25b25b	-0.040453296
132	0x3da44ad4	0.08022085
133	0xbc1946a8	-0.009355225
134	0xbd2395e5	-0.039937872
135	0x3daeaa92	0.085286275
136	0x3d981e0a	0.074276045
137	0x3dd49357	0.10379665
138	0x3d6c84a0	0.05774367
139	0x3dbdb386	0.09262757
140	0x3d853e3f	0.06506013
141	0x3d6e8503	0.05823232
142	0x3cd2a5a4	0.02571375
143	0x3daf2c29	0.08553345
144	0x3de848cc	0.1134201
145	0x3dc8206e	0.097718105
146	0x3dacc8af	0.08436715
147	0x3db2457d	0.0870466
148	0x3d8b5b27	0.06804495
149	0x3dd482cd	0.10376511
150	0x3dd0cc66	0.10195236
151	0x3dce3bc6	0.10069995
152	0xbd7c752a	-0.061635174
153	0xbb8a0b00	-0.004212737
154	0x3dcbb65b	0.09946891
155	0xbd8accbe	-0.06777333
156	0x3dd39049	0.103302546
157	0x3d9b1f42	0.07574321
158	0x3d724cf7	0.05915543
159	0x3de15169	0.11001856
160	0xbc2aaee0	-0.01041767
161	0x3d21a7c7	0.039466646
162	0x3deee58f	0.116648786
163	0x3d389067	0.045059588
164	0xbd9c9949	-0.07646424
165	0xbaaab7bf	-0.0013024731
166	0x3d6e1b2e	0.05813139
167	0x3dcacec6	0.0990272
168	0xbcb155a8	-0.02164729
169	0x3cd3d3e6	0.025857877
170	0x3d0addfa	0.0339031
171	0x3d5e9314	0.054339483
172	0x3decd204	0.11563495
173	0xbd9360a0	-0.07196164
174	0x3d9f9faa	0.077941254
175	0x3c89be30	0.016814321
176	0xbe09af59	-0.13445796
177	0x3dbb626f	0.09149634
178	0xbd208fd1	-0.039199654
179	0xbccf92d4	-0.025338568
180	0x3daf66d7	0.08564537
181	0xbd1d8747	-0.03845909
182	0x3d5ea71f	0.054358598
183	0x3dcfd277	0.10147565
184	0xbc67b84c	-0.014143061
185	0x3dc45082	0.09585668
186	0xbd14e121	-0.036347512
187	0x3dffcb46	0.12489943
188	0x3dbb46ac	0.09144339
189	0x3d73af6e	0.059493475
190	0xbd5b67cc	-0.053565785
191	0x3dbc5b2f	0.091970794
192	0x3c9aa29c	0.018876366
193	0x3d82ea35	0.06392328
194	0x3d8e4b62	0.06947972
195	0x3d79edd8	0.06101784
196	0x3deca906	0.11555676
197	0x3df68e7e	0.12038897
198	0x3df2d396	0.11856763
199	0xbc35ccc8	-0.011096187
200	0x3dfb92c0	0.1228385
201	0x3dd2799c	0.102771014
202	0x3dccef78	0.100066125
203	0x3db7ed29	0.089807816
204	0xbd6e069c	-0.058111772
205	0xbe0113d4	-0.1260522
206	0x3ddadf0b	0.10687073
207	0x3d82931c	0.06375715
208	0x3d7869ab	0.060647648
209	0x3e012fa4	0.1261583
210	0x3d9a258c	0.07526693
211	0x3d7957c8	0.06087473
212	0xbcf62276	-0.03004573
213	0xbdb3cbdd	-0.08779118
214	0x3dab7edf	0.08373808
215	0x3dc3514c	0.095369905
216	0x3dd0e0e2	0.10199143
217	0x3dc1564c	0.09440288
218	0x3db5cfe1	0.088775404
219	0xbd13409f	-0.0359503
220	0x3db2cd59	0.08730573
221	0xbccdbcf8	-0.025114521
222	0x3dcf6afd	0.10127828
223	0xbd40d7de	-0.047080867
224	0x3c6a986c	0.014318567
225	0x3db8b8d9	0.09019632
226	0x3d9502d1	0.07275928
227	0xbd1ab03c	-0.037765726
228	0xbdacdd03	-0.08440592
229	0x3d2041f7	0.03912541
230	0x3cb274b9	0.021784173
231	0x3d7fff73	0.062499475
232	0x3c322f73	0.010875571
233	0x3dc0f01f	0.094207995
234	0x3c83a8a2	0.016071621
235	0x3dac1c95	0.08403889
236	0x3df13f18	0.11779612
237	0x3d36ecc7	0.044659402
238	0x3dbd6fc1	0.09249831
239	0x3dc46f45	0.095915355
240	0x3dbf92e6	0.093541905
241	0xbcc2c958	-0.023777649
242	0xbc43c2ad	-0.01194827
243	0x3dfdad18	0.12386531
244	0x3d9bcfe2	0.0760801
245	0xbd3ac850	-0.04560119
246	0x3daf7884	0.085679084
247	0x3c7bffdb	0.015380825
248	0x3c879f91	0.01655558
249	0x3df091c0	0.117465496
250	0x3d2902bf	0.041262385
251	0xbe05a26e	-0.13050243
252	0x3e0d70bb	0.13812535
253	0x3cd335aa	0.025782425
254	0x3dcf90bb	0.10135027
255	0xbdcbb3d1	-0.09946407

network_body._body_endoder.seq_layers.2.weight f4 [256, 256]
0	0x3d80af22	0.06283404
1	0xbdfb3883	-0.12266638
2	0x3cd807c1	0.026370885
3	0xbdfe8372	-0.12427415
4	0x3e37b503	0.17940144
5	0x3c2b2102	0.010444881
6	0x3daa9c3d	0.08330581
7	0x3d9f377f	0.07774257
8	0x3d57e628	0.05270973
9	0x3d230a49	0.03980473
10	0xbbf10b60	-0.0073560923
11	0x3e38aead	0.18035384
12	0xbcc9a12b	-0.024612984
13	0x3dda9741	0.10673381
14	0x3d51486c	0.051094458
15	0xbcce465c	-0.025180034
16	0x3dd12a7d	0.10213182
17	0x3d907d8b	0.070551954
18	0xbdf3251d	-0.11872313
19	0x3b1aa8ea	0.0023599216
20	0xbd91ff29	-0.07128746
21	0x3d51b32b	0.05119626
22	0xbdbcffb2	-0.092284575
23	0xbc760bfc	-0.015017506
24	0x3db8c1a0	0.09021306
25	0x3d844c6d	0.064598896
26	0x3d9aeb9e	0.07564472
27	0x3d9943f1	0.07483662
28	0xbb1ce703	-0.0023941405
29	0x3d609026	0.05482497
30	0xbca01a2a	-0.019543726
31	0x3c0049d3	0.007830101
32	0x3da4eb95	0.08052746
33	0x3da63ef5	0.08117477
34	0xbc37f0d1	-0.011226849
35	0x3d178abc	0.03699754
36	0x3aaeb01a	0.0013327629
37	0x3c18efc5	0.009334509
38	0xbde7de4a	-0.11321695
39	0xbe0108ed	-0.12601061
40	0x3dd995fb	0.1062431
41	0xbdcf58b2	-0.10124339
42	0xbd422463	-0.047397982
43	0xbd56055f	-0.052251216
44	0xbc4d631a	-0.012535835
45	0x3d09e82d	0.033668686
46	0x3e09c91c	0.13455623
47	0x3c49cee1	0.01231739
48	0xbd87fdd1	-0.066402085
49	0x3dbf4476	0.0933923
50	0xbcd33b95	-0.025785247
51	0x3d06d60d	0.03291898
52	0xbcdfe98c	-0.027333044
53	0x3d909bd6	0.07060973
54	0x3d3b414f	0.04571658
55	0x3e0c2eb3	0.1368969
56	0xbd98c396	-0.0745918
57	0xbd2d4ca3	-0.042309415
58	0xbd01c200	-0.031679153
59	0xbe100f4e	-0.14068338
60	0xbd989024	-0.07449368
61	0x3d71ecac	0.0590636
62	0xbdb04a83	-0.08607962
63	0x3db1f732	0.08689727
64	0x3c83f049	0.016105788
65	0x3df50460	0.11963725
66	0xbcfb75fc	-0.030695908
67	0xbc985f31	-0.018600078
68	0xbdbcf1e3	-0.09225824
69	0x3cb1f967	0.02172537
70	0x3c024ef0	0.0079533905
71	0xbc2cebf7	-0.010554305
72	0x3d22bdfb	0.03973196
73	0xbdb45d33	-0.08806839
74	0x3cddc6dd	0.027072364
75	0x3c48b8e2	0.012251111
76	0x3d693b17	0.056941118
77	0x3c0895f8	0.008336537
78	0x3e0b8ae9	0.13627209
79	0xbda73e9b	-0.08166238
80	0x3caf6c79	0.021414028
81	0x3ddb7155	0.10714976
82	0x3d471c9e	0.048611276
83	0xbd5312b8	-0.051531523
84	0xbd58b7f8	-0.05290982
85	0x3ce58b8f	0.028020648
86	0x3dbe6cbe	0.09298085
87	0xbd3e5c14	-0.04647453
88	0x3bffbfc6	0.0078048436
89	0xbc0cd0f5	-0.008594741
90	0x3d80e5d9	0.0629384
91	0xbc6d3d1b	-0.014479901
92	0x3c500f18	0.012698911
93	0xbc516f1e	-0.01278284
94	0x3d116236	0.035494052
95	0x3be7d81c	0.007075323
96	0xbd7ae4e7	-0.061253455
97	0xbd8427c3	-0.064528964
98	0xbd122920	-0.03568375
99	0xbcfc4bb1	-0.030797811
100	0x3cd3a14b	0.025833746
101	0x3cbd992a	0.023144323
102	0x3d5e83c7	0.05432489
103	0x3d2dfb0e	0.042475753
104	0x3dd344db	0.103158675
105	0x3e0db26b	0.13837592
106	0x3dd50319	0.104009815
107	0x3ce624ad	0.02809366
108	0xbd24f4c3	-0.040272485
109	0x3e13c5a6	0.14430866
110	0xbdafaa2d	-0.0857738
111	0xbd780115	-0.060547907
112	0xbd7768f1	-0.060402814
113	0x3d3dd740	0.046347857
114	0x3d05895a	0.03260169
115	0x3d45d7d0	0.048301518
116	0xbcc8c743	-0.024509078
117	0xbd404883	-0.046944153
118	0x3c6f648f	0.014611377
119	0x3e208832	0.15676954
120	0x3da1679b	0.07881089
121	0xbd181a53	-0.03713448
122	0x3d506a53	0.05088265
123	0x3d86ccb9	0.065820165
124	0x3d03a788	0.032142192
125	0x3a9ac6e3	0.001180854
126	0xbb8be578	-0.004269298
127	0x3d0afcd0	0.033932507
128	0x3ccb0d11	0.024786504
129	0x3d2c0545	0.041997213
130	0xbda10453	-0.07862153
131	0x3da47cad	0.080315925
132	0x3c709ee5	0.014686321
133	0x3dd51d30	0.10405958
134	0xbd14d19c	-0.03633271
135	0x3aa79896	0.0012786563
136	0xbd3becc1	-0.045880083
137	0xbdaf728f	-0.08566772
138	0xbc8b6f37	-0.017020805
139	0xbca1ad5e	-0.019735988
140	0x3cb19867	0.021679116
141	0x3d454d3b	0.048169356
142	0x3d269f62	0.040679343
143	0xbcc5fc98	-0.024168298
144	0x3cccfea0	0.025023758
145	0x3d14fe9c	0.036375627
146	0x3dad7feb	0.08471664
147	0x3d51b4bd	0.051197756
148	0xbd40c433	-0.04706211
149	0x3d1f70a3	0.038925778
150	0x3c58939c	0.013218787
151	0x3db1f188	0.086886466
152	0x3da3285c	0.07966682
153	0x3c525c6d	0.012839419
154	0x3bf4e455	0.0074735084
155	0xbc3742eb	-0.011185388
156	0x3d926dff	0.07149886
157	0xbd20d106	-0.03926184
158	0xbcc11003	-0.023567205
159	0x3db63afc	0.08897969
160	0x3cb41c5b	0.021986177
161	0xbd03adec	-0.032148287
162	0x3d68a405	0.056797046
163	0x3dbe0954	0.09279123
164	0xbd721a21	-0.05910695
165	0xbd20d83f	-0.03926873
166	0x3df56bfe	0.119834885
167	0x3d5430a6	0.051804207
168	0x3bb6b623	0.0055759116
169	0x3d826f24	0.06368855
170	0x3d329ac7	0.04360464
171	0xbd14b8bf	-0.036309
172	0x3c707e5e	0.014678566
173	0x3d6fee93	0.05857713
174	0xbcfc421d	-0.030793244
175	0x3dfc8f0c	0.123319715
176	0xbd4c5f79	-0.049895737
177	0x3c53d580	0.01292932
178	0x3c13c935	0.009020139
179	0xbc86198d	-0.016369605
180	0xbc982a2f	-0.018574802
181	0xbc361361	-0.011113019
182	0xbd2396f5	-0.039938886
183	0xbcb5991e	-0.022167739
184	0x3d3ba261	0.045809153
185	0x3d7ea20d	0.062166262
186	0x3c67732f	0.014126583
187	0x3d6d8bfe	0.057994835
188	0x3b7c9262	0.00385394
189	0xbd2fc39b	-0.042911153
190	0xbc1f189b	-0.009710456
191	0xbd9ba25f	-0.07599329
192	0xbb179496	-0.0023129336
193	0xbc56c13f	-0.013107597
194	0xbd926821	-0.07148767
195	0xbd3ac4b7	-0.04559776
196	0xbc0f7871	-0.008756743
197	0x3bf99fd9	0.0076179323
198	0x3dd612b0	0.10452783
199	0xbe2c1e61	-0.16808464
200	0xbc01ac58	-0.007914625
201	0xbdb43dd1	-0.08800853
202	0xbc9046a1	-0.017611803
203	0x3bd51ae5	0.00650345
204	0xbd345d06	-0.044034027
205	0xbd4cd124	-0.05000414
206	0x3d8aa5f2	0.06769933
207	0x3c488117	0.012237809
208	0x3ddd0b85	0.10793213
209	0xbd0742c3	-0.033022653
210	0xbd21cefe	-0.039504044
211	0xbd0d1d57	-0.03445181
212	0x3ddee29b	0.10883065
213	0x3d60f1bf	0.054918047
214	0x3d81a32f	0.06329953
215	0x3e024733	0.12722473
216	0x3d49a353	0.049228024
217	0x3db7f351	0.08981956
218	0x3c96dc00	0.018415451
219	0xbc29e867	-0.01037035
220	0xbbb832d8	-0.0056212954
221	0x3d0d7d6a	0.034543432
222	0xbd90463c	-0.07044646
223	0xbd886549	-0.066599436
224	0x3d50b0f2	0.05095
225	0x3ccd1f33	0.025039291
226	0x3b04abbc	0.0020243963
227	0x3db5ef54	0.08883539
228	0xbd8180e5	-0.06323413
229	0x3cf0d844	0.029399998
230	0xbda092fc	-0.07840535
231	0x3db2777e	0.087141976
232	0x3d8bdc38	0.06829113
233	0x3a33f356	0.0006864568
234	0xbe221bad	-0.1583087
235	0x3e0d216d	0.13782282
236	0x3d2aa5e5	0.041662116
237	0x3d59a52b	0.053136032
238	0xbc250a3e	-0.010073243
239	0xbbe60962	-0.0070201615
240	0x3d8327a5	0.06404046
241	0x3d165bfe	0.036708824
242	0x3c4415cb	0.0119680865
243	0xbd439113	-0.047745775
244	0x3dedd87b	0.11613556
245	0x3d8112f8	0.06302446
246	0xbc3043f1	-0.010758386
247	0xbc68a2e4	-0.014198992
248	0xbd3cb9c4	-0.046075597
249	0xbc998db4	-0.018744327
250	0xbc4eccdd	-0.012622085
251	0x3c1e6a4e	0.0096689
252	0x3dbd0c75	0.092308916
253	0x3db8eae0	0.09029174
254	0x3d208636	0.039190494
255	0xbccf6e4b	-0.025321146

network_body._body_endoder.seq_layers.2.bias f4 [256]
0	0xbd0f4882	-0.03498126
1	0xbdc8adc6	-0.0979877
2	0xbdff2445	-0.1245809
3	0x3da91ad0	0.08257067
4	0xbdc14c08	-0.0943833
5	0xbc297b13	-0.010344285
6	0xbc8c5008	-0.017128006
7	0x3dbaabae	0.091147766
8	0x3dc51b6f	0.09624373
9	0xbd7ce0fd	-0.061738003
10	0x3d9f3851	0.077744134
11	0x3d99c8aa	0.07508977
12	0xbd5a929d	-0.053362478
13	0x3da8c6f2	0.08241071
14	0xbdd5fc96	-0.104485676
15	0x3dbbbf68	0.09167367
16	0xbbd3996b	-0.006457498
17	0x3d8bdb17	0.068288974
18	0x3dbd8438	0.09253734
19	0xbde629e4	-0.11238459
20	0x3d88d3ec	0.06681046
21	0xbde9fa32	-0.11424674
22	0xbdf9b161	-0.121920355
23	0xbde9d9d5	-0.11418501
24	0xbd38e0f6	-0.045136414
25	0xbdd8d66a	-0.10587771
26	0xbdc7d18c	-0.09756765
27	0xbd964cac	-0.07338843
28	0x3b43e3dd	0.0029890456
29	0xbdf96baf	-0.12178742
30	0xbdeb1bec	-0.11479935
31	0x3d03d102	0.032181747
32	0xbdfd5184	-0.123690635
33	0x3d994e32	0.07485618
34	0x3d9e91bb	0.0774264
35	0xbbb0a6a3	-0.0053909584
36	0xbdd981ad	-0.10620437
37	0x3db68279	0.089116044
38	0xbd6c89e8	-0.057748705
39	0x3daccd11	0.08437551
40	0xbd4e04bd	-0.050297488
41	0x3da4927d	0.08035753
42	0x3da6af88	0.08138949
43	0x3d99a67d	0.07502458
44	0xbc0777dd	-0.008268324
45	0xbddd5a8a	-0.108082846
46	0x3d024589	0.031804595
47	0xbc80b6c6	-0.015712153
48	0x3d38c589	0.04511026
49	0xbd4cf55d	-0.050038684
50	0xbd2721ab	-0.040803593
51	0xbded319d	-0.115817286
52	0xbd24cdb4	-0.040235236
53	0x3daf7c58	0.085686386
54	0x3d9ed2cd	0.07755051
55	0x3d9ba757	0.07600277
56	0x3daf6e0a	0.0856591
57	0x3da5edad	0.08101974
58	0x3db77a4a	0.08958872
59	0xbdd856b0	-0.10563409
60	0x3dc07dca	0.09398992
61	0xbdf48971	-0.11940277
62	0xbd8aa94f	-0.06770574
63	0x3dc142cf	0.09436571
64	0x3cf935e0	0.030421197
65	0x3dc33091	0.09530748
66	0xbd89dcb6	-0.067315504
67	0x3db48a50	0.088154435
68	0xbda41005	-0.08010868
69	0x3d855b8b	0.06511601
70	0xbdf79805	-0.12089542
71	0xbdbd084e	-0.092300996
72	0x3dc9e606	0.098583266
73	0xbdf16b90	-0.11788094
74	0xbd9a22f6	-0.075261995
75	0x3da50d1f	0.08059143
76	0x3dbbf02c	0.091766685
77	0x3ce90e54	0.028449215
78	0xbd98ca25	-0.07460431
79	0x3d93b188	0.07211596
80	0x3dbadef4	0.09124556
81	0xbdef3968	-0.11680871
82	0x3d9d7828	0.076889336
83	0xbd6593cf	-0.056049164
84	0xbdf22acd	-0.1182457
85	0xbdddf17d	-0.10837076
86	0xbdeabe56	-0.11462085
87	0xbde418c1	-0.11137534
88	0x3dafd8a7	0.08586245
89	0x3d84178a	0.06449802
90	0xbdee61fb	-0.11639782
91	0x3d6d6aa7	0.05796304
92	0xbdfd9be0	-0.123832464
93	0x3d944c57	0.07241123
94	0x3da1bb70	0.07897079
95	0xbd941398	-0.072303
96	0x3da813f8	0.08206934
97	0xbdef3e80	-0.11681843
98	0xbdfc62d6	-0.12323539
99	0x3d09bd3f	0.033627745
100	0xbdee58b8	-0.116380155
101	0xbd8ac43d	-0.06775711
102	0xbc903105	-0.0176015
103	0x3dccef51	0.100065835
104	0x3cc9378d	0.024562621
105	0x3da06daf	0.078334205
106	0xbd4a42ad	-0.049379993
107	0xbd528e9c	-0.051405534
108	0xbdf7417d	-0.12073038
109	0x3dbd7b0a	0.092519835
110	0x3dca76d1	0.09885944
111	0x3d917b9b	0.07103654
112	0xbde84906	-0.11342053
113	0xbdef8bf0	-0.11696613
114	0x3dac5f10	0.08416569
115	0x3db1a2d3	0.086736344
116	0x3dcb6c87	0.09932809
117	0x3d77a80c	0.060462996
118	0x3db3ad57	0.08773296
119	0x3da03c3f	0.07823991
120	0x3d976efa	0.07394214
121	0xbd237c9f	-0.03991377
122	0xbdc349b5	-0.09535543
123	0x3ccf8922	0.025333945
124	0xbdd0c080	-0.101929665
125	0xbdfb1845	-0.122604884
126	0xbdd880db	-0.10571452
127	0x3d74ee96	0.059797846
128	0x3c490348	0.012268849
129	0xbd2141b7	-0.03936931
130	0xbc334c38	-0.010943465
131	0x3d34810d	0.044068385
132	0xbdfd8e2e	-0.12380634
133	0xbd87782b	-0.06614717
134	0xbdd01623	-0.10160472
135	0xbd34749e	-0.044056527
136	0xbda99dad	-0.082820274
137	0xbdda394c	-0.1065546
138	0x3da0e1fb	0.07855602
139	0xbd5a09d4	-0.05323203
140	0x3ced21cf	0.028946785
141	0x3d90f034	0.07077065
142	0xbd1a11cd	-0.037614632
143	0x3d976dda	0.073939994
144	0xbdde7c51	-0.10863555
145	0x3d9b2bb4	0.07576695
146	0x3da1445d	0.078743674
147	0x3da4fda8	0.080561936
148	0x3da8687e	0.08223055
149	0x3d3df487	0.046375778
150	0xbd580b19	-0.05274496
151	0x3cc5955d	0.024119074
152	0x3d8f3a67	0.06993561
153	0x3d5c552d	0.053792167
154	0xbd579c87	-0.05263951
155	0xbdcbadee	-0.09945284
156	0x3da18ed3	0.0788857
157	0x3d887186	0.06662278
158	0x3d8c18d8	0.06840676
159	0xbd704388	-0.058658153
160	0xbded1a5d	-0.11577294
161	0x3d99ad6d	0.075037815
162	0xbd64d4b8	-0.055866927
163	0xbd199835	-0.03749867
164	0x3d8f91af	0.07010209
165	0x3d8e3a31	0.06944693
166	0xbdb6abd3	-0.089194916
167	0xbd24987e	-0.04018449
168	0x3d4fb561	0.050710086
169	0x3dd08ba9	0.10182888
170	0xbd1d871b	-0.038458925
171	0x3d7ee60e	0.062231116
172	0x3dc714bc	0.09720752
173	0x3dbfec46	0.093712375
174	0x3daf81a3	0.08569648
175	0x3d866dc1	0.06563903
176	0x3dbf3a4b	0.093372904
177	0x3d699949	0.05703095
178	0xbde9efd7	-0.11422699
179	0x3dac8049	0.08422906
180	0x3d9ff2d9	0.078099914
181	0xbdedf1d7	-0.11618393
182	0x3d3d628f	0.04623657
183	0xbde4fe33	-0.11181297
184	0x3d967c54	0.073479325
185	0xbd110241	-0.03540254
186	0xbdfca318	-0.12335795
187	0x3da3c3ae	0.07996307
188	0xbdf5fee7	-0.120115094
189	0xbdf6d3e0	-0.12052131
190	0x3d8d5511	0.06900991
191	0x3da97e2b	0.08276018
192	0xbda64e38	-0.08120388
193	0xbdfb7c06	-0.12279515
194	0x3d9e2ffa	0.077239946
195	0x3db70701	0.08936883
196	0xbd0bd333	-0.034136962
197	0x3dc934d1	0.09824527
198	0xbd95e616	-0.07319276
199	0x3dc9e9c6	0.09859042
200	0xbcd5afa9	-0.026084738
201	0x3d04e98f	0.0324493
202	0x3d78feeb	0.060789984
203	0x3dc60df6	0.096706316
204	0x3d185ca7	0.037197735
205	0x3d92594a	0.07145937
206	0xbd6945d9	-0.056951378
207	0x3db4b9fe	0.08824538
208	0xbd6a8b91	-0.057262007
209	0x3dc2d750	0.09513724
210	0xbc7156e4	-0.014730189
211	0x3dac6a72	0.0841874
212	0x3dca6863	0.098831914
213	0xbd9c0e5c	-0.07619926
214	0xbd3770ab	-0.044785183
215	0x3d93b101	0.07211495
216	0x3dc6488d	0.09681807
217	0x3cc8ba90	0.024503022
218	0xbdf99432	-0.12186469
219	0xbd5517a4	-0.0520245
220	0x3d7ea4c9	0.06216887
221	0xbda4ff20	-0.08056474
222	0x3d2ddf32	0.042449184
223	0x3dbefc9a	0.09325524
224	0x3daa27df	0.08308386
225	0xbd91dbf2	-0.07122029
226	0x3db93cad	0.09044776
227	0x3c96e3b4	0.018419124
228	0xbd4031a3	-0.046922337
229	0xbd9d0561	-0.076670416
230	0x3da43118	0.080171764
231	0xbde6303c	-0.11239669
232	0x3be16976	0.006879027
233	0xbdd91bfc	-0.10601041
234	0x3d36ca83	0.044626724
235	0xbd4c8f52	-0.04994137
236	0xbc91a27d	-0.017777676
237	0x3cefd92a	0.029278357
238	0xbdf37643	-0.11887791
239	0x3d9bf813	0.07615676
240	0x3da52eff	0.080656044
241	0x3dd6d421	0.10489679
242	0x3d97cb8f	0.074118726
243	0xbcef0c06	-0.029180538
244	0xbd601ab2	-0.05471296
245	0xbde985f0	-0.114025
246	0xbddd22fb	-0.107976876
247	0xbe029eb6	-0.12755856
248	0x3daf3046	0.08554129
249	0xbdebda6a	-0.115162686
250	0xbd3a5a90	-0.045496523
251	0xbdd74803	-0.10511782
252	0xbd0dc601	-0.03461266
253	0x3da226b9	0.07917542
254	0x3d2fb5ca	0.042897977
255	0xbcfa8c7e	-0.03058457

network_body._body_endoder.seq_layers.4.weight f4 [256, 256]
0	0x3ce71bf2	0.028211568
1	0xbb0ea584	-0.0021766135
2	0x3d36a5a3	0.044591557
3	0x3cb6fa43	0.022336131
4	0xbcbbbc10	-0.022916824
5	0xbc0a507f	-0.008442043
6	0x3da0da1d	0.07854102
7	0xbdcada08	-0.099048674
8	0xbdb606d4	-0.08888021
9	0xbd08aabb	-0.033365946
10	0xbdfef6b6	-0.124494
11	0x3c90129f	0.017587004
12	0x3d6ce1b0	0.05783242
13	0xbc683d3e	-0.0141747575
14	0x3d81f556	0.06345622
15	0xbcec64f6	-0.028856736
16	0x3dd4f9d9	0.10399217
17	0x3ccd8273	0.025086617
18	0xbcd4e03f	-0.025985835
19	0xbdc83f75	-0.097777285
20	0xbd00b366	-0.031421088
21	0x3e27d2b0	0.16388965
22	0x3df98b3a	0.121847585
23	0x3cbf982a	0.023387987
24	0x3d74f42d	0.059803177
25	0x3d57738d	0.052600432
26	0x3d779032	0.06044025
27	0x3da2185e	0.07914804
28	0xbe47d929	-0.19516434
29	0x3dc83685	0.09776024
30	0x3d90b39b	0.07065507
31	0x3d866526	0.06562261
32	0x3dcd3661	0.100201376
33	0x3d0516d2	0.032492466
34	0xbd689299	-0.05678043
35	0x3dc9c8ee	0.098527774
36	0x3ca7cd8b	0.020483753
37	0x3d50ddaf	0.050992664
38	0x3c4d9d68	0.012549736
39	0x3dd48722	0.10377337
40	0x3cdf9af1	0.027295562
41	0xbda8aa41	-0.08235598
42	0xbca1607f	-0.019699333
43	0x3db1cc2e	0.08681522
44	0xbd24bcb7	-0.040219035
45	0x3cb3a861	0.021930875
46	0x3c81fbd0	0.015867144
47	0xbe2634ef	-0.1623113
48	0x3d699998	0.057031244
49	0x3d62b4bb	0.05534814
50	0xbd9a3428	-0.07529479
51	0x3dd2c536	0.10291521
52	0xbc0eddba	-0.008719856
53	0xbc5465fe	-0.01296377
54	0xbd57c7b4	-0.052680686
55	0xbb091c8c	-0.0020921556
56	0xbe139895	-0.14413674
57	0xbd31c0bf	-0.043396708
58	0xbd3feef4	-0.046858743
59	0x3d751948	0.059838563
60	0xbd2c6e96	-0.04209765
61	0x3d76ccb0	0.0602538
62	0x3d9ec9a9	0.07753307
63	0xbda6be86	-0.08141808
64	0xbc19b74b	-0.009382079
65	0xbc5c6e37	-0.013454012
66	0x3d0144ad	0.031559635
67	0xbdc148fb	-0.09437748
68	0x3cfd37ed	0.030910457
69	0xbca31f9c	-0.019912533
70	0x3e307e4c	0.17235678
71	0xbcc110d6	-0.023567598
72	0xbc89cbef	-0.016820876
73	0x3c7e23db	0.015511478
74	0x3b41d38e	0.002957556
75	0xbdde0bf0	-0.10842121
76	0xbd9c014a	-0.07617433
77	0xbd6219eb	-0.0552005
78	0x3dc7f615	0.09763733
79	0x3d158bc2	0.036510237
80	0x3d2a60f1	0.041596357
81	0x3dda7093	0.10666003
82	0xbde38634	-0.111095816
83	0x3cb89036	0.022529703
84	0x3d66594a	0.056237496
85	0x3d1e877f	0.038703438
86	0x3cc19b75	0.023633698
87	0xbc1e215d	-0.009651509
88	0xbd80266f	-0.062573306
89	0xbd5d89b8	-0.054086417
90	0x3d5b7a81	0.053583626
91	0xbe125edf	-0.14294003
92	0x3d4c1af4	0.049830392
93	0xbbe0f7e7	-0.0068654898
94	0xbd1b7770	-0.0379557
95	0xbd89339d	-0.066992976
96	0xbd50148f	-0.050800856
97	0xbd42a118	-0.047516912
98	0x3df78f38	0.12087864
99	0xbca53308	-0.020165935
100	0x3d9545ee	0.07288729
101	0x3ddb3a17	0.10704439
102	0xbcb2f221	-0.021843972
103	0xbd57f696	-0.052725397
104	0xbde6a5de	-0.112621054
105	0xbcd1fa8d	-0.025632167
106	0xbdc5097f	-0.09620952
107	0xbd623516	-0.055226408
108	0xbd59a67f	-0.0531373
109	0xbdec4dc2	-0.115382686
110	0xbc6c61c6	-0.014427608
111	0xbc90c0fb	-0.017670145
112	0x3c33abe8	0.010966279
113	0x3e1f0273	0.15528278
114	0xbd37d496	-0.044880472
115	0x3c956f26	0.018241476
116	0xbd2d0d7e	-0.042249195
117	0xbde7814c	-0.11303958
118	0xbd856bf0	-0.06514728
119	0xbd8c4639	-0.068493314
120	0xbbea970e	-0.0071591204
121	0x3c083a65	0.008314704
122	0x3d970c1a	0.07375355
123	0x3d0766c2	0.03305698
124	0x3d8410eb	0.06448539
125	0xbd834329	-0.06409294
126	0xbd0626e5	-0.032751936
127	0xbd508a79	-0.050913308
128	0x3c753fec	0.014968853
129	0xba97446a	-0.0011540775
130	0xbca77f26	-0.020446371
131	0x3d11de5e	0.035612457
132	0x3a9966e4	0.0011703637
133	0x3c84652a	0.01616152
134	0xbba50a4e	-0.005036629
135	0x3ba6b708	0.005087737
136	0x3ddc26cd	0.10749588
137	0x3ddc8664	0.107678205
138	0xbc9cdea9	-0.019149141
139	0x3b84268d	0.004032916
140	0x3c2a0e66	0.010379409
141	0xbdb5284d	-0.088455774
142	0xbc88c3fc	-0.016695015
143	0x3d76d681	0.06026316
144	0xbc7d06b6	-0.015443495
145	0xbd37cb4c	-0.044871613
146	0x3db59268	0.088658154
147	0x3ddd0e2b	0.10793718
148	0xbd867d95	-0.065669216
149	0x3c92823c	0.017884366
150	0xbd29fd11	-0.04150111
151	0xbd535a4c	-0.051599786
152	0xbcb8e57e	-0.022570368
153	0xbd83a982	-0.064288154
154	0xbd46a305	-0.04849531
155	0x3d1c3eac	0.038145706
156	0x3d1fb45c	0.038990363
157	0xbce68340	-0.028138757
158	0xbd54cf77	-0.051955666
159	0xbc51a405	-0.012795453
160	0x3d153023	0.03642286
161	0xbddc3e01	-0.10754014
162	0xbdc1c90f	-0.09462177
163	0xbd98a22a	-0.07452805
164	0x3d2fd3bc	0.042926535
165	0x3d940335	0.07227174
166	0x3dbfbca1	0.0936215
167	0x3c8f5b07	0.01749946
168	0xbc4d339a	-0.01252451
169	0xbd9802e5	-0.07422427
170	0x3d1bf790	0.03807789
171	0xbe3acf65	-0.18243177
172	0xbd9131e2	-0.070895925
173	0xbdad686b	-0.08467182
174	0xbc080e13	-0.008304137
175	0x3dab5a29	0.08366806
176	0xbdd71e40	-0.105038166
177	0x3d17ea0c	0.03708844
178	0x3dee32cb	0.11630782
179	0x3c9e06fa	0.019290436
180	0x3d87a5de	0.066234335
181	0xbdbfd53a	-0.093668416
182	0x39cd4024	0.00039148435
183	0x3dbdb8b5	0.09263746
184	0x3d9917cd	0.07475243
185	0xbb58f9aa	-0.0033107796
186	0x3de47982	0.11155988
187	0x3d8274bb	0.06369921
188	0xbccf4894	-0.025303163
189	0xbd3f8961	-0.046761874
190	0xbdd9e399	-0.10639114
191	0x3dca09fd	0.09865186
192	0x3d2fc2a7	0.042910244
193	0xbdb17461	-0.08664776
194	0xbc60be6e	-0.013717277
195	0xbe020522	-0.1269727
196	0xbc42d89b	-0.011892463
197	0xbd6b96a7	-0.05751672
198	0x3d7fe60c	0.06247525
199	0x3bcecb16	0.006310831
200	0xbb814024	-0.0039444137
201	0xbd4030fb	-0.04692171
202	0xbdaea215	-0.085270084
203	0xbdfb0f8e	-0.12258826
204	0xbd67d3d0	-0.056598485
205	0x3bff1aa8	0.00778516
206	0x3daf9a15	0.08574311
207	0x3c29df05	0.010368113
208	0x3d2c2851	0.042030636
209	0xbd5aab85	-0.05338623
210	0x3889a9fa	6.56433e-05
211	0xbd903915	-0.070421375
212	0xbd8a7891	-0.067612775
213	0x3d372ca6	0.044720314
214	0x3d621744	0.05519797
215	0xb9ec84c0	-0.00045112334
216	0x3ca6a6d7	0.020343227
217	0x3c8eaf44	0.017417558
218	0x3d5044a4	0.05084671
219	0xbc02ff85	-0.007995491
220	0x3cb0bc7e	0.021574255
221	0x3d644bcc	0.055736348
222	0xbe28c7c4	-0.16482455
223	0xbcf41782	-0.029796366
224	0x3b4594ec	0.0030148579
225	0x3d763081	0.06010485
226	0xbd697a5d	-0.05700146
227	0x3c906fdd	0.017631466
228	0xbd80d894	-0.06291309
229	0x3d145c3e	0.03622078
230	0xbd62db6e	-0.055385046
231	0x3d4b75ab	0.049672764
232	0xbce4dcd0	-0.027937323
233	0x3c392083	0.011299255
234	0xbdbf9779	-0.09355063
235	0xbbf5a99c	-0.0074970257
236	0x3dd8dc14	0.105888516
237	0x3ca9e031	0.020736786
238	0x3d95ec6b	0.07320484
239	0xbd19138f	-0.03737217
240	0xbe04711f	-0.12933777
241	0xbccd646e	-0.025072303
242	0x3c339d8f	0.010962858
243	0xbbb70ad2	-0.0055860067
244	0x3d6fcfbc	0.05854772
245	0x3d7e064e	0.06201773
246	0x3de4d957	0.11174267
247	0x3d4ac16f	0.04950088
248	0xb81ac289	-3.6897636e-05
249	0x3d3ebca0	0.046566606
250	0xbd64c040	-0.055847406
251	0x3d2da4d6	0.042393528
252	0xbd84cf47	-0.064848475
253	0xbd86441c	-0.065559596
254	0x3d9693cf	0.07352411
255	0xbc1e737c	-0.009671088

network_body._body_endoder.seq_layers.4.bias f4 [256]
0	0xbd9a409a	-0.07531853
1	0x3db46699	0.088086314
2	0x3da6e0e5	0.08148364
3	0xbd49eab2	-0.04929609
4	0x3daa1900	0.083055496
5	0xbd2a815b	-0.04162727
6	0x3dbf393c	0.093370885
7	0xbd36f543	-0.044667494
8	0xbd483461	-0.048878077
9	0x3d6e0302	0.058108337
10	0x3d6e4635	0.058172423
11	0xbd3b85ef	-0.045782026
12	0x3d9ada8f	0.07561218
13	0x3da72785	0.081618346
14	0xbd8b338d	-0.06796942
15	0x3d9b9326	0.07596426
16	0x3d92156b	0.071329914
17	0xbd42101d	-0.047378648
18	0x3d975906	0.07390027
19	0x3dad3a2b	0.0845836
20	0xbd5ac62c	-0.053411648
21	0x3d8a924e	0.06766187
22	0x3da2296e	0.07918058
23	0xbd3a1f20	-0.04543984
24	0x3d75c790	0.06000477
25	0x3d1d501e	0.038406484
26	0xbd2a0229	-0.041505966
27	0x3d92a190	0.07159722
28	0xbd4fbd74	-0.050717786
29	0x3d9cb3a4	0.07651451
30	0x3d868e8b	0.06570157
31	0xbd8d42bd	-0.06897495
32	0xbd96de5e	-0.07366632
33	0xbd37d348	-0.044879228
34	0xbdaa7c08	-0.08324438
35	0xbd287b78	-0.041133374
36	0xbd3b4a48	-0.045725137
37	0xbd4d708f	-0.050156172
38	0xbd60870c	-0.05481629
39	0xbd211d01	-0.0393343
40	0x3dbe8ef9	0.093046136
41	0xbd55dfce	-0.05221539
42	0x3d95769d	0.07298014
43	0x3d8c040f	0.068367116
44	0xbd45e120	-0.0483104
45	0x3db945ca	0.09046514
46	0x3d9971e8	0.07492429
47	0x3d9bd572	0.07609071
48	0xbd543362	-0.051806815
49	0xbd79eba3	-0.061015736
50	0xbd8050b1	-0.06265391
51	0xbd95acbc	-0.07308337
52	0xbd2ea8d5	-0.04264148
53	0xbd26a925	-0.040688653
54	0xbda50ae7	-0.0805872
55	0xbcf419b2	-0.029797409
56	0x3db2208f	0.08697616
57	0xbda3fe7e	-0.08007525
58	0x3d9a3a46	0.07530646
59	0xbd422565	-0.047398943
60	0x3d8605c1	0.06544066
61	0xbd4637a0	-0.048392892
62	0xbd960f29	-0.0732711
63	0xbd3c48a8	-0.045967728
64	0x3da844fa	0.08216281
65	0x3d93f2f3	0.07224073
66	0xbd44c342	-0.048037775
67	0xbd49ada9	-0.04923788
68	0x3daed108	0.08535963
69	0x3dc74e48	0.09731728
70	0xbd80d43a	-0.06290479
71	0xbd90f6a7	-0.07078295
72	0x3d9061a4	0.070498735
73	0xbd8bfaae	-0.06834923
74	0xbd99f256	-0.07516925
75	0xbd72deff	-0.059294697
76	0xbda7d02d	-0.08194003
77	0xbd3d04af	-0.046147045
78	0xbd3b79a1	-0.04577029
79	0xbda48ec7	-0.08035045
80	0x3d97ce1e	0.074123606
81	0xbd931872	-0.07182397
82	0x3d9c551e	0.07633422
83	0x3daf9daf	0.08574998
84	0x3db07b16	0.08617227
85	0x3db2735b	0.087134086
86	0xbd4bb2d4	-0.04973109
87	0xbd96173d	-0.07328651
88	0xbd640095	-0.055664618
89	0x3dafdc2f	0.085869186
90	0x3db48a4c	0.088154405
91	0x3d959fea	0.07305892
92	0x3d8780af	0.06616341
93	0xbd94ac55	-0.07259432
94	0xbd62eb24	-0.05540003
95	0x3d83bc45	0.06432394
96	0x3d682827	0.056678917
97	0xbd79bf8c	-0.06097369
98	0xbdaac34a	-0.0833803
99	0xbd94bf2e	-0.07263027
100	0x3da7ab84	0.08187011
101	0xbd3de9af	-0.046365436
102	0xbd8146a6	-0.06312303
103	0xbd580fa0	-0.052749276
104	0x3db187e5	0.08668498
105	0xbd34d704	-0.044150367
106	0x3d8abe52	0.06774582
107	0xbd2d3ca0	-0.042294145
108	0xbd389b5d	-0.04507004
109	0x3db59fff	0.088684075
110	0x3d98cc45	0.07460836
111	0xbd602e19	-0.054731462
112	0xbd195279	-0.037432168
113	0xbd3b3cc0	-0.045712233
114	0x3d9d0cb8	0.076684415
115	0x3db10be2	0.086448446
116	0xbd564e30	-0.05232066
117	0x3dc0b574	0.094096094
118	0x3da6096f	0.08107268
119	0x3d82ef15	0.063932575
120	0x3d9756a5	0.07389573
121	0x3dae5650	0.085125566
122	0x3d962d4a	0.07332857
123	0x3da1436a	0.07874186
124	0x3d8fbc51	0.070183404
125	0x3d8dccf8	0.0692386
126	0x3d9ba574	0.07599917
127	0xbda809fa	-0.08205028
128	0xbd938389	-0.07202823
129	0x3d8b24fe	0.06794165
130	0xbd68b3b7	-0.056812014
131	0xbd9d3ef8	-0.07678026
132	0xbce9dde5	-0.02854819
133	0xbd8a2757	-0.06745785
134	0xbd625d08	-0.055264503
135	0x3d7db3dc	0.061939105
136	0x3d9cc5b3	0.07654896
137	0xbd43c440	-0.04779458
138	0x3da3cb0a	0.07997711
139	0x3d8814f2	0.0664462
140	0x3db696a4	0.08915451
141	0x3dcbf591	0.099589474
142	0xbd59b269	-0.05314866
143	0xbd9b47e7	-0.07582074
144	0x3dcb0507	0.09913068
145	0xbd86d7b8	-0.06584114
146	0x3da979e1	0.082752
147	0x3da3f06a	0.0800484
148	0x3da3d32a	0.07999261
149	0xbd508ba9	-0.05091444
150	0xbd3c6573	-0.045995187
151	0xbd86b5cf	-0.06577646
152	0xbda84eae	-0.08218132
153	0x3d822a0c	0.06355676
154	0xbdb16039	-0.08660931
155	0x3db53b7e	0.08849238
156	0x3d9af122	0.07565524
157	0xbd6ac6b8	-0.05731842
158	0x3dc8a7be	0.09797619
159	0xbd696dde	-0.056989543
160	0xbd89c62d	-0.06727252
161	0xbd9f267f	-0.077710144
162	0x3d90375a	0.070418075
163	0xbd8bc0be	-0.06823872
164	0x3d9289a2	0.071551576
165	0xbda32508	-0.079660475
166	0x3d63649e	0.055515878
167	0xbd871a8e	-0.06596862
168	0x3d9430f2	0.07235898
169	0xbd49c90f	-0.04926401
170	0xbdafd22c	-0.08585009
171	0x3d950e5f	0.07278132
172	0xbdb3b9e0	-0.08775687
173	0x3d9a607d	0.07537935
174	0xbd8a229a	-0.06744881
175	0x3d9b8215	0.075931706
176	0xbd6eeab1	-0.058329288
177	0xbda318af	-0.079636924
178	0xbd8fab76	-0.070151255
179	0xbd136ecc	-0.035994336
180	0x3d9f2cf2	0.077722445
181	0xbd9f1839	-0.07768292
182	0xbda05455	-0.07828585
183	0xbd3e5396	-0.046466433
184	0x3dbd5b70	0.09245956
185	0xbd328753	-0.043586086
186	0x3dc3df91	0.09564126
187	0x3da23b6f	0.07921492
188	0x3d561ac1	0.05227161
189	0xbdb88916	-0.09010522
190	0x3d97d6cd	0.07414017
191	0x3da6bbcf	0.081412904
192	0x3da52ccf	0.08065187
193	0x3db8f3a1	0.090308435
194	0xbdab618f	-0.08368217
195	0x3dad43e3	0.08460214
196	0x3d87e0ee	0.06634699
197	0x3da08f94	0.07839885
198	0x3d704be0	0.05866611
199	0x3da9aa5d	0.08284447
200	0x3da05b06	0.07829861
201	0xbd0a5349	-0.033770833
202	0x3d9f92c3	0.077916645
203	0x3d965ef4	0.073423296
204	0x3da3fd2a	0.080072716
205	0xbd1bd4fe	-0.038044922
206	0xbdb0b0fb	-0.08627506
207	0xbd42acfa	-0.047528245
208	0xbd40e0b8	-0.04708931
209	0xbd896eb0	-0.06710565
210	0xbd83cf9d	-0.064360835
211	0x3d9d115c	0.07669327
212	0x3da51049	0.08059747
213	0xbd4d46f0	-0.05011648
214	0x3d9eeba4	0.07759789
215	0x3d9879b9	0.07445092
216	0xbd43e5fb	-0.04782675
217	0xbd504be3	-0.05085362
218	0xbdabacd6	-0.08382575
219	0xbd8e534e	-0.06949483
220	0xbd48b76a	-0.049003042
221	0xbd2b19ee	-0.041772775
222	0x3d9a5a37	0.07536738
223	0x3d82f1c0	0.063937664
224	0x3da6a968	0.081377804
225	0xbd8e54e1	-0.06949783
226	0xbdb86d9f	-0.090052836
227	0xbd26e707	-0.04074767
228	0xbd8844b0	-0.06653726
229	0xbd9aadeb	-0.075527035
230	0xbd24c946	-0.04023101
231	0xbd8cff79	-0.06884665
232	0xbd5ea32a	-0.054354824
233	0xbd9a24e7	-0.0752657
234	0xbd4b88c9	-0.049690995
235	0xbd94b9c0	-0.072619915
236	0x3d5bd897	0.053673353
237	0xbd57a2b5	-0.052645404
238	0x3d8c5031	0.06851233
239	0xbd370843	-0.044685613
240	0xbd9877ab	-0.074447
241	0xbd7658a3	-0.060143124
242	0x3d53ca61	0.051706675
243	0x3da76301	0.0817318
244	0x3d985425	0.07437924
245	0xbd89ea31	-0.067341216
246	0x3d92340a	0.07138832
247	0x3d68969c	0.056784257
248	0xbd5984d3	-0.053105187
249	0x3d8b0f57	0.06790035
250	0xbd458cd9	-0.048230026
251	0xbd45d123	-0.04829515
252	0xbd48e51c	-0.04904662
253	0xbd7f4f53	-0.06233151
254	0x3dadb649	0.08482034
255	0xbd6a6d87	-0.05723336

action_model._discrete_distribution.branches.0.weight f4 [2, 256]
0	0xbcff1b19	-0.03114085
1	0x3d465a81	0.048426155
2	0x3da76ad7	0.08174675
3	0xbce4bcc1	-0.027922036
4	0x3da01425	0.07816342
5	0xbcb0e274	-0.021592356
6	0x3d56977d	0.052390564
7	0xbcea0ab5	-0.028569559
8	0xbcacd483	-0.021097427
9	0x3d0f9326	0.03505244
10	0x3c36af56	0.011150202
11	0xbd246375	-0.040133912
12	0x3d003702	0.03130246
13	0x3d52d47d	0.051472176
14	0xbd2d6be0	-0.042339206
15	0x3d23bd7c	0.03997563
16	0x3ce5bab9	0.028043138
17	0xbd2962ee	-0.041354112
18	0x3ceca284	0.028886087
19	0x3d15b5f3	0.036550473
20	0xbd0b89ba	-0.034066893
21	0x3cead83d	0.028667564
22	0x3d256422	0.040378697
23	0xbcf3747f	-0.029718636
24	0x3ca20c24	0.01978118
25	0x3c4baf53	0.012431937
26	0xbcc47df8	-0.023985848
27	0x3d21a03b	0.03945945
28	0xbcff1c1f	-0.031141339
29	0x3d201b14	0.039088324
30	0x3ccfebff	0.025381086
31	0xbd35fba9	-0.044429455
32	0xbd7c82af	-0.061648067
33	0xbcf48e49	-0.029853003
34	0xbd3c5d64	-0.0459875
35	0xbcdcbd46	-0.026945721
36	0xbd357d01	-0.044308666
37	0xbd56c1d5	-0.052430946
38	0xbceabf31	-0.02865562
39	0xbd1b009c	-0.037842378
40	0x3d75905f	0.059952136
41	0xbd62ab71	-0.05533928
42	0x3d018860	0.031624198
43	0x3d21a159	0.039460514
44	0xbd19fbe3	-0.037593734
45	0x3d952c88	0.07283884
46	0x3d198ec2	0.03748966
47	0x3c90b2e7	0.017663432
48	0xbd2ee7a7	-0.04270139
49	0xbd096f44	-0.033553377
50	0xbd5e61ee	-0.05429261
51	0xbd35870b	-0.04431824
52	0xbd268368	-0.040652663
53	0xbd5875c1	-0.052846674
54	0xbd3bb6ad	-0.04582851
55	0xbcd1168e	-0.02552345
56	0x3d624b09	0.05524734
57	0xbd382032	-0.04495258
58	0x3cc03f7b	0.02346777
59	0xbcfbd567	-0.030741407
60	0x3d1c57a8	0.038169533
61	0xbcf30609	-0.029665964
62	0xbd48efdd	-0.049056876
63	0xbcae6450	-0.021288067
64	0x3d9147d4	0.07093778
65	0x3d0685c7	0.032842424
66	0xbd29fe17	-0.041502085
67	0xbd22cd5d	-0.03974663
68	0x3d739638	0.05946943
69	0x3d927385	0.0715094
70	0xbd58febf	-0.05297732
71	0xbd5fc719	-0.054633234
72	0x3d3a4756	0.045478188
73	0xbd635a58	-0.05550608
74	0xbd6e18d3	-0.058129143
75	0xbd57f93f	-0.052727934
76	0xbd5fdce5	-0.05465402
77	0xbda88ada	-0.08229609
78	0xbd34be31	-0.044126693
79	0xbd5eee1b	-0.054426294
80	0x3cf0a907	0.029377474
81	0xbd82b7a6	-0.063826844
82	0x3d4a0460	0.04932058
83	0x3d97b3bd	0.07407329
84	0x3d431425	0.047626633
85	0x3d8e97d4	0.06962553
86	0xbd0c1c29	-0.034206543
87	0xbd703113	-0.05864055
88	0xbd263fc0	-0.04058814
89	0x3d0dd8fc	0.03463076
90	0x3d77ca02	0.060495384
91	0x3d51e221	0.051241044
92	0x3d0b87c1	0.034065012
93	0xbd80c012	-0.062866345
94	0xbcd17034	-0.025566198
95	0x3d48c66f	0.049017366
96	0x3cdb2299	0.026749896
97	0xbcabcceb	-0.020971736
98	0xbd429001	-0.047500614
99	0xbd4a38d1	-0.04937059
100	0x3d05bcea	0.032650866
101	0xbcd8fa8b	-0.026486656
102	0xbd3e5aef	-0.04647344
103	0xbd8ba830	-0.068191886
104	0x3d110941	0.035409216
105	0xbd4d2ac8	-0.050089628
106	0x3d285df7	0.041105237
107	0xbd2132a8	-0.03935495
108	0xbcfc3dcc	-0.030791186
109	0x3d5a1d7a	0.053250767
110	0x3ccd3f25	0.025054524
111	0xbc96a698	-0.018389985
112	0xbceedb0f	-0.02915719
113	0xbcdd8d4a	-0.027044911
114	0x3d0e0433	0.034671973
115	0x3d3b807e	0.045776837
116	0xbd17767d	-0.036978234
117	0x3d63fbff	0.055660244
118	0x3d786543	0.060643446
119	0x3c9ac69e	0.018893536
120	0x3d1c36e2	0.038138278
121	0x3d3d19a0	0.046167016
122	0x3d470402	0.048587807
123	0x3d1290eb	0.035782736
124	0x3ca6498a	0.020298738
125	0x3cdd6847	0.027027262
126	0x3d423ee0	0.047423244
127	0xbd863956	-0.06553905
128	0xbd64075f	-0.055671092
129	0x3cd11df0	0.02552697
130	0xbd748062	-0.059692748
131	0xbd2d864a	-0.042364396
132	0xbd0804a0	-0.033207536
133	0xbd3c7b4b	-0.04601602
134	0xbd5bea02	-0.053689964
135	0x3cfae537	0.030626876
136	0x3d24414c	0.040101334
137	0xbd1723ba	-0.036899306
138	0x3d551286	0.05201962
139	0x3cf30fdd	0.02967065
140	0x3d77f33b	0.060534697
141	0x3d8d61ce	0.069034204
142	0xbd68b70d	-0.056815196
143	0xbd79b387	-0.060962226
144	0x3d8fce29	0.07021744
145	0xbd587e7e	-0.052855007
146	0x3d5bdd67	0.053677943
147	0x3d1d40c7	0.038391855
148	0x3cf29ad5	0.029614845
149	0xbd63c341	-0.05560613
150	0xbc9acae1	-0.018895568
151	0xbd48697f	-0.048928734
152	0xbd60a80d	-0.054847766
153	0x3cc35984	0.023846395
154	0xbd5dbd5d	-0.05413567
155	0x3d740a63	0.059580218
156	0x3d236322	0.039889462
157	0xbd22a62a	-0.039709248
158	0x3d831c98	0.06401938
159	0xbd4ca6d1	-0.049963776
160	0xbd7fc2d3	-0.06244166
161	0xbd7fefd9	-0.062484596
162	0x3d4cf926	0.050042294
163	0xbd6ae604	-0.057348266
164	0x3d3b3a36	0.04570981
165	0xbd74d359	-0.05977187
166	0x3baacede	0.005212649
167	0xbd20b538	-0.039235324
168	0x3d4fc91e	0.05072891
169	0xbd25f057	-0.04051241
170	0xbd7c3ea3	-0.061583173
171	0x3d3601aa	0.04443518
172	0xbd43a218	-0.047762007
173	0x3d20507d	0.03913926
174	0xbd49c5a2	-0.049260743
175	0x3d91a7c3	0.07112076
176	0xbd57544b	-0.052570622
177	0xbd647045	-0.05577113
178	0xbd2afec2	-0.041746862
179	0xbd65e41c	-0.056125745
180	0x3d39f08f	0.04539543
181	0xbd5686e2	-0.052374728
182	0xbd40bab1	-0.047053043
183	0xbcd8b7bb	-0.026454797
184	0x3d809b56	0.06279628
185	0xbd048005	-0.03234865
186	0x3d8ade37	0.06780665
187	0x3d00c6b7	0.03143951
188	0x3be2c543	0.006920488
189	0xbd6ebc37	-0.058284964
190	0x3d09aed0	0.03361398
191	0x3d9b5536	0.07584612
192	0x3d60167c	0.054708943
193	0x3d80034c	0.06250629
194	0xbd7670e7	-0.060166266
195	0x3d2260bb	0.03964303
196	0x3d18f65f	0.037344333
197	0x3d43b68c	0.047781512
198	0x3c4ebc9e	0.012618212
199	0x3d4bd2c0	0.049761534
200	0x3d30da94	0.043177202
201	0xbc0b1018	-0.008487724
202	0x3ce0ca13	0.027440106
203	0x3d4bba4c	0.049738213
204	0x3d565b6a	0.052333273
205	0xbcf68277	-0.030091507
206	0xbd55e197	-0.052217092
207	0xbd0d76f4	-0.03453727
208	0xbd2185d7	-0.03943428
209	0xbd2fb38b	-0.042895835
210	0xbd3d747c	-0.046253666
211	0x3d4239b6	0.04741832
212	0x3d3b8a60	0.04578626
213	0xbd170e55	-0.036878902
214	0x3d0cab0d	0.034342814
215	0x3d24120f	0.040056285
216	0xbcffb72c	-0.031215273
217	0xbce7b7e2	-0.028285924
218	0xbd39961b	-0.045309167
219	0xbd4fb557	-0.05071005
220	0xbcac2d08	-0.021017566
221	0xbd06b67b	-0.03288887
222	0x3d27f4c7	0.041004922
223	0x3d00fe70	0.03149265
224	0x3d655d8c	0.055997416
225	0xbd67c5b4	-0.05658503
226	0xbd52484f	-0.05133849
227	0xbce06747	-0.027392996
228	0xbd6ae6d6	-0.05734905
229	0xbd5fe90c	-0.05466561
230	0xbd68d210	-0.056840956
231	0xbd816472	-0.063179865
232	0xbcbaf675	-0.022822598
233	0xbd5294b2	-0.05141134
234	0xbcbb4108	-0.022858158
235	0xbd67b967	-0.056573298
236	0x3bfebc07	0.0077738794
237	0xbccf17b6	-0.025279861
238	0x3d1db623	0.038503777
239	0xbd431040	-0.04762292
240	0xbd6c8776	-0.057746373
241	0xbd443fc3	-0.04791237
242	0x3c15fbaa	0.00915424
243	0x3d48dd60	0.049039245
244	0x3d0c9509	0.03432182
245	0xbd2fc5f0	-0.042913377
246	0x3d1222b6	0.035677634
247	0x3c7c9af0	0.015417799
248	0xbd120a91	-0.03565461
249	0x3cf0bb97	0.029386325
250	0xbd101de2	-0.03518475
251	0xbd3ce30b	-0.046114963
252	0xbd14d23e	-0.036333315
253	0xbd6b4748	-0.057441026
254	0x3d865a5c	0.065602034
255	0xbd2d8ee9	-0.042372618

action_model._discrete_distribution.branches.0.bias f4 [2]
0	0x3d4d6619	0.050146196
1	0xbd4d6618	-0.050146192

54 f4 [4]
0	0x3e332640	0.1749506
1	0x3eefc907	0.4683306
2	0x3e48d745	0.19613369
3	0x3e525ae9	0.20542492
