results/flappy-colab-Master_Model/FlappyAgent/FlappyAgent-999882.onnx (onnx, 536293 bytes, 10 tensors)

network_body.observation_encoder.processors.0.normalizer.running_mean f4 [4]
00000000: 38a6 413f c90d ef3d 7535 303f 10e2 a03e
0.75644255 0.11672551 0.6883157 0.31422472

network_body._body_endoder.seq_layers.0.weight f4 [256, 4]
00000000: da2c 9d3e 9d4c 073f 217e bd3e bdcd 5d3e
00000010: 3f58 c53d 62a6 29bf 7de8 5abe 8e1f 353e
00000020: c246 21bf 33e4 bebe 7be5 7e3d d600 34bf
00000030: 2163 593f 598c 063f 3f88 03bf d5a1 31be
00000040: f27f 72be 5e5c 80be bc76 8e3e 1c6f b23e
00000050: 73c8 e6be 4c60 27bf 1e70 043e 1c2f 9dbe
00000060: 5654 15bf 94f0 68be dbf5 75be b15d b73d
00000070: 9ba2 a13e 30ed 723d dca7 1d3f 3daa 19bf
00000080: e102 aebe 5dac 0fbf ce99 6c3f 5dd8 0dbf
00000090: 1a34 3c3b 10be 153f ac84 11bf 4f61 d6be
000000a0: 887f 8f3e 131a 86be f1d1 db3d 7f1c 3ebf
000000b0: a56f a6bd 3e43 85be 5964 8d3c 7b22 85bf
000000c0: 13c3 543f a71c ca3d 9b94 873f 74e2 923f
000000d0: 586f 933d 942b abbe 9622 d73e e2dd 0b3e
000000e0: f79a 133c 52f7 aebe 8115 c53e 1442 933e
000000f0: 529e 6c3f dd6a 93be f358 503e 84f0 47be
00000100: 6e2c dd3d 538a 92bd 0f69 2abf 7f1b efbe
00000110: 6876 5abe 8301 31bf a0d9 ef3e fd82 17bf
00000120: 28ff 4dbf 7052 53bf 4d14 103f 66b0 593e
00000130: 20c0 81be 3b80 d5be 8377 c33e 3b06 84bc
00000140: 896c 2d3f b03b 443e d6ce c8be dcf7 20bf
00000150: 5595 23bf 248d d5be 61c4 9f3d 1256 abbd
00000160: 7de9 10bf 424f 0fbf 1f6c 31bf 8bb4 9c3f
00000170: 4761 cdbe 371a 323d eafc c5be e66b 1c3e
00000180: d386 66be 51a9 4fbe ca5e 06bf 18fa c9be
00000190: 8361 053f 1421 003f 5a0e 4b3e b987 bfbe
000001a0: eefd f1bc d35b cbbd 9891 363f 0c38 933e
000001b0: 3070 82be 64f3 59bf 5162 4bbf c78e 0ebf
000001c0: 7d90 01be 8520 ecbd 3e69 e4be 7ff5 54be
000001d0: 1346 a33c 1e17 65be b46f 77be ec85 a43c
000001e0: 9f1f b63e 69f9 853e 178f df3b 1d0f c53e
000001f0: 6703 1a3b 45e2 333f 5ddb 08bf 4264 05bf
00000200: f579 893f 4216 c5be bc87 59bf 715f d53e
00000210: b633 533e 6042 ff3e b6a0 02be 7aab d53e
00000220: 3822 b5be cf74 b1bc c5ce 96bf bc2d f3bd
00000230: d0e0 bc3e 2325 01bf b571 1a3f ca90 4abe
00000240: 8fdf 823e e7b3 b6be 2d71 49be c0ca 7bbe
00000250: c6cf b43e 1b6d 31bf da64 9f3f 15b7 ccbc
00000260: c3c2 993e aebf 8fbe 8324 dcbe 82a8 df3d
00000270: 0f52 f3bd 2de5 453d 4e6a ac3c 2af6 ec3d
00000280: 61e8 933f 5921 acbe 83c8 2f3f 3dce 503f
00000290: 5886 fb3c 037b 473f fa36 213f 4272 143f
000002a0: a5bf 6e3e f5f4 873f ecc5 fabe f1e4 e73e
000002b0: 7e9b cd3e 0235 f5be 3558 333f fa04 c4be
000002c0: 28a3 49be 63dc 4c3e 7a71 9abe 7586 8e3f
000002d0: 4d72 bfbe c75d 53bd b5f3 33bf 54e7 24bf
000002e0: 7436 1c3e 34dd 163f 7f64 b73e 5b25 27bf
000002f0: 149a a9be e38b cbbf 02f8 303f 426c 3e3e
00000300: ba65 c03e 5f7e 343e a883 0abf f983 a0be
00000310: 2317 e2bd 493a 583f 3784 d33e 4153 2dbf
00000320: 7e1b 1a3e b88b afbe 3d1e 7bbe 3e3d 353e
00000330: 4af3 183f 06ed 32bd 5a82 cfbe f094 263e
00000340: f90f 8e3e 0e2f b7be b75e f4bd 5acb 013f
00000350: 5789 a7bc df3a 76be c79f 05be 2508 9ebd
00000360: a407 ad3e 2579 e63e 235c 28bf 1e31 97be
00000370: f8e1 3fbe 1e8a 4abe 8468 103c 397f e6be
00000380: 23b9 1abf 81f5 06bf 6716 23bf a69a f53c
00000390: d486 003f 302f 613e 91bd 0ebe b9f5 1a3f
000003a0: 7286 c8bd 9e52 64bf aa63 7a3e 620a a93e
000003b0: 0f85 773f 8d0b 1d3f 6cdd c4be 873c bfbe
000003c0: 3430 0b3f 35bd 1cbe 0912 a2bf 8f34 dc3d
000003d0: 267e 08bf 14e1 6c3e 7567 da3d 05ff febe
000003e0: 77b8 8f3e d4ed 053f 6c2c 293d 42e2 293f
000003f0: e470 443c 6e00 c03f 6cbf f1bd 2225 21bd
0.30698282 0.5285128 0.3701029 0.21660514 0.09635972 -0.66269505 -0.2137775 0.17687818
-0.6299859 -0.37283477 0.06223057 -0.70313776 0.84916884 0.52557904 -0.5137977 -0.1734689
-0.2368162 -0.2507047 0.27824962 0.34850395 -0.45074806 -0.6538131 0.12933394 -0.30700004
-0.5833181 -0.22748023 -0.24019568 0.08953417 0.3156937 0.05930823 0.6158426 -0.6002539
-0.3398657 -0.5612238 0.9242219 -0.5540827 0.0028717578 0.5849314 -0.56843066 -0.41871116
0.28026986 -0.26191768 0.107334025 -0.7426223 -0.08126763 -0.26027864 0.017259764 -1.0401148
0.8311016 0.09868746 1.0592226 1.1475358 0.071989715 -0.33431685 0.42018574 0.1365886
0.0090091145 -0.34173065 0.3849297 0.2876135 0.9242908 -0.28792468 0.20346431 -0.19525343
0.1079949 -0.071552895 -0.66566557 -0.46700665 -0.21334231 -0.6914293 0.46845722 -0.5918425
-0.8046746 -0.82547665 0.56280977 0.21258697 -0.25341892 -0.41699395 0.38177118 -0.016116252
0.67743737 0.19163394 -0.39220303 -0.62878203 -0.6389974 -0.41709244 0.07801128 -0.08366026
-0.56606275 -0.5598031 -0.69305605 1.2242597 -0.4011328 0.04348203 -0.3866952 0.15275535
-0.22512369 -0.20279433 -0.52488387 -0.3944862 0.52101916 0.50050473 0.19829693 -0.37408236
-0.029540028 -0.099296235 0.7131591 0.28753698 -0.25476217 -0.8513701 -0.79446894 -0.5568661
-0.12652774 -0.1152964 -0.44611543 -0.20796774 0.019930875 -0.223721 -0.24163705 0.02008339
0.35571 0.26166847 0.0068224776 0.38488093 0.0023500563 0.70267135 -0.5345972 -0.52106106
1.0740343 -0.38493544 -0.8497274 0.4167438 0.20625195 0.49855328 -0.12756619 0.4173239
-0.3537767 -0.021662144 -1.1781851 -0.118739575 0.36890268 -0.5044729 0.60329753 -0.19781795
0.25561187 -0.3568413 -0.1967208 -0.24589062 0.3531477 -0.69307107 1.2452652 -0.024989644
0.30031404 -0.28075927 -0.42996606 0.10920812 -0.11880886 0.048314262 0.021046784 0.115703896
1.1555291 -0.33619192 0.6866533 0.81564695 0.030703709 0.77922076 0.6297451 0.57986844
0.23315294 1.062163 -0.48979127 0.45291856 0.40157694 -0.47892004 0.7005647 -0.38285047
-0.19691145 0.20005946 -0.301647 1.1134783 -0.37391892 -0.051603105 -0.7029374 -0.6441548
0.15255147 0.5893128 0.3581886 -0.65291375 -0.33125365 -1.5902065 0.6912843 0.18595985
0.3757761 0.17626332 -0.5410714 -0.31350687 -0.11039569 0.84463936 0.4131181 -0.6770516
0.1504955 -0.34286284 -0.24523254 0.17699143 0.5974623 -0.043683074 -0.40529138 0.16267753
0.2774656 -0.35778087 -0.11932128 0.50700915 -0.02045123 -0.24045895 -0.13049231 -0.07716397
0.33794892 0.450143 -0.6576559 -0.2952966 -0.18738544 -0.1977925 0.008813981 -0.45018938
-0.60438746 -0.5271836 -0.6370606 0.029980969 0.5020573 0.21990657 -0.13939501 0.60531193
-0.097912684 -0.89188564 0.24452081 0.33015734 0.96687406 0.6134575 -0.3845018 -0.37350866
0.5437043 -0.15306552 -1.2661754 0.10752212 -0.5331749 0.23132735 0.10664264 -0.4980394
0.28070423 0.5231602 0.04130213 0.6636087 0.011989806 1.5000131 -0.11804089 -0.039342053

network_body._body_endoder.seq_layers.0.bias f4 [256]
00000000: 2059 613d 14ba 70bd f711 d73c 7b22 04be
00000010: d3b2 ee3d de95 aa3c 6775 0f3d d9d9 d2bc
00000020: 974c 04bd 9ac9 b43d 8d55 a2bc f428 c33d
00000030: c20a d73d b510 16bd d091 c0bc c4aa bbbd
00000040: a16a c23d 2a8d bfbb e9d2 433d f5fe 223d
00000050: 9b5e a3bd 7bae 903d c9bf e83d 1cd1 f93c
00000060: 4a1f 95bd 3138 73bd ec59 e93d 6d8d a83c
00000070: 1824 d43d 9619 b6bd ce4c 0cbc 9733 e93c
00000080: b745 b6bd 93df 84bd 8bca b93d 896f 263d
00000090: e116 0ebd d2cd 783d 2fc0 c6bd 70e7 003e
000000a0: f899 e23d 691b fd3c 0b59 563d d03c 693d
000000b0: 9b0d d13d 7c2f ba3d fb83 bc3d 042c 033d
000000c0: bffc 99bd e9a8 b43d 040a c9bd c35f fbbd
000000d0: 194b 0bbc b877 c8bd b51d dabd f2b9 35bc
000000e0: cda5 d73d ed46 64bd 16f1 3ebc 3d1c 543d
000000f0: ed43 bebd e643 9d3c 3fb8 bb3d 9625 4b3d
00000100: 4458 3abc 6e2b 72bb edd3 7e3c ccb9 713d
00000110: fa72 b73d d9d6 bc3d d745 8d3d cd64 673d
00000120: 26e4 3ebb 3dcc b4bd 9726 663d d23a 8c3d
00000130: 6062 f33d 87e1 8e3d e1dc 603d 8c90 903d
00000140: 4a71 f2bc 4adc b83d d8f2 043e 5b19 3f3d
00000150: 06b9 693d 375b 3cbc dced b43d 042c a93d
00000160: 4698 bf3d 0ce3 26bd 782a a93d c7f1 ec3c
00000170: f8e3 24bd 2226 5cbc 2347 33bd bab4 c53d
00000180: 44d8 b9bd c822 a7bd 3a36 c53d d6fa 233d
00000190: 79af e53d 40e2 cf3d 6e7c e03d 4f1a b13d
000001a0: 868e 27bd 540d b63d c0af 8a3c fd55 253d
000001b0: e9a7 ba3d eb2c af3d 5ce4 8a3d b5ae 863d
000001c0: 0274 00be 2546 c7bd 8d50 a73b 7a1e f13d
000001d0: ae14 a33d 4443 9a3d 65f9 9c3c 7197 ac3d
000001e0: e2a8 bc39 ed55 933c f560 f6ba 1798 3ebd
000001f0: 6dd3 883d cd15 ba3d d2d6 dc3d 0be2 9cbd
00000200: 7d28 c33d 8081 733d 45e0 863d 2f3c 29bd
00000210: 5235 943d a489 29bc 284b 2cbd 40df a83d
00000220: f07f 903d 333c c33d 22ef 653d 8c4b bf3d
00000230: fc72 843d a660 583d cccd c53c 994e aa3d
00000240: edbc d93d 3481 ae3d ef68 ac3d 8f81 9f3d
00000250: bbff 883d 64c0 ba3d 328e bd3d 6b15 cd3d
00000260: 1814 6abd e73f a5bb 5a36 c93d c0a9 82bd
00000270: 170a bd3d 1254 933d 6891 853d f2da d53d
00000280: 6943 7cbc 7f83 183d d173 ea3d ed59 393d
00000290: 026c 8dbd acf1 1bbb 1c66 713d 0951 c43d
000002a0: e425 58bc 830b a93c 73bf 093d 24c1 3d3d
000002b0: 435a e23d 4b65 83bd 5144 8f3d 6f0b 8e3c
000002c0: 4f61 00be 0913 ab3d 45ea 1cbd 44a7 ebbc
000002d0: 4782 9b3d 86be debc 92c0 553d 31f2 c93d
000002e0: 38df 48bc e695 b73d 05e3 11bd f461 e13d
000002f0: 4319 b13d c765 433d 7e87 44bd c132 a23d
00000300: 2644 923c 48e3 5f3d d61e 8b3d cfd2 4f3d
00000310: 4920 df3d 5c94 e33d 3fd2 e23d 0da3 44bc
00000320: b5c2 e33d 740c c53d 1c73 b53d 6f1e b43d
00000330: 42b2 64bd fa2a eebd 615a c73d 6fc3 653d
00000340: c36b 7e3d b1b2 f03d 6f12 963d 4954 573d
00000350: 9766 02bd a502 9cbd 2b1b aa3d 5359 c03d
00000360: 4452 c63d 54e1 af3d aa36 a33d b8fd 18bd
00000370: dfff b03d 9aaf cbbc 2c2f b83d 2499 48bd
00000380: ba09 873c 0e7d b23d 3a84 923d cf3b 00bd
00000390: 0496 a7bd 6e82 f23c 7da6 9c3c e56c 763d
000003a0: b15f 363c 1722 bf3d cde4 873c 80be a23d
000003b0: b23d e33d 53ba 303d 1117 b53d 0f13 c03d
000003c0: 89ee b23d c21f cabc 217f 37bc 233d ee3d
000003d0: 3fcd 9c3d db4c 0dbd 2a81 9d3d a80b 763c
000003e0: ffd2 9e3b d456 dc3d 00c8 243d f6cc fabd
000003f0: 799b 023e c5e0 fa3c 870a c03d 2414 bbbd
0.055016637 -0.058771208 0.026253683 -0.12903778 0.11655202 0.020823415 0.035024073 -0.025738643
-0.032299604 0.08827515 -0.019816184 0.095292956 0.10500099 -0.036637027 -0.023507029 -0.0916343
0.09492994 -0.0058456855 0.04780856 0.039793927 -0.07977029 0.070645295 0.11364705 0.030495219
-0.072813585 -0.05937976 0.11394104 0.02057525 0.10358447 -0.08891599 -0.008563234 0.028466983
-0.08900016 -0.06487956 0.09071835 0.040633712 -0.034689788 0.06074316 -0.09704625 0.12588286
0.110645235 0.03089686 0.05233101 0.05694276 0.10207673 0.09091088 0.09204861 0.0320244
-0.075189106 0.088212796 -0.098163635 -0.122741245 -0.008501791 -0.097884595 -0.106501974 -0.011091696
0.10529671 -0.055731703 -0.011654159 0.051784743 -0.092902996 0.019197416 0.091660015 0.04959639
-0.011373583 -0.0036952156 0.015553457 0.05901508 0.08957477 0.092206664 0.068980865 0.056492615
-0.0029127686 -0.08828018 0.056189146 0.068471566 0.11883998 0.0697661 0.054898147 0.0705882
-0.029595036 0.09026392 0.12983263 0.04665504 0.057061218 -0.011496357 0.088344306 0.082603484
0.09355216 -0.040743873 0.082600534 0.028923882 -0.04025647 -0.013436826 -0.043769013 0.096536115
-0.090744525 -0.08160931 0.096294835 0.040034138 0.112151094 0.10150576 0.10961233 0.08647596
-0.040907405 0.08889261 0.016929507 0.040365208 0.091140576 0.08553489 0.06781837 0.065762915
-0.12544253 -0.09730176 0.005106038 0.11773391 0.07962929 0.07532361 0.01916189 0.08427323
0.00035983982 0.017985309 -0.0018797206 -0.046531763 0.06680951 0.090861894 0.10783161 -0.07660302
0.09529207 0.059449673 0.06585745 -0.04131716 0.072367325 -0.0103477575 -0.042063862 0.082457066
0.07055652 0.095329665 0.056136258 0.09340581 0.06467244 0.052826546 0.024145983 0.083157726
0.10631738 0.08520737 0.08418452 0.07788383 0.06689402 0.09118727 0.09255637 0.10013851
-0.05714807 -0.005043018 0.0982482 -0.063800335 0.0923044 0.071937695 0.06521875 0.10442151
-0.015396931 0.03723478 0.114478715 0.045251776 -0.069053665 -0.002379517 0.05893527 0.09585769
-0.013192628 0.020635372 0.033629846 0.04632677 0.11052372 -0.064158045 0.06995452 0.017339436
-0.1253712 0.0835324 -0.038309354 -0.028766282 0.07593208 -0.027190458 0.052185602 0.098606475
-0.012260251 0.08964138 -0.035616893 0.11005011 0.086473964 0.047704484 -0.047980778 0.07919837
0.017854761 0.05466011 0.06792991 0.050738152 0.1089483 0.11112282 0.110752575 -0.012001765
0.11121122 0.09621516 0.08859846 0.08794867 -0.055834062 -0.11629291 0.09734035 0.056094583
0.06211449 0.11752833 0.07327735 0.052570615 -0.03183612 -0.07617692 0.08305963 0.09392037
0.0968366 0.085879 0.07969411 -0.03735134 0.086425535 -0.024864007 0.08993372 -0.04897417
0.01648413 0.087152585 0.071541265 -0.031307038 -0.0818291 0.02960321 0.019122357 0.060162444
0.011131213 0.09332674 0.016588593 0.07946491 0.11095752 0.043146443 0.0884229 0.09378635
0.08736903 -0.024673346 -0.0111997435 0.11632755 0.07656335 -0.034497123 0.07690652 0.0150174275
0.00484693 0.10758749 0.040229797 -0.122461244 0.1275462 0.030624757 0.09377008 -0.09134701

network_body._body_endoder.seq_layers.2.weight f4 [256, 256]
00000000: 7eec 7e3d 16e9 f8bd 9fd6 d33c 1254 ffbd
00000010: a6e8 373e 1088 293c 7fde af3d c507 9a3d
00000020: 2e77 523d 6205 123d 7560 16bc b163 373e
00000030: 82cc b1bc f332 d73d 7bda 4a3d 7f75 e2bc
00000040: efd0 d23d 98d5 8e3d 278d f2bd f10c ea3a
00000050: cde2 96bd b21d 543d 1cb8 b6bd 6c83 5abc
00000060: 0271 bb3d ac20 823d d208 963d 4004 9b3d
00000070: ef14 64b9 d86c 673d ba51 a4bc dccc 483b
00000080: 4371 a63d 399f a33d 5012 fbbb 6c15 123d
00000090: 371d b33a c445 f93b 3054 e4bd 6182 fabd
000000a0: 2c2c d73d 49cd d2bd a57f 4bbd 0a4c 5cbd
000000b0: 65bb 87bc ff53 0e3d 3ffb 073e 2b5a 4a3c
000000c0: 8b4c 8cbd 1eb2 bb3d 7b71 c6bc e1ad 063d
000000d0: 75e5 dcbc baa8 913d d4c0 313d f560 0b3e
000000e0: 38e3 92bd 5305 31bd 2c70 00bd 0eaf 0ebe
000000f0: 479e 97bd 013d 693d 5a72 b2bd 8a8e aa3d
00000100: 33f3 823c 7348 f23d 49de e6bc 3753 a3bc
00000110: 1e92 bdbd 32b8 a73c c5d0 c43b c35b 3cbc
00000120: 4090 1a3d 947e b6bd 1103 c53c 3972 3d3c
00000130: d6ad 643d 9997 cd3b 1cdd 0d3e 53a9 abbd
00000140: b71d a63c 376a dd3d e390 443d 7d2d 5cbd
00000150: 4d50 62bd 4e93 e43c e23d bd3d f049 3cbd
00000160: 0308 ba3b 527e 19bc f6ec 793d bea0 87bc
00000170: 3156 343c afff 4fbc 28a0 083d 535f cc3b
00000180: 40d8 83bd 91bb 7fbd 6357 1abd 34a8 01bd
00000190: 0eea df3c 51ff d83c 85a6 6d3d 5924 253d
000001a0: 3d6c d03d c912 0d3e b5cb d33d 98a7 e23c
000001b0: 996a 28bd 0603 133e 56f0 aabd 9fed 6abd
000001c0: 0466 74bd 9c9d 363d 9a44 0a3d 3050 403d
000001d0: 83b8 cdbc 7039 48bd 165b 653c 0aa6 1e3e
000001e0: 15d1 9d3d 44ce 0fbd 632f 4a3d 11ba 823d
000001f0: 1b9a f53c 36e8 023b f0f7 d2bb 882d 0d3d
00000200: 6147 b23c ca07 293d e6a8 a1bd 68ab a53d
00000210: 5f76 853c 8bbe cf3d 6dce 15bd 89ba acb9
00000220: b889 4abd 6a59 a8bd e18e 77bc 38ec aebc
00000230: 4e4c bb3c 9cfe 423d 842d 203d 194b e2bc
00000240: f98f ca3c dadf 103d 85d3 a83d 430c 4c3d
00000250: d5c9 48bd e326 153d 8b8a 883c 7c0d ae3d
00000260: 38cd a23d 42f9 453c 07a0 a93b 5799 40bc
00000270: 5bc7 903d 0436 1cbd 1cc3 d6bc 1b47 bc3d
00000280: f275 c33c d9a6 00bd ce68 6f3d c8f5 b93d
00000290: 1e46 74bd 08d8 25bd 773d f13d a9d7 4e3d
000002a0: c692 b83b a9b3 873d 9cec 313d fccd 15bd
000002b0: 664f 5b3c 90d7 6d3d 1be9 edbc 7fe2 fb3d
000002c0: a375 4cbd bd67 2d3c fb24 0a3c 3d3d 84bc
000002d0: f3f0 90bc 46ba 46bc b1eb 30bd b92c c5bc
000002e0: 0677 313d 5bc6 773d b949 383c c3ef 743d
000002f0: 47de 063b 5f85 37bd fedb 22bc 03d6 a0bd
00000300: 9d54 6bbb 6850 78bc 739b 9cbd 619d 3ebd
00000310: 180b 3cbc c5f0 d43b d5ed db3d 5437 2ebe
00000320: 03bc 02bc 91cc aebd f85c 8cbc b3d1 d63b
00000330: cd3f 2ebd 79bf 52bd bcc9 883d 94fb 3b3c
00000340: ab67 d93d 0abc 0abd b3fb 2abd 3378 0bbd
00000350: ddff d93d fa56 5b3d 4315 7e3d 9b1b 013e
00000360: 8098 423d 79b4 b73d 4c3a 973c fccf 32bc
00000370: bc36 eebb 70e3 093d 81e6 94bd 522a 89bd
00000380: d5d8 453d 83a6 c23c 8c3d 8839 23eb b13d
00000390: 27e1 84bd 35f3 f93c 32ff 9fbd 4cc5 b03d
000003a0: d54c 8a3d 9330 03ba e9e1 24be 641e 0a3e
000003b0: 3402 273d 8bae 4f3d 2e0a 36bc 1624 1cbc
000003c0: 73f0 7a3d 8f98 113d f1de 223c 4c80 47bd
000003d0: a1db eb3d 6051 7b3d 4d86 14bc d7fa 73bc
000003e0: c84f 3fbd 703a 92bc 510c 4cbc 6183 143c
000003f0: f5c5 c03d 43a9 b53d fa13 163d 5bcf eabc
0.062237255 -0.121538326 0.025859175 -0.12467207 0.17959842 0.010347381 0.0858736 0.07521013
0.05138319 0.035649665 -0.009178271 0.17909123 -0.021703962 0.10507765 0.049524765 -0.027643917
0.10293757 0.069743335 -0.11843329 0.001785664 -0.073674776 0.051786132 -0.08921835 -0.0133369975
0.09152414 0.06353888 0.07325901 0.0756917 -0.00021751573 0.056500286 -0.020058502 0.0030639684
0.08127072 0.07989354 -0.007662095 0.03566496 0.0013665323 0.0076071937 -0.1114887 -0.12231899
0.10506472 -0.10293061 -0.04968228 -0.053783454 -0.016568849 0.034748074 0.13279437 0.012350599
-0.06850537 0.091648325 -0.024224034 0.032880668 -0.026964882 0.0711226 0.043396786 0.13611205
-0.07172245 -0.04321797 -0.031356975 -0.13933966 -0.07403236 0.056942943 -0.08713217 0.083279684
0.015985107 0.11830225 -0.028182166 -0.01993714 -0.09256385 0.020473573 0.0060063326 -0.011496487
0.037735224 -0.089108616 0.024049314 0.011562877 0.055829845 0.0062741754 0.13853878 -0.083819054
0.020277841 0.108112745 0.047989737 -0.05375432 -0.055252362 0.027902272 0.09240319 -0.04596895
0.0056772246 -0.009368496 0.061017 -0.01655614 0.011006878 -0.012695237 0.033355862 0.0062369495
-0.06437731 -0.062434737 -0.037680995 -0.03165455 0.027333286 0.026488932 0.058020134 0.040317867
0.10176895 0.13776697 0.103415884 0.027667806 -0.041117284 0.14356622 -0.08346622 -0.05735552
-0.059667602 0.0445839 0.03375683 0.046951473 -0.025112396 -0.0488829 0.013998767 0.15493026
0.07705895 -0.03510882 0.049361598 0.063831456 0.02998071 0.0019974834 -0.006438248 0.03446725
0.021762552 0.041267194 -0.07893543 0.08089334 0.016291795 0.10143765 -0.036573816 -0.00032945376
-0.049447745 -0.082201794 -0.015109749 -0.021352872 0.022863533 0.047606096 0.039105907 -0.0276237
0.024726855 0.03536973 0.08243469 0.04981638 -0.049020607 0.03641404 0.016667625 0.08498666
0.079492986 0.0120833535 0.0051765474 -0.011755309 0.07069274 -0.03813745 -0.026216082 0.0919325
0.023859952 -0.03140912 0.05844956 0.09080082 -0.05963718 -0.040489227 0.117793016 0.05049864
0.005632731 0.06626064 0.04343854 -0.036573395 0.013385629 0.058066905 -0.029041817 0.1229906
-0.049916875 0.010583815 0.008431668 -0.016142482 -0.017693019 -0.012129372 -0.043193523 -0.024069177
0.0433264 0.0604919 0.011248046 0.059798967 0.0020579265 -0.044804927 -0.009940146 -0.078533195
-0.0035908588 -0.015155889 -0.07646837 -0.046536807 -0.011477254 0.0064984285 0.10738722 -0.17013294
-0.007979396 -0.08535112 -0.017134175 0.00655576 -0.042541314 -0.051452134 0.06679103 0.011473555
0.10615476 -0.033870734 -0.041743945 -0.034050178 0.10644505 0.053549744 0.062031996 0.12608187
0.047508717 0.08969969 0.018460415 -0.010913845 -0.0072697084 0.033664167 -0.07270528 -0.06697525
0.04830249 0.02376104 0.00025985797 0.08687427 -0.06488257 0.030511478 -0.078123465 0.086313814
0.06752936 -0.00050044915 -0.16101803 0.13488156 0.040773585 0.050703567 -0.011110825 -0.009530088
0.061264466 0.03554588 0.009940849 -0.048706338 0.115165 0.061356902 -0.009065223 -0.014891348
-0.046706945 -0.01785013 -0.012454108 0.009064526 0.09412757 0.08870175 0.036640145 -0.028663328

network_body._body_endoder.seq_layers.2.bias f4 [256]
00000000: 837e 08bd 1bc3 b8bd 3def ecbd 358e 9d3d
00000010: 7d26 b1bd 36f4 15bc ef94 59bc eac6 b33d
00000020: 0743 ba3d 394f 6bbd 769e 983d 0d02 9c3d
00000030: 7281 54bd 5937 9c3d d765 c4bd fb9a ae3d
00000040: 5e46 29bb e199 853d 0ac4 ab3d 2020 d3bd
00000050: 0993 853d 6d16 d8bd 7a60 eabd b6c7 d8bd
00000060: 7ce2 31bd 3c77 c8bd df97 b6bd eedd 94bd
00000070: 4de0 2b3b 0b1c e8bd e2b0 d9bd 9bdc e93c
00000080: 4612 ecbd 1b93 923d 9974 913d 6229 0cbc
00000090: 3e1c c6bd eef9 ad3d a64a 61bd f049 a13d
000000a0: 5cb8 53bd 7a66 953d 5dd3 9e3d 6a54 913d
000000b0: 4a57 e5bb f4f0 cbbd e35f 0d3d 8b00 75bc
000000c0: 4b72 393d d780 44bd 4961 1dbd dfed dabd
000000d0: c0e7 1dbd 9b99 a53d 5c22 903d 3332 953d
000000e0: 13eb a23d 4108 973d a664 a93d 5f23 c6bd
000000f0: 084e af3d 36ec e2bd e913 85bd 5a35 b53d
00000100: 7d31 043d be93 b43d adbf 80bd 9155 a53d
00000110: d010 9cbd 21be 7e3d ffb6 e4bd f059 aebd
00000120: 40be ba3d 4203 dfbd 86f8 98bd 2d34 9e3d
00000130: 5b1f a73d f9d0 ff3c c3b3 89bd 23c8 8a3d
00000140: 6b88 ab3d 3cf0 dabd 13ad 933d 09f5 5fbd
00000150: 0850 e1bd ae0d cdbd 3fa5 d9bd 06fb d2bd
00000160: 249d b03d 37a9 843d c601 dabd 6ae8 723d
00000170: 0cea ecbd 0c01 893d e4e0 973d 6d51 8dbd
00000180: 8383 9d3d b307 e0bd 3ca4 eabd 8050 093d
00000190: de62 ddbd 9733 7fbd 9bd0 82bc d3d3 b73d
000001a0: 8ad7 ce3c 9a1b 993d 9388 41bd f366 3fbd
000001b0: 8adc e1bd 32cb ad3d e09f bc3d 0bfe 893d
000001c0: 30ca d6bd dc11 dfbd 8cb0 a43d 5915 a63d
000001d0: cf43 c23d 8798 663d 430e ab3d 4771 993d
000001e0: 6c5d 8e3d 6697 1bbd 97d6 b4bd 65c8 b13c
000001f0: 34db bebd a2c3 e9bd c48a c7bd 7949 633d
00000200: f638 5f3c d2d6 19bd 870e 1cbc a512 233d
00000210: 88ad e9bd ef99 7ebd c592 c0bd 932f 2cbd
00000220: 4bfe 9dbd c7d2 c8bd 260a 953d fa98 48bd
00000230: a322 ce3c 3b86 8c3d e820 13bd 7825 8c3d
00000240: efef cdbd b2d0 903d 1c2f 9c3d 78f0 9a3d
00000250: 9d5e a03d 05d6 3f3d a351 50bd 70fa cc3c
00000260: 3567 893d ed68 5e3d b339 4ebd 0d02 bcbd
00000270: 5ea6 9b3d 06ef 843d 9ff2 793d 61ec 66bd
00000280: 9034 dbbd c5aa 903d ecea 59bd 5b30 10bd
00000290: adc1 8a3d da0d 893d 43ce aabd cc5e 1cbd
000002a0: e9d3 403d 1e8f c03d dd65 15bd 5dbd 7c3d
000002b0: 4bc3 b43d 1e90 ae3d f608 a13d 4aba 813d
000002c0: 00f8 b53d 05db 6c3d a7b9 d7bd d143 a13d
000002d0: 5cbb 993d c5f8 dcbd eb60 443d 1422 d4bd
000002e0: d50e 8e3d 73d0 0bbd e237 e8bd 8249 993d
000002f0: 5730 e4bd abaa e5bd 3c5a 883d d1d3 993d
00000300: 5521 9abd 50e0 e7bd 50f0 953d e9b3 aa3d
00000310: 6845 11bd a17d b53d a38b 8bbd e0d6 b53d
00000320: b6bc c7bc a96c 093d 64a7 5e3d 5287 bb3d
00000330: a1ec 1e3d 90cb 943d b596 59bd 8a69 a93d
00000340: 6cd9 61bd 8bab b13d 4454 4fbc 8beb a13d
00000350: c502 b83d e9d8 95bd a5a2 2fbd 6e67 883d
00000360: 0e84 bb3d 6bcc ca3c 55f7 e8bd ef54 4cbd
00000370: 3b53 813d 637e 95bd 7dd9 303d 4f7e b13d
00000380: a301 a23d db3e 8abd 66a1 b33d cad1 a13c
00000390: ca26 38bd a665 98bd a2d8 9a3d 5eca d4bd
000003a0: a60c 863b 17d2 c7bd 09fb 3d3d fe4d 44bd
000003b0: 3900 aabc 55f7 003d 2806 e1bd 8851 953d
000003c0: 7185 a13d 6df7 c73d acbd 8e3d 64ea dbbc
000003d0: de86 56bd 2ce1 d4bd 73e9 cabd f85f f2bd
000003e0: 12e4 a33d 20cf d6bd 4c06 33bd 16b6 c4bd
000003f0: 1bce 0dbd 2cd9 983d ead5 313d f7dd c3bc
-0.033323776 -0.090215884 -0.115690686 0.076931395 -0.08649919 -0.009152463 -0.013280137 0.08778174
0.09094816 -0.0574486 0.07452099 0.07617579 -0.05188126 0.07627744 -0.09589737 0.08525654
-0.0025829296 0.06523491 0.08387001 -0.10308862 0.06522185 -0.105511524 -0.11444183 -0.10584967
-0.043428883 -0.09788367 -0.08915686 -0.07268892 0.0026226223 -0.11333474 -0.10629441 0.028547576
-0.11526923 0.071569644 0.07102317 -0.008554788 -0.096733555 0.08494936 -0.05500283 0.078754306
-0.05168949 0.072949365 0.07755158 0.07096179 -0.006998931 -0.099580675 0.034515273 -0.014953743
0.045275014 -0.047974434 -0.038422856 -0.106899016 -0.038551092 0.080859385 0.070378035 0.07284965
0.07954993 0.07374621 0.0827115 -0.09674715 0.08559805 -0.1108021 -0.06497938 0.08848067
0.03227376 0.08817242 -0.06286559 0.08072961 -0.07620394 0.06219304 -0.11167716 -0.08513248
0.091183186 -0.10889293 -0.07469277 0.077247955 0.081602775 0.031227576 -0.0672374 0.06776454
0.08375629 -0.10690352 0.07210746 -0.054677043 -0.11001593 -0.10012375 -0.10627221 -0.10301785
0.08623722 0.06477588 -0.106448695 0.05930368 -0.115680784 0.06689653 0.07415941 -0.06900296
0.076910995 -0.109389685 -0.114571065 0.033524036 -0.10809873 -0.06230506 -0.015968611 0.08975949
0.025249261 0.07475968 -0.047249388 -0.04672904 -0.110283926 0.08486022 0.09210181 0.06737908
-0.10487783 -0.10892078 0.08041486 0.081095405 0.0948559 0.056297805 0.083523296 0.07492309
0.069514126 -0.03798618 -0.08829992 0.021702 -0.093191534 -0.11414267 -0.09743264 0.05548999
0.01362442 -0.037558384 -0.009524948 0.039812703 -0.114100516 -0.06215852 -0.09402994 -0.042037558
-0.07714518 -0.098058276 0.07277326 -0.048974015 0.025163 0.0686154 -0.035920054 0.06843084
-0.10055529 0.070710555 0.07626173 0.07565397 0.07830546 0.046834964 -0.050859105 0.025021762
0.06709138 0.054299284 -0.050347995 -0.09180079 0.076000914 0.064909026 0.061022397 -0.056377772
-0.10703385 0.07063822 -0.053202555 -0.035202365 0.06775222 0.06692095 -0.083401226 -0.038176343
0.047077093 0.094022974 -0.036474098 0.06170403 0.08826312 0.08523582 0.07863037 0.0633436
0.08885193 0.05782606 -0.10533457 0.07874263 0.07506439 -0.107896365 0.04794399 -0.103580624
0.06936423 -0.03413434 -0.11338784 0.07484724 -0.111420326 -0.11214193 0.06657836 0.07511104
-0.07525889 -0.11322081 0.073212266 0.083350964 -0.03546658 0.088618524 -0.06813743 0.08878875
-0.024381977 0.033550892 0.054358855 0.0915667 0.038799886 0.07265389 -0.05312224 0.08272083
-0.05513899 0.08675297 -0.012654368 0.079062544 0.08984903 -0.07316763 -0.04287972 0.06660353
0.09156047 0.024755677 -0.113753 -0.049885686 0.06314703 -0.07299497 0.043176163 0.086666696
0.079104684 -0.0675027 0.08771019 0.019753356 -0.044958867 -0.07441263 0.07560851 -0.10390161
0.0040908633 -0.09756868 0.046381984 -0.04792594 -0.02075206 0.031485874 -0.10987502 0.072909415
0.0788678 0.097639896 0.06969771 -0.026845165 -0.052374713 -0.103945106 -0.09907808 -0.11834711
0.08002485 -0.10488725 -0.043707177 -0.09605043 -0.034620386 0.07463297 0.043416895 -0.023909552

network_body._body_endoder.seq_layers.4.weight f4 [256, 256]
00000000: 7f96 dc3c 1bd4 10ba 57ae 1f3d 3aca c03c
00000010: 61c9 91bc fef3 fbbb 3034 983d 9147 c8bd
00000020: b9c1 b0bd 9b08 29bd 5604 01be b809 6d3c
00000030: 2e7a 573d ee31 26bc 34dd 8a3d 53bc e1bc
00000040: c5e5 c53d e6c9 d73c bd91 b2bc 2377 c8bd
00000050: b5a2 02bd 1682 243e 0bc5 ec3d d757 b63c
00000060: 5f4c 683d 54a8 583d 0689 713d 2eb4 9b3d
00000070: 5466 48be 81f7 d33d f7ab 843d fa6d 8f3d
00000080: 7bbc c93d 6968 f83c b39d 41bd 0f49 d03d
00000090: cd6c a73c edba 593d 56c4 153c 1337 d83d
000000a0: 1f33 e23c 751c a0bd 429b b6bc 8633 bb3d
000000b0: 6133 2bbd 6bc6 983c b9a3 303c e0fe 26be
000000c0: 25ec 653d d42d 583d 2e63 a2bd 1b38 dd3d
000000d0: c4ab 48bc f015 3dbc f251 48bd 0955 a3bb
000000e0: 0a5e 12be 4c13 27bd 32e3 43bd bb3f 823d
000000f0: 484f 2ebd 5c08 783d d6c3 963d 1d2c acbd
00000100: a310 36bc ee1d 34bc e45c bc3c 0840 b2bd
00000110: 26db a63c b34a a6bc fbfb 323e 843f eebc
00000120: 3421 25bc 4b4a 453c 6f4f 94ba c0a8 d7bd
00000130: 60f7 a3bd 91a8 7bbd e7dc c03d 3c8d 103d
00000140: 67fa 293d 8db5 d83d 967b e3bd 5db2 b33c
00000150: 7c63 643d 7d1c 203d ae2f d83c d9ba 92bb
00000160: cd87 83bd c8ae 68bd a9d0 6c3d 51c3 14be
00000170: 4222 493d b7c2 0dbc 96c2 e9bc ed93 8ebd
00000180: 57ff 35bd aabe 3fbd 9b9b fe3d 69cc acbc
00000190: 7989 973d d5bd d33d 1af9 c1bc f03c 47bd
000001a0: 180f e7bd 5612 cabc 7b60 c9bd 3c78 6ebd
000001b0: c3f2 67bd 73e0 e9bd 29e6 68bc 4df0 62bc
000001c0: d6c1 7e3c e874 1c3e ba27 42bd 510f 923c
000001d0: a6c2 1abd ee9d fabd 6579 87bd 0aa3 8dbd
000001e0: 81be 10bb 80ed cd3b 5af5 8e3d c8b9 103d
000001f0: d5b0 803d 15c8 8ebd 3a7d fdbc b3e9 3fbd
00000200: f34d 503c 615b 8abb 2b5f c3bc bc5e 1c3d
00000210: bff4 9639 a9d0 453c 8441 10bc 9db1 a73a
00000220: a8fd d73d 2e58 de3d d6bc 81bc 01d3 a0ba
00000230: 846b e63b 79a5 b7bd 3950 a8bc 288d 723d
00000240: 709a 8dbc a43f 2bbd 0f0b ac3d 436e d93d
00000250: 51ae 87bd cd43 9f3c a96e 36bd 8954 62bd
00000260: 6b10 cbbc fa5b 86bd e100 52bd 71c5 0b3d
00000270: b922 103d fb00 fdbc 1a8a 34bd c871 96bc
00000280: 82ff 223d 34f9 ddbd c439 cdbd cc45 9cbd
00000290: 4c08 253d e7a6 943d 2bdf b83d 45a2 243c
000002a0: ad26 43bc 5b62 8ebd 0a0c 0d3d e7c5 3ebe
000002b0: 58da 85bd 3b35 aabd fa8b c6bb 2b6c ac3d
000002c0: d59b c9bd 486a 133d 37a4 e83d 781e c93c
000002d0: d6f2 863d 3565 cabd fc8b 09bb 6c57 b63d
000002e0: aabb 913d c9d1 69bb 0cd2 e33d 0520 883d
000002f0: c174 d4bc 271a 40bd fe1b debd 436a d13d
00000300: b124 2b3d 65e1 b0bd 03b2 88bc 6403 fabd
00000310: b55e 37bc 4c0d 5abd cea4 6d3d e004 933c
00000320: d389 cabb 8a4f 40bd ed6a abbd 712c fbbd
00000330: 28a2 70bd c20c 8d3b b1b1 a43d 2106 e33b
00000340: c055 223d e90d 46bd f907 b5ba e09a 94bd
00000350: 3262 69bd 6dfb 263d c5b8 593d f5af ee3b
00000360: 07e1 c33c f920 923c 40dc 5d3d 6138 50bc
00000370: 0d20 a93c e611 523d 6ddf 29be 29bd edbc
00000380: 5b99 df3a a56c 643d ec3f 6ebd 070c 893c
00000390: efdb 8bbd b345 033d 64f7 55bd 52f7 563d
000003a0: 5e37 d1bc fc98 0d3c 5d25 c0bd 0bf5 4dbc
000003b0: 57d5 e43d 330a 943c 04f7 923d aa89 1bbd
000003c0: 6778 05be b267 a0bc 6739 5b3c 1a50 0bbc
000003d0: 4b12 5d3d 7118 6a3d c6c0 f23d 4a9d 4c3d
000003e0: 8418 b43b eb55 453d 63b0 6fbd 37ac 333d
000003f0: bf82 89bd 7541 89bd b281 903d 47f2 8fbc
0.02692723 -0.000552477 0.038984623 0.02353393 -0.01779622 -0.0076889982 0.07431829 -0.09779275
-0.086307 -0.041267972 -0.1259931 0.014467649 0.052606754 -0.01014374 0.067804724 -0.02755562
0.09662966 0.02634139 -0.021798009 -0.097883485 -0.03189345 0.16065249 0.115610205 0.022258682
0.05671346 0.052894905 0.058968566 0.07602726 -0.19570285 0.10349942 0.06478112 0.07003398
0.09850403 0.030323224 -0.047269534 0.10170185 0.020437622 0.053156782 0.009141048 0.105573796
0.027612267 -0.07817928 -0.02229083 0.09140687 -0.041797046 0.0186493 0.010781222 -0.16308165
0.056133408 0.05277808 -0.07929073 0.10801717 -0.012247983 -0.011540875 -0.048906274 -0.004984502
-0.14293686 -0.040789887 -0.047824092 0.06359812 -0.042556077 0.060554847 0.073615715 -0.084068514
-0.011112365 -0.010993464 0.022993512 -0.08703619 0.02036817 -0.020299291 0.17478935 -0.029083021
-0.010078717 0.012041639 -0.0011315177 -0.105302334 -0.080061674 -0.061440054 0.09417134 0.03529094
0.041498568 0.10581503 -0.111075565 0.021935636 0.05575894 0.03908967 0.026389923 -0.0044778404
-0.06422386 -0.05680731 0.05781618 -0.14527632 0.049104936 -0.008652381 -0.028535169 -0.06961808
-0.044432964 -0.04681269 0.12432023 -0.021093564 0.07399268 0.10338942 -0.023678351 -0.0486421
-0.11282176 -0.024666946 -0.09832855 -0.058220133 -0.056628 -0.114197634 -0.014215031 -0.0138512375
0.015549144 0.15278971 -0.047401167 0.017829569 -0.037783287 -0.12237154 -0.06614951 -0.06915863
-0.0022086205 0.0062844157 0.06980391 0.035333425 0.06283728 -0.06971756 -0.030943502 -0.046853732
0.012713897 -0.004222319 -0.02384909 0.038176283 0.0002879258 0.012073674 -0.008804683 0.0012794022
0.10546428 0.10856663 -0.015837114 -0.0012269915 0.00703186 -0.08967108 -0.020546066 0.05921665
-0.017285556 -0.04180874 0.08400547 0.10616734 -0.06625045 0.01944151 -0.044539127 -0.0552564
-0.024788102 -0.06560512 -0.05127037 0.03412384 0.035189364 -0.030884257 -0.044077016 -0.018364802
0.039794452 -0.10838547 -0.100207835 -0.076305 0.040291116 0.072583966 0.09026941 0.010048454
-0.0119110765 -0.069523536 0.03443531 -0.18630181 -0.065357864 -0.08310934 -0.006059167 0.08419069
-0.09844176 0.03599003 0.113594465 0.024550661 0.06589286 -0.09882585 -0.0020987978 0.08903393
0.07115872 -0.003567802 0.11124048 0.06646732 -0.025934579 -0.04689994 -0.10845183 0.10225346
0.04178304 -0.086367406 -0.016686445 -0.12207678 -0.0111920135 -0.053235337 0.058018498 0.01794666
-0.0061809807 -0.046950854 -0.08370004 -0.12264336 -0.058748394 0.0043044994 0.080417044 0.006928221
0.03963256 -0.04835311 -0.001381158 -0.072561026 -0.056978412 0.040767122 0.053154726 0.0072841593
0.023911012 0.017837988 0.054165125 -0.012708754 0.020645166 0.0512866 -0.16589136 -0.029020863
0.0017059253 0.055767674 -0.05816643 0.016729368 -0.068290584 0.032048892 -0.052237883 0.052481957
-0.025539096 0.008642431 -0.093821265 -0.01257063 0.11173504 0.01807127 0.07176021 -0.037973084
-0.13034211 -0.019580696 0.013380385 -0.008502984 0.053972524 0.057152215 0.11853175 0.04995469
0.0054960866 0.04817764 -0.058517825 0.04386541 -0.06714391 -0.06701938 0.070559874 -0.017571582

network_body._body_endoder.seq_layers.4.bias f4 [256]
00000000: ddf5 91bd 79f8 a93d 5e12 9d3d eb79 3ebd
00000010: 57be a03d 75d1 1fbd e76d b33d 5532 2cbd
00000020: 8674 3ebd e649 613d adca 5d3d 18cb 31bd
00000030: 6d8f 8f3d 45ca 9d3d 2227 84bd 6fe9 933d
00000040: ea58 8b3d 6992 3abd 80d1 8f3d 8fc4 a13d
00000050: 5b12 51bd d27f 833d 9618 993d a422 30bd
00000060: 5d46 653d 2235 063d b854 1fbd 3cef 8a3d
00000070: 94ac 47bd bab6 903d 063d 7e3d caca 85bd
00000080: 8ae4 8ebd f244 2fbd d341 a3bd 4ff6 1dbd
00000090: 6d81 33bd dbef 4abd 999d 56bd eb74 17bd
000000a0: 9d89 b43d 62d7 54bd e628 8c3d 6b45 813d
000000b0: ce79 3cbd d6ee ae3d d22e 903d 7480 923d
000000c0: 9050 4abd 106f 69bd c247 6cbd 784b 8ebd
000000d0: 0f2f 25bd 13ec 1cbd 3d1c 9ebd 7a29 e2bc
000000e0: 7b12 aa3d d73d 99bd a9a6 923d 3e40 38bd
000000f0: b489 793d 55e5 3dbd 117c 8ebd f047 31bd
00000100: 086e 9f3d 9973 8b3d 6af3 3abd 7a03 43bd
00000110: 1d62 a13d 0639 bb3d 4976 71bd 7573 8abd
00000120: 0c69 873d 610b 86bd c40a 92bd ee26 70bd
00000130: 6d9c a1bd 971a 38bd f7f2 33bd 0739 9dbd
00000140: a8de 8c3d 9700 8cbd 6bc6 933d 44c6 a43d
00000150: 419a a33d 31f5 a83d 44dc 41bd 7571 8fbd
00000160: 1e0c 5abd d7ea a43d 59ff a73d 6e2c 8c3d
00000170: 1a8c 783d 8a40 8cbd a30f 4dbd a4f1 773d
00000180: 7a10 5a3d 0a6d 6dbd 358b a4bd a73a 8dbd
00000190: 0ddd 9c3d 4104 34bd 760d 74bd bfb5 53bd
000001a0: c060 a93d c416 32bd 1564 813d 0076 24bd
000001b0: 888a 30bd 45f4 aa3d 92af 903d a1e6 54bd
000001c0: a2bf 10bd 4b91 2fbd 4b13 923d 618b a63d
000001d0: b5f9 4dbd 9b6d b43d 38fd 9c3d 9d68 793d
000001e0: 6875 8e3d 4aba a43d 422e 8d3d 7c78 953d
000001f0: 48df 863d 2bd2 863d df4b 923d c463 9dbd
00000200: 71a2 8cbd d9ac 7f3d d33e 66bd 06cd 93bd
00000210: 5a08 e1bc 4967 82bd 6623 60bd 89b6 733d
00000220: dd4a 933d 4f10 3bbd f5f8 993d 7914 7f3d
00000230: 5c98 ac3d 9cc6 c13d a202 54bd d1ff 95bd
00000240: aa40 bf3d 620f 7dbd c796 9f3d ea8d 9a3d
00000250: 3fe9 953d cd66 4dbd 4ee6 2fbd aaa4 7dbd
00000260: 9016 a1bd 7fb8 753d f6e9 a9bd a6cb a93d
00000270: 85d9 913d 4fe8 60bd 5127 b93d e363 66bd
00000280: c8ca 81bd 9868 98bd b026 873d c9ed 84bd
00000290: 445c 893d fafe 9abd af0c 513d baf2 7bbd
000002a0: 51fe 8a3d 2856 3ebd c0b4 a6bd 2179 8a3d
000002b0: 5678 acbd 5c07 913d d050 82bd b49f 913d
000002c0: 1aea 6cbd 438f 9dbd 4660 88bd 05c8 0abd
000002d0: e8d1 953d 8f1f 97bd ac35 98bd 44e9 32bd
000002e0: 3496 b23d 70c7 28bd befd b83d 3b38 963d
000002f0: 0983 443d 0523 b1bd ff4f 8f3d 21b4 9d3d
00000300: 3c97 9c3d 22ea ac3d cd60 a3bd c9c5 a33d
00000310: 3124 7d3d 4ba1 923d b67c 5e3d 9af3 9d3d
00000320: e1cb 973d 2428 f6bc 9a8f 953d 8bbe 8d3d
00000330: 20db 9a3d 313b 13bd 16d0 a9bd ca86 39bd
00000340: 6823 39bd e0b2 82bd 6771 77bd 3410 953d
00000350: 0271 9c3d 6a2e 43bd a1d9 953d 794e 8f3d
00000360: 24b0 3abd e0f7 46bd 97c0 a4bd 0f11 89bd
00000370: cf60 41bd 1538 21bd d6a0 903d 8892 753d
00000380: b36d 9d3d c812 87bd bbb2 b0bd a62f 1ebd
00000390: 91bf 7cbd b7af 92bd 67b9 21bd bf05 87bd
000003a0: f014 55bd 8e08 92bd f220 40bd fbf2 8ebd
000003b0: ac74 443d e58f 49bd 7f63 853d 9b8c 2cbd
000003c0: e998 95bd b9dc 67bd 159e 443d adcc 9f3d
000003d0: 6073 8e3d 31b9 82bd a9d3 8a3d 2221 583d
000003e0: ec3e 50bd d0ea 813d 6cca 3cbd f73e 43bd
000003f0: 9492 3ebd 5524 7abd 1d3f a33d f46e 65bd
-0.07126973 0.082993455 0.07669519 -0.04650299 0.078488044 -0.039018113 0.087611966 -0.042040188
-0.046497844 0.055002116 0.054148365 -0.043406576 0.07009778 0.077045955 -0.064527765 0.07222258
0.068040684 -0.045549784 0.07022381 0.07898819 -0.051042896 0.06420864 0.074753925 -0.043001786
0.055975307 0.032765515 -0.038899153 0.067839116 -0.048748568 0.07066102 0.062069915 -0.065328196
-0.06977184 -0.04279036 -0.07971539 -0.038564976 -0.043824602 -0.04954515 -0.05239639 -0.036976736
0.0881531 -0.051963218 0.06843738 0.063120686 -0.0460146 0.08541648 0.0704018 0.07153407
-0.049393237 -0.056990683 -0.05768562 -0.06947988 -0.04032808 -0.038311075 -0.0772023 -0.027607668
0.08304306 -0.07482498 0.07160694 -0.04498314 0.06092234 -0.046361286 -0.069572575 -0.043281496
0.07784659 0.06809158 -0.045642294 -0.047610737 0.07880042 0.09141736 -0.058950696 -0.06760303
0.06611833 -0.06545139 -0.0713096 -0.058630876 -0.07891164 -0.044947233 -0.04393288 -0.07676893
0.06878406 -0.0683605 0.072155796 0.08045629 0.07988406 0.082498915 -0.047329202 -0.07004062
-0.053234212 0.08052605 0.082030006 0.06844412 0.060680486 -0.06848247 -0.05006374 0.06053318
0.05323837 -0.057965316 -0.08034364 -0.06895953 0.076593496 -0.04394937 -0.05958315 -0.051687
0.08270407 -0.043478742 0.06317917 -0.040151596 -0.043100864 0.08347372 0.070647374 -0.051977757
-0.035339005 -0.04286317 0.07132586 0.08132053 -0.050286967 0.08809968 0.07665485 0.060890783
0.06955987 0.08043344 0.068935886 0.07298371 0.06585556 0.06583055 0.071433775 -0.076850444
-0.06866921 0.0624207 -0.056212258 -0.072168395 -0.027469803 -0.06367356 -0.05472126 0.05950025
0.071920134 -0.04566985 0.07518188 0.062275384 0.08427498 0.0946171 -0.051760323 -0.07324184
0.093385056 -0.06178225 0.0779243 0.07546599 0.07319879 -0.050146867 -0.042944245 -0.061924614
-0.078656316 0.059990402 -0.08296578 0.08290796 0.07121567 -0.054909047 0.09040702 -0.056247603
-0.063375056 -0.07441825 0.06599176 -0.064906664 0.067070514 -0.07568164 0.051037487 -0.06151078
0.06786788 -0.046468884 -0.08139944 0.06761385 -0.0842139 0.07081482 -0.0636307 0.07110539
-0.057840444 -0.07693341 -0.06658988 -0.03388216 0.07315427 -0.07379066 -0.07432112 -0.04367949
0.08720055 -0.041205823 0.090327725 0.07334944 0.047976527 -0.086492576 0.0699768 0.077003725
0.07646033 0.08443095 -0.07977448 0.07996709 0.061802093 0.071596704 0.054318152 0.07712479
0.07411934 -0.030048437 0.073027804 0.06921109 0.07561326 -0.03594512 -0.08291642 -0.04529456
-0.04519978 -0.06381774 -0.060410883 0.07278481 0.07638742 -0.047651686 0.073169 0.06997389
-0.045578137 -0.048576236 -0.08044546 -0.06692707 -0.047211464 -0.039360125 0.07061927 0.059954196
0.07686939 -0.06595379 -0.0862784 -0.03861966 -0.06170613 -0.07162421 -0.039483454 -0.06592893
-0.05202192 -0.07130538 -0.04690642 -0.069799386 0.04796283 -0.049209494 0.06513118 -0.04212628
-0.07304556 -0.056606982 0.04800232 0.07802711 0.069556 -0.06382979 0.06778652 0.052765973
-0.050841257 0.06343615 -0.046091482 -0.04766747 -0.046526507 -0.061069805 0.07971022 -0.056014016

action_model._discrete_distribution.branches.0.weight f4 [2, 256]
00000000: 4b0d e0bc b0b9 3a3d 3f6c 9f3d 9bd6 d0bc
00000010: 9214 983d 9db3 9fbc fe9b 473d 0d97 debc
00000020: 4ae8 9abc 8fc7 0d3d 9436 263c 6898 1cbd
00000030: 938d f03c 19bb 3e3d 0c1c 15bd 94f0 1d3d
00000040: 5475 dd3c 5567 20bd 919a d83c bf53 093d
00000050: f474 07bd cc8a d73c bbdb 1a3d cb0e ecbc
00000060: 43bc 963c 73fb 3b3c 528a b2bc 3b43 1b3d
00000070: 178c f4bc d21d 0f3d ff3c ba3c 5fe3 1fbd
00000080: 0547 67bd 8216 e1bc 8d55 25bd 04b8 cebc
00000090: 9baa 2ebd bcd4 40bd cba0 e0bc b934 11bd
000000a0: 3fe4 673d 6f73 47bd ee98 f13c a4d5 133d
000000b0: 8f5d 0ebd 7962 8f3d 3d64 0c3d ad94 8f3c
000000c0: 1ea7 21bd 1010 fbbc b284 51bd 32c2 22bd
000000d0: a1bd 21bd 7894 4fbd 8089 23bd 0daf c0bc
000000e0: a7aa 5b3d af49 2abd 4658 b13c 6ffa eebc
000000f0: 6bb5 123d b581 e5bc cc14 2dbd 8ad7 a9bc
00000100: 560c 8b3d a635 053d 7f15 1ebd f3f0 1abd
00000110: 40f3 553d 8530 873d f57e 48bd 41fa 4abd
00000120: 3434 353d 31c5 4cbd a8ec 5abd 1733 3bbd
00000130: 52ff 42bd a033 a2bd adbe 30bd 9204 47bd
00000140: 0e6d d23c df6d 72bd 54a0 403d cc67 8c3d
00000150: 1894 2c3d 978f 863d 7e18 04bd 5728 5dbd
00000160: 94f1 15bd 2b60 013d 18d5 613d 7313 463d
00000170: f16d 003d 0f73 6bbd 1d60 bcbc 2d63 3e3d
00000180: 3ad8 d63c 38ab 9abc 5736 2cbd fa6c 3abd
00000190: 8766 f43c 259c ccbc 03a5 2dbd ad28 83bd
000001a0: 316a 053d 607a 40bd 1f87 203d d189 17bd
000001b0: 79a9 f9bc f504 4b3d 0757 c33c 4516 8bbc
000001c0: 20d6 d5bc bec4 d5bc fabb fd3c 457d 333d
000001d0: 06f6 10bd 7432 533d 2831 6a3d 1604 9b3c
000001e0: 712e 143d 35f4 2f3d 2fb2 473d 9fed 023d
000001f0: 73af 983c 0a61 d23c 1fdf 333d 6661 70bd
00000200: 40d8 4dbd 429a c13c 4a84 5dbd 010f 22bd
00000210: 138f f1bc 4971 29bd 31b5 4abd c46c f83c
00000220: 6ce7 1c3d 97cb 11bd ebd8 4d3d 2a6d f23c
00000230: a95b 683d 654d 843d ad76 5bbd 32f3 5fbd
00000240: 593b 833d c528 49bd a1af 4e3d f6d4 103d
00000250: a825 d43c 52f0 53bd 4952 7ebc facc 37bd
00000260: 708c 4dbd 8c9c bb3c d64c 48bd 4ef1 623d
00000270: 5e6a 1d3d 377b 0bbd beb3 713d ad68 29bd
00000280: c758 6cbd f2cd 6abd 6149 413d 4c92 57bd
00000290: b57d 2f3d a2c9 61bd e568 043c 2dbf 15bd
000002a0: 0a08 423d f514 1dbd b609 69bd 509e 2e3d
000002b0: b0b2 2cbd 4cc7 123d 2a90 36bd 5b4d 8b3d
000002c0: 7f2d 39bd add0 4cbd 00a9 0dbd a085 5cbd
000002d0: 5a17 303d a263 3bbd 8922 2fbd 5071 c8bc
000002e0: b5fa 6b3d b120 f6bc 3c73 803d aa27 ef3c
000002f0: 35c1 a83b d6a8 58bd f988 003d d30b 943d
00000300: dd6e 563d 3733 6c3d d248 63bd bd35 1c3d
00000310: eec9 0e3d 620d 363d 5b3d 463c 91e6 383d
00000320: 1df7 253d a5e8 cfbb b54b d13c c811 423d
00000330: 193c 493d 3c81 e6bc aa1c 40bd bb88 07bd
00000340: 0590 19bd 206a 1bbd 20ab 2fbd f2c2 393d
00000350: 70b3 313d 0a33 0cbd f0bf 023d d018 173d
00000360: cbc1 e8bc 7650 debc 45f7 1dbd 3d63 36bd
00000370: 6254 8cbc 49ab 00bd 1eed 1e3d 2400 013d
00000380: 8302 573d c218 54bd 9366 3abd 49fd ccbc
00000390: 69d5 5ebd 2c41 4ebd d257 59bd 4dfa 69bd
000003a0: 1463 b2bc 2cf2 3ebd 8b15 99bc f9e4 4fbd
000003b0: 3a11 873b 29c3 bdbc de7c 183d 47d1 3bbd
000003c0: 15e8 47bd 7909 32bd 7ec5 113c e3fe 3c3d
000003d0: 64f6 043d a95c 1dbd 8e6b 0e3d 179e 723c
000003e0: d603 ecbc 2f30 e93c 2458 07bd e3b6 2bbd
000003f0: a7b4 0fbd 46ed 4cbd 1838 803d f323 0fbd
-0.027350089 0.04558724 0.07784318 -0.025492957 0.074257985 -0.019494826 0.04873275 -0.027171636
-0.018909592 0.034614142 0.010144848 -0.038231283 0.029364383 0.04656515 -0.0364037 0.03855951
0.027033485 -0.039161045 0.02644089 0.033527132 -0.03307052 0.0263113 0.037807208 -0.028815648
0.018400317 0.011473524 -0.021794472 0.037905913 -0.029851956 0.03494055 0.022734163 -0.039035197
-0.056464214 -0.027476553 -0.04036479 -0.02523423 -0.04264317 -0.04707788 -0.027420422 -0.03545067
0.056614157 -0.04869407 0.029491868 0.036092415 -0.034757193 0.07001204 0.034275282 0.017526949
-0.039466016 -0.030647308 -0.05115194 -0.03973598 -0.039487485 -0.0506787 -0.039926052 -0.02352097
0.053629544 -0.041574176 0.021648537 -0.02917215 0.035817545 -0.02801595 -0.04225616 -0.02073266
0.06789462 0.032521866 -0.03859472 -0.037827443 0.052233934 0.06601051 -0.0489492 -0.049555067
0.044239238 -0.049992744 -0.05344835 -0.04570302 -0.047606774 -0.07920003 -0.043150593 -0.048588343
0.025686767 -0.059186812 0.0470279 0.06855735 0.04213342 0.06570356 -0.03224992 -0.05399355
-0.03660734 0.031585854 0.055134863 0.048358392 0.03135485 -0.057482775 -0.02299505 0.0464813
0.026226152 -0.018880472 -0.04204401 -0.045514084 0.029834045 -0.0249768 -0.042393696 -0.06404243
0.032571975 -0.046991706 0.03919136 -0.036996666 -0.030476319 0.049565274 0.023845209 -0.016978392
-0.02610308 -0.02609479 0.030973423 0.04382064 -0.035390876 0.051561788 0.057175785 0.018922847
0.036177102 0.042957503 0.048753913 0.031964894 0.018638348 0.025681037 0.043913957 -0.058686636
-0.05025506 0.023633126 -0.05408124 -0.03956509 -0.029487168 -0.041367803 -0.049489204 0.030325301
0.03830664 -0.03559455 0.050255697 0.02959307 0.05672804 0.06460074 -0.053579975 -0.05467529
0.06407804 -0.049111146 0.05046046 0.035359345 0.025896862 -0.05174286 -0.015522548 -0.044873215
-0.05018276 0.022901796 -0.0489014 0.055405907 0.038431518 -0.034053054 0.059009306 -0.041359592
-0.057701852 -0.05732531 0.04718912 -0.052629754 0.042844493 -0.055123933 0.008081649 -0.036559273
0.047370948 -0.038350064 -0.056894027 0.042631447 -0.042162597 0.035834596 -0.04457108 0.06801864
-0.045209404 -0.050003696 -0.034585 -0.053838372 0.04299102 -0.045749314 -0.042757545 -0.024468094
0.05761214 -0.030044885 0.06271979 0.029193718 0.005149985 -0.05289539 0.031380627 0.07228818
0.05235182 0.05766603 -0.05548937 0.038137186 0.034860544 0.044446357 0.012099589 0.04514176
0.04051887 -0.006344872 0.025548795 0.04738024 0.04912958 -0.028137796 -0.046902336 -0.03308938
-0.037490863 -0.037943006 -0.042887807 0.04535193 0.043384016 -0.034228362 0.031921327 0.036888897
-0.02841272 -0.027137976 -0.038565893 -0.044528235 -0.01713008 -0.03141335 0.03880035 0.031494275
0.05249263 -0.051781423 -0.04550798 -0.02502312 -0.054402743 -0.05035512 -0.053062268 -0.05712347
-0.02177576 -0.04661767 -0.01868703 -0.050755475 0.0041219266 -0.023164349 0.037228458 -0.04585388
-0.048805315 -0.043466065 0.008897183 0.046141516 0.03246154 -0.038418446 0.03477054 0.014808199
-0.028810423 0.028465359 -0.03304304 -0.04192246 -0.035084393 -0.05003097 0.06260699 -0.034946393

action_model._discrete_distribution.branches.0.bias f4 [2]
00000000: 59ac 3e3d 59ac 3ebd
0.046551082 -0.046551082

54 f4 [4]
00000000: f18b 4c3e 84c9 ec3e 380f 663e 1dbc 683e
0.19975258 0.46247494 0.22466743 0.2272801
