results/flappy-colab-Master_Model/FlappyAgent/FlappyAgent-499961.onnx (onnx, 536293 bytes, 10 tensors)

network_body.observation_encoder.processors.0.normalizer.running_mean f4 [4]
0.8278403 0.20207533 0.6681536 0.3753991
00000000: 58ed 533f d6ec 4e3e 1d0c 2b3f 5034 c03e

network_body._body_endoder.seq_layers.0.weight f4 [256, 4]
0.31778124 0.5301392 0.35712942 0.220858 0.10428106 -0.66509634 -0.20616052 0.16599077
-0.6239446 -0.3695047 0.04426504 -0.700341 0.8588845 0.49024197 -0.51741743 -0.18492721
-0.25861257 -0.24138902 0.27841464 0.35212898 -0.44992834 -0.65216094 0.12626088 -0.31214514
-0.5778648 -0.22837284 -0.24522786 0.08840321 0.3321193 0.053680066 0.5900571 -0.5935487
-0.33085236 -0.5612888 0.9130465 -0.5550306 -0.008804462 0.5855232 -0.56904465 -0.41386074
0.2683877 -0.25688845 0.11171849 -0.73679554 -0.08439043 -0.2411404 0.0041065197 -1.0361443
0.8034164 0.09939095 1.06575 1.1361326 0.078294225 -0.3355754 0.40630147 0.13474701
0.0016399849 -0.3467717 0.3990019 0.27344102 0.92621154 -0.30763808 0.21534483 -0.19219567
0.085905135 -0.06974465 -0.6649602 -0.45551714 -0.20750372 -0.68778044 0.45624098 -0.5890789
-0.80158806 -0.81461847 0.55327696 0.2228747 -0.25841537 -0.4112613 0.37439063 -0.018371886
0.6571189 0.1759888 -0.3852563 -0.6169967 -0.6385712 -0.4117057 0.067455776 -0.07933445
-0.5877733 -0.5465786 -0.6894543 1.2140902 -0.3945084 0.044432558 -0.3841969 0.15248401
-0.21878812 -0.21308336 -0.53633195 -0.4023719 0.5406875 0.47852242 0.17858253 -0.36721823
-0.04866629 -0.08310696 0.6993067 0.29485244 -0.25580576 -0.85149395 -0.78715986 -0.5620142
-0.1361155 -0.11440388 -0.4368449 -0.21716528 0.029276453 -0.23112266 -0.24491252 0.022698272
0.37203005 0.24364963 0.0011134136 0.3875912 -0.0019446445 0.6887449 -0.5335269 -0.5115027
1.0843143 -0.40245628 -0.8434414 0.41271362 0.23295319 0.46190903 -0.14144413 0.42889592
-0.36655444 -0.009243897 -1.1654919 -0.11872623 0.3521113 -0.4843325 0.6077277 -0.20553365
0.24555898 -0.35407248 -0.18859097 -0.24370582 0.3365417 -0.6695871 1.227746 -0.028293194
0.30627877 -0.28928527 -0.4338343 0.11849422 -0.1380084 0.06829143 0.021118298 0.11944176
1.1303079 -0.31173375 0.6944461 0.79842484 0.035584673 0.7853189 0.611866 0.5918992
0.23266232 1.0637704 -0.48412228 0.43838713 0.3957823 -0.4427342 0.6975823 -0.3847424
-0.2110861 0.1996248 -0.2968252 1.1193783 -0.39543045 -0.041975312 -0.6991782 -0.63790894
0.16088487 0.6082066 0.34167352 -0.64104366 -0.33682084 -1.5841008 0.6929398 0.18718919
0.3683394 0.14410986 -0.5448107 -0.29425696 -0.095043905 0.8655844 0.38987637 -0.6665762
0.16150585 -0.35065418 -0.24439023 0.17815167 0.6075562 -0.07472895 -0.4143457 0.17374378
0.27210614 -0.35727546 -0.11828838 0.5229935 -0.01783035 -0.25534028 -0.12707758 -0.08531751
0.3452986 0.43090874 -0.6594626 -0.27281103 -0.18147777 -0.19699587 0.0043928935 -0.44900697
-0.62880915 -0.5134514 -0.6237792 0.026184391 0.5302497 0.20068909 -0.15458089 0.6074424
-0.093220286 -0.88760626 0.24105442 0.33680266 0.9682359 0.6129116 -0.37419006 -0.38484374
0.55154544 -0.17283201 -1.2776203 0.11991429 -0.5242748 0.2348406 0.09150288 -0.4898957
0.26879272 0.53798586 0.050394423 0.64973754 0.014667682 1.5051076 -0.11509157 -0.04935693
00000000: 39b4 a23e 34b7 073f abd9 b63e 9928 623e
00000010: 4f91 d53d c143 2abf be1b 53be 7cf9 293e
00000020: d5ba 1fbf b82f bdbe 424f 353d 8c49 33bf
00000030: dbdf 5b3f ff00 fb3e 7875 04bf 8f5d 3dbe
00000040: de68 84be af2e 77be 5d8c 8e3e 404a b43e
00000050: 025d e6be 05f4 26bf 884a 013e 7dd1 9fbe
00000060: f3ee 13bf 92da 69be 031d 7bbe be0c b53d
00000070: 8a0b aa3e a1df 5b3d fb0d 173f cff2 17bf
00000080: 7b65 a9be 9fb0 0fbf 6abd 693f 7c16 0ebf
00000090: 9740 10bc d9e4 153f e9ac 11bf 8ee5 d3be
000000a0: 1d6a 893e e286 83be aacc e43d a29e 3cbf
000000b0: e4d4 acbd 82ed 76be fc8f 863b 60a0 84bf
000000c0: b2ac 4d3f 7b8d cb3d 7f6a 883f cb6c 913f
000000d0: b958 a03d 8ad0 abbe bf06 d03e 1ffb 093e
000000e0: c3f4 d63a 0f8c b1be fa49 cc3e 7600 8c3e
000000f0: 331c 6d3f bd82 9dbe 5b83 5c3e f1ce 44be
00000100: 08ef af3d 48d6 8ebd d53a 2abf 8b39 e9be
00000110: db7b 54be 6112 30bf 6b98 e93e e0cd 16bf
00000120: e034 4dbf d68a 50bf 8fa3 0d3f 4439 643e
00000130: 054f 84be d790 d2be 21b0 bf3e a380 96bc
00000140: f238 283f 6836 343e 5040 c5be 7ff3 1dbf
00000150: 6779 23bf 17cb d2be 4126 8a3d 1a7a a2bd
00000160: 5078 16bf 93ec 0bbf 1480 30bf 4f67 9b3f
00000170: 01fd c9be eafe 353d 75b5 c4be c524 1c3e
00000180: fe09 60be 8632 5abe 0d4d 09bf b103 cebe
00000190: 7f6a 0a3f e400 f53e 57de 363e 0704 bcbe
000001a0: 4e56 47bd fb33 aabd c405 333f e6f6 963e
000001b0: f9f8 82be 82fb 59bf 4f83 49bf 2ae0 0fbf
000001c0: dd61 0bbe 954c eabd 22aa dfbe 9360 5ebe
000001d0: 2cd5 ef3c 6bab 6cbe 59ca 7abe baf1 b93c
000001e0: b97a be3e 4a7f 793e f6ef 913a 5b72 c63e
000001f0: 71e3 feba 9651 303f 3895 08bf d7f1 02bf
00000200: d0ca 8a3f c00e cebe c7eb 57bf 334f d33e
00000210: 488b 6e3e 577f ec3e bbd6 10be 3f98 db3e
00000220: 06ad bbbe b773 17bc d72e 95bf bd26 f3bd
00000230: ef47 b43e 6efa f7be 0b94 1b3f 6a77 52be
00000240: d073 7b3e fd48 b5be fe1d 41be 058e 79be
00000250: 324f ac3e 0f6a 2bbf c826 9d3f 21c7 e7bc
00000260: 92d0 9c3e 331d 94be 881f debe 19ad f23d
00000270: 1352 0dbe 61dc 8b3d 4800 ad3c e29d f43d
00000280: eead 903f 919b 9fbe 38c7 313f 9265 4c3f
00000290: 3cc1 113d a90a 493f 40a3 1c3f b586 173f
000002a0: 083f 6e3e a129 883f e0de f7be 4774 e03e
000002b0: faa3 ca3e 0fae e2be c194 323f f5fc c4be
000002c0: f426 58be 726a 4c3e 79f9 97be ca47 8f3f
000002d0: dc75 cabe 4eee 2bbd 58fd 32bf 004e 23bf
000002e0: 01bf 243e 6eb3 1b3f d5ef ae3e 701b 24bf
000002f0: c873 acbe d1c3 cabf 8164 313f 86ae 3f3e
00000300: fb96 bc3e 8991 133e b778 0bbf d9a8 96be
00000310: 61a6 c2bd f096 5d3f e09d c73e bda4 2abf
00000320: ca61 253e f288 b3be 6f41 7abe 646d 363e
00000330: ce88 1b3f 7e0b 99bd 1f25 d4be e4e9 313e
00000340: 7f51 8b3e cfec b6be 2e41 f2bd e7e2 053f
00000350: f410 92bc f6bb 82be a020 02be f2ba aebd
00000360: faca b03e 12a0 dc3e 8ad2 28bf e3ad 8bbe
00000370: 4fd5 39be 49b9 49be 43f2 8f3b 3ee4 e5be
00000380: a3f9 20bf 8d71 03bf feaf 1fbf a680 d63c
00000390: 72be 073f 7181 4d3e 744a 1ebe 5881 1b3f
000003a0: 47ea bebd 2a3a 63bf f8d6 763e 6671 ac3e
000003b0: 4fde 773f c6e7 1c3f d795 bfbe 3d0a c5be
000003c0: 1532 0d3f e0fa 30be 1089 a3bf a095 f53d
000003d0: e036 06bf 0e7a 703e dd65 bb3d 9cd3 fabe
000003e0: 339f 893e 71b9 093f 626a 4e3d 3355 263f
000003f0: b850 703c 5ea7 c03f 21b5 ebbd 7e2a 4abd

network_body._body_endoder.seq_layers.0.bias f4 [256]
0.039909802 -0.024318323 0.0030897653 -0.053389393 0.048205763 -0.011453447 0.01891836 -0.027244674
-0.032866515 0.047237888 -0.026089566 0.029241672 0.04494241 -0.035137016 -0.024681523 -0.046644084
0.041208953 -0.024631733 0.0072821225 -0.009273656 -0.049553845 0.031099552 0.048788663 0.020348491
-0.04034301 0.0005359051 0.047427602 -0.012390848 0.039757974 -0.034007527 0.027652873 0.006183324
-0.03169438 0.009712432 0.029169379 -0.02797381 -0.036225677 -0.011888632 -0.043169457 0.05252889
0.038651496 0.026095072 0.03549956 -0.017040584 0.048178826 0.036763016 0.04430331 -0.014037696
-0.01903185 0.053589504 -0.045519117 -0.061775904 0.008573178 -0.04458459 -0.04275063 -0.028082017
0.041544903 -0.00061902346 -0.0266005 0.025698546 -0.042039417 -0.0025954149 0.04226157 0.028380902
0.02990216 -0.027114382 0.0057484806 0.0135286525 0.041709784 0.0484396 0.039554484 0.013062473
-0.005123454 -0.048883636 0.025537288 0.04140421 0.05298428 0.035369586 0.042083368 0.043216243
-0.034507647 0.046063013 0.057240233 0.04578248 0.03792404 0.037738476 0.045088354 0.040843647
0.050464336 -0.035322428 0.04182883 0.0354609 -0.035564464 -0.0101070255 -0.03040773 0.048359912
-0.030025922 -0.035495993 0.040451817 0.03284856 0.049507257 0.040732287 0.03979106 0.034396157
-0.021378722 0.04433994 -0.0015095978 0.02399924 0.042598978 0.049307406 0.023125412 0.011738464
-0.06474078 -0.043979533 -0.02051631 0.057878483 0.01738585 0.041536245 -0.00028910855 0.032433543
0.026142081 0.02165295 -0.01893146 -0.04090389 0.037201174 0.04691615 0.049896587 -0.018960454
0.046458777 -0.002455741 0.037716012 -0.031003768 0.024843905 -0.02910338 -0.04731118 0.041602466
0.040500645 0.038909446 0.01990948 0.05229811 0.02772445 0.038333114 -0.013587402 0.04341836
0.02616308 0.047761552 0.04758197 0.0010779875 0.042795416 0.042766385 0.030517083 0.047572877
-0.031062031 -0.032661248 0.059137087 -0.002477407 0.042203847 0.04014292 0.043131858 0.049389683
0.02492133 0.0046171597 0.057676308 0.026135283 -0.0024789276 0.03934146 0.028914278 0.048868287
0.023183318 0.0024497395 0.0070492923 -0.011561032 0.053690154 0.0039081243 0.021399658 -0.0004746326
-0.057449587 0.041907944 -0.035703488 -0.040048946 0.020573243 0.03217524 0.016486267 0.052970387
-0.018845016 0.044701584 -0.028226243 0.04264343 0.037726145 -0.004764004 0.011025072 0.041031748
-0.013340739 0.00973459 0.036133382 0.03239639 0.04777522 0.05033023 0.04938573 -0.03297562
0.04379583 0.0459781 0.03889495 0.04232341 -0.025474748 -0.04859813 0.04629746 0.035795234
0.04055211 0.05231884 0.024364794 0.027909975 -0.0332097 0.007085761 0.046512585 0.052725825
0.04130087 0.04736922 0.03450475 -0.02508857 0.048185617 -0.029260777 0.04544473 -0.032868993
0.0052365307 0.042062815 0.045739025 -0.023268504 -0.05172646 -0.010693352 0.011404083 0.017276425
-0.008494867 0.048690252 -0.001162906 0.046001904 0.04540837 0.0133540705 0.039457034 0.045663264
0.050146047 -0.03485915 -0.014273337 0.045786183 0.043752793 0.031576272 0.039756432 -0.0078057135
0.03179632 0.044619344 0.0028142764 -0.0573489 0.05544641 0.028059449 0.04698264 -0.034039296
00000000: 7678 233d 3837 c7bc a97d 4a3b d6ae 5abd
00000010: 6873 453d 3da7 3bbc adfa 9a3c 3930 dfbc
00000020: 0a9f 06bd 847c 413d c9b9 d5bc 3b8c ef3c
00000030: 8815 383d d5eb 0fbd e830 cabc de0d 3fbd
00000040: b8ca 283d 7dc8 c9bc df9e ee3b 88f0 17bc
00000050: f9f8 4abd 7dc4 fe3c 9fd6 473d e1b1 a63c
00000060: b63e 25bd fc7b 0c3a 7243 423d fc02 4bbc
00000070: 42d9 223d 7a4b 0bbd 4788 e23c 7b9d ca3b
00000080: f7d1 01bd e420 1f3c 9ff4 ee3c 5529 e5bc
00000090: 6061 14bd 89c8 42bc 75d2 30bd 8928 573d
000000a0: 0851 1e3d 55c5 d53c fd67 113d b298 8bbc
000000b0: 2957 453d d194 163d 6377 353d 5dfe 65bc
000000c0: afe8 9bbc ab80 5b3d 4172 3abd bb08 7dbd
000000d0: 8476 0c3c 559e 36bd 491b 2fbd 420c e6bc
000000e0: fd2a 2a3d f645 22ba 4be9 d9bc c285 d23c
000000f0: 8631 2cbd d617 2abb 781a 2d3d 117f e83c
00000100: 60f5 f43c fb1e debc c05d bc3b 48a7 5d3c
00000110: e1d7 2a3d 9a68 463d e203 223d fc03 563c
00000120: a6e2 a7bb 353a 48bd 9333 d13c 7697 293d
00000130: 0b06 593d b3df 103d 9c5f 2c3d 8403 313d
00000140: e457 0dbd 92ac 3c3d bc74 6a3d 6986 3b3d
00000150: 3d56 1b3d a993 1a3d 91ae 383d ab4b 273d
00000160: b1b3 4e3d 40ae 10bd b554 2b3d 733f 113d
00000170: 0bac 11bd f097 25bc a219 f9bc 0b15 463d
00000180: ecf8 f5bc 3f64 11bd ceb0 253d 368c 063d
00000190: 1fc8 4a3d e6d6 263d f3fb 223d fce2 0c3d
000001a0: 6e22 afbc cc9d 353d b2dd c5ba 0e9a c43c
000001b0: 447c 2e3d 90f6 493d 8171 bd3c b052 403c
000001c0: d096 84bd e223 34bd d211 a8bc fd11 6d3d
000001d0: c56c 8e3c e921 2a3d 7e93 97b9 09d9 043d
000001e0: eb27 d63c 8761 b13c 2616 9bbc d68a 27bd
000001f0: 4260 183d 262b 403d 5d60 4c3d f452 9bbc
00000200: 8f4b 3e3d 7ff0 20bb 1b7c 1a3d 9dfb fdbc
00000210: 7285 cb3c 366a eebc 5ec9 41bd 5967 2a3d
00000220: 01e4 253d 835f 1f3d 3519 a33c 8b36 563d
00000230: 631e e33c 2f03 1d3d b29d 5ebc 73d7 313d
00000240: f553 d63c 9ea1 433d 50e5 423d 424b 8d3a
00000250: 3f4a 2f3d ce2b 2f3d f6fe f93c c7db 423d
00000260: cd75 febc cdc7 05bd bb39 723d fe5b 22bb
00000270: f1dd 2c3d e76c 243d 08ab 303d d64c 4a3d
00000280: d127 cc3c 8b4b 973b fe3d 6c3d a919 d63c
00000290: 8175 22bb 8324 213d a3dd ec3c 1d2a 483d
000002a0: f1ea bd3c cf8b 203b c0fd e63b 7c6a 3dbc
000002b0: 35ea 5b3d b90f 803b 564e af3c 1cd8 f8b9
000002c0: 4250 6bbd aaa7 2b3d d23d 12bd 5d0a 24bd
000002d0: 3889 a83c 2fca 033d 350e 873c 7af7 583d
000002e0: dd60 9abc 0219 373d b93a e7bc e1aa 2e3d
000002f0: bb86 1a3d 5d1b 9cbb 81a2 343c e810 283d
00000300: 1d93 5abc d47d 1f3c 9900 143d 14b2 043d
00000310: f3af 433d 1227 4e3d b148 4a3d 7211 07bd
00000320: 4263 333d 8853 3c3d 5050 1f3d 505b 2d3d
00000330: 6bb0 d0bc d50e 47bd 68a2 3d3d 069e 123d
00000340: f819 263d 484c 563d ad98 c73c 76a3 e43c
00000350: e506 08bd ac2f e83b fb83 3e3d 09f7 573d
00000360: 1a2b 293d 3a06 423d da54 0d3d 8b86 cdbc
00000370: 485e 453d 4cb4 efbc 4124 3a3d a3a1 06bd
00000380: 3497 ab3b 0f4a 2c3d d858 3b3d 979d bebc
00000390: 20df 53bd 2b33 2fbc 31d8 3a3c 4a87 8d3c
000003a0: 0e2e 0bbc 6e6f 473d a66c 98ba 7e6c 3c3d
000003b0: 21fe 393d 08cb 5a3c b39d 213d 6709 3b3d
000003c0: f165 4d3d 78c8 0ebd b7da 69bc 4b8a 3b3d
000003d0: 2136 333d 1f56 013d a4d7 223d 12c7 ffbb
000003e0: dc3c 023d c6c2 363d b96f 383b aee6 6abd
000003f0: c61b 633d eedc e53c de70 403d ca6c 0bbd

network_body._body_endoder.seq_layers.2.weight f4 [256, 256]
0.059688125 -0.1169743 0.022182768 -0.115497835 0.17457022 0.007905397 0.08193997 0.068625934
0.044735894 0.041567624 -0.0043431483 0.17895786 -0.02419548 0.09964061 0.04402344 -0.004793135
0.115450576 0.067124255 -0.12253537 -0.003183908 -0.043375913 0.04757803 -0.092630066 -0.017997975
0.09439632 0.07016811 0.056700733 0.08043013 0.004438036 0.06228253 -0.018705681 0.009675786
0.08692372 0.0806955 -0.009921194 0.035427358 0.016969321 5.1215513e-05 -0.10064604 -0.12968653
0.105668634 -0.10276438 -0.047610857 -0.05468154 -0.021112198 0.03632712 0.12769431 0.011528871
-0.05495244 0.08565078 -0.018112415 0.03942308 -0.025086429 0.074380286 0.050676174 0.13429953
-0.07208594 -0.043195345 -0.030470302 -0.116715886 -0.07505561 0.04857508 -0.08533454 0.08880547
0.017244354 0.11058943 -0.025304602 -0.014535721 -0.09152089 0.009277941 0.0030968578 -0.015531614
0.035365246 -0.06657403 0.02035824 0.011118928 0.04581326 0.0003468359 0.14677207 -0.0870753
0.01651517 0.10084409 0.042151704 -0.05051669 -0.040307507 0.030172573 0.08889304 -0.048824634
-0.0044478024 -0.005900159 0.050416894 -0.025435507 0.016630378 -0.020137167 0.024547352 -0.004527481
-0.05965139 -0.051945053 -0.053571142 -0.02516139 0.027063984 0.025777005 0.057923466 0.04464219
0.100215934 0.13896002 0.09823604 0.020158712 -0.035044517 0.13661811 -0.08942905 -0.05044039
-0.048638854 0.0509129 0.031466622 0.032628655 -0.027593132 -0.04715524 0.0097565595 0.14920469
0.08136393 -0.033952154 0.040335488 0.09449329 0.032208376 -0.0050152806 -0.017469306 0.0555954
0.010893017 0.04636254 -0.08502827 0.090849325 0.015475223 0.093221486 -0.03039936 -0.00859794
-0.051450033 -0.08313761 -0.017637568 -0.025818828 0.018225549 0.049201842 0.032116078 -0.026298543
0.022317903 0.035225898 0.07677464 0.048062783 -0.045183435 0.031225314 0.022507472 0.073287934
0.080727816 0.007565093 -0.004047052 -0.010488611 0.07210674 -0.03432764 -0.023009134 0.09189467
0.03002694 -0.03390713 0.06087873 0.07898475 -0.058565807 -0.04182254 0.107162006 0.046474677
0.008259376 0.07082921 0.041691154 -0.033706013 0.002401065 0.06079343 -0.029600343 0.114942186
-0.044219147 0.008008449 0.006753479 -0.012564149 -0.020550167 -0.010631541 -0.03924096 -0.038010847
0.0375355 0.062283833 -0.0054571745 0.05557075 -0.0034842025 -0.050596528 -0.008911137 -0.07717328
-0.010176936 -0.018350827 -0.07639962 -0.045813758 -0.014354392 -0.0010515879 0.10604232 -0.16251303
-0.00874803 -0.08635398 -0.016073719 -0.0009939461 -0.039631505 -0.041886527 0.07085047 0.014175125
0.09820294 -0.05006517 -0.046717748 -0.03176203 0.12024058 0.054308977 0.05186608 0.112226844
0.04176963 0.08926886 0.016026465 -0.014133186 -0.002060712 0.032725092 -0.069142826 -0.023977956
0.04242546 0.0070383404 0.0048146076 0.08565495 -0.0635209 0.035543773 -0.060973465 0.0808373
0.061041884 -0.0076529346 -0.14308828 0.13848747 0.021392597 0.03798385 -0.012567148 -0.01147974
0.062501915 0.035303686 0.018860199 -0.055812977 0.11363659 0.062565945 -0.002186344 -0.018183982
-0.048394166 -0.019865563 -0.0144431 0.018013494 0.093895674 0.08533911 0.031944193 -0.022733502
00000000: 897b 743d 3990 efbd a3b8 b53c 218a ecbd
00000010: 89c2 323e a385 013c 25d0 a73d c18b 8c3d
00000020: fc3c 373d d042 2a3d f850 8ebb bb40 373e
00000030: 9935 c6bc 6010 cc3d ec51 343d bb0f 9dbb
00000040: 5a71 ec3d 7178 893d d3f3 fabd 1da9 50bb
00000050: f1aa 31bd 2ee1 423d d5b4 bdbd 7d70 93bc
00000060: dc52 c13d 4cb4 8f3d 073f 683d 8db8 a43d
00000070: f26c 913b f71b 7f3d a83c 99bc 3087 1e3c
00000080: 1005 b23d af43 a53d 818c 22bc 471c 113d
00000090: 3f03 8b3c 3dd0 5638 831f cebd 8ccc 04be
000000a0: cc68 d83d 2276 d2bd 9a03 43bd c0f9 5fbd
000000b0: 7df3 acbc bfcb 143d 4cc2 023e 97e3 3c3c
000000c0: cf15 61bd ad69 af3d 7d60 94bc 187a 213d
000000d0: 0e82 cdbc b154 983d d291 4f3d d185 093e
000000e0: cba1 93bd 9aed 30bd db9c f9bc bd08 efbd
000000f0: c1b6 99bd aaf6 463d e0c3 aebd a4df b53d
00000100: 0844 8d3c b67c e23d 994b cfbc 3c27 6ebc
00000110: 4e6f bbbd 8102 183c a7f4 4a3b 5078 7ebc
00000120: 26db 103d f757 88bd 53c6 a63c 2a2c 363c
00000130: afa6 3b3d 87d7 b539 6b4b 163e 8954 b2bd
00000140: d24a 873c 5987 ce3d 44a7 2c3d 97ea 4ebd
00000150: 7c19 25bd 792c f73c 8e0d b63d 57fc 47bd
00000160: dfbe 91bb 1f56 c1bb f281 4e3d 205e d0bc
00000170: 6e3c 883c b3f6 a4bc 8717 c93c 435b 94bb
00000180: 0455 74bd 56c4 54bd 6a6d 5bbd 421f cebc
00000190: 4ab5 dd3c 4c2a d33c 2841 6d3d bbda 363d
000001a0: 033e cd3d 894b 0e3e fa2f c93d e223 a53c
000001b0: d78a 0fbd 9ee5 0b3e 9426 b7bd 959a 4ebd
000001c0: 8939 47bd 0c8a 503d 25e3 003d a0a5 053d
000001d0: fe0a e2bc da25 41bd fad9 1f3c 1dc9 183e
000001e0: 22a2 a63d 6a11 0bbd d336 253d b385 c13d
000001f0: eeec 033d 3957 a4bb ca1b 8fbc 01b8 633d
00000200: a078 323c a6e6 3d3d 4d23 aebd 360f ba3d
00000210: ca8b 7d3c e8ea be3d 1408 f9bc 60de 0cbc
00000220: 45bd 52bd 0d44 aabd a97c 90bc 0282 d3bc
00000230: bf4d 953c df87 493d 268c 033d 0b70 d7bc
00000240: 09d4 b63c 0849 103d 063c 9d3d 7bdd 443d
00000250: 4412 39bd 3bcc ff3c 9761 b83c fc17 963d
00000260: a054 a53d 9ae4 f73b 229d 84bb 6cd8 2bbc
00000270: b3ac 933d 249b 0cbd a77d bcbc 4633 bc3d
00000280: 0ffb f53c 34e2 0abd fa5b 793d c2c2 a13d
00000290: b3e2 6fbd 1d4e 2bbd c177 db3d 3b5c 3e3d
000002a0: 5552 073c e80e 913d 58c4 2a3d 510f 0abd
000002b0: 305b 1d3b 8802 793d 6b7c f2bc cf66 eb3d
000002c0: 231f 35bd df35 033c 4a4c dd3b dcd9 4dbc
000002d0: d358 a8bc ea2f 2ebc 21bb 20bd 43b1 1bbd
000002e0: d3be 193d 551d 7f3d 19d2 b2bb 289e 633d
000002f0: 3857 64bb 4e3e 4fbd 0400 12bc 060d 9ebd
00000300: 2abd 26bc 7954 96bc 6777 9cbd 35a7 3bbd
00000310: af2e 6bbc 6fd5 89ba b72c d93d d169 26be
00000320: e653 0fbc 5bda b0bd 08ad 83bc 4c47 82ba
00000330: a554 22bd 3591 2bbd 0d1a 913d c93e 683c
00000340: 9f1e c93d 2311 4dbd 1c5b 3fbd e718 02bd
00000350: b140 f63d 1773 5e3d 8771 543d 30d7 e53d
00000360: a216 2b3d 98d2 b63d ef49 833c e18e 67bc
00000370: 030d 07bb bf0a 063d c19a 8dbd 6b6d c4bc
00000380: 52c6 2d3d e1a1 e63b dbc3 9d3b dd6b af3d
00000390: 3f17 82bd 5996 113d 50bf 79bd 078e a53d
000003a0: 0e07 7a3d 78c5 fabb bc85 12be a9cf 0d3e
000003b0: 873f af3c f494 1b3d 70e6 4dbc 8515 3cbc
000003c0: 0101 803d 999a 103d b480 9a3c 269c 64bd
000003d0: 4dba e83d 9322 803d c448 0fbb 93f6 94bc
000003e0: f638 46bd 1bbd a2bc c1a2 6cbc 0991 933c
000003f0: 604c c03d 45c6 ae3d ead7 023d 9c3b babc

network_body._body_endoder.seq_layers.2.bias f4 [256]
-0.028602764 -0.03275057 -0.052682865 0.029373048 -0.028262042 -0.011965106 0.0012573301 0.044932853
0.052983087 -0.034448996 0.045333013 0.054114934 -0.04136057 0.03473453 -0.037616666 0.048097484
0.02120773 0.03784729 0.04827831 -0.039326765 0.02837145 -0.044553347 -0.05497946 -0.04179157
-0.03669502 -0.040876616 -0.035282683 -0.0404322 0.012832704 -0.053901114 -0.043705042 -0.003916024
-0.0552126 0.04290211 0.038174387 -0.028731452 -0.03940598 0.05125163 -0.03433828 0.034102
-0.03844213 0.03144128 0.044689044 0.03152638 -0.003825471 -0.04216002 0.033215504 -0.006619846
0.033869963 -0.034963455 -0.035080444 -0.047650017 -0.030109962 0.044485442 0.03598455 0.039583035
0.0424866 0.034881797 0.043520357 -0.037632696 0.0477883 -0.050241105 -0.041120954 0.045442417
0.02398973 0.049885884 -0.04057426 0.046771932 -0.048535284 0.035330527 -0.05193758 -0.03804967
0.047678128 -0.048481796 -0.04245587 0.0431065 0.04191366 0.032756515 -0.031309485 0.032590717
0.040175926 -0.047790464 0.0408753 -0.036205366 -0.05141842 -0.040615954 -0.047129624 -0.042664837
0.05030997 0.037841268 -0.046722453 0.043401588 -0.05570792 0.03803567 0.03683041 -0.050551254
0.04387581 -0.04902277 -0.053964086 0.03542469 -0.048275936 -0.030450817 -0.014171089 0.04062764
0.020274598 0.041728888 -0.036988016 -0.022555014 -0.039494846 0.03757897 0.05346905 0.03938884
-0.044982485 -0.04801813 0.050499912 0.045184996 0.052468617 0.024710009 0.042807285 0.040807128
0.03789773 -0.027400656 -0.038351964 -0.012756016 -0.032064088 -0.051197436 -0.041052144 0.02361127
0.0019877027 -0.027646514 -0.020200456 0.007868441 -0.05169868 -0.033745885 -0.0524709 -0.03094056
-0.03573461 -0.038157836 0.039616525 -0.02607169 -0.014021542 0.038658112 -0.027329307 0.0342441
-0.040718365 0.036988366 0.04078809 0.037830476 0.043835774 0.032214403 -0.040909477 0.013449622
0.040230848 0.0387589 -0.03637167 -0.039507344 0.04285478 0.03515676 0.028399412 -0.043380328
-0.048761513 0.039744694 -0.033999443 -0.026176147 0.037936985 0.038528662 -0.04645153 -0.03125892
0.0068429154 0.049847074 -0.027382104 0.019442711 0.043308873 0.042723607 0.040735353 0.04136446
0.053784497 0.039412256 -0.046733376 0.041592628 0.04343912 -0.04738586 0.042142067 -0.04163852
0.03633674 -0.025680996 -0.052029386 0.04222189 -0.050866164 -0.05068181 0.037741862 0.038855344
-0.044043325 -0.049350545 0.038604025 0.050845165 -0.03311714 0.04283751 -0.03840762 0.050589472
-0.02229689 0.032633994 0.03097073 0.047837153 0.036135163 0.052152347 -0.033382304 0.04834196
-0.044003494 0.044943508 -0.004287268 0.04217187 0.043371815 -0.039332848 -0.033411995 0.036688436
0.054128375 0.025693659 -0.05370997 -0.036828883 0.042282365 -0.04041973 0.03177258 0.0454989
0.044702202 -0.03627836 0.051044453 0.012381727 -0.035481 -0.0400209 0.039653968 -0.043751117
-0.019475712 -0.03953302 0.032580357 -0.0335007 -0.028135635 0.0321679 -0.04986955 0.043039914
0.042395692 0.049573492 0.041399553 -0.021801695 -0.038918555 -0.0375409 -0.039114047 -0.04963654
0.04168356 -0.044324465 -0.035488106 -0.03689652 -0.016274601 0.042409334 0.019904703 0.003863187
00000000: 5850 eabc 7625 06bd fdc9 57bd bf9f f03c
00000010: cc85 e7bc 4b09 44bc ffcc a43a 830b 383d
00000020: cb04 593d 641a 0dbd 1caf 393d 9fa7 5d3d
00000030: b369 29bd cb45 0e3d ef13 1abd de01 453d
00000040: d5bb ad3c c305 1b3d 7abf 453d 1a15 21bd
00000050: 3e6b e83c 927d 36bd 2432 61bd a32d 2bbd
00000060: 844d 16bd 3d6e 27bd 9384 10bd 3c9c 25bd
00000070: 4340 523c 6ac7 5cbd 0f04 33bd fe51 80bb
00000080: 9b26 62bd 1fba 2f3d bf5c 1c3d 395e ebbc
00000090: 2a68 21bd 3bed 513d 4ca6 0cbd 8aae 0b3d
000000a0: 7f75 1dbd 92c8 003d dc0b 373d ce21 013d
000000b0: c1b4 7abb fcaf 2cbd fb0c 083d 4beb d8bb
000000c0: 3bbb 0a3d d735 0fbd 83b0 0fbd aa2c 43bd
000000d0: 2ba9 f6bc 5e36 363d 8964 133d d221 223d
000000e0: 6e06 2e3d 37e0 0e3d 6742 323d be24 1abd
000000f0: aabd 433d 9ec9 4dbd 726e 28bd d421 3a3d
00000100: 1c86 c43c 2455 4c3d 3231 26bd ed93 3f3d
00000110: efcc 46bd beb6 103d 80bc 54bd f9d9 1bbd
00000120: 244a 433d d994 46bd 35e6 2dbd 7190 303d
00000130: a8ad 2b3d b22b 063d 603e 00bd d87d 053d
00000140: 838f 243d efbf 43bd dc6c 273d 144c 14bd
00000150: 1f9c 52bd ea5c 26bd fe0a 41bd 53c1 2ebd
00000160: d411 4e3d 72ff 1a3d 0b60 3fbd ddc5 313d
00000170: fd2d 64bd 4acb 1b3d 7cdb 163d d50e 4fbd
00000180: 1fb7 333d 1acc 48bd 7209 5dbd 7b19 113d
00000190: fdbc 45bd fe73 f9bc db2d 68bc 2b69 263d
000001a0: ea16 a63c e9eb 2a3d bf80 17bd 4bc5 b8bc
000001b0: 59c5 21bd 68ec 193d 5d02 5b3d 3156 213d
000001c0: 8e3f 38bd a9ae 44bd ffd8 4e3d e713 393d
000001d0: 55e9 563d a56c ca3c b156 2f3d 6025 273d
000001e0: a63a 1b3d 5777 e0bc f316 1dbd 9cfe 50bc
000001f0: a255 03bd 67b4 51bd 4b26 28bd 6c6c c13c
00000200: 1e44 023b f17a e2bc 6d7b a5bc a2ea 003c
00000210: ffc1 53bd 2039 0abd baeb 56bd 0f77 fdbc
00000220: 745e 12bd 644b 1cbd f044 223d 4c94 d5bc
00000230: 9cba 65bc f857 1e3d b6e1 dfbc 8b43 0c3d
00000240: 4dc8 26bd 1d81 173d 6a11 273d 21f4 1a3d
00000250: 248d 333d 40f3 033d b290 27bd ce5b 5c3c
00000260: 1ac9 243d a7c1 1e3d 76fa 14bd 74d2 21bd
00000270: 7e88 2f3d 8900 103d e2a5 e83c 92af 31bd
00000280: 27ba 47bd 55cb 223d 0043 0bbd 5c6f d6bc
00000290: d063 1b3d 3bd0 1d3d f643 3ebd 5a09 00bd
000002a0: 893a e03b 722c 4c3d 6f50 e0bc 5246 9f3c
000002b0: a564 313d f3fe 2e3d 1dda 263d c86d 293d
000002c0: 224d 5c3d bf6e 213d 7f6b 3fbd 085d 2a3d
000002d0: 38ed 313d ad17 42bd 299d 2c3d 278d 2abd
000002e0: d5d5 143d f460 d2bc c41c 55bd dcf0 2c3d
000002f0: 0a59 50bd bb97 4fbd 3697 1a3d c826 1f3d
00000300: c666 34bd cc23 4abd 411f 1e3d 0543 503d
00000310: d7a5 07bd 6376 2f3d 4f51 1dbd e836 4f3d
00000320: f8a7 b6bc 39ab 053d 54b6 fd3c e4f0 433d
00000330: 7702 143d b39d 553d e2bb 08bd 3802 463d
00000340: 023d 34bd af16 383d 367c 8cbb 69bc 2c3d
00000350: a5a6 313d 7b1b 21bd 04db 08bd 9d46 163d
00000360: b7b5 5d3d 827b d23c fcfe 5bbd e2d9 16bd
00000370: 4630 2d3d 298f 25bd f723 023d 0e5d 3a3d
00000380: a819 373d 9e98 14bd fd13 513d badc 4a3c
00000390: 8654 11bd f5ec 23bd 336c 223d 5f34 33bd
000003a0: 878b 9fbc 60ed 21bd fb72 053d 0838 09bd
000003b0: b47c e6bc 7dc2 033d 0344 4cbd 9f4a 303d
000003c0: 1ba7 2d3d 930d 4b3d 9492 293d 7899 b2bc
000003d0: 1069 1fbd 7dc4 19bd 0d36 20bd af4f 4bbd
000003e0: 61bc 2a3d 928d 35bd fa5b 11bd ce20 17bd
000003f0: 5052 85bc 69b5 2d3d 300f a33c 862d 7d3b

network_body._body_endoder.seq_layers.4.weight f4 [256, 256]
0.030391006 0.007907232 0.0065546148 0.027528344 -0.0120546995 -0.010762825 0.07687824 -0.10055976
-0.06003352 -0.049382642 -0.11918485 0.022042934 0.047906596 0.0018291008 0.071115784 -0.012966528
0.08825228 0.033091508 -0.005845345 -0.09603756 -0.03203794 0.13749321 0.08187064 0.016740315
0.0550319 0.052192625 0.045579217 0.06552627 -0.19605522 0.10429453 0.04425811 0.08507741
0.08485953 0.033684574 -0.02137866 0.09906308 0.010168825 0.06780719 0.0064432 0.11633048
0.028452815 -0.060374748 -0.025264572 0.108185515 -0.03936527 0.00015574283 0.010388499 -0.15540573
0.052574016 0.051759288 -0.08044283 0.1079668 -0.0152756395 -0.0093190875 -0.034757487 -0.012170678
-0.13422376 -0.042250924 -0.036636543 0.06878656 -0.033158936 0.0484057 0.0718892 -0.07754785
-0.009035666 0.008207382 0.016016634 -0.06895322 0.006712538 -0.024756461 0.17110454 -0.048058145
0.021055605 -0.007000683 -0.022168187 -0.1053821 -0.07724183 -0.06285512 0.091958955 0.034605928
0.058523215 0.090985626 -0.105115876 0.021318432 0.042765923 0.035904344 0.016506184 -0.0018361681
-0.05639851 -0.05414832 0.05158283 -0.14422718 0.03126965 -0.0100414185 3.085173e-05 -0.07144889
-0.025249815 -0.046895225 0.12623928 -0.021063663 0.07428201 0.10508125 -0.01898111 -0.031732004
-0.1055384 -0.024966942 -0.099622026 -0.055239107 -0.07655737 -0.10507788 0.009614333 -0.010042649
0.0144652575 0.14974394 -0.03683242 0.022475332 -0.013904032 -0.12182553 -0.0584051 -0.071481176
0.004515219 0.007304305 0.06046814 0.04431334 0.0573313 -0.08431791 -0.03995567 -0.036242135
0.02011061 -0.003838087 -0.018446311 0.05091346 -0.013319134 0.006861749 -0.020356223 -0.00042804147
0.09887023 0.10931767 -0.011666697 -0.0008945842 0.013627741 -0.103045665 -0.025800977 0.059286192
-0.018934166 -0.03682446 0.070036516 0.10299848 -0.05584317 0.0230717 -0.042507965 -0.061046053
-0.022020133 -0.055946335 -0.05423512 0.016871512 0.040698647 -0.0468704 -0.035653472 -0.02758511
0.032599516 -0.10583129 -0.10518859 -0.0728021 0.03229395 0.06895845 0.082764946 0.0072879517
-0.010848235 -0.044687722 0.032120883 -0.1809337 -0.053490385 -0.06541689 0.004046866 0.084278196
-0.07667082 0.037656344 0.10061199 0.03901101 0.06802695 -0.12218265 -0.0006287187 0.07793159
0.06697153 -0.0016832888 0.097653896 0.076117724 -0.036160257 -0.0549982 -0.1030138 0.11749101
0.037021767 -0.087789126 -0.023330031 -0.108320616 -0.013896936 -0.036311958 0.061491746 0.038518887
-0.0031399354 -0.03938079 -0.07912356 -0.112460315 -0.056216676 0.007439317 0.080014974 0.012011766
0.039176174 -0.024514854 0.00058261736 -0.07301232 -0.029389337 0.015443615 0.052758723 0.016233189
0.051121484 0.018842584 0.05445306 -0.017868722 0.019123241 0.04551246 -0.16997416 -0.014364079
0.007176877 0.03931109 -0.047257937 0.023323396 -0.072198026 0.010560793 -0.046878103 0.053823918
-0.029534891 0.006089142 -0.07876822 -0.017294219 0.11697548 0.022475915 0.054792047 -0.026486648
-0.13014707 0.006251943 0.021266744 -0.014815374 0.046938606 0.03180511 0.12737092 0.04271099
0.030391699 0.04096843 -0.0580586 0.04090821 -0.07827101 -0.061379712 0.070649415 -0.034735043
00000000: 8ff6 f83c 568d 013c 18c8 d63b 1f83 e13c
00000010: 1381 45bc 8f56 30bc 5772 9d3d 47f2 cdbd
00000020: b5e5 75bd 7445 4abd 3017 f4bd 6293 b43c
00000030: b539 443d 70be ef3a 27a5 913d 8f71 54bc
00000040: 9dbd b43d f68a 073d 4f8a bfbb 57af c4bd
00000050: 373a 03bd 05cb 0c3e cbab a73d fc22 893c
00000060: 2169 613d efc7 553d 46b1 3a3d a332 863d
00000070: b3c2 48be 5f98 d53d fe47 353d 113d ae3d
00000080: d5ca ad3d d6f8 093d 4d22 afbc 96e1 ca3d
00000090: 259b 263c 7fde 8a3d 7b21 d33b ad3e ee3d
000000a0: e115 e93c 834b 77bd a6f7 cebc 5e90 dd3d
000000b0: 7a3d 21bd e64e 2339 8634 2a3c ae22 1fbe
000000c0: da57 573d 8c01 543d 36bf a4bd b31d dd3d
000000d0: ad46 7abc 16af 18bc de5d 0ebd 8667 47bc
000000e0: f471 09be 4e0f 2dbd 3310 16bd f8df 8c3d
000000f0: aad1 07bd 0e45 463d a53a 933d 68d1 9ebd
00000100: 540a 14bc 4178 063c 5135 833c 5937 8dbd
00000110: daf4 db3b 10ce cabc 0736 2f3e 9ed8 44bd
00000120: ce7c ac3c fc65 e5bb 0f9a b5bc 92d2 d7bd
00000130: f730 9ebd 2fba 80bd fa54 bc3d f2be 0d3d
00000140: 0ab6 6f3d ac56 ba3d fe46 d7bd fea3 ae3c
00000150: 522b 2f3d 6f10 133d fa37 873c 94ab f0ba
00000160: 2002 67bd a1ca 5dbd 8448 533d 4ab0 13be
00000170: 9b14 003d c384 24bc cb66 0138 cc53 92bd
00000180: b3d8 cebc 3515 40bd df44 013e b48d acbc
00000190: 2b21 983d d734 d73d 467e 9bbc 6bf9 01bd
000001a0: 8424 d8bd 7987 ccbc a206 ccbd 6742 62bd
000001b0: 1cca 9cbd 1233 d7bd 6f85 1d3c ec89 24bc
000001c0: b0ff 6c3c 7a56 193e 97dd 16bd 301e b83c
000001d0: bdcd 63bc aa7f f9bd 303a 6fbd b964 92bd
000001e0: 67f4 933b f458 ef3b 71ad 773d e881 353d
000001f0: 3ad4 6a3d deae acbd 8ea8 23bd a272 14bd
00000200: 02bf a43c 6a88 7bbb b81c 97bc a28a 503d
00000210: 7f38 5abc 86d8 e03b 18c2 a6bc c16a e0b9
00000220: 7a7c ca3d f1e1 df3d ad25 3fbc 8882 6aba
00000230: e346 5f3c 9b09 d3bd 925c d3bc 14d6 723d
00000240: d31b 9bbc 3fd5 16bd 4e6f 8f3d def0 d23d
00000250: cfbb 64bd dd00 bd3c d51c 2ebd 6d0b 7abd
00000260: 9163 b4bc fc27 65bd a525 5ebd 2036 8a3c
00000270: a0b3 263d 2dfb 3fbd 6009 12bd 2bfa e1bc
00000280: 1287 053d 13be d8bd 1e6d d7bd 4419 95bd
00000290: a946 043d 163a 8d3d ab80 a93d c5cf ee3b
000002a0: ccbc 31bc 790a 37bd 3091 033d af46 39be
000002b0: bc18 5bbd 4af9 85bd 939b 843b 0c9a ac3d
000002c0: 9705 9dbd 8a3d 1a3d a90d ce3d 02ca 1f3d
000002d0: b751 8b3d e63a fabd 99d0 24ba 999a 9f3d
000002e0: 5f28 893d cda1 dcba c4fe c73d 9ce3 9b3d
000002f0: c71c 14bd cb45 61bd e6f8 d2bd 209f f03d
00000300: 23a4 173d c9ca b3bd 9f1e bfbc 33d7 ddbd
00000310: f9af 63bc d9bb 14bd c5de 7b3d fbc5 1d3d
00000320: 60c7 4dbb c04d 21bd 880b a2bd 9851 e6bd
00000330: 7543 66bd 84c5 f33b e4de a33d 00cd 443c
00000340: 3277 203d 60d3 c8bc caba 183a 7c87 95bd
00000350: e8c1 f0bc 3707 7d3c 8819 583d 77fb 843c
00000360: c364 513d c35b 9a3c 2c0a 5f3d 6d61 92bc
00000370: 58a8 9c3c 466b 3a3d b50d 2ebe 5057 6bbc
00000380: 022c eb3b aa04 213d 8a91 41bd b510 bf3c
00000390: 8fdc 93bd 2d07 2d3c 4103 40bd 7876 5c3d
000003a0: 28f3 f1bc 6d87 c73b 3c51 a1bd 9bac 8dbc
000003b0: d790 ef3d 691f b83c a06d 603d 87fa d8bc
000003c0: 4645 05be 19dd cc3b 9837 ae3c 2fbc 72bc
000003d0: b242 403d 1346 023d 866d 023e b8f1 2e3d
000003e0: 03f8 f83c 83ce 273d dbce 6dbd 5e8f 273d
000003f0: 8d4c a0bd 4b69 7bbd a4b0 903d 5546 0ebd

network_body._body_endoder.seq_layers.4.bias f4 [256]
-0.035543445 0.05014309 0.041209474 -0.031895265 0.044522624 -0.024241628 0.048667848 -0.029292272
-0.03268205 0.035205383 0.033171806 -0.032512486 0.043196097 0.042942256 -0.028665679 0.04713895
0.04056714 -0.034220368 0.045263465 0.04681623 -0.038911033 0.038232233 0.04538835 -0.027763784
0.033894833 0.006430921 -0.025689403 0.04176046 -0.038157437 0.039492894 0.016255286 -0.032669622
-0.03501058 -0.029976338 -0.04113825 -0.025244381 -0.0356026 -0.03190881 -0.038210616 -0.025298173
0.05185066 -0.034537163 0.041164417 0.037846513 -0.033015028 0.051121727 0.038880907 0.032816675
-0.033207808 -0.02551785 -0.026727322 -0.03384114 -0.028765425 -0.028132562 -0.040684454 -0.009871424
0.0530389 -0.03682836 0.042849805 -0.031970583 0.040905915 -0.032619264 -0.034108154 -0.027653063
0.046802487 0.042343315 -0.030202644 -0.03867361 0.041604098 0.051374037 -0.026178012 -0.031485416
0.026739296 -0.030761402 -0.033859327 -0.036223844 -0.03820189 -0.036184534 -0.033055652 -0.038195852
0.034810126 -0.03267866 0.044459462 0.044229902 0.04880224 0.049957663 -0.035598505 -0.035125863
-0.03147345 0.049660016 0.045696937 0.03849118 0.034652803 -0.032887015 -0.029285425 0.038010605
0.035277598 -0.040604394 -0.040458642 -0.034784738 0.043842018 -0.03158378 -0.027022893 -0.03971456
0.04746734 -0.030045198 0.040595137 -0.028759018 -0.032907333 0.048913483 0.04556398 -0.03405404
-0.024096482 -0.028526444 0.043423712 0.048857678 -0.039093163 0.049089964 0.044572018 0.04071284
0.043848164 0.04881617 0.042936474 0.044124164 0.041935354 0.043506373 0.037573356 -0.038519222
-0.036177795 0.041849338 -0.03685999 -0.034742683 0.002890032 -0.03243386 -0.03619687 0.04025932
0.044651303 -0.035029773 0.041124303 0.03867625 0.054666247 0.057191715 -0.033256225 -0.036492813
0.056193717 -0.030021496 0.044616412 0.04834787 0.03394859 -0.035122357 -0.019739686 -0.030332
-0.03984457 0.030694585 -0.04321066 0.044559907 0.044298436 -0.035502445 0.047840886 -0.03136215
-0.03139379 -0.038904905 0.03818754 -0.031095065 0.032154735 -0.038037214 0.029490083 -0.03428829
0.040708497 -0.03089882 -0.043049656 0.042635135 -0.043452803 0.041050028 -0.031387825 0.041223068
-0.03539876 -0.03954932 -0.020937165 -0.023919927 0.04533548 -0.033557832 -0.035456523 -0.026468104
0.05138278 -0.029392013 0.055948537 0.04380022 0.029777683 -0.04474792 0.043803047 0.04625616
0.046833884 0.04787569 -0.039456163 0.04679372 0.04025384 0.040813178 0.035347145 0.037965134
0.044124994 -0.007624854 0.034737315 0.042130474 0.043618772 -0.024796382 -0.041814163 -0.033044636
-0.03525471 -0.029763363 -0.030497828 0.04763377 0.050729718 -0.034141853 0.042497244 0.043077096
-0.02867887 -0.036591355 -0.03820224 -0.030425657 -0.025427287 -0.02705453 0.04007038 0.036006883
0.04448377 -0.03237969 -0.04666475 -0.028536893 -0.029514989 -0.03354755 -0.02893127 -0.031271614
-0.036651343 -0.034528587 -0.024413986 -0.03582417 0.009958711 -0.02889392 0.04081197 -0.029788502
-0.03648543 -0.026255341 0.02737069 0.046032887 0.04511535 -0.029761503 0.04316664 0.026654912
-0.029531814 0.0386523 -0.034396514 -0.03440328 -0.03153955 -0.034674466 0.051133845 -0.029972296
00000000: 0196 11bd d762 4d3d 44cb 283d 9ca4 02bd
00000010: 5b5d 363d 6196 c6bc f057 473d 59f6 efbc
00000020: 9ddd 05bd 8533 103d 29df 073d d02b 05bd
00000030: 64ee 303d 38e4 2f3d 49d4 eabc c614 413d
00000040: bb29 263d a82a 0cbd 2f66 393d 60c2 3f3d
00000050: 2d61 1fbd 6799 1c3d 22e9 393d e070 e3bc
00000060: 4fd5 0a3d 7aba d23b 9572 d2bc 040d 2b3d
00000070: f94a 1cbd 4dc3 213d ce29 853c 95d0 05bd
00000080: 4167 0fbd f090 f5bc 9580 28bd 4ecd cebc
00000090: 08d4 11bd d0b2 02bd bc82 1cbd 1d3e cfbc
000000a0: 5c61 543d d776 0dbd 059c 283d f204 1b3d
000000b0: c43a 07bd 0465 513d 9641 1f3d c76a 063d
000000c0: e904 08bd cf0a d1bc 42f3 dabc 029d 0abd
000000d0: 78a5 ebbc 4276 e6bc bea4 26bd c1bb 21bc
000000e0: 513f 593d 56d9 16bd 4783 2f3d 96f3 02bd
000000f0: f68c 273d c79b 05bd feb4 0bbd ad88 e2bc
00000100: f7b3 3f3d 2f70 2d3d 896b f7bc 3868 1ebd
00000110: 0f69 2a3d 956d 523d 4573 d6bc daf6 00bd
00000120: 5e0c db3c 56ff fbbc 14b0 0abd 745f 14bd
00000130: 9679 1cbd 3c36 14bd 5d65 07bd 4173 1cbd
00000140: 1095 0e3d 0fda 05bd 201b 363d 6a2a 353d
00000150: dce4 473d 68a0 4c3d bdcf 11bd 23e0 0fbd
00000160: 4eea 00bd 4d68 4b3d b62c 3b3d eda8 1d3d
00000170: 19f0 0d3d 89b4 06bd fde7 efbc 02b1 1b3d
00000180: 3e7f 103d cb50 26bd f6b7 25bd 717a 0ebd
00000190: b093 333d fe5d 01bd 1d5f ddbc bcab 22bd
000001a0: 1d6d 423d 5921 f6bc 1647 263d 0898 ebbc
000001b0: d7c9 06bd 8159 483d 4ca1 3a3d 407c 0bbd
000001c0: fc65 c5bc 4ab0 e9bc 10dd 313d fd1e 483d
000001d0: 2720 20bd 8f12 493d 2691 363d 82c2 263d
000001e0: 229a 333d 77f3 473d 28de 2f3d 8abb 343d
000001f0: 68c4 2b3d bd33 323d 85e6 193d 55c6 1dbd
00000200: 2b2f 14bd 366a 2b3d 80fa 16bd 584e 0ebd
00000210: b166 3d3b 5ed9 04bd 2b43 14bd f5e6 243d
00000220: 49e4 363d 617b 0fbd f571 283d fd6a 1e3d
00000230: b7e9 5f3d dc41 6a3d ae37 08bd 7d79 15bd
00000240: 622b 663d a4ef f5bc b3bf 363d 6b08 463d
00000250: ad0d 0b3d 76dc 0fbd 1fb5 a1bc d17a f8bc
00000260: 0f34 23bd 3673 fb3c a9fd 30bd 7384 363d
00000270: 4772 353d 036b 11bd cef4 433d 9975 00bd
00000280: c696 00bd c05a 1fbd 8a6a 1c3d 14bb febc
00000290: afb4 033d e9cc 1bbd 3095 f13c e171 0cbd
000002a0: f4bd 263d 861f fdbc d654 30bd 2ea2 2e3d
000002b0: 91fb 31bd 1324 283d 8590 00bd 85d9 283d
000002c0: 4afe 10bd 78fe 21bd 6b84 abbc b9f3 c3bc
000002d0: b2b1 393d f073 09bd dc3a 11bd a3d3 d8bc
000002e0: c076 523d 85c7 f0bc 4b2a 653d dc67 333d
000002f0: 54f0 f33c 9849 37bd d36a 333d 1977 3d3d
00000300: e3d4 3f3d 4d19 443d c99c 21bd c6aa 3f3d
00000310: 36e1 243d b82b 273d 2bc8 103d 5481 1b3d
00000320: 69bc 343d e9d9 f9bb b748 0e3d 0191 2c3d
00000330: 99a9 323d c821 cbbc 5445 2bbd d059 07bd
00000340: 3e67 10bd 4cd2 f3bc 95d6 f9bc a11b 433d
00000350: f7c9 4f3d 54d8 0bbd 9711 2e3d 9c71 303d
00000360: f3ef eabc d1e0 15bd f479 1cbd 3a3f f9bc
00000370: e34c d0bc 76a1 ddbc d720 243d f47b 133d
00000380: 9d34 363d 91a0 04bd 8923 3fbd 34c6 e9bc
00000390: 6bc9 f1bc 2869 09bd 4501 edbc aa16 00bd
000003a0: b81f 16bd d96d 0dbd d7ff c7bc 5dbc 12bd
000003b0: dd29 233c f1b2 ecbc 742a 273d 0407 f4bc
000003c0: bf71 15bd 7115 d7bc 7f38 e03c fb8c 3c3d
000003d0: e0ca 383d 65ce f3bc 81cf 303d 675b da3c
000003e0: b4ec f1bc e051 1e3d 5ce3 0cbd 74ea 0cbd
000003f0: 9d2f 01bd d006 0ebd b971 513d 7688 f5bc

action_model._discrete_distribution.branches.0.weight f4 [2, 256]
-0.015226619 0.023644801 0.042435132 -0.012339192 0.041576065 -0.0058340924 0.023172092 -0.016870845
-0.0083901705 0.02564927 0.006027411 -0.02428966 0.019890597 0.020716239 -0.021952217 0.024509566
0.014368649 -0.029757556 0.012191706 0.01697586 -0.021831112 0.011246349 0.019187484 -0.022543125
0.0126798265 0.0067437855 -0.010683564 0.023664227 -0.020706203 0.018182356 -0.0041394616 -0.025586095
-0.039059043 -0.016107973 -0.023807922 -0.018210268 -0.029928789 -0.017172942 -0.020590784 -0.01960322
0.023895377 -0.022769475 0.01588738 0.022897677 -0.020129347 0.04091304 0.015508067 0.001371256
-0.026997562 -0.02148788 -0.040447656 -0.02416563 -0.031146389 -0.03379856 -0.024785493 -0.009528652
0.029273007 -0.027492538 0.011511554 -0.02154458 0.030461185 -0.020681132 -0.026056588 -0.015246377
0.040816497 0.02130579 -0.021482058 -0.026505692 0.024376832 0.03296672 -0.037020136 -0.03569988
0.020063436 -0.03497514 -0.038043562 -0.023231482 -0.031179503 -0.038332514 -0.036529884 -0.03374785
0.0071602464 -0.044921592 0.028487414 0.035810847 0.022680165 0.037696674 -0.018713323 -0.040034898
-0.017099949 0.01801813 0.031745613 0.030201845 0.019851308 -0.041676056 -0.011637906 0.033498082
0.022594884 -0.0044621173 -0.024091622 -0.032612108 0.01476826 -0.015133768 -0.030457178 -0.029581578
0.0110796355 -0.0186969 0.029625535 -0.023774061 -0.02483289 0.02578344 0.012491624 -0.014237714
-0.012177722 -0.021714063 0.01870514 0.02927424 -0.02660494 0.02416056 0.029731296 0.011548574
0.023820097 0.02005658 0.038016517 0.021316452 0.00982167 0.016267845 0.021749856 -0.036672078
-0.03458595 0.020011242 -0.0290817 -0.027265757 -0.010034483 -0.027708177 -0.01595599 0.023144612
0.024860328 -0.024392094 0.027964946 0.019823086 0.03286532 0.030085862 -0.025904091 -0.038689032
0.031930115 -0.03681333 0.026870407 0.02276517 0.009189095 -0.017690845 -4.3446053e-05 -0.030545104
-0.034644198 0.007980449 -0.03399628 0.026672084 0.027609875 -0.018598959 0.037568588 -0.023573503
-0.0429616 -0.03905479 0.029454885 -0.03835451 0.018710822 -0.039442066 0.0053920094 -0.028910646
0.027629046 -0.026092155 -0.039076433 0.033655766 -0.025016481 0.020078147 -0.029608184 0.04738218
-0.021877635 -0.033223655 -0.017739661 -0.037713226 0.025236223 -0.027608102 -0.027298363 -0.012360486
0.029556902 -0.019115895 0.03535586 0.017234953 0.0008516726 -0.03355856 0.016210373 0.04333238
0.027311498 0.028577097 -0.039100222 0.020837136 0.02895278 0.030222744 0.0079876315 0.018508324
0.023443446 -0.0015475035 0.008354707 0.030848002 0.028046014 -0.0108389 -0.02957024 -0.024493052
-0.024165597 -0.0250517 -0.031400107 0.030740425 0.027939526 -0.01863066 0.015169442 0.020817101
-0.012140723 -0.01598191 -0.019282503 -0.027842 -0.0017560836 -0.023075648 0.022363793 0.022161419
0.02620993 -0.036077008 -0.027840288 -0.0097229695 -0.042226654 -0.036292613 -0.021055307 -0.04168729
-0.017178755 -0.032077245 -0.005059395 -0.033342272 -0.0053875144 -0.019512918 0.024245849 -0.03251681
-0.031063449 -0.031898364 0.0020308318 0.024610724 0.026763242 -0.026078084 0.022811472 0.007238232
-0.019085394 0.021004286 -0.022341859 -0.008916107 -0.028444633 -0.03087621 0.04260965 -0.021427646
00000000: 1279 79bc beb2 c13c 76d0 2d3d 532a 4abc
00000010: aa4b 2a3d ea2b bfbb 66d3 bd3c ba34 8abc
00000020: ed76 09bc 6b1e d23c 9781 c53b 1cfb c6bc
00000030: 9bf1 a23c 1ab5 a93c 23d5 b3bc 49c8 c83c
00000040: 7b6a 6b3c 1ec6 f3bc b9bf 473c f510 8b3c
00000050: 29d7 b2bc 9b42 383c 122f 9d3c 5cac b8bc
00000060: 0cbf 4f3c f9fa dc3b 1d0a 2fbc 7bdb c13c
00000070: 0ea0 a9bc 2af3 943c 52a4 87bb ee99 d1bc
00000080: 60fc 1fbd def4 83bc d508 c3bc b32d 95bc
00000090: 382d f5bc 45ae 8cbc 01ae a8bc ef96 a0bc
000000a0: 3dc0 c33c 0d87 babc 4026 823c e993 bb3c
000000b0: 4de6 a4bc 6f94 273d 8c15 7e3c b7bb b33a
000000c0: fe29 ddbc 5a07 b0bc 71ac 25bd 00f7 c5bc
000000d0: b626 ffbc 5c70 0abd f20a cbbc 101e 1cbc
000000e0: f2cd ef3c 0838 e1bc f59a 3c3c 427e b0bc
000000f0: bc89 f93c 7a6b a9bc a074 d5bc f1cb 79bc
00000100: 332f 273d 7b89 ae3c 24fb afbc 7722 d9bc
00000110: ecb1 c73c 1d08 073d 6da2 17bd 0a3a 12bd
00000120: 135c a43c 1842 0fbd 91d3 1bbd f34f bebc
00000130: 286c ffbc 8e02 1dbd 5ca0 15bd 303b 0abd
00000140: 80a0 ea3b b4ff 37bd 705e e93c 65ae 123d
00000150: c1cb b93c d467 1a3d af4c 99bc a2fb 23bd
00000160: 3115 8cbc c29a 933c b007 023d dc69 f73c
00000170: 369f a23c 83b4 2abd eaac 3ebc 4935 093d
00000180: e818 b93c f436 92bb cb5b c5bc 4694 05bd
00000190: 92f6 713c a0f3 77bc 5581 f9bc 1155 f2bc
000001a0: 5c87 353c 3e2a 99bc 40b1 f23c d2c1 c2bc
000001b0: 586e cbbc cb37 d33c aba9 4c3c 4d45 69bc
000001c0: 1185 47bc b1e1 b1bc 863b 993c 88d0 ef3c
000001d0: 9af2 d9bc 5eec c53c 0c8f f33c 3b36 3d3c
000001e0: 5d22 c33c b24d a43c 35b7 1b3d d79f ae3c
000001f0: 12eb 203c 2544 853c c12c b23c 7635 16bd
00000200: ffa9 0dbd 9eee a33c bf3c eebc 705c dfbc
00000210: ac67 24bc 42fc e2bc 23b6 82bc c599 bd3c
00000220: e3a7 cb3c eed1 c7bc be16 e53c 0664 a23c
00000230: c99d 063d a076 f63c d134 d4bc 6478 1ebd
00000240: 27c9 023d 93c9 16bd 541f dc3c 067e ba3c
00000250: dc8d 163c 64ec 90bc d839 36b8 ba39 fabc
00000260: 13e7 0dbd 6ec0 023c af3f 0bbd 6a7f da3c
00000270: 1b2e e23c d85c 98bc 85e1 193d 381d c1bc
00000280: 81f8 2fbd eaf7 1fbd 5f4b f13c 9e19 1dbd
00000290: 7047 993c 018e 21bd 74af b03b 05d6 ecbc
000002a0: 4f56 e23c 37bf d5bc 9c0e 20bd a1da 093d
000002b0: 5def ccbc ed7a a43c dd8c f2bc d113 423d
000002c0: ba38 b3bc 8715 08bd c452 91bc 2f79 1abd
000002d0: 32bc ce3c 632a e2bc d1a0 dfbc a383 4abc
000002e0: 5121 f23c f098 9cbc 4ed1 103d 5130 8d3c
000002f0: c842 5f3a b374 09bd 9ecb 843c 4b7d 313d
00000300: 5dbc df3c 841a ea3c 8e27 20bd a4b2 aa3c
00000310: 612e ed3c b095 f73c 8ede 023c c59e 973c
00000320: 780c c03c 9ad5 caba 2ee2 083c f3b4 fc3c
00000330: c1c0 e53c a495 31bc 4a3d f2bc a7a5 c8bc
00000340: eef6 c5bc 3939 cdbc 669d 00bd 58d3 fb3c
00000350: 6fe1 e43c 539f 98bc 4089 783c a088 aa3c
00000360: e2e9 46bc 7fec 82bc 57f6 9dbc e814 e4bc
00000370: 632c e6ba 2409 bdbc 4634 b73c dd8b b53c
00000380: 35b6 d63c 7cc5 13bd 5111 e4bc 174d 1fbc
00000390: dbf5 2cbd 90a7 14bd 2e7c acbc 4bc0 2abd
000003a0: 76ba 8cbc 6e63 03bd 48c9 a5bb e891 08bd
000003b0: bf89 b0bb 8ed9 9fbc 3b9f c63c 5930 05bd
000003c0: c678 febc dca7 02bd b417 053b 6e9c c93c
000003d0: 963e db3c b5a1 d5bc 20df ba3c b12e ed3b
000003e0: f958 9cbc 2e11 ac3c 4606 b7bc dd14 12bc
000003f0: b804 e9bc 1bf0 fcbc 7587 2e3d 0889 afbc

action_model._discrete_distribution.branches.0.bias f4 [2]
0.029183097 -0.029183095
00000000: 6411 ef3c 6311 efbc

54 f4 [4]
0.22514217 0.44909915 0.24999428 0.24412988
00000000: ab8b 663e 53f0 e53e 80fe 7f3e 2ffd 793e
