results/ppo/FlappyAgent/FlappyAgent-1872.onnx (onnx, 73040 bytes, 6 tensors)

network_body._body_endoder.seq_layers.0.weight f4 [128, 6]
00000000: 94c3 14be 9f38 c9bd f867 823f 8861 73bf
00000010: 1074 923d 61ca 813c 64b2 043f 7dfb 0a3f
00000020: 6fd8 89be b7dc e63d 88e9 c73e f287 03bd
00000030: e948 aebe 28e8 7ebd 9b2d 04bf b702 0b3e
00000040: 9b80 66bf 17d3 683e 4bd0 cfbf ded9 b2bb
00000050: c926 ad3d 63cf 583e f4f6 e63e 834a 823e
00000060: 20a0 e6bd e514 203d 932b 8cbc e5ec cebd
00000070: d56e 723e 078b 543e f39a 82be 00ca 643d
00000080: 6063 41be 95e8 1ebe 1b2e f53e d7fd 81bb
00000090: a0a9 393c 5fb9 113f 00f7 233e 07f5 f13d
000000a0: e44d b23e 7754 7e3e 2529 39be 4254 22bf
000000b0: 51c1 a43c 3a77 d73d a6ed 81bc 45fa bfbe
000000c0: cbb0 89bf 1fc7 e5be 04f8 f33c 2a03 70bf
000000d0: 3f0c c4be 0e48 74be c29b c8be d668 243f
000000e0: d96e f3be 411e 4dbe 27af e2be fc53 18be
000000f0: fe61 033f 3443 b43d cab6 c03e 43cf 04bf
00000100: 5b70 733f d494 e6bc dd8f 1bbe 5329 8e3e
00000110: db68 0abf e090 b23e 16a1 093f 0988 25bd
00000120: 7142 b63b 654d 203f d1fa 7dbf 8022 2ebf
00000130: e701 a7bd 8de7 313f 5f34 803d be9b 83bf
00000140: dae6 3c3d 7b53 aa3e 0976 a53e 30d0 c7be
00000150: 1fc6 0ebd 221b aa3e 4e1c 023f 1ae5 18be
00000160: dc25 e83e ee14 303f 7d3b 3bbf 3b27 90be
00000170: e8ae 273f a7e1 a2bd 2d6e 29be 3a33 2a3f
00000180: 985a 9d3e 34a4 0bbd 3a0d d7be 350b 1fbf
00000190: 03a8 4b3f 3527 013f 13ae 3b3e 5139 223f
000001a0: a431 f23b d03a 303e 2ac4 3abc 8fa4 863e
000001b0: 489a 7abc e5ea f43d 6c76 a23e a552 9c3e
000001c0: 6110 e53e 7c0d cfbd 770f 00bf 92e2 2f3d
000001d0: 7541 103f bce4 793e 8f02 a13b 1700 df3e
000001e0: d618 f0bd 66d5 91be 21b2 8abe 9a1a 87bf
000001f0: 03e4 b1bd 9a4e 513e 9b4d 99bd f615 1b3f
00000200: 5732 3ebf 3d69 f23e 1b60 81bd 016e 8ebd
00000210: 102c a0be ea12 a1be e603 c0be 6729 e3be
00000220: a46b 453e f425 b63d c084 9b3e 14f9 103f
00000230: cfe5 5c3f 03e3 ed3d d074 55bf 8b51 09bf
00000240: 4a28 a63e d3f6 483d 024e e63e 08f6 12be
00000250: 0bcd 373c af46 8f3e 480b a23d 9242 283b
00000260: 5604 6e3e 1ef5 ddbe 0782 2fbf 4f47 c7be
00000270: 3f30 533e 7a5e d7bd 9537 8ebe 4fc8 11bf
00000280: cd65 91bf e7aa e93e 7dc6 86be 7ddd bb3d
00000290: 7181 ca3e f9e9 12be a506 8cbe 5a41 e63d
000002a0: 1fa2 0bbe b00f fd3a 302b 853f 442d 3fbf
000002b0: 0bd7 ab3d bc55 fc3e be36 0abf 939a a13e
000002c0: 9f0e b83e feaf fbbd cd7a 3abf 8aba e83d
000002d0: b032 fabd bca1 893d a12d 203f 9e6a 213f
000002e0: fd9d 5c3f 9e52 653e 460f 1dbf d913 cdbe
000002f0: 2824 2bbe 8df8 77be 2639 b2bc 51c8 413e
00000300: 00cf 253d 7226 25be 07f5 913e 4dbf 8c3e
00000310: 8397 a8be 6b0c d93e 8ddc 41bf c9e4 88bd
00000320: c6f0 86bf 5557 d4be 3ccd 5bbe c727 02be
00000330: ab3b 4f3e 9f3c ee3d de3a ea3e 4f6f 683d
00000340: 9889 913e 2fc0 cc3e 7b61 d23e 8c2c ef3d
00000350: 2049 823c 8c05 49be aa0f 7ebe 1a85 34be
00000360: 0bf9 0bbd 9b58 41be d252 85be 4a3f 3abe
00000370: c9a7 68bf 694c eebc 8b50 a5be ec1e d8bd
00000380: 5a01 aebe 4d78 933d 8bbf 3c3e 9abc 60be
00000390: 602b 8d3e 21d6 b3be 2f80 013f d52e 50be
000003a0: 6734 88bd aa3e e73e 5fb8 173e 50bc b2bd
000003b0: 7552 39be 71cb 26bf 6db9 113b 76e5 ff3e
000003c0: cc6c 863e 8429 b4be 4b2d 65be a513 853d
000003d0: 3306 c93e 717a 0e3e 4113 e1be c5be 823e
000003e0: fecd 3c3e 8fe7 20bf 59c6 2a3d d008 48bd
000003f0: 4e7f cbbd 6bf1 6e3e 3b4e 293f 764e abbe
-0.14527732 -0.09825253 1.0187979 -0.95070696 0.071510434 0.015843572 0.518347 0.5428999
-0.26922938 0.11272567 0.39045358 -0.03211207 -0.3404 -0.06223312 -0.5163209 0.13575254
-0.90039986 0.22736774 -1.6235441 -0.0054581007 0.08454663 0.21172862 0.45110285 0.25447473
-0.1126101 0.039082427 -0.017110622 -0.10103778 0.23675092 0.2075616 -0.25508842 0.055856705
-0.18885565 -0.1551841 0.47886738 -0.0039670276 0.011331946 0.5692348 0.16012192 0.118143134
0.3482505 0.24836908 -0.18082102 -0.6340982 0.020111712 0.105207875 -0.01586039 -0.37495628
-1.0757078 -0.4487848 0.029781349 -0.9375483 -0.38290593 -0.23855612 -0.39181334 0.64222467
-0.47545508 -0.20031072 -0.44274256 -0.14875787 0.513214 0.088018805 0.37639457 -0.51878756
0.95093316 -0.028147139 -0.15191598 0.27765903 -0.54066247 0.34876156 0.5376142 -0.040412936
0.0055621197 0.62618095 -0.9921084 -0.6802139 -0.0815466 0.69493943 0.06259989 -1.0281904
0.046118595 0.33266816 0.32316616 -0.39026022 -0.03485691 0.33223826 0.5082444 -0.14931145
0.45341384 0.68781936 -0.73137647 -0.2815493 0.6550126 -0.07953196 -0.16545935 0.66484416
0.3073318 -0.034092143 -0.4200228 -0.62126476 0.7955324 0.5045045 0.18328123 0.6336871
0.0073911715 0.17209935 -0.011399308 0.26297423 -0.015295573 0.11958865 0.31730974 0.30531803
0.4473906 -0.10109994 -0.500236 0.042940684 0.5634988 0.24403661 0.004913635 0.43554756
-0.11723487 -0.28483123 -0.27089027 -1.0554993 -0.08686068 0.2044014 -0.07485505 0.60580385
-0.7429556 0.47345915 -0.06317159 -0.06954575 -0.31283617 -0.31459743 -0.37502974 -0.44367525
0.19279343 0.08893958 0.30374718 0.56630063 0.8628816 0.11615565 -0.83381367 -0.5364005
0.32452613 0.049063515 0.4498139 -0.14351666 0.01121832 0.27983615 0.07912308 0.0025674445
0.23243842 -0.43351072 -0.6855778 -0.38921592 0.20623873 -0.10516067 -0.2777678 -0.5694627
-1.1359192 0.456382 -0.2632331 0.09173105 0.3955188 -0.14347066 -0.2734882 0.112429336
-0.13636063 0.0019307043 1.0403805 -0.74678445 0.083906256 0.4928416 -0.5398978 0.31563243
0.35948655 -0.12289427 -0.7284363 0.113637045 -0.12216699 0.067203015 0.62569624 0.6305331
0.8617857 0.22394797 -0.6135143 -0.40054205 -0.16713011 -0.24215908 -0.021755766 0.18924071
0.040480614 -0.16127947 0.28507254 0.274897 -0.32928094 0.42392287 -0.7572716 -0.06684262
-1.0542228 -0.4147288 -0.2146501 -0.12710486 0.20237605 0.11632656 0.45748037 0.056746777
0.28425288 0.39990374 0.41089997 0.116784185 0.01590401 -0.19631022 -0.24810663 -0.17628899
-0.034173053 -0.18881457 -0.2603975 -0.18188205 -0.9088102 -0.02908917 -0.32288012 -0.10552773
-0.33985406 0.0720068 0.18432443 -0.21946946 0.27572155 -0.35124305 0.5058622 -0.20330365
-0.0665062 0.45164996 0.14816426 -0.08727324 -0.18097861 -0.65154177 0.0022235767 0.49979752
0.2625488 -0.35187924 -0.22380559 0.064978875 0.39262542 0.13913895 -0.43960002 0.2553617
0.18437955 -0.6285333 0.041693065 -0.04883653 -0.09936391 0.23334281 0.66134995 -0.33458298

network_body._body_endoder.seq_layers.0.bias f4 [128]
00000000: 0000 0000 0000 0000 0000 0000 0000 0000
00000010: 0000 0000 0000 0000 0000 0000 0000 0000
00000020: 0000 0000 0000 0000 0000 0000 0000 0000
00000030: 0000 0000 0000 0000 0000 0000 0000 0000
00000040: 0000 0000 0000 0000 0000 0000 0000 0000
00000050: 0000 0000 0000 0000 0000 0000 0000 0000
00000060: 0000 0000 0000 0000 0000 0000 0000 0000
00000070: 0000 0000 0000 0000 0000 0000 0000 0000
00000080: 0000 0000 0000 0000 0000 0000 0000 0000
00000090: 0000 0000 0000 0000 0000 0000 0000 0000
000000a0: 0000 0000 0000 0000 0000 0000 0000 0000
000000b0: 0000 0000 0000 0000 0000 0000 0000 0000
000000c0: 0000 0000 0000 0000 0000 0000 0000 0000
000000d0: 0000 0000 0000 0000 0000 0000 0000 0000
000000e0: 0000 0000 0000 0000 0000 0000 0000 0000
000000f0: 0000 0000 0000 0000 0000 0000 0000 0000
00000100: 0000 0000 0000 0000 0000 0000 0000 0000
00000110: 0000 0000 0000 0000 0000 0000 0000 0000
00000120: 0000 0000 0000 0000 0000 0000 0000 0000
00000130: 0000 0000 0000 0000 0000 0000 0000 0000
00000140: 0000 0000 0000 0000 0000 0000 0000 0000
00000150: 0000 0000 0000 0000 0000 0000 0000 0000
00000160: 0000 0000 0000 0000 0000 0000 0000 0000
00000170: 0000 0000 0000 0000 0000 0000 0000 0000
00000180: 0000 0000 0000 0000 0000 0000 0000 0000
00000190: 0000 0000 0000 0000 0000 0000 0000 0000
000001a0: 0000 0000 0000 0000 0000 0000 0000 0000
000001b0: 0000 0000 0000 0000 0000 0000 0000 0000
000001c0: 0000 0000 0000 0000 0000 0000 0000 0000
000001d0: 0000 0000 0000 0000 0000 0000 0000 0000
000001e0: 0000 0000 0000 0000 0000 0000 0000 0000
000001f0: 0000 0000 0000 0000 0000 0000 0000 0000
0.0 0.0 0.0 0.0 0.0 0.0 0.0 0.0
0.0 0.0 0.0 0.0 0.0 0.0 0.0 0.0
0.0 0.0 0.0 0.0 0.0 0.0 0.0 0.0
0.0 0.0 0.0 0.0 0.0 0.0 0.0 0.0
0.0 0.0 0.0 0.0 0.0 0.0 0.0 0.0
0.0 0.0 0.0 0.0 0.0 0.0 0.0 0.0
0.0 0.0 0.0 0.0 0.0 0.0 0.0 0.0
0.0 0.0 0.0 0.0 0.0 0.0 0.0 0.0
0.0 0.0 0.0 0.0 0.0 0.0 0.0 0.0
0.0 0.0 0.0 0.0 0.0 0.0 0.0 0.0
0.0 0.0 0.0 0.0 0.0 0.0 0.0 0.0
0.0 0.0 0.0 0.0 0.0 0.0 0.0 0.0
0.0 0.0 0.0 0.0 0.0 0.0 0.0 0.0
0.0 0.0 0.0 0.0 0.0 0.0 0.0 0.0
0.0 0.0 0.0 0.0 0.0 0.0 0.0 0.0
0.0 0.0 0.0 0.0 0.0 0.0 0.0 0.0

network_body._body_endoder.seq_layers.2.weight f4 [128, 128]
00000000: cb8f 693c 3cf5 413c 3fac 273d 9e32 aa3d
00000010: 0a5f 9c3c 93d2 633c 7136 dabc a0dd bbbd
00000020: 4cd4 1bbd 8d75 c53d 27a4 98bd 5d53 bcbd
00000030: 3868 85bd 098e ddbd 1625 20be 2f21 8f3d
00000040: 289d 653b fbbc 1ebe 488c d3bd 1ae8 e33d
00000050: 07d1 243c 7a3c a3bd 4e9c 0dbc c974 113d
00000060: 5e6e 44bd 561b 603e 78d8 14bd b3cc 1fbe
00000070: a5c1 323e bb88 983c cfa6 1bbe 99a5 cdbc
00000080: 6ce3 4abe 30e4 c33d 945d e73d db9d 143e
00000090: 56d8 ccbc 22a1 643d 24f4 7cbd 4943 e1bc
000000a0: 509e 7bbc 6fab cb3d a0a5 8ebd 1990 59bd
000000b0: 34e2 f93c 30ab 25be 587f c2bd 5859 91bd
000000c0: 3f14 c4bd 507a 80bd 108b 01be 41d3 f6bd
000000d0: da5c d7bd d76f 1f3c 6b55 1ebd caa5 10be
000000e0: 465e 5f3e 85ed 32be b57d 6abe 822e a43c
000000f0: 9186 5b3d 1b77 133d 6b9a d33c 8a1a 20bd
00000100: ee64 9dbd 55fb c4bc ca67 8cbd 900b b2bc
00000110: 483c 4f3d 765e d33d 5023 f83d 7fbb cf3d
00000120: fc51 2cbc 4b45 cc3d 0700 6f3c fdea 893d
00000130: c278 c23d 4dd3 e6bd 4aaa 983e 5d7e 5f3e
00000140: edc2 bd3d 8516 c0bc 95ce 283e eb9c 19be
00000150: 2ee2 06be c0fb 22bd 6e0c 6f3d 9f9d 30bc
00000160: a237 063d c88c 75bd 4b8c f53c aa8d 2d3d
00000170: 78e2 313e 2097 6c3d 5aaa 1cbe 15ea d43d
00000180: e0fe 733c 2f3c 6abe e056 79bc adf5 b0bb
00000190: 2f42 e3bd f293 14bd 6b5f a6bc 3df4 cc3d
000001a0: d10c 153e 3a95 6dbc 874a e2bd c50a 14be
000001b0: 9e37 8a3d 30c5 0a3d 549f 52bd 2ebe df3d
000001c0: ea89 513d ddf7 c6bd 1f8a 903d 43f3 3f3e
000001d0: 45de 8b3b 989d cf3c 7cc4 f8bd 6a88 0ebd
000001e0: b87b d6bd 7d63 103d 73d7 89bc d56a f13d
000001f0: b514 1cbd 7afd ce3c d8aa 14be 7025 e33c
00000200: e21f 033c 4c5f c3bd f56f 29bd 25a0 3d3d
00000210: 6611 03bd 90b0 553d afff c03c c735 04be
00000220: 1f74 90bd ad58 3d3d e8d2 023e 0524 38bd
00000230: ee4b a4bd d1fa 4a3c be29 8e3c 4bfb b0bd
00000240: 2167 9cbd a63f 883c 9312 81bc a87c 733d
00000250: 895d 2e3e f5ca 363d de2a 9cbd 0fdd 14bd
00000260: 670a f0b8 c73f 64be e4df aa3d ce5f 14bd
00000270: 22c6 083e e8ba 983d 7786 38bd 56da bb3c
00000280: a578 b83d 8589 4a3d 8559 193e 7b5a 203d
00000290: 41ce 45bc 4366 263c 1136 bc3d 570d c73d
000002a0: 26f5 f13d b1aa d33d d1d3 cebd 8f6e 73bd
000002b0: 4fe2 8cbd 6fe0 62bd 546b 42bc 10e3 9cbd
000002c0: f27e 433d 68df 1cbd e089 20be 8dd7 c33d
000002d0: 8ede a3bd 6bf8 33bc de8d 963c 63f6 823b
000002e0: b4df ab3d 04f4 06bc 7420 5cbd f68d 5bbe
000002f0: faaa 0bbd e313 78bd 2de0 25bd 8d87 a6bc
00000300: 3b27 283c 3310 3bbd 3a05 15bc 1248 5fbd
00000310: 73d2 67bd 510e 56bd a525 993d 1627 dfbd
00000320: aec5 91bc 3423 633d c095 853d 44bf afbd
00000330: b6f2 05be b135 aa3d 2d09 f93c 95a0 c4bc
00000340: 6392 02be 4fc9 413c edca 453d 8de8 ddbd
00000350: 8483 f2bb 1051 703d d28f 83bc d160 933c
00000360: a0ba a03c d51f ebbd 727e babd 6a4f 7c3d
00000370: 8bfd 683c b41f ddbc 0e10 3ebd 9538 54ba
00000380: 57dd 6cbe 1b57 213d 1850 e33c 26ed c4bd
00000390: 2bbb 843c de16 43bc aec6 f0bb 34b4 18bd
000003a0: 3949 22bd 5106 9d3d a619 e1bc 2be7 afbb
000003b0: d2d8 473c bdf0 783c 83de ad3d 5f86 ab3d
000003c0: b830 84bd ac2b 08bd d73f 163c 819d cf3c
000003d0: 5b6d 8a3d ec1e f0bc 029f d1bd ea34 d2bb
000003e0: 7fd5 dfbc 6ea0 433e ec30 363e 5a0e 253e
000003f0: a70c 3ebc b5f6 2b3d e45b 3d3e 9f3e b2bc
0.014255474 0.011838254 0.04093575 0.08310436 0.019088287 0.013905185 -0.026637288 -0.09173131
-0.03804426 0.09641562 -0.074531846 -0.09195588 -0.06514019 -0.10818107 -0.15639147 0.06988751
0.00350363 -0.15501778 -0.10329491 0.11128254 0.010059602 -0.07970519 -0.008643223 0.035511766
-0.047956817 0.21885428 -0.036339253 -0.1560543 0.17456682 0.018619886 -0.15200351 -0.025103377
-0.19813317 0.09565008 0.112971455 0.14513342 -0.0250055 0.05581773 -0.06175627 -0.027497904
-0.015357569 0.09944808 -0.06965184 -0.053115938 0.03050337 -0.16178584 -0.09496945 -0.07097119
-0.09574174 -0.06273329 -0.12650704 -0.12052012 -0.10515757 0.009731255 -0.03865568 -0.14125744
0.21813306 -0.17473419 -0.22899516 0.020041708 0.05359513 0.03600226 0.025830468 -0.03908781
-0.076852664 -0.024045626 -0.06855734 -0.021734029 0.050594598 0.10320751 0.1211611 0.10143184
-0.0105175935 0.09974154 0.014587409 0.067342736 0.09495689 -0.11270771 0.2981742 0.21825548
0.09265695 -0.023448238 0.16485055 -0.15001266 -0.13172218 -0.03979087 0.058361463 -0.010779767
0.0327679 -0.059948713 0.029974123 0.04237143 0.17371547 0.05776131 -0.15299359 0.1039621
0.01489231 -0.2287452 -0.0152184665 -0.0054003806 -0.11096608 -0.036273904 -0.02030917 0.10007522
0.1455567 -0.01450091 -0.11049371 -0.14457233 0.067488894 0.03387946 -0.05142148 0.10924946
0.051156916 -0.09715245 0.070575945 0.1874514 0.00426844 0.025343701 -0.121468514 -0.034798063
-0.10472816 0.03525113 -0.016826367 0.11787955 -0.038105685 0.025267351 -0.14518297 0.027727813
0.008003207 -0.09539661 -0.041366536 0.046295304 -0.031999014 0.052170336 0.02355942 -0.1291114
-0.07053398 0.046227146 0.12775767 -0.044956226 -0.08022295 0.012388901 0.017353889 -0.0864168
-0.07636858 0.016631912 -0.015755927 0.059445053 0.17027868 0.04462715 -0.07625364 -0.03634363
-0.000114460294 -0.22289954 0.08343485 -0.03622418 0.13356832 0.074575245 -0.04505011 0.02293126
0.09007386 0.049447555 0.14975555 0.03914879 -0.012073101 0.010156217 0.0919 0.09719341
0.118143365 0.10335291 -0.100989945 -0.05943161 -0.068791024 -0.055389818 -0.011866409 -0.07660496
0.047728486 -0.038298994 -0.15677595 0.095625974 -0.08001433 -0.01098452 0.018378194 0.0039966567
0.08392277 -0.008236889 -0.053741887 -0.21440873 -0.034098603 -0.06056584 -0.040496994 -0.020328308
0.0102632595 -0.045669746 -0.009095484 -0.05451209 -0.056597184 -0.052259747 0.07477883 -0.10896127
-0.017794456 0.055453494 0.06522703 -0.08581403 -0.13080868 0.08311022 0.030399883 -0.024002353
-0.12751155 0.011827781 0.04828923 -0.10835371 -0.007400932 0.058671057 -0.01605979 0.017990502
0.01962024 -0.11480681 -0.09106149 0.061599173 0.014220606 -0.026992656 -0.04640203 -0.00080955896
-0.2313131 0.03938971 0.027748153 -0.09615545 0.01620253 -0.011907307 -0.007347903 -0.03728123
-0.03962061 0.076672204 -0.02747805 -0.0053681335 0.01219769 0.015194115 0.08489706 0.083752386
-0.06454605 -0.033244774 0.009170494 0.025343658 0.06759139 -0.02931162 -0.102354065 -0.0064149993
-0.027323483 0.19104168 0.177921 0.16118756 -0.011599696 0.041983325 0.18492085 -0.021758376

network_body._body_endoder.seq_layers.2.bias f4 [128]
00000000: 0000 0000 0000 0000 0000 0000 0000 0000
00000010: 0000 0000 0000 0000 0000 0000 0000 0000
00000020: 0000 0000 0000 0000 0000 0000 0000 0000
00000030: 0000 0000 0000 0000 0000 0000 0000 0000
00000040: 0000 0000 0000 0000 0000 0000 0000 0000
00000050: 0000 0000 0000 0000 0000 0000 0000 0000
00000060: 0000 0000 0000 0000 0000 0000 0000 0000
00000070: 0000 0000 0000 0000 0000 0000 0000 0000
00000080: 0000 0000 0000 0000 0000 0000 0000 0000
00000090: 0000 0000 0000 0000 0000 0000 0000 0000
000000a0: 0000 0000 0000 0000 0000 0000 0000 0000
000000b0: 0000 0000 0000 0000 0000 0000 0000 0000
000000c0: 0000 0000 0000 0000 0000 0000 0000 0000
000000d0: 0000 0000 0000 0000 0000 0000 0000 0000
000000e0: 0000 0000 0000 0000 0000 0000 0000 0000
000000f0: 0000 0000 0000 0000 0000 0000 0000 0000
00000100: 0000 0000 0000 0000 0000 0000 0000 0000
00000110: 0000 0000 0000 0000 0000 0000 0000 0000
00000120: 0000 0000 0000 0000 0000 0000 0000 0000
00000130: 0000 0000 0000 0000 0000 0000 0000 0000
00000140: 0000 0000 0000 0000 0000 0000 0000 0000
00000150: 0000 0000 0000 0000 0000 0000 0000 0000
00000160: 0000 0000 0000 0000 0000 0000 0000 0000
00000170: 0000 0000 0000 0000 0000 0000 0000 0000
00000180: 0000 0000 0000 0000 0000 0000 0000 0000
00000190: 0000 0000 0000 0000 0000 0000 0000 0000
000001a0: 0000 0000 0000 0000 0000 0000 0000 0000
000001b0: 0000 0000 0000 0000 0000 0000 0000 0000
000001c0: 0000 0000 0000 0000 0000 0000 0000 0000
000001d0: 0000 0000 0000 0000 0000 0000 0000 0000
000001e0: 0000 0000 0000 0000 0000 0000 0000 0000
000001f0: 0000 0000 0000 0000 0000 0000 0000 0000
0.0 0.0 0.0 0.0 0.0 0.0 0.0 0.0
0.0 0.0 0.0 0.0 0.0 0.0 0.0 0.0
0.0 0.0 0.0 0.0 0.0 0.0 0.0 0.0
0.0 0.0 0.0 0.0 0.0 0.0 0.0 0.0
0.0 0.0 0.0 0.0 0.0 0.0 0.0 0.0
0.0 0.0 0.0 0.0 0.0 0.0 0.0 0.0
0.0 0.0 0.0 0.0 0.0 0.0 0.0 0.0
0.0 0.0 0.0 0.0 0.0 0.0 0.0 0.0
0.0 0.0 0.0 0.0 0.0 0.0 0.0 0.0
0.0 0.0 0.0 0.0 0.0 0.0 0.0 0.0
0.0 0.0 0.0 0.0 0.0 0.0 0.0 0.0
0.0 0.0 0.0 0.0 0.0 0.0 0.0 0.0
0.0 0.0 0.0 0.0 0.0 0.0 0.0 0.0
0.0 0.0 0.0 0.0 0.0 0.0 0.0 0.0
0.0 0.0 0.0 0.0 0.0 0.0 0.0 0.0
0.0 0.0 0.0 0.0 0.0 0.0 0.0 0.0

action_model._discrete_distribution.branches.0.weight f4 [2, 128]
00000000: 9744 433b a2fb a7bb 4730 063c 4679 2fbb
00000010: f8be cfbb aaf3 c63c 0898 f7bb 1bac 2f3c
00000020: 1d74 65bc bc52 b13b bbcc b93a 56e0 80bc
00000030: 62a9 d73b b545 e739 9add fdba 2f4b 9cb9
00000040: d324 823b 3aee 4dbb b2ca c3ba cbbd 2db9
00000050: e810 66bc c481 133c a07b e93a 73ff bf3b
00000060: 6151 c7b9 6ff7 953b 2ff6 053b 1b35 bcbb
00000070: b615 063a 780b dcba de55 1339 4f77 f2bb
00000080: d39a da3b 5d90 6cbb 0ab9 0dbb b69e 043c
00000090: 4231 5f3c ebef 1c3c fd8e d9bc e37c 67bb
000000a0: ceb4 b53b ca6a d5ba bd7e dfbb dde3 74ba
000000b0: 8368 5bbc f720 c13b 0a8e 0e3b 78eb 063b
000000c0: 57b2 aabb f426 0d3c d1fd bf3b c8e2 ef3a
000000d0: d91e c5bc 7741 163c f509 ebbb eb98 653b
000000e0: 5708 7b3b f2b5 4a3a 23d6 563a 0495 b1bc
000000f0: 0af2 463a 1ed2 253b 85b8 763c 4ab4 0e3c
00000100: ca61 94bb ca95 ffbb fdee db3b db26 12bc
00000110: ce8d 0fbc 7bd8 033b 66ab 1fbc 4898 3cbc
00000120: 288b 0abc 8528 b9ba fcd3 83bb 2f89 c1bb
00000130: 5b6d 343c ff46 4d3a 2662 a9b7 121a e93b
00000140: 6bc7 d93b 7b0d 913c f041 343a 654e be3b
00000150: 55a7 d93b f262 a6bb b905 2bbc afbd dcbb
00000160: d325 4dbc 2d3d f63b 2463 ae3b 9f8e 153b
00000170: 8a22 bb3b 60f2 5a3c a2a8 94bb 137c 3b3b
00000180: 7572 6ebc 2c3f 2ebb 77f0 14bb 5fd2 ae3a
00000190: f262 a13b 52e0 5dbb ff28 333c 4357 14bb
000001a0: e979 c1bb e019 5cbc bc0b 82bb bcf2 803c
000001b0: cb32 f53b ee40 42ba 317e 0a3b 9d17 e4b9
000001c0: 7a97 f13a e732 da3b 0873 f7bb 36e2 013a
000001d0: 679b 39bb bb79 243b dfe0 d7bc ae2a b53b
000001e0: 9ba5 2c3b f8dc d53b 4f51 d8bb a030 e739
000001f0: 7b8f 8cba 6eea 0f3c b05e 313c 9328 b13a
00000200: 6a90 913b dae9 f83b 9233 3abb 4dee 033b
00000210: 27c5 96bc c426 0a3c 52fd 5c3b 01d2 92bb
00000220: 5b1b 7837 ad24 2c3b b342 5fba 1edf 3c3c
00000230: 3ddb a5ba 7b71 cabb 4415 353b d3c8 133b
00000240: 87b7 39b9 8f92 96bc 4be8 e63a c51e 8bbb
00000250: 24d3 bbbb 9a29 6c3c 5b6b aeba fdfe 8e3c
00000260: 7d76 c23c fa24 d03b d7a8 983c fca0 22bc
00000270: 50fa ddba 03c1 9c3c ad72 f1ba b16f 403b
00000280: 1336 003c 6337 1a3c f042 d4ba 8f1f bbbb
00000290: 3ad5 e93b 9070 8c3c 3fee 15bc c01d 9a3b
000002a0: 1b9a ccba d872 e5bb e601 3dbc 3a72 15bc
000002b0: b8f5 01bc d1d6 3cbc a7ce 2f3c 188e eabb
000002c0: 3734 7c3b 2f8f 84bb 54fe bfbb b8a6 c2ba
000002d0: 25b5 42bc eb59 c3bb c329 59bb 4757 8d3b
000002e0: 636d 3b3b a806 9e3b 281f f7ba 75dd 67bc
000002f0: fcdb 31bc ca62 bdbb 4512 abbc fd09 093c
00000300: e77c e0bb 1b5f b9bc 3d57 a1ba f83f b0bb
00000310: 2d7c 82bb 3b40 043c 7857 79bb 2e37 2d3c
00000320: 38de e23b 576c 743b 8bda dd3a 2756 d43a
00000330: c3e7 25bc df09 433b eaa5 1f39 9c36 2b3c
00000340: 07f1 0e3c 133a bf3b e431 20bb 55aa 21bc
00000350: 9b5f 3e3c 9ab3 b63b 8d9e 21bc b598 fabb
00000360: 1324 b93b db45 6cbb f54d 6ebc 55f2 6039
00000370: e60e 913c a7a7 8eba 9fdc 55bc fd86 5cbb
00000380: 8a50 ef3b b25e ce3b 5735 603a df89 703b
00000390: 3fe0 c6bc 3d68 76b9 423c d4ba f261 6a3c
000003a0: 6a3c 7d3c 0304 6d3c f00b 1dbb f856 f8ba
000003b0: 6b4e 003a cdb4 7b3b 0776 4e3c 2aad 02bc
000003c0: b353 e8ba cdd5 c7ba 678b 7439 5dc4 4ebc
000003d0: f750 9d3b 1bff 633a 6984 83bc 8842 21bc
000003e0: 5bbc 22bc 74eb b3bb 8019 edba 2f7e c43b
000003f0: 761f b6bb 4443 3bbb 28fc 3b3c 7f9f 923b
0.0029795521 -0.0051264325 0.008190221 -0.0026775165 -0.006339904 0.02428611 -0.0075559653 0.0107221855
-0.014004734 0.005411474 0.0014175394 -0.015731972 0.0065814713 0.0004411169 -0.001936841 -0.00029810655
0.003971675 -0.0031422512 -0.0014937727 -0.00016569269 -0.014042117 0.0090031065 0.0017813332 0.0058593093
-0.0003801687 0.0045766155 0.0020440926 -0.0057436354 0.00051149295 -0.0016788086 0.00014051 -0.0073994766
0.0066712885 -0.003609679 -0.0021625184 0.00809448 0.013622584 0.009578685 -0.02655744 -0.003532224
0.0055452352 -0.0016282436 -0.0068205283 -0.00093418156 -0.013391617 0.0058938223 0.0021752142 0.0020587128
-0.005209248 0.008615244 0.0058591147 0.0018301839 -0.02406256 0.0091708815 -0.007172818 0.0035033773
0.0038304531 0.00077328004 0.0008195361 -0.021677501 0.0007589167 0.0025302242 0.015058641 0.008709976
-0.004528259 -0.0077998387 0.006711839 -0.008920397 -0.008761836 0.0020118046 -0.009745454 -0.011510916
-0.008456029 -0.0014126456 -0.0040230732 -0.005906246 0.0110124005 0.00078307086 -2.0192074e-05 0.0071137035
0.006646087 0.017706623 0.00068762805 0.005807685 0.006642262 -0.005077713 -0.010438376 -0.0067364792
-0.012521225 0.007514617 0.005321877 0.0022820604 0.0057109045 0.013363451 -0.004536704 0.002860789
-0.014553656 -0.0026587946 -0.0022726336 0.0013337842 0.0049251253 -0.003385563 0.010935067 -0.002263502
-0.0059044254 -0.013433903 -0.003968684 0.015740745 0.0074828616 -0.0007410188 0.0021132345 -0.00043505142
0.0018431984 0.0066589 -0.0075515546 0.00049546675 -0.0028321387 0.002509697 -0.026352344 0.0055287695
0.0026343826 0.0065265857 -0.0066014896 0.00044095982 -0.0010723913 0.00878392 0.010825798 0.001351612
0.0044422643 0.0075962367 -0.0028412086 0.0020131052 -0.018404556 0.008432094 0.0033720327 -0.004480601
1.4788321e-05 0.0026266978 -0.0008516714 0.011527805 -0.0012653839 -0.0061780787 0.0027631084 0.002255012
-0.00017711344 -0.018380431 0.0017616836 -0.0042456114 -0.005731957 0.014414215 -0.0013307141 0.017455572
0.02373814 0.006352064 0.018635197 -0.009926077 -0.0016935561 0.019135004 -0.0018421017 0.0029363448
0.007825392 0.009412619 -0.0016194265 -0.005710549 0.0071360143 0.017143518 -0.009151041 0.0047032535
-0.0015609892 -0.007002216 -0.011536097 -0.009121472 -0.007932119 -0.011525826 0.010730422 -0.007158052
0.003848327 -0.004045389 -0.0058591757 -0.0014850711 -0.0118840085 -0.005961647 -0.0033136464 0.004313383
0.0028599135 0.004822571 -0.001885389 -0.014151921 -0.010855671 -0.005779599 -0.020882735 0.008364198
-0.006850827 -0.022628358 -0.0012309324 -0.0053787194 -0.003982088 0.008071954 -0.003804652 0.010572238
0.006923463 0.003729602 0.0016926093 0.0016199992 -0.010126057 0.0029760522 0.0001522523 0.010450032
0.008724458 0.0058357804 -0.00244438 -0.0098672705 0.011619474 0.0055756094 -0.009864462 -0.0076475986
0.0056500523 -0.003605238 -0.014544954 0.0002145258 0.0177073 -0.0010883705 -0.013053088 -0.0033649795
0.007303302 0.0062979097 0.000855287 0.0036703271 -0.02427685 -0.0002349922 -0.0016192275 0.014305579
0.015456298 0.0144662885 -0.0023963414 -0.0018946817 0.00048944977 0.0038407326 0.012601382 -0.007975856
-0.001772514 -0.0015246213 0.00023321585 -0.012620059 0.0048009115 0.00086973765 -0.016054349 -0.009842522
-0.009932603 -0.0054907147 -0.0018089265 0.0059964876 -0.0055579497 -0.002857403 0.011473693 0.00447458

action_model._discrete_distribution.branches.0.bias f4 [2]
00000000: 0000 0000 0000 0000
0.0 0.0
