results/flappy3/FlappyAgent/FlappyAgent-100007.pt (torch, 433490 bytes, 41 tensors)

network_body.observation_encoder.processors.0.normalizer.running_mean f4 [4]
8.479534 -2.073448 4.3544493 3.2551234
00000000: 2cac 0741 5fb3 04c0 a657 8b40 f153 5040

network_body.observation_encoder.processors.0.normalizer.running_variance f4 [4]
562730.7 6.816223e+06 1.4142761e+06 1.1740071e+06
00000000: ab62 0949 be03 d04a 21a4 ac49 b94f 8f49

network_body.processors.0.normalizer.running_mean f4 [4]
8.479534 -2.073448 4.3544493 3.2551234
00000000: 2cac 0741 5fb3 04c0 a657 8b40 f153 5040

network_body.processors.0.normalizer.running_variance f4 [4]
562730.7 6.816223e+06 1.4142761e+06 1.1740071e+06
00000000: ab62 0949 be03 d04a 21a4 ac49 b94f 8f49

network_body._body_endoder.seq_layers.0.weight f4 [128, 4]
-0.3672198 -0.5258848 0.2665677 -0.42204702 0.09326572 -0.42284736 0.09647628 -0.24335839
0.09003347 -0.7290474 0.058186468 -0.21117903 0.030111643 0.2238403 -0.115287304 -0.6516507
-0.5464985 0.57991964 -0.22578287 -0.36811852 0.29553583 0.33032608 0.28578696 0.09238564
-0.1954949 -0.085323736 0.41777292 -0.07258757 0.28138483 0.6257757 0.27415827 -0.26795635
1.1275382 0.31224233 -0.11136971 -0.17352404 -0.3328357 1.1209219 0.32453617 0.01095965
-0.9618244 0.16071156 0.7023076 0.8598161 -0.5855209 0.032398198 -0.09953368 -0.77253515
-0.17268328 -0.12999013 -0.44054765 -0.332462 0.42181182 -0.56657356 0.11185996 0.6080073
-0.42446715 0.10604528 -0.12893918 0.7880955 -0.4710741 -0.023745755 0.089072786 -0.31810528
-0.5919951 -0.7651389 -0.036649413 0.7761855 -0.15659076 -0.4239441 -0.34421936 -0.5200826
0.35266188 0.6324701 -0.24081218 -0.029994095 -1.7807137 0.15552987 -0.80118024 0.3686486
0.71100473 -0.3548708 0.6004249 0.7576402 -0.23568109 -0.6015194 -0.65345395 -0.18152463
0.288899 0.38285774 0.16609348 -0.70711 -0.043873463 1.0502939 -0.27018315 0.0060776663
0.102535024 -0.17430685 0.36548865 0.44081703 -0.07228025 -0.34103546 -0.71907854 -1.0996989
-0.08300886 0.43090603 0.9194036 0.48886356 -0.11821424 -0.12718251 -1.1254936 -0.1723263
1.3829528 -0.6651013 -0.46031746 0.21390341 -0.29863718 0.012594529 -0.5162763 -0.3716577
-0.4820953 0.235556 0.67089623 -0.44927928 -0.5039692 -0.69683576 -0.21665844 0.5610663
0.4607621 0.11869665 0.9170251 -0.101811975 0.008583377 -0.3262376 0.6578715 0.5120781
-0.18905702 -0.1628505 0.25703326 0.41842532 -0.27532408 -0.13381444 -0.55653673 0.21830973
0.39193112 -1.2311103 0.5249555 -0.57734877 1.4173447 -0.081642374 0.15983084 -0.457805
-0.24230556 0.6225268 0.3514903 0.8357143 -0.4660502 0.39875495 -1.0104817 -0.5886037
0.24191417 0.2336197 0.55720496 0.28598145 -0.36999983 -1.1787472 0.34720272 0.40788218
-0.007413643 0.5526191 -0.4822356 0.12585077 0.38158476 -0.58661264 -0.65465295 -0.6520639
0.2737601 0.14921111 -0.5834812 0.08407338 -0.13454984 0.40089363 0.5100865 1.0612572
0.984066 -0.049630307 0.44458255 -0.39837128 0.08706086 -0.107031964 0.27269727 -0.89864224
-0.059337582 -0.34985575 0.59686524 -0.48371643 0.40335757 1.016842 0.22581981 -0.38256022
-0.09686067 -0.21382189 0.7019328 -0.49360818 0.910398 0.099671744 0.48377866 1.0240332
0.26951587 1.2860817 0.086020015 -0.67857504 -0.06224169 0.54882395 0.4739903 -0.3446046
-0.4137204 -0.14709757 0.007544915 0.64106727 0.20454124 -0.3409977 -0.22783498 -0.3044942
-0.19905405 0.07672712 -0.28352752 -0.27168602 0.5976996 0.18715827 -0.6966753 -0.34423676
0.5503045 -0.6014573 -0.32908767 0.65147424 -0.12169784 0.4034486 0.0803857 0.40938258
-0.53679675 -0.033057183 -0.07102122 -0.08574315 0.48703888 -0.07212847 0.4285048 -0.19944848
-0.24418268 -1.3481704 -0.37249762 -1.3378086 0.3435256 0.41121066 -0.21659704 0.09618295
00000000: 3c04 bcbe 63a0 06bf 907b 883e 8c16 d8be
00000010: 1902 bf3d 737f d8be 5b95 c53d f132 79be
00000020: 7863 b83d daa2 3abf ef54 6e3d 513f 58be
00000030: b1ac f63c 6436 653e c01b ecbd 95d2 26bf
00000040: 53e7 0bbf 9d75 143f a033 67be 087a bcbe
00000050: 7950 973e 8020 a93e ab52 923e af34 bd3d
00000060: d12f 48be 36be aebd 55e6 d53e cba8 94bd
00000070: ac11 903e d632 203f 795e 8c3e 9331 89be
00000080: 2c53 903f 3ade 9f3e cd15 e4bd 49b0 31be
00000090: 7169 aabe 5e7a 8f3f 9b29 a63e 1b90 333c
000000a0: 203a 76bf 9291 243e 6eca 333f e81c 5c3f
000000b0: b3e4 15bf f9b3 043d 50d8 cbbd ddc4 45bf
000000c0: e3d3 30be 221c 05be 768f e1be 7638 aabe
000000d0: b8f7 d73e f70a 11bf d616 e53d 5ea6 1b3f
000000e0: c253 d9be 452e d93d a208 04be a0c0 493f
000000f0: a030 f1be 7586 c2bc cb6b b63d b2de a2be
00000100: fe8c 17bf 25e0 43bf b21d 16bd 18b4 463f
00000110: 5459 20be 330f d9be 853d b0be 2224 05bf
00000120: 1990 b43e 8fe9 213f 7897 76be 2db6 f5bc
00000130: 6dee e3bf 3943 1f3e 261a 4dbf 82bf bc3e
00000140: 6804 363f a0b1 b5be 72b5 193f b5f4 413f
00000150: 6256 71be 2dfd 19bf c248 27bf 98e1 39be
00000160: 92ea 933e ee05 c43e 6914 2a3e 2905 35bf
00000170: a9b4 33bd 0870 863f 7255 8abe 2927 c73b
00000180: e2fd d13d 7f7d 32be 5421 bb3e c5b2 e13e
00000190: ab07 94bd 339c aebe 8815 38bf efc2 8cbf
000001a0: 8d00 aabd b79f dc3e 095e 6b3f 534c fa3e
000001b0: 4f1a f2bd 223c 02be 2d10 90bf 4e76 30be
000001c0: 9904 b13f 1444 2abf bbae ebbe 7f09 5b3e
000001d0: f9e6 98be 4959 4e3c af2a 04bf eb49 bebe
000001e0: 32d5 f6be 9835 713e dbbf 2b3f ef07 e6be
000001f0: 2004 01bf d463 32bf b6db 5dbe 0ba2 0f3f
00000200: 03e9 eb3e 3b17 f33d 28c2 6a3f cc82 d0bd
00000210: 4ba1 0c3c 9d08 a7be 446a 283f 8d17 033f
00000220: 2a98 41be 48c2 26be dd99 833e d83b d63e
00000230: 47f7 8cbe a706 09be 3179 0ebf 968c 5f3e
00000240: 32ab c83e 0695 9dbf 7c63 063f 21cd 13bf
00000250: 8d6b b53f 1e34 a7bd b2aa 233e 6b65 eabe
00000260: f31e 78be eb5d 1f3f 89f6 b33e 5ff1 553f
00000270: 229e eebe 9c29 cc3e 7757 81bf bbae 16bf
00000280: 59b8 773e 013a 6f3e fca4 0e3f 296c 923e
00000290: 9e70 bdbe 30e1 96bf 8ec4 b13e efd5 d03e
000002a0: 25ee f2bb 7278 0d3f 96e7 f6be 06df 003e
000002b0: 145f c33e 3f2c 16bf 5697 27bf a9ed 26bf
000002c0: 492a 8c3e ccca 183e 065f 15bf aa2e ac3d
000002d0: 6fc7 09be ee41 cd3e 0795 023f 47d7 873f
000002e0: c0eb 7b3f 2649 4bbd 53a0 e33e 52f7 cbbe
000002f0: f74c b23d 9333 dbbd fa9e 8b3e 6b0d 66bf
00000300: f70b 73bd 4b20 b3be 29cc 183f aea9 f7be
00000310: e284 ce3e e127 823f 4f3d 673e efde c3be
00000320: e35e c6bd 20f4 5abe deb1 333f 36ba fcbe
00000330: d80f 693f b320 cc3d d6b1 f73e 8513 833f
00000340: fcfd 893e 539e a43f 432b b03d 18b7 2dbf
00000350: 24f1 7ebd ba7f 0c3f dbae f23e 0470 b0be
00000360: 29d3 d3be bfa0 16be 563b f73b fc1c 243f
00000370: 4273 513e 4097 aebe 934d 69be aae6 9bbe
00000380: d3d4 4bbe 1c23 9d3d 852a 91be 6e1a 8bbe
00000390: d702 193f 6ba6 3f3e 5059 32bf cd3f b0be
000003a0: c1e0 0c3f 1bf9 19bf 2e7e a8be 04c7 263f
000003b0: b83c f9bd d190 ce3e 42a1 a43d 989a d13e
000003c0: 836b 09bf f866 07bd 9373 91bd 1b9a afbd
000003d0: 295d f93e 17b8 93bd fb64 db3e 393c 4cbe
000003e0: 060b 7abe d990 acbf 02b8 bebe 503d abbf
000003f0: 96e2 af3e 348a d23e 9dcb 5dbe 91fb c43d

network_body._body_endoder.seq_layers.0.bias f4 [128]
0.046170257 0.00888953 0.04632854 0.038390186 0.03635479 0.032131534 0.004725904 -0.052440412
0.035153247 0.024908379 -0.00311146 0.038817875 0.010171843 0.036464963 0.027526673 -0.026435625
0.044497237 0.026794307 -0.016981054 0.0351084 0.050375193 -0.008873595 0.040604226 -0.019923834
-0.0054118964 0.036728162 -0.0076773227 0.026233193 0.053744696 0.03972577 -0.015006337 0.048084572
0.04069037 0.049916737 0.029723682 0.005201578 0.045743514 0.049799085 -0.037086014 0.03613117
0.056373022 0.04831391 0.024959287 0.045073308 -0.049960677 0.052053977 0.04823318 0.045966484
0.051537767 -0.01030588 -0.022197796 0.050079882 -0.023284663 -0.03608987 0.0029485354 0.013456575
0.033220347 0.039255854 0.052679278 -0.034212306 -0.02756228 0.033200335 0.03566629 -0.044761054
0.028024929 0.04629078 -0.032866124 0.055915494 -0.031339686 -0.039012883 0.009909981 0.033480283
-0.04566098 0.036706947 0.012678721 -0.03224189 0.042526986 0.012353316 -0.03641753 0.034373935
0.034612738 -0.02551076 0.035317726 0.03040708 0.021816036 -0.019839574 0.057564843 -0.034954514
-0.008420479 0.051021058 0.040915005 0.021090735 0.007939543 -0.005449634 -0.03301609 0.036009893
-0.017647702 -0.049770456 0.004177249 0.008496415 -0.013579019 0.040742997 0.037604384 0.04717337
0.038849812 0.036677685 -0.014254786 0.043774474 0.035484537 0.037086476 0.043041408 0.03942265
0.052297454 0.015151544 0.042636197 -0.021447169 -0.028585143 -0.029276244 -0.044087283 -0.0041395156
0.044873014 0.04289585 0.031351645 0.050880034 0.044289857 -0.03689875 0.04704432 -0.048136786
00000000: 061d 3d3d 64a5 113c ffc2 3d3d 073f 1d3d
00000010: c3e8 143d 5b9c 033d c2db 9a3b c2cb 56bd
00000020: dafc 0f3d a80c cc3c a3e9 4bbb 7eff 1e3d
00000030: cda7 263c 495c 153d 9e7f e13c 868f d8bc
00000040: bc42 363d bc7f db3c da1b 8bbc d3cd 0f3d
00000050: 3856 4e3d 8e62 11bc 9e50 263d 4f37 a3bc
00000060: 4756 b1bb 4570 163d 0d92 fbbb fee6 d63c
00000070: 6623 5c3d 7db7 223d 24dd 75bc 54f4 443d
00000080: f2aa 263d 7e75 4c3d 147f f33c 0072 aa3b
00000090: 8d5d 3b3d 20fa 4b3d 81e7 17bd 47fe 133d
000000a0: 66e7 663d cee4 453d 6b77 cc3c ca9e 383d
000000b0: 91a3 4cbd 8d36 553d 2890 453d 5a47 3c3d
000000c0: 4419 533d fed9 28bc 27d8 b5bc 9020 4d3d
000000d0: 7abf bebc f9d2 13bd 373c 413b f778 5c3c
000000e0: 0f12 083d bfca 203d 3ac6 573d 3422 0cbd
000000f0: 4aca e1bc 13fd 073d d116 123d 5e57 37bd
00000100: 8994 e53c 679b 3d3d a19e 06bd a507 653d
00000110: 0b5e 00bd f9cb 1fbd 795d 223c 9f22 093d
00000120: 0207 3bbd 065a 163d 69ba 4f3c 1210 04bd
00000130: c730 2e3d 9065 4a3c 8c2a 15bd afcb 0c3d
00000140: 16c6 0d3d f1fb d0bc 52a9 103d 4518 f93c
00000150: 8bb7 b23c 9a86 a2bc 1dc9 6b3d 772c 0fbd
00000160: 0cf6 09bc 75fb 503d 7e96 273d 7ac6 ac3c
00000170: db14 023c d892 b2bb e13b 07bd 1c7f 133d
00000180: ea91 90bc 1bdc 4bbd 4ee1 883b 8c34 0b3c
00000190: 897a 5ebc 21e2 263d 0e07 1a3d dd38 413d
000001a0: fb20 1f3d 573b 163d e88c 69bc dd4c 333d
000001b0: 3c58 113d fde7 173d 304c 303d a579 213d
000001c0: db35 563d 2e3e 783c 4ba3 2e3d f9b1 afbc
000001d0: 642b eabc bcd4 efbc de94 34bd c6a4 87bb
000001e0: c4cc 373d 8fb3 2f3d 956a 003d 9567 503d
000001f0: 4869 353d 2523 17bd 8bb1 403d 142b 45bd

network_body._body_endoder.seq_layers.2.weight f4 [128, 128]
0.06398663 0.089190654 -0.02500282 0.21345009 0.13810563 0.072138235 -0.036124885 -0.16962379
0.012408442 -0.098699056 -0.056558765 0.042669263 0.0044000344 0.14340031 -0.023256095 -0.14068384
0.06864475 0.10624772 0.08190757 -0.05043051 -0.018460704 -0.09664763 -0.04488104 0.026006814
-0.102119595 0.09942442 0.1340582 -0.038146634 -0.021592975 0.042374123 -0.061569702 0.018117817
-0.030418614 0.017939184 0.13130906 -0.05444792 0.179549 0.029298482 -0.089065135 -0.0014809085
0.0048296573 0.09822188 0.042052474 0.057622332 -0.17134044 0.045359254 -0.083839685 0.15222181
0.026284754 0.0020096386 -0.030861758 -0.09370816 0.13070907 0.019951424 -0.0769151 -0.04506169
-0.0015677502 0.070193976 0.022443427 -0.14859867 -0.09016724 -0.040798336 0.042005844 -0.08608343
0.032935474 -0.0558727 -0.07511429 -0.0063820863 0.022251049 -0.058127433 -0.023098161 0.066050984
-0.052075464 -0.052107763 0.053888123 -0.035279736 -0.001660375 0.0403879 -0.12218429 0.008872374
-0.055556774 0.0908272 0.048964866 0.047288153 0.11789536 -0.07282663 -0.04744104 -0.1988829
-0.017865859 0.14344676 0.09684617 -0.057412904 0.08861211 -0.15348883 -0.0012539326 0.03999217
-0.035866596 -0.016253509 0.010859885 -0.055218294 -0.0029105458 0.21765345 0.12850204 -0.020054517
0.12839046 -0.2676306 -0.061825246 -0.14398345 -0.022273682 0.0809808 0.12444364 -0.09451604
0.04901861 -0.12454812 0.1095006 0.12812525 -0.078656375 0.030288873 -0.014328054 0.0824195
0.0846091 -0.11506193 0.11173056 -0.017988771 -0.07906607 -0.2215392 0.084171034 0.021512786
0.004356844 0.1653394 -0.18244588 0.032653984 -0.14921167 -0.103396855 0.117681324 -0.02892956
-0.033462826 0.1262947 -0.0853886 -0.069177866 -0.0048832307 0.12107293 -0.08732211 0.092689365
-0.06814123 0.10947256 0.065286435 -0.10271918 0.1224329 -0.04021073 0.01719801 -0.015890604
0.050333843 -0.089203894 -0.03449386 0.018158283 -0.16213356 0.063965656 -0.044542704 -0.19654109
0.027184611 -0.24411622 -0.07242113 0.07382019 -0.16109662 -0.015212739 -0.13474472 -0.13396434
-0.0043656155 -0.03335554 0.06688637 -0.04306255 0.06124783 -0.22568803 -0.0154638775 -0.13393667
-0.13248917 0.01878402 -0.093423754 0.05918371 -0.0808399 0.06803631 0.07660984 -0.1415135
-0.15329383 -0.20465305 -0.067610584 -0.16767581 -0.11165844 -0.04421699 0.005763184 -0.050446764
0.23790297 -0.06285558 0.02395049 -0.04801123 0.029392375 0.14623193 0.1661392 -0.04853184
0.061694298 -0.15551063 -0.09791461 0.07547145 0.038194407 0.06794567 0.03983078 -0.084213026
-0.015468568 0.051116675 -0.13119043 0.02782858 -0.03037702 -0.07351398 -0.25539634 0.008738872
-0.003398571 -0.1177416 0.034190223 -0.061304685 0.14206484 0.030543333 0.04028862 -0.1295743
-0.12255426 -0.021262383 -0.071644574 -0.24980326 0.025675915 -0.081470475 0.08878938 -0.050059084
-0.044546664 -0.07673664 -0.051417224 -0.052880388 -0.07617344 0.05663747 0.03459654 -0.26644558
-0.107796125 -0.059165556 -0.010852054 -0.041480202 0.003600197 -0.097717166 -0.028568992 0.07035791
0.0806967 0.005984084 -0.15042274 0.12601167 -0.1121345 -0.097792715 -0.064897746 -0.001904332
00000000: 6c0b 833d 97a9 b63d b7d2 ccbc a992 5a3e
00000010: 906b 0d3e 36bd 933d b0f7 13bd dcb1 2dbe
00000020: c74c 4b3c bb22 cabd 2aaa 67bd f7c5 2e3d
00000030: 2a2e 903b 88d7 123e 9183 bebc 6d0f 10be
00000040: 9e95 8c3d 6898 d93d 28bf a73d 3990 4ebd
00000050: e73a 97bc 31ef c5bd 2ed5 37bd 3e0c d53c
00000060: 1424 d1bd 089f cb3d 8e46 093e a53f 1cbd
00000070: c0e3 b0bc 7d90 2d3d 8330 7cbd d16b 943c
00000080: 7530 f9bc 32f5 923c e275 063e c804 5fbd
00000090: b1db 373e 5f03 f03c c867 b6bd 0b1b c2ba
000000a0: 1a42 9e3b 8e28 c93d 373f 2c3d 6505 6c3d
000000b0: de73 2fbe a0ca 393d 24b4 abbd 09e0 1b3e
000000c0: 2053 d73c 24b4 033b ccd1 fcbc 10ea bfbd
000000d0: 99d8 053e 2b71 a33c aa85 9dbd 9b92 38bd
000000e0: f87c cdba dcc1 8f3d 47db b73c 402a 18be
000000f0: 9aa9 b8bd 281c 27bd 520e 2c3d 824c b0bd
00000100: 59e7 063d c6da 64bd 85d5 99bd d220 d1bb
00000110: d547 b63c 0817 6ebd 5b38 bdbc bd45 873d
00000120: 154d 55bd f36e 55bd cbb9 5c3d 7c81 10bd
00000130: f1a0 d9ba c86d 253d c23b fabd 6f5d 113c
00000140: 808f 63bd 9c03 ba3d 628f 483d 39b1 413d
00000150: 1f73 f13d 2126 95bd 8951 42bd f5a7 4bbe
00000160: 6c5b 92bc b5e3 123e 4957 c63d cb29 6bbd
00000170: 447a b53d 2d2c 1dbe ff5a a4ba d4ce 233d
00000180: dae8 12bd 1426 85bc a9ed 313c 942c 62bd
00000190: dbbe 3ebb 8ce0 5e3e 0a96 033e 5f49 a4bc
000001a0: ca78 033e e106 89be 783c 7dbd 6670 13be
000001b0: 4c77 b6bc 43d9 a53d 4fdc fe3d a091 c1bd
000001c0: bdc7 483d 1613 ffbd da41 e03d 4433 033e
000001d0: 9816 a1bd 5f20 f83c 37c0 6abc 8ecb a83d
000001e0: 8947 ad3d 97a5 ebbd fed2 e43d 305d 93bc
000001f0: 64ed a1bd 2cdb 62be dd61 ac3d 953b b03c
00000200: dbc3 8e3b bb4e 293e 18d3 3abe 2fc0 053d
00000210: f2ca 18be bbc1 d3bd e802 f13d affd ecbc
00000220: 5110 09bd 6653 013e 38e0 aebd 20ad 8dbd
00000230: 8203 a0bb 16f5 f73d efd5 b2bd ecd3 bd3d
00000240: a18d 8bbd 2633 e03d e5b4 853d 6f5e d2bd
00000250: 1abe fa3d 02b4 24bd d7e2 8c3c 032d 82bc
00000260: dc2a 4e3d 88b0 b6bd 6f49 0dbd aec0 943c
00000270: 5706 26be 6d00 833d 6972 36bd 1142 49be
00000280: 43b2 de3c 9af9 79be 8851 94bd 0a2f 973d
00000290: 83f6 24be da3e 79bc 85fa 09be f32d 09be
000002a0: 700d 8fbb d29f 08bd b9fb 883d 5b62 30bd
000002b0: 01df 7a3d c31a 67be 345c 7dbc b226 09be
000002c0: 3eab 07be f2e0 993c f454 bfbd 9e6a 723d
000002d0: 648f a5bd 9f56 8b3d 9fe5 9c3d eae8 10be
000002e0: 0ff9 1cbe 9290 51be 6b77 8abd 35b3 2bbe
000002f0: 2ead e4bd e01c 35bd 17d9 bc3b 44a1 4ebd
00000300: d69c 733e 6dba 80bd d133 c43c 6ca7 44bd
00000310: 47c8 f03c d3bd 153e 6520 2a3e 53c9 46bd
00000320: 29b3 7c3d 2e3e 1fbe 7487 c8bd c790 9a3d
00000330: bd71 1c3d 1927 8b3d 9a25 233d e177 acbd
00000340: e06f 7dbc b85f 513d c956 06be c3f8 e33c
00000350: 3ad9 f8bc 7f8e 96bd 4fc3 82be 7c2d 0f3c
00000360: 8fba 5ebb 8222 f1bd 0c0b 0c3d 9f1a 7bbd
00000370: 7279 113e 0336 fa3c ae05 253d 20af 04be
00000380: bafd fabd 732e aebc 64ba 92bd 6dcc 7fbe
00000390: 4c56 d23c fed9 a6bd 35d7 b53d c10a 4dbd
000003a0: 9076 36bd 1928 9dbd de9a 52bd 1b99 58bd
000003b0: d200 9cbd b1fc 673d 1ab5 0d3d 8e6b 88be
000003c0: 37c4 dcbd 9557 72bd d0cc 31bc 25e7 29bd
000003d0: 48f1 6b3b f01f c8bd 8509 eabc cf17 903d
000003e0: 5044 a53d 2316 c43b 6b08 1abe 3409 013e
000003f0: c6a6 e5bd 8c47 c8bd 1ce9 84bd c79a f9ba

network_body._body_endoder.seq_layers.2.bias f4 [128]
0.04105024 -0.049846344 -0.036109664 0.04350185 -0.030048639 0.04078711 -0.037643038 -0.03793073
-0.038771786 0.03561744 0.05681652 0.02089833 0.04661261 -0.02978038 0.046442673 0.017042303
0.052291673 -0.015435814 0.042379826 -0.0313749 -0.03823041 -0.05007039 0.04610362 0.044771347
-0.043091774 0.044297908 0.013758981 0.049063444 0.035441816 -0.034981873 0.03914271 0.02788991
0.052007124 -0.047208652 0.04824245 -0.031899035 -0.03968382 0.026248641 0.034415092 0.0487051
0.0382957 -0.030039834 0.042715542 -0.04391312 0.009997599 0.037189826 0.038234655 0.054190382
0.032894377 0.04555534 0.04388429 -0.03815415 0.037542604 0.04309031 -0.037945602 -0.040685616
-0.00032567538 0.037858948 -0.035767086 0.037607588 -0.042744763 -0.033696264 0.026960282 0.040740717
0.04220482 0.037586533 -0.026233736 -0.03955489 -0.035811983 -0.039926913 0.04259314 0.04420992
0.056496818 -0.042013504 -0.037793487 0.037233636 0.04270784 -0.0321528 0.03400055 0.044145517
0.038212396 0.048221353 -0.035546467 0.051425967 0.037753318 0.0156504 -0.03657249 0.041884758
0.039828543 -0.05114804 0.042881917 -0.038261477 0.046980657 -0.04929355 -0.040704977 -0.022510838
0.046098012 -0.04467968 0.03744399 0.0460245 0.029776536 0.046880838 0.035988476 -0.035882425
-0.039961156 0.038873468 -0.054002807 -0.038692955 -0.040488217 -0.045704458 -0.042690836 0.05036739
0.04556147 -0.040748734 -0.03963833 -0.027198926 0.015420208 -0.046125352 -0.040649947 0.038687818
0.049602143 -0.038660385 0.040988185 -0.028678784 0.045172784 0.04928422 0.037229586 0.030542798
00000000: 4c24 283d ae2b 4cbd bae7 13bd ff2e 323d
00000010: 9028 f6bc 6210 273d 962f 1abd 415d 1bbd
00000020: 2acf 1ebd 98e3 113d 70b8 683d f932 ab3c
00000030: ddec 3e3d fcf5 f3bc ac3a 3e3d 4d9c 8b3c
00000040: cb2f 563d 7fe6 7cbc 7896 2d3d f882 00bd
00000050: 7e97 1cbd 9c16 4dbd 26d7 3c3d 2962 373d
00000060: 0081 30bd b971 353d 596d 613c c0f6 483d
00000070: 702b 113d 2749 0fbd 1b54 203d 6179 e43c
00000080: 6c05 553d dc5d 41bd e099 453d 90a8 02bd
00000090: 808b 22bd 6407 d73c d7f6 0c3d 007f 473d
000000a0: f4db 1c3d 1916 f6bc 7ef6 2e3d 3ede 33bd
000000b0: f8cc 233c 5c54 183d f19b 1c3d bcf6 5d3d
000000c0: 41bc 063d 3c98 3a3d 03c0 333d 8747 1cbd
000000d0: 46c6 193d 777f 303d d96c 1bbd f6a5 26bd
000000e0: 69bf aab9 fc11 1b3d 8280 12bd 6a0a 1a3d
000000f0: 2215 2fbd 1805 0abd cfdb dc3c bddf 263d
00000100: f6de 2c3d 56f4 193d 22e8 d6bc 4f04 22bd
00000110: 96af 12bd 678a 23bd 2576 2e3d 7615 353d
00000120: 3569 673d 5a16 2cbd 58cd 1abd 4c82 183d
00000130: 6bee 2e3d a8b2 03bd 2944 0b3d eed1 343d
00000140: 9a84 1c3d c183 453d 2c99 11bd 09a4 523d
00000150: 39a3 1a3d 4535 803c 09cd 15bd 5a8f 2b3d
00000160: 4123 233d 9b80 51bd f3a4 2f3d 11b8 1cbd
00000170: ca6e 403d 09e8 49bd 43ba 26bd a668 b8bc
00000180: 45d1 3c3d 0a02 37bd df5e 193d 3084 3c3d
00000190: eced f33c 1f06 403d a768 133d 73f9 12bd
000001a0: 4fae 23bd c939 1f3d 0c32 5dbd 817c 1ebd
000001b0: f9d6 25bd 9934 3bbd 96dc 2ebd 094e 4e3d
000001c0: aa9e 3a3d 25e8 26bd cd5b 22bd 48d0 debc
000001d0: 0aa5 7c3c f0ed 3cbd 8f80 26bd 1e77 1e3d
000001e0: 9e2b 4b3d 5a5a 1ebd 3ae3 273d c5ef eabc
000001f0: 1907 393d 40de 493d 0d7e 183d e434 fa3c

action_model._discrete_distribution.branches.0.weight f4 [2, 128]
0.027776742 -0.03168198 -0.057159767 0.028790455 -0.012731718 0.03432992 -0.033490434 -0.029707238
-0.05086193 0.022249913 0.044444166 0.010505246 0.04166474 -0.02593868 0.026988799 -0.008635015
0.045650423 0.0002656319 0.032672822 -0.019821784 -0.0009900596 -0.038807884 0.03410108 0.04683382
-0.022983931 0.02683424 0.016882392 0.048118412 0.01890383 -0.026487546 0.023823425 0.04238782
0.039960742 -0.031021133 0.020475408 -0.007880008 -0.033141803 0.02196679 0.032823354 0.03274843
0.028117329 -0.0054768906 0.041521814 -0.028823107 0.021249477 0.024493523 0.03481164 0.025637912
0.023983441 0.04615211 0.011292244 -0.046391867 0.03183676 0.037027545 -0.04457128 -0.028824389
-0.027194098 0.020119356 -0.030613491 0.027427858 -0.029240094 -0.016615696 0.014293711 0.024223408
0.025317384 0.028328365 -0.004297799 -0.019918654 -0.004742597 -0.018566974 0.030548131 0.032044426
0.031237628 -0.017520476 -0.008134053 0.016342862 0.026291337 -0.022395406 0.012133906 0.04794891
0.027546713 0.018454606 -0.026135249 0.021265145 0.03137844 -0.0021742852 -0.046505377 0.016869843
0.026178867 -0.042028006 0.033988044 -0.034512807 0.010594713 -0.046205435 -0.02936466 -0.010443605
0.024910873 -0.03143734 0.017543469 0.028803065 0.0261675 0.043451663 0.000798274 -0.04434778
-0.027030481 4.7087015e-06 -0.03434205 -0.020707544 -0.020466754 -0.010332985 -0.028416097 0.061034016
0.04001812 -0.024185834 -0.04438582 -0.03921546 0.018482225 -0.0019098162 -0.034035064 0.0253355
0.02758674 -0.014521505 0.035156596 -0.009615474 0.035759553 0.022833511 0.021113876 0.0068020546
-0.030417211 0.048540287 0.032115623 -0.025241468 0.0017801123 -0.017098645 0.044776034 0.027016848
0.044185624 -0.026902467 -0.04321633 -0.0058213696 -0.041962974 0.02144226 -0.03198477 -0.007936486
-0.055827722 -0.0023898452 -0.027783476 0.022277646 0.010842416 0.02757104 -0.029899064 -0.03125666
0.037355077 -0.031072821 -0.018608645 -0.03843893 -0.021661334 0.022079017 -0.0154209165 -0.0049558207
-0.04439699 0.016900651 -0.014777484 0.0035867186 0.03987269 -0.011110587 -0.029399522 -0.034891114
-0.035560682 0.01064623 -0.050912358 0.042620264 0.00012951753 -0.011011956 -0.029630663 -0.035791907
-0.021362796 -0.03518691 -0.016767431 0.05499559 0.009177093 -0.038259134 0.043269835 0.04294824
0.015990665 -0.018258216 0.03342925 -0.029026037 0.029854907 0.01333202 -0.009040336 -0.020540258
-0.032139678 -0.03173738 0.006352006 0.030843258 0.019948782 0.04171357 -0.018262256 -0.019311754
-0.03771158 0.021775603 0.007119925 -0.030508645 -0.029458053 0.009111091 -0.0058255563 -0.04806936
-0.024173401 -0.027340401 0.03265707 -0.034531984 -0.031874247 0.002594375 0.03310634 -0.027691096
-0.02688579 0.026101023 -0.031626746 0.03827354 -0.03294748 0.018154737 0.027574385 -0.0064461106
-0.028968658 0.04107757 -0.024085961 -0.0068672565 -0.023367869 -0.0123544745 -0.011908711 0.025159704
0.021263981 -0.014839858 0.03795743 0.04611706 0.02317744 0.04447343 0.02843011 -0.041888684
-0.03200971 0.035229355 0.041936167 0.029289717 -0.008196442 0.03526935 0.032302782 -0.03018286
-0.03476253 0.036080655 -0.03539443 0.013399887 -0.04516689 -0.035833094 -0.022611907 -0.015073256
00000000: 0d8c e33c f7c4 01bd 5c20 6abd f6d9 eb3c
00000010: b298 50bc 889d 0c3d 442d 09bd 985c f3bc
00000020: 9954 50bd 7345 b63c 160b 363d 321e 2c3c
00000030: a5a8 2a3d 5b7d d4bc 9d17 dd3c e179 0dbc
00000040: f0fb 3a3d 8344 8b39 f0d3 053d 4b61 a2bc
00000050: e3c4 81ba 04f5 1ebd 93ad 0b3d d2d4 3f3d
00000060: cc48 bcbc 7bd3 db3c f14c 8a3c d017 453d
00000070: 34dc 9a3c 69fc d8bc 5829 c33c da9e 2d3d
00000080: e0ad 233d 0820 febc 0bbc a73c 261b 01bc
00000090: b3bf 07bd b3f3 b33c c871 063d 3823 063d
000000a0: 5056 e63c 7d77 b3bb c712 2a3d 701e ecbc
000000b0: 6213 ae3c a4a6 c83c a696 0e3d 9906 d23c
000000c0: ec78 c43c ff09 3d3d 1b03 393c 6605 3ebd
000000d0: 4367 023d 32aa 173d 6090 36bd 2021 ecbc
000000e0: 28c6 debc 59d1 a43c 25c9 fabc 63b0 e03c
000000f0: ec88 efbc a41d 88bc 2b30 6a3c 2b70 c63c
00000100: 6766 cf3c e310 e83c 8dd4 8cbb 722c a3bc
00000110: ca67 9bbb c419 98bc 1340 fa3c 0441 033d
00000120: 0ee6 ff3c 1a87 8fbc b144 05bc 77e1 853c
00000130: ee60 d73c 9276 b7bc 4acd 463c 1466 443d
00000140: a5a9 e13c 1d2e 973c 9719 d6bc 3e34 ae3c
00000150: ae86 003d 747e 0ebb 6c7c 3ebd a032 8a3c
00000160: 1075 d63c 8f25 2cbd 0c37 0b3d 4d5d 0dbd
00000170: 7295 2d3c e941 3dbd 288e f0bc a71b 2bbc
00000180: e311 cc3c 71c4 00bd 52b7 8f3c 68f4 eb3c
00000190: 3a5d d63c 5ffa 313d 4343 513a 05a6 35bd
000001a0: 076f ddbc 70ff 9d36 40aa 0cbd dea2 a9bc
000001b0: e5a9 a7bc ae4b 29bc e0c8 e8bc cefe 793d
000001c0: 0aea 233d 5f21 c6bc e8cd 35bd 64a0 20bd
000001d0: 0968 973c cc52 faba 5a68 0bbd 658c cf3c
000001e0: 96fd e13c 9beb 6dbc 5d00 103d 398a 1dbc
000001f0: 9c78 123d 580d bb3c 02f7 ac3c c5e3 de3b
00000200: 842d f9bc 2ed2 463d ac8b 033d 32c7 cebc
00000210: a852 e93a 7512 8cbc 1367 373d 7052 dd3c
00000220: fcfb 343d 9062 dcbc 9b03 31bd 30c1 bebb
00000230: 5ee1 2bbd aea7 af3c 7602 03bd 0908 02bc
00000240: 9cab 64bd f39e 1cbb 2c9a e3bc 9c7f b63c
00000250: 64a4 313c a9dc e13c e2ee f4bc fc06 00bd
00000260: a301 193d 6e8c febc 2871 98bc 2472 1dbd
00000270: 1c73 b1bc 0edf b43c 03a8 7cbc 7064 a2bb
00000280: 9ed9 35bd 3c73 8a3c 431d 72bc 270f 6b3b
00000290: 8c51 233d 2e09 36bc 44d7 f0bc fce9 0ebd
000002a0: 14a8 11bd 866d 2e3c 7a89 50bd 9692 2e3d
000002b0: 19cf 0739 7e6b 34bc 01bc f2bc 899a 12bd
000002c0: 0801 afbc 2620 10bd da5b 89bc 0e43 613d
000002d0: 855b 163c 9cb5 1cbd b63b 313d 7eea 2f3d
000002e0: dbfe 823c 4192 95bc 1ced 083d 03c8 edbc
000002f0: 4792 f43c 8b6e 5a3c eb1d 14bc 0b44 a8bc
00000300: e5a4 03bd 0eff 01bd 7d24 d03b 00ab fc3c
00000310: a16b a33c d9db 2a3d ba9a 95bc af33 9ebc
00000320: 7577 1abd c062 b23c 434e e93b 44ed f9bc
00000330: 0452 f1bc af46 153c 4fe4 bebb 61e4 44bd
00000340: 4c07 c6bc faf8 dfbc 6bc3 053d 6971 0dbd
00000350: 928e 02bd 6406 2a3b 839a 073d 70d8 e2bc
00000360: 973f dcbc d0d1 d53c 0c8b 01bd b7c4 1c3d
00000370: f0f3 06bd 3eb9 943c ade3 e13c e539 d3bb
00000380: ae4f edbc f440 283d ec4f c5bc b906 e1bb
00000390: f96d bfbc 6c6a 4abc c11c 43bc b91b ce3c
000003a0: cd31 ae3c e022 73bc 4079 1b3d 3ee5 3c3d
000003b0: 9dde bd3c c529 363d 43e6 e83c 7893 2bbd
000003c0: 9d1c 03bd a84c 103d 42c5 2b3d fdf0 ef3c
000003d0: 5f4a 06bc 9876 103d ec4f 043d 0c42 f7bc
000003e0: 2863 0ebd 4fc9 133d c0f9 10bd 338b 5b3c
000003f0: eb00 39bd b9c5 12bd 9b3c b9bc d1f5 76bc

action_model._discrete_distribution.branches.0.bias f4 [2]
0.036622446 -0.036622446
00000000: 6b01 163d 6b01 16bd

exp_avg f4 [128, 4]
-0.00012277169 -6.454565e-05 0.00018022417 0.00021868141 0.00013147705 0.000125263 -3.207158e-07 2.4554874e-05
3.6108344e-05 0.00013635377 -0.0001247651 -9.424241e-06 0.00019631574 0.00024839822 -0.00018457772 -5.0835137e-05
0.00037987728 0.00010961708 -0.00017232027 -0.00021000666 -7.4697455e-05 -0.000353239 -0.0004623015 -0.00037219253
0.00016130085 0.00016082852 -0.00010245754 -2.6674108e-05 -9.534499e-05 -3.0933064e-05 0.00036834553 0.00028027195
-5.3278156e-05 3.5052984e-05 3.5039924e-05 8.1727e-05 -0.00010350996 -0.0003599834 -0.00039464235 -0.00035661855
0.00039398554 2.8101595e-05 -0.000374648 -0.00028883445 0.0003286695 0.00035536205 0.00016976194 0.00017628177
0.00029066345 0.000292899 0.00015417124 0.00011763864 -0.00039714095 -0.00024783958 -0.00032295476 -0.00021916581
-6.539858e-05 -0.0005858757 -0.00034873266 -0.0005143639 0.00015754045 0.00018960905 0.00019809688 0.00013694902
-7.2458424e-05 -0.00034131933 -0.00011900788 -0.00026400285 0.00010725866 0.00024908496 0.00031157926 0.00028907356
-4.6282807e-05 3.161163e-05 0.0002608851 0.00019218096 0.00030169965 -0.00021721283 0.00048614276 0.00010655974
-0.0011408117 -0.001213793 -0.0011228233 -0.0008976419 0.00014949364 0.00013907539 0.00020021631 0.00015533535
6.169169e-05 0.000105899395 -7.555123e-05 9.643513e-06 -7.719233e-05 -0.00014605663 0.00026953858 0.00012432275
-1.0209065e-05 -9.035673e-05 -0.0001649413 -8.932516e-05 0.00038992258 0.0006840958 0.00029737278 0.0003536183
-0.0003068674 -0.0007724582 -0.00043951167 -0.00054023776 0.00048911764 0.00055238034 0.000117106574 8.029365e-05
-0.00025335126 0.00034705043 -0.0006119575 -0.00028096267 0.00026756548 0.00021838385 0.00029548374 0.00020252267
0.00034631955 0.0003556275 -2.003956e-05 -3.85416e-05 -0.00030772493 -0.0004644583 0.00037705404 0.00011132135
-0.0005969966 -0.0006292104 -0.0009689692 -0.00059184385 -0.00023665192 -0.0003386014 -0.00046403066 -0.00035722248
5.495434e-05 -0.00022143881 -0.00039065024 -0.00035894828 -8.367485e-05 -0.00012413562 0.00036901626 0.00022343596
-0.00015847673 8.9515e-05 -6.849127e-05 0.00011846611 -0.00031308987 0.00025597957 -0.0009826736 -0.00039737884
5.2982898e-05 4.493131e-06 -1.8200783e-05 -2.389964e-05 0.000523281 0.00045901188 9.331891e-05 5.7298515e-05
-0.000515972 -0.00089349446 -0.0008764734 -0.00076899654 -0.00030687999 -0.00021487499 -0.00020905057 -0.00020615739
0.00019439808 4.2836175e-05 -0.00047190025 -0.00043584054 0.0002399943 0.00068919454 0.00016906293 0.00032755875
-4.5039033e-05 -6.1102466e-05 0.00016009912 0.00011579335 -0.00066402805 -0.0014885092 -0.0010161644 -0.0011073356
-0.00051472354 -5.467348e-05 -0.0010517953 -0.00046013802 -0.00011037091 0.00014698018 -0.00019264146 0.00011212249
-0.00012986944 6.909128e-05 -0.00020164563 3.4341243e-05 7.7494406e-05 0.000121668825 5.4869097e-06 -6.198974e-06
0.00052675296 0.0003649528 -0.00021829428 -0.00015257919 -0.0008978542 -0.0014462303 -0.0020244524 -0.0016328293
-0.00015446168 -0.000101191064 -7.829574e-06 1.763066e-05 -5.6561483e-05 7.119507e-05 0.00029361414 0.0002689583
0.0001294971 2.310889e-05 -9.6548014e-05 -7.814921e-05 2.5339055e-05 0.000111227244 6.95851e-05 7.144206e-05
0.00025735103 0.00019138835 -7.652362e-05 -5.916036e-05 0.00025375673 0.00030260716 1.0474896e-05 6.3526895e-05
-0.00047175286 -0.00028787937 -0.0003108634 -0.0002970835 -2.6573653e-06 2.0055759e-05 1.8585943e-05 8.046469e-05
0.00010860914 8.94982e-05 6.731185e-05 5.3098687e-05 -0.00025337728 -0.00026322808 -0.00032175097 -0.00019559571
8.615102e-05 0.00034659554 0.00062101736 0.00063765846 -0.00020983501 -0.00012075799 0.0005249553 0.00043974235
00000000: 46bc 00b9 af5c 87b8 8ffa 3c39 d84d 6539
00000010: 1add 0939 0859 0339 d82e acb4 31fb cd37
00000020: 0a73 1738 30fa 0e39 60d3 02b9 cf1c 1eb7
00000030: 1bda 4d39 723b 8239 348b 41b9 d037 55b8
00000040: 442a c739 39e2 e538 dfb0 34b9 3c35 5cb9
00000050: e4a6 9cb8 f032 b9b9 0f61 f2b9 d622 c3b9
00000060: de22 2939 14a4 2839 79de d6b8 36c2 dfb7
00000070: f4f3 c7b8 20be 01b8 801e c139 77f1 9239
00000080: fc76 5fb8 db05 1338 d5f7 1238 d964 ab38
00000090: 7d13 d9b8 27bc bcb9 00e8 ceb9 88f8 bab9
000000a0: d88f ce39 b7bb eb37 676c c4b9 b46e 97b9
000000b0: 4651 ac39 e34f ba39 2002 3239 47d8 3839
000000c0: 3064 9839 3d90 9939 07a9 2139 c4b4 f638
000000d0: 5b37 d0b9 77f0 81b9 4152 a9b9 e0cf 65b9
000000e0: 9826 89b8 7495 19ba 1bd6 b6b9 61d6 06ba
000000f0: 7131 2539 cbd1 4639 3ab8 4f39 f999 0f39
00000100: d2f4 97b8 1bf3 b2b9 de93 f9b8 dd69 8ab9
00000110: 0ef0 e038 9e97 8239 765b a339 cc8e 9739
00000120: c91f 42b8 bb96 0438 68c7 8839 2f84 4939
00000130: 712d 9e39 a0c3 63b9 fae0 fe39 d378 df38
00000140: 4a87 95ba 2218 9fba b32b 93ba ba4f 6bba
00000150: 65c1 1c39 c4d4 1139 28f1 5139 84e1 2239
00000160: 7960 8138 4e16 de38 4271 9eb8 93ca 2137
00000170: 51e2 a1b8 c726 19b9 db50 8d39 a25c 0239
00000180: 9a47 2bb7 e67d bdb8 18f4 2cb9 1554 bbb8
00000190: 866e cc39 e454 333a b3e8 9b39 d865 b939
000001a0: 0ce3 a0b9 cb7e 4aba 426e e6b9 be9e 0dba
000001b0: 2138 003a 9ecd 103a 1d97 f538 5363 a838
000001c0: 3bd4 84b9 52f4 b539 c66b 20ba 2c4e 93b9
000001d0: 0848 8c39 f8fd 6439 28eb 9a39 445c 5439
000001e0: 3992 b539 8473 ba39 a11a a8b7 baa7 21b8
000001f0: 2456 a1b9 8a82 f3b9 56af c539 3275 e938
00000200: c37f 1cba 98f1 24ba 6c02 7eba f825 1bba
00000210: c425 78b9 5086 b1b9 2449 f3b9 9749 bbb9
00000220: c67e 6638 0732 68b9 30d0 ccb9 3931 bcb9
00000230: 987a afb8 672a 02b9 8678 c139 224a 6a39
00000240: c62c 26b9 00ba bb38 f8a2 8fb8 0271 f838
00000250: 3626 a4b9 ff34 8639 0ecd 80ba 4957 d0b9
00000260: f439 5e38 b4c3 9636 e2ad 98b7 167c c8b7
00000270: cb2c 093a 88a7 f039 35b4 c338 d053 7038
00000280: 4b42 07ba 6639 6aba 22c3 65ba 7c96 49ba
00000290: bce4 a0b9 1150 61b9 9634 5bb9 f42b 58b9
000002a0: 56d7 4b39 feaa 3338 6169 f7b9 8781 e4b9
000002b0: fba6 7b39 10ab 343a 7c46 3139 31bc ab39
000002c0: 4be8 3cb8 2324 80b8 48e0 2739 15d6 f238
000002d0: 2b12 2eba 151a c3ba d230 85ba 0424 91ba
000002e0: 83ee 06ba 3451 65b8 65dc 89ba ae3e f1b9
000002f0: ee76 e7b8 b11e 1a39 ccff 49b9 4e23 eb38
00000300: 902d 08b9 19e5 9038 d670 53b9 a109 1038
00000310: 7e84 a238 7428 ff38 321c b836 c800 d0b6
00000320: cb15 0a3a 2357 bf39 ede5 64b9 aafd 1fb9
00000330: fa5d 6bba 708f bdba adac 04bb a904 d6ba
00000340: fef6 21b9 8a36 d4b8 c45b 03b7 8ee5 9337
00000350: 6e3c 6db8 904e 9538 39f0 9939 f902 8d39
00000360: 9dc9 0739 f7d9 c137 d279 cab8 0ae4 a3b8
00000370: 358f d437 ac42 e938 37ee 9138 2ad3 9538
00000380: 12ed 8639 6baf 4839 4e7b a0b8 f422 78b8
00000390: a70a 8539 3fa7 9e39 56bd 2f37 be39 8538
000003a0: 9955 f7b9 84ee 96b9 61fb a2b9 dfc1 9bb9
000003b0: 3055 32b6 6a3d a837 02e9 9b37 27bf a838
000003c0: 17c5 e338 fbb0 bb38 c629 8d38 48b6 5e38
000003d0: b9d7 84b9 e001 8ab9 afb0 a8b9 d318 4db9
000003e0: faab b438 44b7 b539 c5cb 223a 8928 273a
000003f0: 2807 5cb9 743f fdb8 279d 093a 388d e639

exp_avg_sq f4 [128, 4]
6.2411254e-07 3.1601064e-07 1.0335567e-06 6.1884197e-07 2.9929613e-08 1.1248232e-08 9.796591e-08 7.465646e-08
1.2815275e-08 1.0768455e-08 3.781586e-08 3.6144296e-08 2.9486958e-07 1.5426448e-07 8.970439e-07 6.0722095e-07
8.464286e-07 3.1480232e-07 2.0044874e-06 1.2301233e-06 1.510773e-08 4.673694e-08 3.3602635e-08 2.2425203e-08
2.273402e-08 2.1368509e-08 9.488432e-09 8.061399e-09 3.665733e-08 4.733051e-08 1.2717616e-07 8.632888e-08
1.0001091e-08 9.516826e-09 1.8789036e-08 1.379429e-08 1.5378536e-08 2.4276845e-08 1.970927e-08 2.148211e-08
2.29926e-07 2.123009e-07 6.447117e-08 4.4963983e-08 5.531404e-07 2.1060494e-07 1.8307937e-06 1.2094521e-06
3.798036e-07 1.3393421e-07 1.1940057e-06 7.564937e-07 7.1204234e-08 1.0214921e-07 4.9120423e-08 7.959426e-08
9.8261545e-08 6.4513465e-08 4.3549484e-08 1.1945411e-07 3.1932288e-08 1.8196323e-08 1.0454899e-07 7.8233e-08
1.5531782e-07 9.693619e-08 5.534902e-08 9.224302e-08 1.0676362e-06 4.4215355e-07 2.7427668e-06 1.6993278e-06
2.9164562e-08 1.8274559e-08 9.829818e-08 6.508958e-08 1.5636764e-06 4.2790998e-07 3.31891e-06 1.8221309e-06
4.0953478e-07 5.284301e-07 5.8329675e-07 9.425108e-07 1.5728605e-07 5.162871e-08 4.88798e-07 3.1443014e-07
6.663618e-08 2.9384513e-08 1.7302848e-07 1.2305809e-07 5.6364094e-08 7.326808e-08 2.506059e-07 1.7319181e-07
6.0458154e-09 8.847155e-09 9.274311e-09 4.1428754e-09 2.0956788e-06 8.840245e-07 5.874883e-06 3.9764072e-06
8.169522e-08 8.208695e-08 6.607492e-08 1.7312482e-07 8.1981847e-07 3.321022e-07 2.4311373e-06 1.5285468e-06
1.1341433e-07 1.6023071e-07 2.520315e-07 1.9396177e-07 2.4302192e-06 8.469083e-07 5.146999e-06 3.099278e-06
1.0289612e-07 1.05701744e-07 5.797337e-08 3.2630133e-08 1.0280561e-06 5.9241324e-07 1.1432854e-06 5.684137e-07
1.2640612e-07 2.0397407e-07 2.0625464e-07 1.333931e-07 3.7856605e-08 6.0377054e-08 7.082033e-08 9.0365894e-08
3.625223e-08 3.7991956e-08 8.1376406e-08 7.392511e-08 4.0882367e-07 1.5728997e-07 6.1763967e-07 3.1368873e-07
1.4157315e-07 1.6243186e-07 2.2263949e-07 1.6731342e-07 1.3310634e-07 1.838017e-07 2.7677407e-07 1.7283786e-07
1.7789377e-08 1.5167243e-08 1.32048275e-08 3.31005e-08 9.480218e-07 3.2687538e-07 2.4506303e-06 1.5811097e-06
1.1273398e-07 1.7707372e-07 1.813738e-07 2.879617e-07 2.905149e-07 3.7050694e-07 1.2137004e-07 1.7934957e-07
8.584121e-08 1.17327374e-07 2.6580793e-07 1.6947767e-07 1.8564283e-06 9.1227776e-07 4.9224777e-06 3.3499493e-06
4.0199424e-08 2.4998268e-08 1.271456e-07 8.1840305e-08 3.180255e-07 3.7807675e-07 3.6760818e-07 7.8679267e-07
1.6632791e-07 1.9119422e-07 2.2522207e-07 1.1706319e-07 7.2685117e-07 4.440281e-07 1.8990186e-06 1.3447285e-06
9.735729e-08 1.1247191e-07 1.1268134e-07 9.4857306e-08 8.1941565e-09 1.3017858e-08 1.8291615e-08 1.1610635e-08
1.9117005e-07 1.9654979e-07 1.7871714e-07 9.116665e-08 3.94467e-07 6.085173e-07 9.487162e-07 1.1265868e-06
3.3164184e-08 1.5240483e-08 1.3580382e-07 8.9305125e-08 5.6860724e-08 5.1937732e-08 1.4920398e-07 1.0232311e-07
1.3100111e-08 1.7711658e-08 6.0906937e-09 5.223234e-09 1.4387255e-07 7.053316e-08 3.992231e-07 2.4179548e-07
3.94881e-07 1.5990898e-07 1.1335692e-06 7.107489e-07 2.2252883e-07 1.0504331e-07 6.7110204e-07 4.4959387e-07
1.6059604e-07 2.0466139e-07 9.100688e-08 1.9439311e-07 4.459441e-08 2.2093323e-08 5.0342923e-08 4.1498655e-08
1.13564056e-07 5.757122e-08 5.020455e-08 3.523276e-08 2.005062e-08 3.0105873e-08 2.4713303e-08 1.9622549e-08
1.8917792e-06 8.0513536e-07 5.351915e-06 3.4807122e-06 1.0659496e-07 1.15475515e-07 3.962775e-07 2.5298226e-07
00000000: b088 2735 2ca8 a934 bdb8 8a35 7f1e 2635
00000010: f58b 0033 3f3e 4132 5461 d233 d352 a033
00000020: 2d2a 5c32 2a00 3932 fa6a 2233 133d 1b33
00000030: 914e 9e34 e6a3 2534 63cc 7035 e8ff 2235
00000040: 2136 6335 1a02 a934 d584 0636 b71a a535
00000050: 40c6 8132 cfbb 4833 7d52 1033 8ba1 c032
00000060: a448 c332 d98d b732 9102 2332 687e 0a32
00000070: 2971 1d33 7248 4b33 eb8d 0834 ce63 b933
00000080: 43d1 2b32 727f 2332 8765 a132 eefb 6c32
00000090: c219 8432 5989 d032 254d a932 a987 b832
000000a0: 94e1 7634 d4f4 6334 6773 8a33 6c1e 4133
000000b0: 857b 1435 a522 6234 98b9 f535 7554 a235
000000c0: cfe7 cb34 8ecf 0f34 b941 a035 da11 4b35
000000d0: f1e8 9833 1f5d db33 7af8 5233 68ed aa33
000000e0: db03 d333 a78a 8a33 2a0b 3b33 4c43 0034
000000f0: ec25 0933 234e 9c32 6a84 e033 0c01 a833
00000100: 70c5 2634 3c2b d033 e4b8 6d33 2317 c633
00000110: b34b 8f35 1f61 ed34 6010 3836 7514 e435
00000120: 8d85 fa32 2efa 9c32 ff17 d333 60c7 8b33
00000130: 83df d135 80bb e534 71ba 5e36 f18f f435
00000140: 08de db34 71d9 0d35 d993 1c35 d900 7d35
00000150: 76e2 2834 5ebe 5d33 f135 0335 f3ce a834
00000160: a119 8f33 3a69 fc32 b5c9 3934 f321 0434
00000170: fa14 7233 8e57 9d33 038b 8634 9af6 3934
00000180: 8ebb cf31 33fe 1732 da54 1f32 1e59 8e31
00000190: 7da3 0c36 b34d 6d35 dc20 c536 146d 8536
000001a0: 6c70 af33 c747 b033 12e5 8d33 30e4 3934
000001b0: 7f11 5c35 c74b b234 9f26 2336 7828 cd35
000001c0: 308e f333 e20b 2c34 f24e 8734 ce43 5034
000001d0: d916 2336 1857 6335 62b4 ac36 31fd 4f36
000001e0: bdf7 dc33 26fe e233 65fe 7833 3625 0c33
000001f0: bdfb 8935 5406 1f35 fd72 9935 1895 1835
00000200: 40ba 0734 f703 5b34 d876 5d34 d13a 0f34
00000210: c797 2233 a3a8 8133 e315 9833 2d0f c233
00000220: c0b3 1b33 992c 2333 27c1 ae33 c2c0 9e33
00000230: 4c7c db34 8ae3 2834 e0cb 2535 0d69 a834
00000240: 5503 1834 ee68 2e34 ad0e 6f34 c3a6 3334
00000250: feeb 0e34 075b 4534 8a97 9434 4f95 3934
00000260: 41cf 9832 1f49 8232 72db 6232 622a 0e33
00000270: 907b 7e35 697d af34 8275 2436 8436 d435
00000280: 2918 f233 a721 3e34 a7bf 4234 2899 9a34
00000290: 10f8 9b34 16ea c634 f151 0234 3c93 4034
000002a0: b457 b833 68f5 fb33 5db4 8e34 abf9 3534
000002b0: 642a f935 40e3 7435 c32b a536 b1cf 6036
000002c0: bca7 2c33 c6bb d632 8485 0834 2fc0 af33
000002d0: 18bd aa34 79fa ca34 af5b c534 fb33 5335
000002e0: de97 3234 114b 4d34 92d4 7134 2b64 fb33
000002f0: d51c 4335 c262 ee34 c8e1 fe35 857c b435
00000300: bc12 d133 1688 f133 39fb f133 5bb4 cb33
00000310: 48c6 0c32 25a5 5f32 b01f 9d32 1d78 4732
00000320: 6c44 4d34 320b 5334 65e5 3f34 65c7 c333
00000330: 22c7 d334 fe58 2335 48ab 7e35 3a35 9735
00000340: 6870 0e33 2dea 8232 78d1 1134 03c8 bf33
00000350: 0737 7433 2412 5f33 e134 2034 babc db33
00000360: e60e 6132 5924 9832 4f46 d131 0d78 b331
00000370: 637b 1a34 0478 9733 ce54 d634 1ed0 8134
00000380: 0800 d434 72b3 2b34 2425 9835 4bca 3e35
00000390: 42f0 6e34 2c94 e133 c825 3435 b65f f134
000003a0: 4e70 2c34 e5c0 5b34 906f c333 5fba 5034
000003b0: 1388 3f33 bbc7 bd32 a138 5833 413c 3233
000003c0: 80e0 f333 3a44 7733 7da0 5733 d452 1733
000003d0: c83b ac32 c24d 0133 2149 d432 718e a832
000003e0: 0ae9 fd35 7b20 5835 9a94 b336 2e96 6936
000003f0: 33e9 e433 56fb f733 f7bf d434 9ed1 8734

exp_avg f4 [128]
-0.0006434283 -8.525701e-05 -0.00029692304 -0.0003689877 -0.0005350142 -0.00041627852 -1.007651e-06 0.0004006172
-0.00011484542 -0.00043258237 -0.0003326451 -0.00028185366 -0.00023101916 -0.0005911 -0.0005589409 7.378268e-05
-0.0005054734 -0.00043267163 0.00045992844 -0.00068392593 -0.0017104486 -0.00019748195 -0.00024257043 0.0001767583
-0.00015088987 -0.00040389094 -0.00067146955 -0.00016893556 -0.00079618115 -0.0006713941 0.0001587338 -0.0007611848
-0.0011745829 -0.0007122268 -0.0003550674 -0.00025112045 -0.0005394829 -0.00074185984 4.820251e-06 -0.0002885182
-0.0011818548 -0.0007674264 -0.0002627663 -0.0006985947 0.00024252388 -0.001510717 -0.0011123309 -0.0007531805
-0.00047421403 0.00019732102 0.00018879893 -0.002494976 0.00010996343 0.00039757602 -7.153199e-05 -0.0002422845
-0.00034077425 -0.00018816731 -0.00068734924 0.00018264882 -8.873599e-07 -0.00048384687 -0.00067176984 0.00049261854
-0.000400425 -0.00070522237 5.143464e-05 -0.0022012847 2.5024285e-05 0.00021384309 -0.00028464472 -0.00029859517
0.0003755446 -0.00034189614 -0.0003021834 8.7981774e-05 -0.0006033692 -0.00011595336 -4.338566e-06 -0.0005611088
-0.00129803 0.0004950203 -0.00037953843 -0.00018698986 -0.00042221573 6.952256e-05 -0.00199392 -3.720097e-05
-0.00051656883 -0.00067044026 -0.00080336817 -0.00034187554 -0.00031707497 -0.00010125353 0.00032828897 -0.00027737298
-0.00026831368 0.00030664896 -0.00022004466 3.2878394e-05 -0.0002303584 -0.00042861776 -0.00068566593 -0.0006604056
-0.0003760826 -0.00041950215 -0.00011367585 -0.00029272266 -0.00045927888 -0.00022131819 -0.0007096682 -0.00041800708
-0.00046569252 -3.8520117e-05 -0.0004942251 0.00024329315 0.00031634775 0.00011064603 0.0005327728 -0.00019936
-0.00096638233 -0.00047010952 -6.252819e-05 -0.00074846594 -0.00043470535 0.00025949828 -0.00076800573 0.00023327438
00000000: beab 28ba 02cc b2b8 56ac 9bb9 b174 c1b9
00000010: 3240 0cba f53f dab9 a03e 87b5 ee09 d239
00000020: 2ad9 f0b8 39cc e2b9 df66 aeb9 c2c5 93b9
00000030: bc3d 72b9 0df4 1aba e485 12ba c6bb 9a38
00000040: bf81 04ba 34d8 e2b9 8d22 f139 7e49 33ba
00000050: 2231 e0ba 2813 4fb9 815a 7eb9 3258 3939
00000060: 3138 1eb9 53c1 d3b9 8f05 30ba 4b24 31b9
00000070: d0b6 50ba 7f00 30ba c871 2639 3f8a 47ba
00000080: 76f4 99ba bbb4 3aba 5728 bab9 d1a8 83b9
00000090: 166c 0dba 5f79 42ba a4bd a136 4244 97b9
000000a0: 77e8 9aba 1d2d 49ba e5c3 89b9 e621 37ba
000000b0: 024e 7e39 4003 c6ba a2cb 91ba 1671 45ba
000000c0: ee9f f8b9 f5e7 4e39 54f8 4539 c082 23bb
000000d0: 2b9c e638 c071 d039 7203 96b8 c00d 7eb9
000000e0: f2a9 b2b9 c74e 45b9 3a2f 34ba 6b85 3f39
000000f0: e832 6eb5 d4ac fdb9 b619 30ba 1223 013a
00000100: 22f0 d1b9 acde 38ba 86bb 5738 6e43 10bb
00000110: 3eeb d137 113b 6039 5e3c 95b9 c48c 9cb9
00000120: bee4 c439 8640 b3b9 5f6e 9eb9 db82 b838
00000130: 6c2b 1eba fc2b f3b8 0094 91b6 6017 13ba
00000140: a922 aaba 40c4 013a c9fc c6b9 b512 44b9
00000150: d65c ddb9 a4cc 9138 6dac 02bb 3d08 1cb8
00000160: 596a 07ba 7cc0 2fba 2099 52ba c23d b3b9
00000170: 153d a6b9 1358 d4b8 331e ac39 5f6c 91b9
00000180: 74ac 8cb9 bac5 a039 cabb 66b9 e8e6 0938
00000190: 5d8c 71b9 1ab8 e0b9 43be 33ba 121f 2dba
000001a0: f42c c5b9 a0f0 dbb9 4265 eeb8 9278 99b9
000001b0: 5ecb f0b9 a611 68b9 0709 3aba f627 dbb9
000001c0: 3128 f4b9 a990 21b8 e38e 01ba 821c 7f39
000001d0: 7adb a539 a30a e838 c7a9 0b3a 4b0b 51b9
000001e0: d254 7dba 0879 f6b9 9121 83b8 b334 44ba
000001f0: 2ae9 e3b9 450d 8839 fe53 49ba 1d9b 7439

exp_avg_sq f4 [128]
1.1856109e-06 6.32213e-08 6.01685e-08 7.473779e-07 1.7336004e-06 4.277906e-08 1.3279949e-08 1.8549376e-07
2.2873113e-08 3.6276184e-08 9.518965e-08 1.2919734e-06 8.67567e-07 1.9730022e-07 1.5198069e-07 4.0827615e-08
2.3214938e-07 2.207198e-06 1.6053927e-07 2.900134e-06 9.2591995e-07 3.564369e-07 1.4787516e-07 2.387566e-07
6.4943224e-09 4.069634e-06 1.2927094e-07 1.7249366e-06 6.1819e-07 4.208893e-06 1.0674564e-07 1.6176696e-06
3.5792826e-07 1.5105991e-07 3.2710798e-08 5.633942e-07 4.077699e-07 4.658835e-07 2.4428262e-08 1.7576313e-06
3.8167406e-07 6.12653e-07 2.5690147e-07 3.9560055e-06 1.4694571e-07 6.761522e-07 5.060209e-07 1.8511167e-06
2.228504e-07 1.6700898e-08 2.3476571e-07 1.3512034e-06 1.1447605e-07 2.1754565e-07 8.060817e-09 3.6181922e-07
9.363501e-07 4.8113725e-07 4.8192453e-07 1.0392091e-07 5.746939e-08 7.354103e-08 4.1460316e-06 4.829978e-07
1.9833853e-06 2.9461845e-07 5.983818e-08 1.397155e-06 1.7202797e-08 1.0638325e-07 7.5425413e-07 1.5185099e-06
5.6025584e-07 1.2784066e-07 2.2733603e-07 2.0029219e-07 2.3906473e-06 7.889789e-09 4.6379217e-08 6.1511173e-07
7.001573e-07 2.5232e-07 1.9398676e-06 2.2918185e-07 5.5226974e-07 1.1924537e-07 1.134047e-06 5.38495e-08
7.02143e-08 2.578833e-06 1.8125803e-07 4.166603e-07 2.3535445e-07 1.14225244e-07 2.3476201e-07 2.5418545e-08
4.0260744e-08 2.4722183e-07 2.7286615e-07 3.3525087e-08 1.5566005e-08 2.4930134e-06 9.896895e-07 6.73109e-07
5.09332e-08 9.411518e-08 1.5557697e-08 1.8376409e-07 5.807233e-08 5.3938936e-07 2.6905744e-07 1.1720642e-06
1.8480696e-07 9.7879784e-08 2.346465e-06 1.6233034e-07 7.786757e-08 1.3688424e-07 5.9218377e-07 1.4908595e-07
6.5199697e-07 1.9967931e-06 2.1562147e-07 4.2020457e-07 8.5905816e-07 1.16835814e-07 1.608263e-06 1.0982873e-07
00000000: 4821 9f35 47c4 8733 fc35 8133 6b9f 4835
00000010: 0eae e835 13bc 3733 d525 6432 232c 4734
00000020: 827a c432 16ce 1b33 106b cc33 de67 ad35
00000030: c0e2 6835 79d9 5334 2230 2334 705a 2f33
00000040: bc44 7934 5f1f 1436 b360 2c34 ec9f 4236
00000050: bc8c 7835 515c bf34 9dc7 1e34 752e 8034
00000060: aa24 df31 e48d 8836 bacd 0a34 5f84 e735
00000070: b1f1 2535 1e3a 8d36 093c e533 b41e d935
00000080: 4929 c034 0833 2234 e77d 0c33 283c 1735
00000090: 78eb da34 8a1e fa34 51d6 d132 c0e7 eb35
000000a0: e2e8 cc34 3275 2435 45ec 8934 d4bd 8436
000000b0: 21c8 1d34 d380 3535 7ed5 0735 e373 f835
000000c0: a748 6f34 aa75 8f32 e813 7c34 ff5a b535
000000d0: e0d5 f533 7e96 6934 d97b 0a32 0e40 c234
000000e0: 7d59 7b35 8027 0135 9a5d 0135 202b df33
000000f0: 43d4 7633 9ced 9d33 241e 8b36 5ba7 0135
00000100: 4d1a 0536 0d2c 9e34 6380 8033 e185 bb35
00000110: 5ac5 9332 cf74 e433 f377 4a35 9acf cb35
00000120: 7d64 1635 9344 0934 a719 7434 e60f 5734
00000130: 026f 2036 a98b 0732 7d32 4733 281e 2535
00000140: 71f2 3b35 9976 8734 ac2e 0236 0715 7634
00000150: b03f 1435 eb09 0034 8f35 9835 2748 6733
00000160: b8c8 9633 0310 2d36 d49f 4234 5bb1 df34
00000170: bdb5 7c34 fe4b f533 e412 7c34 f957 da32
00000180: 28eb 2c33 e9b9 8434 707e 9234 39fd 0f33
00000190: 02b6 8532 a54d 2736 79d5 8435 b3af 3435
000001a0: a5c1 5a33 5e1c ca33 bda3 8532 b050 4534
000001b0: 346b 7933 8eca 1035 f972 9034 d24f 9d35
000001c0: 5a6f 4634 fb31 d233 f677 1d36 064d 2e34
000001d0: 2638 a733 74fa 1234 8ff6 1e35 6f14 2034
000001e0: e404 2f35 a500 0636 9485 6734 7a98 e134
000001f0: 079a 6635 2be7 fa33 7fdb d735 fcda eb33
