results/flappy3/FlappyAgent/FlappyAgent-115617.onnx (onnx, 72315 bytes, 8 tensors)

network_body.observation_encoder.processors.0.normalizer.running_mean f4 [4]
00000000: f437 0441 0572 21c0 8052 8640 7bd5 4b40
8.26366 -2.5225842 4.197571 3.1849048

network_body._body_endoder.seq_layers.0.weight f4 [128, 4]
00000000: 37ec bcbe 3b95 06bf 6f88 863e cdd8 d9be
00000010: e045 b83d 2d5f d9be 63ff bf3d 8458 7dbe
00000020: de8d ba3d c282 3abf 28fe 623d cbfc 5cbe
00000030: f40c dd3c 72af 643e 0023 f1bd d5c4 27bf
00000040: b4f9 0cbf 0a22 143f 57e7 69be 4913 bebe
00000050: 41d4 973e c1e6 ab3e d880 963e e2c7 be3d
00000060: 2d9b 49be 6838 b3bd 7658 db3e fe6e 95bd
00000070: e0f7 913e 411b 203f 1ddc 8c3e a5fa 87be
00000080: f58f 903f b7fb 9f3e c41e e8bd 3308 35be
00000090: f34b a9be 1e0e 903f a1d8 a83e b210 1e3c
000000a0: 47a7 76bf a6a8 233e 0b07 353f 5594 5b3f
000000b0: 81dc 16bf d51b fc3c 89fd d2bd adb3 46bf
000000c0: 5f28 35be e8a4 08be c171 e3be 7707 acbe
000000d0: 902d d93e 5bed 10bf f24a e53d cf39 1c3f
000000e0: c8b6 dbbe f7ab da3d b5ed 02be 9fa3 4a3f
000000f0: 91ad f3be 888a eabc eb10 ae3d 4fde a4be
00000100: 1114 18bf a9dc 43bf 9457 21bd 1381 473f
00000110: b952 23be debe d9be be32 b2be d0fa 05bf
00000120: f23f b63e c7cb 213f 5922 75be 65a8 d3bc
00000130: 4284 e4bf 20e5 1d3e 961c 4ebf d230 bb3e
00000140: 5eb4 363f c1db b4be fd4d 1a3f 97d1 423f
00000150: c8c8 75be 3de1 1abf 536e 28bf 33c9 3dbe
00000160: 1ce3 923e c767 c43e 9fb8 273e ab1b 36bf
00000170: 9141 28bd 2f98 863f 95b6 89be 474f 113c
00000180: ac0d d63d 8f76 2fbe cb6e be3e c0c5 e03e
00000190: c9e7 98bd d523 afbe 64fe 38bf 7637 8dbf
000001a0: 8147 adbd 2943 de3e b0f3 6b3f d4e6 fb3e
000001b0: 443f fabd e54a 06be f87c 90bf 65b0 33be
000001c0: da26 b13f 7c48 2bbf d1fe ebbe c350 593e
000001d0: 1076 9abe b5a8 3a3c 6e09 05bf 3ce0 bfbe
000001e0: 8d45 f7be 0e9d 6c3e d8b6 2c3f b427 e5be
000001f0: d986 01bf fa6d 32bf e9ce 62be 7f4a 0f3f
00000200: 87cf ee3e ed4c fe3d cdcc 6b3f 691f d0bd
00000210: f999 2b3c d3cf a5be 8431 293f 19b6 033f
00000220: d68a 42be 5e76 26be 253a 863e 48b2 d73e
00000230: ea9d 8ebe b71d 0bbe 3fa0 0fbf 4abb 5c3e
00000240: d645 c93e 1f7a 9dbf 9a87 053f 57de 14bf
00000250: 6ccb b53f 7052 a9bd 50b8 263e c2b8 ebbe
00000260: 9b15 7abe af3c 1f3f 8c74 b43e bfdd 553f
00000270: f6cf f0be e515 cb3e 35bc 81bf a19a 17bf
00000280: 626c 7a3e 5372 733e 0757 0f3f fe3e 933e
00000290: 3750 bdbe 3be6 96bf 23bf b03e 1476 d23e
000002a0: 522d 49bc 8020 0d3f c2fa f6be cf80 fe3d
000002b0: 6d70 c23e a799 16bf 6483 28bf 43ca 27bf
000002c0: 4ebd 8d3e 67df 1b3e b7e9 14bf 046c b13d
000002d0: df9f 0bbe c57c ce3e 4777 033f 344c 883f
000002e0: 9a28 7d3f 8a21 42bd 2268 e53e c830 cdbe
000002f0: 3abc b03d 2743 d7bd 740d 8a3e 1201 67bf
00000300: c4f0 65bd 957c b1be 2483 183f cbcf f9be
00000310: 61cd cd3e c1ea 813f 0b60 693e 7db3 c2be
00000320: 0731 c9bd 4871 5dbe 5380 353f c14d fbbe
00000330: a9f2 693f 8273 d03d 7751 fa3e 7b6b 833f
00000340: c397 8c3e 5ce1 a43f a3e0 b73d 59e8 2cbf
00000350: 8632 70bd 4a7b 0c3f 56c5 f33e 9f4f afbe
00000360: 535e d5be 40bc 16be 6098 5e3c 82d7 233f
00000370: d36c 4e3e 6c5e afbe 2392 6dbe aa91 9dbe
00000380: 371d 50be e57d 993d 259c 92be a0c3 8cbe
00000390: 7015 183f 8ab9 3b3e b324 33bf 2316 b2be
000003a0: 53aa 0c3f b77d 1abf c7ab a9be 988a 273f
000003b0: 2c86 f3bd 4ded cf3e 100a ad3d ce3f d23e
000003c0: 3bc3 09bf 3bf4 09bd 18ae 95bd 9cbb b6bd
000003d0: b534 fc3e bb33 89bd 8460 dc3e 1438 4ebe
000003e0: f98e 7cbe 10c3 acbf bbec c0be 61b3 abbf
000003f0: bb45 b23e 6a83 d33e 10c8 5cbe e8b6 c93d
-0.36898968 -0.5257146 0.26275966 -0.42548218 0.089977026 -0.42455426 0.09374883 -0.24740797
0.0910909 -0.7285577 0.055418164 -0.21580808 0.026983716 0.22332552 -0.11774254 -0.65534717
-0.55068517 0.5786444 -0.22842155 -0.37124088 0.29654124 0.3357449 0.29395175 0.09315468
-0.19688101 -0.08750993 0.42840928 -0.07296561 0.28509426 0.62541586 0.27511683 -0.26558414
1.1293932 0.3124673 -0.11333993 -0.17678909 -0.33065757 1.1254308 0.32977775 0.009647535
-0.96348995 0.15982303 0.7071387 0.8577321 -0.5893021 0.03077499 -0.10302264 -0.77617913
-0.17691182 -0.13344157 -0.44422725 -0.33599445 0.42417574 -0.56612176 0.11195935 0.6102571
-0.4291289 0.10677331 -0.1278599 0.79155916 -0.47593358 -0.02863051 0.084993206 -0.32200858
-0.5940562 -0.76508576 -0.03939016 0.77931327 -0.15949525 -0.42528433 -0.34804338 -0.52335835
0.3559566 0.63201565 -0.23938884 -0.025837133 -1.7852862 0.15419436 -0.8051237 0.36560684
0.7136897 -0.3532391 0.6027525 0.7610106 -0.24002373 -0.60499936 -0.6579334 -0.18533783
0.28688896 0.38360426 0.16379021 -0.7113597 -0.041078154 1.0515193 -0.26897112 0.008868999
0.104518265 -0.1713507 0.37193903 0.4390087 -0.074660845 -0.34207025 -0.7226317 -1.103255
-0.08460904 0.43410614 0.9216871 0.49199545 -0.12219098 -0.13114507 -1.1288137 -0.17547758
1.3839982 -0.6690748 -0.46092847 0.21222214 -0.301682 0.011392762 -0.51967514 -0.37475765
-0.4829525 0.23106787 0.674665 -0.44756854 -0.50596386 -0.6969906 -0.22149242 0.55973047
0.46642706 0.12417016 0.92109376 -0.10162241 0.010473722 -0.3238512 0.6609118 0.51449734
-0.18998274 -0.16256091 0.26216236 0.42128205 -0.27854854 -0.13585554 -0.5610389 0.2155582
0.39311093 -1.2302893 0.52160037 -0.58151764 1.4202704 -0.08267677 0.16281247 -0.46039397
-0.24422304 0.6220197 0.35245168 0.8354148 -0.47033662 0.39665142 -1.0135561 -0.5922032
0.24455407 0.2377408 0.5599217 0.28758997 -0.36975262 -1.1789011 0.34520826 0.4110571
-0.012278872 0.55127716 -0.48238188 0.12426912 0.379764 -0.58828205 -0.65825486 -0.65543
0.2768349 0.1522194 -0.5816912 0.086631805 -0.13635205 0.40329567 0.5135388 1.0648255
0.9889008 -0.047395267 0.4480601 -0.4007628 0.08629651 -0.10510855 0.2696339 -0.9023601
-0.056137815 -0.3466536 0.59575105 -0.48791346 0.40195754 1.0149766 0.22790544 -0.38027564
-0.09823804 -0.21625245 0.7089893 -0.4908276 0.91385895 0.10178281 0.48890278 1.0267175
0.27459535 1.2881274 0.08978393 -0.67542034 -0.058641933 0.54875624 0.47611493 -0.34240434
-0.41673526 -0.14720249 0.013586134 0.64000714 0.201587 -0.34251726 -0.23200278 -0.30775195
-0.20323645 0.074947156 -0.28634754 -0.27493 0.5940771 0.18332496 -0.69977874 -0.34782514
0.54947394 -0.60348076 -0.33138868 0.6544585 -0.11890826 0.40610734 0.08449185 0.41064304
-0.53813523 -0.033680182 -0.073085964 -0.089225024 0.49258962 -0.0669932 0.43042386 -0.2013858
-0.24663915 -1.3497028 -0.3768061 -1.3414117 0.34818825 0.41311198 -0.21560693 0.0984934

network_body._body_endoder.seq_layers.0.bias f4 [128]
00000000: 7a69 513d 9f30 5f3c cf2e 573d bd25 313d
00000010: 286a 283d 8428 1f3d 628a af3b 2f6c 6cbd
00000020: 7862 1f3d 57d7 fb3c 311b 8aba 5c71 303d
00000030: 2059 6e3c 02e9 283d 9ad8 093d 738c c1bc
00000040: 1957 4c3d 60a4 ff3c d609 c0bc 1a39 243d
00000050: defd 633d 70ca 7fbb 670f 3c3d 0e6a c4bc
00000060: bd53 2abb 577a 263d 35ff b8ba ef26 f73c
00000070: a0ae 723d 2413 353d 3a7a 99bc fa1d 583d
00000080: 70b5 3f3d 3c25 633d 6f6c 073d 15f8 243c
00000090: 37b8 4e3d cc6c 623d 8f6e 19bd 25cd 263d
000000a0: 38fe 7e3d 63e2 583d 9597 ef3c dca9 493d
000000b0: ef27 5fbd 66fe 6f3d 0690 5d3d cd60 4f3d
000000c0: 524f 663d 5424 6dbc 52a2 cbbc 76e2 673d
000000d0: f68d e2bc d5f9 26bd 944d c63b d9ad 953c
000000e0: 7c95 1b3d 77c2 313d 5540 6b3d f242 1dbd
000000f0: 3980 d6bc 76d7 1e3d ee6d 233d 148b 4cbd
00000100: 9292 053d d022 513d 9d1e 02bd 803a 7b3d
00000110: 9ff9 03bd a3c0 2dbd ea5e 6a3c 41ea 1a3d
00000120: 999f 4cbd e231 273d d80e 993c 0f41 0abd
00000130: ce6f 413d f02a 803c 88d8 14bd fc4d 233d
00000140: 4f13 213d 5f3f f7bc fe4f 233d 70ae 113d
00000150: b418 dc3c 50f5 c3bc 5c57 823d cdb3 13bd
00000160: a94a 65bb 91ce 633d 2bc3 3f3d 1ac1 da3c
00000170: 69ec 593c ecdd d1bb 7d58 1abd 9bbe 1e3d
00000180: 0f0b 93bc b646 60bd 958e 163c 392f f83b
00000190: c87e 0cbc c5f6 373d afd9 2f3d c436 543d
000001a0: b766 3e3d ba50 273d 0f85 6abc 25f9 493d
000001b0: 33ce 253d b34e 2a3d 8a54 453d 2a68 343d
000001c0: 0faa 6a3d 49fa 9e3c 2be4 413d 6e7d d6bc
000001d0: e98a 0ebd 7dda 08bd de09 49bd 0c2a f43a
000001e0: 1a18 483d fdfa 413d 31c6 103d 280c 653d
000001f0: fbcb 483d 7c84 2abd 64e3 553d 8c8c 57bd
0.05112598 0.013622432 0.052534875 0.04324888 0.041116863 0.038856998 0.0053570727 -0.05772036
0.038912266 0.03074233 -0.0010536668 0.043076858 0.014547616 0.04123784 0.033653833 -0.023626542
0.04988775 0.03120631 -0.02344219 0.04009352 0.05566203 -0.0039030574 0.045913126 -0.023976352
-0.0025989853 0.040644016 -0.0014114144 0.030169932 0.059248567 0.044207707 -0.01873504 0.052762963
0.04680389 0.05545543 0.033062395 0.010068913 0.05046865 0.055279538 -0.037458953 0.040722985
0.06225416 0.052950274 0.029247085 0.049234256 -0.054481443 0.058592223 0.05409243 0.050629426
0.05622799 -0.014473993 -0.024857674 0.056612454 -0.027655583 -0.040765602 0.0060517285 0.018271374
0.037984356 0.043398347 0.0574344 -0.038393922 -0.026184188 0.0387797 0.03989976 -0.049937323
0.032610483 0.05105859 -0.031767476 0.061335087 -0.03222048 -0.04242004 0.014304856 0.03782106
-0.04995689 0.040819056 0.018683836 -0.03375345 0.047225766 0.015645474 -0.036339313 0.039869294
0.039325055 -0.030181585 0.03987121 0.035566747 0.026867248 -0.023920685 0.06364319 -0.036060143
-0.0034987128 0.05561692 0.046816986 0.026703406 0.0133009935 -0.006404629 -0.037682045 0.038755994
-0.01794961 -0.054754935 0.009189268 0.0075739888 -0.008575149 0.044913072 0.04293221 0.05181004
0.046484675 0.04084847 -0.01431395 0.04930987 0.04047985 0.04157896 0.048176326 0.04404465
0.057291087 0.019406455 0.04733674 -0.026182856 -0.034800444 -0.03341149 -0.049081676 0.0018628254
0.04885111 0.0473585 0.03534526 0.055919796 0.049022656 -0.041630253 0.05221881 -0.05262427

network_body._body_endoder.seq_layers.2.weight f4 [128, 128]
00000000: 42ea 833d ee73 b73d d2d6 c6bc aa4c 5d3e
00000010: 4608 103e 9925 8d3d 5a1a 25bd 53ca 31be
00000020: 4669 193c 34b8 d0bd d829 69bd c563 393d
00000030: 5264 f53b 0088 123e 1f3b abbc d53f 0ebe
00000040: 0dfe 8d3d 4263 df3d 50b9 a23d fb4c 42bd
00000050: 4155 95bc 41c6 bfbd cfcc 34bd dd99 c93c
00000060: 17ca d5bd 44ea d13d 1e91 063e d84d 0fbd
00000070: 5657 a0bc 74eb 393d 6203 88bd 282a a13c
00000080: 4625 0cbd 515b 823c 1505 053e 6b5d 50bd
00000090: a910 363e 091e e33c 82c1 b8bd 42d8 ba3a
000000a0: a41d ff3a caaf c73d 79ea 303d 2fb3 793d
000000b0: 517d 2dbe 5785 3d3d 61b9 b0bd 68fb 1d3e
000000c0: 9b43 b93c ba2c dcba 7134 14bd 2256 bdbd
000000d0: 0a50 043e 4bfa 813c 02a0 9bbd e033 2bbd
000000e0: 0252 ba3a 983f 943d 800e cd3c 0eb6 1abe
000000f0: 4371 b4bd 31b5 34bd 8d2a 363d c3a6 b6bd
00000100: adf0 133d 8b0c 5cbd 7526 96bd f852 b9bb
00000110: de5c c23c d8a9 6cbd 7394 a4bc e891 8c3d
00000120: 5c79 49bd 2c4b 58bd fce5 623d 9640 24bd
00000130: e670 f938 5b96 1b3d 06ad 00be 65ad 313c
00000140: 47df 71bd 1203 af3d 0a33 563d e19e 473d
00000150: 406b f73d a9c8 96bd dc73 45bd cdd9 4fbe
00000160: bc9c 9dbc eece 153e 30b4 c03d 0e14 61bd
00000170: 9c23 c13d d50d 21be 0719 16bb 716a 183d
00000180: f137 10bd fa6f a1bc cc96 4c3c b1a4 63bd
00000190: 6432 9bbb b3c5 613e 4bcb 053e 4c56 adbc
000001a0: ceb1 043e 9ea8 8abe f31b 7bbd ba36 12be
000001b0: 73ed b9bc 0d7e ab3d 2753 f53d a87c bbbd
000001c0: aa20 403d e353 fabd 15cc e73d ad27 ff3d
000001d0: e928 aabd a3cc f83c d160 7fbc 8b89 ac3d
000001e0: f5a8 a93d 9878 e5bd 8fa3 e83d eda0 aabc
000001f0: 3ce9 9abd 62fb 63be ba07 b83d a6b7 b03c
00000200: df43 0a3b cd4e 293e 074e 3bbe 801a e33c
00000210: 4482 1dbe cdea dbbd 9439 e83d 17a4 08bd
00000220: 54c1 0fbd 0ee6 f63d 6254 babd e0dc 94bd
00000230: ad7e e3bb 0c2d fb3d 9bba b5bd 94cd b73d
00000240: 2d02 8cbd 1f6d db3d 5196 7e3d a610 d9bd
00000250: c9fd f43d 02d7 2bbd 06c0 343c 4fad acbc
00000260: e303 493d d0b5 bdbd a798 27bd 78d0 7f3c
00000270: 6dcc 24be bc12 7b3d 3c29 4abd 16be 48be
00000280: 5332 b43c df0e 7ebe e3d8 97bd 9a6c 973d
00000290: 39da 26be ecf7 90bc 6702 0fbe beb7 0cbe
000002a0: 28ed 18bc e555 0bbd 19aa 813d ac64 3dbd
000002b0: ddff 803d d7a0 6cbe 515d 97bc 1988 0ebe
000002c0: fcbf 0bbe 169d 613c c490 c7bd ed12 663d
000002d0: 1531 b1bd 5df1 803d ccb7 9c3d 48ca 11be
000002e0: 3ee8 1fbe 0293 54be 810e 82bd e2bf 2ebe
000002f0: 855c e8bd cdaa 41bd d810 0f3b 559c 4ebd
00000300: 6416 723e a0fd 7bbd af0e ae3c c920 4ebd
00000310: b60c c33c 4776 113e 58f6 273e 8525 57bd
00000320: c454 8c3d 3b9b 1fbe 62a3 ccbd 441c 8f3d
00000330: 1381 0d3d 0f53 7f3d 21e3 0b3d 8dd8 b7bd
00000340: 9f76 99bc f9c4 3e3d 3b0a 08be 3845 d73c
00000350: d952 0cbd 18c7 9ebd c270 85be 4142 563b
00000360: 567b bebb 985a f3bd 7854 f13c d08a 82bd
00000370: 8f11 163e 2289 df3c 4d5d 233d 2f23 09be
00000380: 586f fabd 7727 bdbc b2bf 92bd 4aa4 80be
00000390: 13df a83c 95f5 acbd 2f8c ab3d b3fe 4fbd
000003a0: d79a 42bd 58e5 a4bd df67 54bd 868b 6fbd
000003b0: c028 9bbd bf07 5d3d e239 f83c 5885 8abe
000003c0: d1a9 ddbd 7dd8 7dbd 60fc 43bc 9840 39bd
000003d0: a9c1 94ba afab d3bd 0a51 e2bc 4723 8c3d
000003e0: 87d4 a23d 1487 293b 0e38 1dbe 7cb4 003e
000003f0: 7c3f eabd 853c d3bd 165c 78bd ce01 1bbb
0.064411655 0.08957659 -0.024272356 0.21611276 0.14065656 0.06891937 -0.040308334 -0.17362337
0.009363478 -0.10191384 -0.05692467 0.045261163 0.0074887658 0.14309692 -0.020902215 -0.13891537
0.06933222 0.10907604 0.07945502 -0.047436696 -0.018229129 -0.09363986 -0.044140633 0.0246095
-0.10438936 0.10249761 0.13141295 -0.034986347 -0.019572895 0.04539056 -0.0664127 0.019673422
-0.034215234 0.015912684 0.1299022 -0.05087034 0.17779793 0.027724283 -0.09021284 0.0014255124
0.001946379 0.09750326 0.04319236 0.0609619 -0.16942336 0.04626974 -0.08629108 0.15427935
0.022615245 -0.0016797998 -0.036182825 -0.09244944 0.12921157 0.01586642 -0.075988784 -0.04179752
0.0014215114 0.07238692 0.025031328 -0.15108511 -0.088106655 -0.04411811 0.044474173 -0.08918526
0.0361182 -0.0537229 -0.07331554 -0.0056556426 0.023725923 -0.057779163 -0.020090317 0.06863767
-0.049188003 -0.052806064 0.05539511 -0.040100656 0.00011894274 0.037985187 -0.12566003 0.010844563
-0.059050824 0.085455075 0.05229477 0.048735503 0.12081003 -0.07362492 -0.048206195 -0.20297928
-0.019239776 0.14629719 0.09409368 -0.054950766 0.0943062 -0.15727933 -0.00229031 0.037210885
-0.0352096 -0.019706715 0.012487125 -0.055576984 -0.0047362316 0.22048073 0.13065831 -0.021159314
0.12958452 -0.2708177 -0.06130595 -0.14278689 -0.022696232 0.08373652 0.11978751 -0.09154636
0.04690615 -0.12223031 0.113182224 0.124587394 -0.08308584 0.030371016 -0.015587048 0.08424672
0.08284179 -0.11204642 0.11359321 -0.020828689 -0.07564017 -0.22263864 0.08985849 0.021571945
0.0021097583 0.16533966 -0.18291484 0.027722597 -0.15381724 -0.10738144 0.11339107 -0.033359613
-0.03509648 0.12055598 -0.09098126 -0.07268691 -0.006942591 0.122644514 -0.08873483 0.08974758
-0.068363525 0.107141726 0.06215507 -0.105988786 0.11962468 -0.041953094 0.01103211 -0.021078734
0.049075972 -0.092631936 -0.040917065 0.015613668 -0.16093607 0.061297163 -0.04935573 -0.19603762
0.021996653 -0.2481036 -0.07414415 0.07393761 -0.16294183 -0.017696343 -0.1396576 -0.13741967
-0.009333886 -0.034017462 0.06331272 -0.046238586 0.06298802 -0.2310823 -0.018477114 -0.13919105
-0.13647455 0.013770362 -0.09744409 0.056170393 -0.0865194 0.062960364 0.07652244 -0.1423732
-0.15615937 -0.20759204 -0.06350423 -0.17065385 -0.11345772 -0.04728203 0.0021830108 -0.05044206
0.23641354 -0.061521173 0.021247236 -0.050324235 0.023809772 0.14205275 0.16402566 -0.052526016
0.06852105 -0.1558656 -0.099921 0.06987813 0.034546923 0.06233507 0.034152154 -0.08976851
-0.01873332 0.046574567 -0.13285153 0.026278123 -0.034258697 -0.07752818 -0.2606259 0.00326933
-0.0058130426 -0.11882514 0.029459223 -0.06374133 0.14655136 0.02728707 0.0398839 -0.13392328
-0.122282684 -0.023090107 -0.07165469 -0.25125343 0.020614183 -0.084452786 0.08376347 -0.05078001
-0.047510948 -0.08051556 -0.05185687 -0.05848267 -0.07576132 0.053962465 0.030301038 -0.27054858
-0.108234055 -0.061974037 -0.011962026 -0.045227617 -0.0011349219 -0.103354804 -0.027626533 0.06842666
0.079506926 0.0025867866 -0.15353414 0.1256885 -0.1143789 -0.103142776 -0.060634695 -0.0023652199

network_body._body_endoder.seq_layers.2.bias f4 [128]
00000000: d225 373d 9d15 69bd 584e 26bd bf20 433d
00000010: 4623 0fbd 1f93 3a3d 5b23 2ebd 5bb3 2fbd
00000020: db28 30bd 4a76 223d a8c0 7f3d afb7 d43c
00000030: 56bd 503d 3444 16bd 4dde 4f3d d601 873c
00000040: 7c8c 683d a657 60bc ff61 3f3d 530f 19bd
00000050: 0ad5 33bd d77d 67bd 686f 4f3d b98d 493d
00000060: 9fcb 48bd cebd 4a3d a571 a73c cdd5 5a3d
00000070: eea3 213d ce06 2cbd f8e9 333d 1133 053d
00000080: 8280 683d 0136 59bd e1d9 583d e614 19bd
00000090: 15d0 32bd 18e2 073d 65cb 1e3d 4555 5a3d
000000a0: b220 2d3d 4154 14bd 8e9a 3f3d 09d4 4abd
000000b0: 6f23 793c a52e 2c3d a8ea 2d3d bd7c 713d
000000c0: bc14 193d b092 4b3d 6073 463d 0627 30bd
000000d0: 9e60 303d 2026 463d a9a6 30bd eee0 3abd
000000e0: 7518 abbb ee6d 313d 5320 27bd 34b5 2c3d
000000f0: dbcc 43bd b902 19bd 75e9 023d c5e0 373d
00000100: 8df6 3d3d d7ee 2b3d 0083 eebc b45f 38bd
00000110: fcda 2bbd 2495 39bd 966e 3f3d 5eb3 463d
00000120: c282 803d 4630 42bd 0537 29bd 3243 2c3d
00000130: 7cf4 3f3d 8187 19bd 5b2c 213d ce2e 453d
00000140: 5ce1 2f3d 0b1d 593d eb0d 28bd 6284 663d
00000150: acd4 2b3d a20a 4c3c 3b23 26bd a679 3f3d
00000160: 491e 3a3d 137b 67bd 8913 433d 352b 2cbd
00000170: af84 5c3d a749 5fbd b4cc 39bd cdb3 dbbc
00000180: 3af5 533d bd1c 4dbd 1ec2 283d 653c 543d
00000190: 09b6 0a3d 35a2 533d 61bf 273d 2002 26bd
000001a0: 0a6a 3dbd 1011 323d 1491 79bd 1111 32bd
000001b0: 4d6d 3cbd 6b16 57bd a842 44bd 8410 603d
000001c0: a8c5 4c3d 6407 3bbd 6ea4 37bd db03 05bd
000001d0: da12 a83c 7319 52bd e878 3dbd eb1f 2f3d
000001e0: 5b2a 623d 4019 34bd 1845 393d e95b 0ebd
000001f0: 0dad 493d c5db 5e3d 2e25 2c3d 7e19 103d
0.044713803 -0.056905378 -0.04060206 0.04763865 -0.03494575 0.04555046 -0.042514186 -0.042895656
-0.043007713 0.03966359 0.06243959 0.025966493 0.050961815 -0.036686137 0.050749112 0.016480368
0.0567746 -0.013692772 0.046724316 -0.03736813 -0.04390434 -0.056516495 0.050643355 0.049207423
-0.049022313 0.049497418 0.020439932 0.053426553 0.039462976 -0.041998677 0.043924302 0.032519404
0.05676318 -0.053030018 0.05294216 -0.037373446 -0.043655474 0.033174604 0.03876819 0.053303976
0.04226751 -0.036213163 0.046778254 -0.04951862 0.015206202 0.04203667 0.042460114 0.05895685
0.03737329 0.04970044 0.048449874 -0.043005966 0.04306089 0.048376203 -0.04312769 -0.045624666
-0.0052214214 0.043317728 -0.04080231 0.042164996 -0.047802787 -0.037356112 0.031960923 0.04489209
0.046377707 0.041975822 -0.0291152 -0.045013145 -0.041956887 -0.045308247 0.046736322 0.0485109
0.0627494 -0.04740932 -0.041312236 0.04205627 0.046864018 -0.037482742 0.03934894 0.04814034
0.04293953 0.053006213 -0.0410289 0.056278594 0.041950867 0.012453707 -0.040560942 0.046746872
0.04543904 -0.056513857 0.047626052 -0.042033393 0.053837474 -0.0545136 -0.045361236 -0.026819134
0.05174754 -0.050076235 0.04120075 0.05181541 0.03386501 0.051668365 0.040953998 -0.04052937
-0.046243705 0.043473303 -0.060929373 -0.043473307 -0.046002675 -0.052511614 -0.04791513 0.05470325
0.049993187 -0.045661345 -0.044834547 -0.03247438 0.020516802 -0.0512938 -0.046257883 0.04275505
0.055216175 -0.043969393 0.04523191 -0.03475562 0.0492373 0.054408807 0.042027645 0.03518056

action_model._discrete_distribution.branches.0.weight f4 [2, 128]
00000000: f815 f73c 748f 10bd 1dc0 7abd c1e7 fe3c
00000010: b391 70bc afa1 163d 7b9c 19bd 7373 09bd
00000020: f286 62bd 0c0c cb3c 19a0 443d a3d2 2f3c
00000030: 14a0 363d 7def f2bc 4c88 f13c 2743 18bc
00000040: 7466 493d 52e1 9f3a e8c8 103d 09a2 acbc
00000050: 68b7 33bb b384 2cbd 8423 133d ab35 463d
00000060: dd87 d6bc 42bf f63c 72c5 a33c 6a73 533d
00000070: 5aff b43c 949b f7bc 7b1b da3c 9edd 3a3d
00000080: b9ba 333d 8fe4 05bd b402 bb3c 9e6e 1dbc
00000090: cc4d 14bd c7c6 e33c ceb1 113d ba15 0e3d
000000a0: 5ce9 fd3c 64a1 e3bb a8bf 353d 335e 07bd
000000b0: a2c7 c13c 83bd e13c 76b4 1c3d ff4c ec3c
000000c0: d5ac da3c 2518 493d 213d 633c ad66 4dbd
000000d0: f35b 113d 5800 283d 1d8a 43bd 0333 03bd
000000e0: 4153 ffbc 1556 c53c 27be 07bd abe3 f83c
000000f0: db84 05bd cff8 8cbc 77fe 7f3c 7227 d93c
00000100: b4b5 e33c 341a fe3c e691 97bb b187 b3bc
00000110: f14a 03bc 1b69 bdbc 63d7 013d 8db2 0e3d
00000120: 61ff 0d3d 368a b1bc 2180 02bc e021 a23c
00000130: 558e e93c 7811 ccbc 92c1 6d3c b5d6 4f3d
00000140: 9c89 fa3c 4368 9f3c 5b31 edbc 3d18 c63c
00000150: e0ba 0b3d a5f1 ecba d080 52bd 14c6 a53c
00000160: b4d7 f93c 5937 3cbd c77e 183d b3ea 21bd
00000170: 3f63 783c 58ca 4bbd 16a4 0abd 331d 1bbc
00000180: f052 e33c eaf9 0dbd f3d9 a13c da4f 053d
00000190: 359d e93c e536 3f3d c0f5 fb3a ecf9 3fbd
000001a0: 819b f2bc ece6 a03a 850a 1abd 9e8e cebc
000001b0: 402c c1bc 1755 66bc e1d1 fdbc 663c 843d
000001c0: c0d0 2f3d c43f ecbc 676a 42bd bae6 2ebd
000001d0: be8a ab3c 6925 a7bb 1b9e 16bd ffce e33c
000001e0: 4d44 033d be6e 8dbc 9473 1b3d 054b 61bc
000001f0: fefe 1c3d 93a2 cf3c 7fc8 c23c 981b 063c
00000200: b65b 06bd ab9c 553d 6d2b 143d ffd4 e1bc
00000210: 518d 743b cb1a a0bc 4ad6 473d c1dc fc3c
00000220: 552e 473d 2a29 f1bc 9e98 3fbd 0f2a c6bb
00000230: cdd8 37bd d019 ce3c cb3a 0dbd 837d eebb
00000240: 1f16 73bd 0e27 5bbb 1a84 f9bc 5ac0 c03c
00000250: a159 4e3c 00fc fc3c 66ed 01bd d567 06bd
00000260: 2621 263d 1bbc 0cbd a9e9 b1bc becd 2bbd
00000270: 4296 cbbc 397e d33c 2546 95bc 532d 06bc
00000280: 77e6 45bd 4f1c 983c 4b55 8cbc 802e ae3b
00000290: a6df 2f3d aad7 8abc abab 03bd 7edc 16bd
000002a0: 9d71 1dbd 7a82 463c 5b36 5cbd 8fe1 3f3d
000002b0: 0c25 15bb 4799 66bc cf7b 07bd bbbd 1fbd
000002c0: f034 c5bc 4c2e 1cbd df78 9ebc 55a4 703d
000002d0: 9211 b53b c20b 2dbd 7335 3e3d f20c 3d3d
000002e0: f88b a33c fc16 b6bc b246 133d a5fd 02bd
000002f0: 8809 083d e624 643c 33ec 29bc 52fb babc
00000300: 89cc 0dbd b903 0dbd d7e1 da3b 1d83 063d
00000310: 2537 be3c 8783 3d3d 6a09 9fbc bf16 b5bc
00000320: d083 28bd dc65 d43c 1dc5 e33b d716 0bbd
00000330: b7bf 01bd 7d7c 3e3c 6f66 06bc 0255 50bd
00000340: 44e7 debc 2033 e8bc 4c4f 113d 6763 19bd
00000350: c4c2 0dbd c400 123b e79e 1b3d e46b febc
00000360: 3aa2 ffbc 5ff5 f53c c7d2 0ebd 1d52 313d
00000370: 65a7 19bd 1dca b13c da4e 033d cf36 f3bb
00000380: 6148 02bd 6d76 353d 8d72 d7bc f4d9 2dbc
00000390: f5ad d2bc 785c 7fbc 4287 55bc 83c3 e23c
000003a0: 475e c33c 0196 83bc 85d9 283d 1f5b 4f3d
000003b0: f860 d73c 1f6c 453d 45ef fd3c 7b0d 3abd
000003c0: 5303 0fbd db5b 233d c161 383d d63e 063d
000003d0: c58f 2ebc b088 1d3d ad85 0f3d 52c2 05bd
000003e0: a9a8 20bd c305 1f3d f76c 1cbd fea5 8f3c
000003f0: 4d87 43bd 5410 1dbd 180e cfbc c4cf 86bc
0.030161843 -0.035293058 -0.06121837 0.031116368 -0.014683175 0.036775287 -0.037502747 -0.033557367
-0.055304475 0.024786018 0.048004244 0.010731372 0.044586256 -0.029655213 0.029483937 -0.009293354
0.049169973 0.0012197888 0.03534785 -0.021073358 -0.002742255 -0.04211874 0.035922542 0.048391026
-0.026187832 0.030120496 0.01999161 0.05162374 0.022094417 -0.030225553 0.026624432 0.045621507
0.043879244 -0.032688674 0.022828437 -0.009608893 -0.036207005 0.027804745 0.03556996 0.03468869
0.030995063 -0.0069467295 0.04437223 -0.03304882 0.023654763 0.027556187 0.03825804 0.028845308
0.02669374 0.04909529 0.013869555 -0.050146747 0.03548808 0.041015953 -0.047739137 -0.03203107
-0.031167628 0.024088899 -0.033140328 0.030381998 -0.032597404 -0.017208485 0.015624634 0.026508067
0.027796604 0.031018354 -0.0046255467 -0.021915289 -0.008013473 -0.023121407 0.03169955 0.034838248
0.034667376 -0.02167235 -0.007965119 0.019791543 0.028510252 -0.024910673 0.014511483 0.05074187
0.030583195 0.019458896 -0.028954199 0.02418148 0.034113765 -0.0018077387 -0.051392376 0.020236053
0.030498363 -0.04595122 0.03723028 -0.039530467 0.015160381 -0.049753517 -0.03384789 -0.009467411
0.027749509 -0.034662165 0.019757247 0.032546856 0.028517345 0.04668321 0.001922302 -0.046869203
-0.029615166 0.0012275851 -0.03760769 -0.02521449 -0.02358067 -0.014058373 -0.030983867 0.064568326
0.04292369 -0.028839 -0.047464754 -0.042700507 0.02094018 -0.005100895 -0.036771875 0.027808664
0.03204756 -0.01726472 0.03795202 -0.013750796 0.038329117 0.025346076 0.023777245 0.00818529
-0.032802306 0.052151363 0.036174227 -0.027567385 0.0037315676 -0.019544026 0.048788346 0.030866982
0.04862817 -0.029438574 -0.046776406 -0.0060474942 -0.04488449 0.025158793 -0.034479897 -0.0072781458
-0.05934727 -0.0033440026 -0.030458499 0.02352922 0.012594611 0.030881882 -0.03172054 -0.032813866
0.040558957 -0.03435908 -0.021717863 -0.041944258 -0.024851922 0.025817024 -0.018221924 -0.008189517
-0.04831549 0.018568186 -0.017130515 0.005315602 0.042937897 -0.01694854 -0.032146137 -0.03683137
-0.03843843 0.012116069 -0.053762775 0.04684597 -0.0022757677 -0.01407463 -0.033077057 -0.0389993
-0.024073094 -0.03813009 -0.019344745 0.05875047 0.005525776 -0.04224754 0.046437692 0.046154924
0.019964203 -0.022227757 0.035956092 -0.031980176 0.033212215 0.013924813 -0.010371256 -0.022824917
-0.034618888 -0.03442738 0.0066797542 0.032839883 0.023219654 0.046268012 -0.019413669 -0.022105573
-0.04114133 0.025927477 0.006950988 -0.03395733 -0.031676974 0.01162636 -0.008203133 -0.05086232
-0.027209885 -0.02834469 0.035476014 -0.037448313 -0.03460957 0.0022278288 0.037993338 -0.031057306
-0.031205285 0.030024229 -0.03486898 0.0432912 -0.037513155 0.02170282 0.03205762 -0.007422305
-0.031807307 0.044302393 -0.02629974 -0.010611046 -0.025717715 -0.015586011 -0.013032736 0.027681118
0.023848666 -0.016062738 0.041223068 0.05062401 0.026291355 0.048198815 0.030997882 -0.045423012
-0.03491528 0.039882522 0.0450151 0.03277477 -0.0106543945 0.038460433 0.035039593 -0.03265602
-0.039223347 0.038823854 -0.038189854 0.017535206 -0.047736455 -0.03834565 -0.025275275 -0.016456492

action_model._discrete_distribution.branches.0.bias f4 [2]
00000000: 1696 253d 1696 25bd
0.040426336 -0.040426336

52 f4 [4]
00000000: b190 1940 0ec8 0341 02cf 7140 8f21 5d40
2.3994563 8.236341 3.7782598 3.4551733
