results/flappy1/FlappyAgent.onnx (onnx, 73355 bytes, 8 tensors)

network_body.observation_encoder.processors.0.normalizer.running_mean f4 [6]
-0.64995944 10.233424 0.0 1.2220106 0.0 0.0
00000000: be63 26bf 1bbc 2341 0000 0000 d86a 9c3f
00000010: 0000 0000 0000 0000

network_body._body_endoder.seq_layers.0.weight f4 [128, 6]
0.35944137 -0.028079212 1.1660026 0.080751024 0.373437 -0.25249797 -0.06355182 -0.47608966
0.40077746 0.5639132 0.4148051 -0.15622972 0.46037427 0.14179946 -0.085757725 -0.109816626
-0.19388516 -0.53191656 -0.4188967 -0.5259989 0.659128 0.19988109 -0.4449805 0.009960332
0.0029712943 -0.06941829 -0.72617453 -0.07921075 0.3907726 -0.27729785 0.64386404 0.087552994
-0.09999327 0.21171424 -0.34584954 -0.59243023 0.21284328 0.652072 -0.15480006 -0.6058347
0.10524518 0.3437149 0.2665706 0.066058494 0.46102536 0.06935071 0.40573034 0.23660888
1.1648506 0.14190248 0.7885401 0.69086915 -0.03896096 0.23210482 -0.05789524 -0.7232416
0.5406679 -0.54936177 0.44805592 -0.15479106 -0.484202 0.20091306 -0.03239522 0.22953358
0.2115398 -0.19939408 -0.49394384 -0.03546731 0.4491132 0.44078985 -0.23263973 -0.28961074
0.27472 -0.26944908 -0.029849922 -0.36571133 0.09991383 -0.5785636 -0.49188378 -0.35909075
0.3398782 -0.22905254 -0.27407017 0.21969913 0.25565535 0.3401116 0.72998583 -0.15127473
0.020298447 0.5757361 0.54149795 -0.14332339 0.56068575 -0.085242786 0.8326419 -0.09551352
0.3570317 -0.12942152 -0.5943616 -0.40314525 -0.29621607 -0.2206025 0.34245947 -0.14680557
0.6407633 -0.4757995 0.5642548 0.0025014067 0.5630355 0.38917074 0.10748179 0.016587129
-0.3514671 -0.21830393 0.067264244 -0.39238617 -0.7677342 -0.32615265 0.35015276 0.27434567
-0.19855255 -0.5186156 0.09911628 -0.030527271 -0.50295645 -0.42699605 -0.10960719 -0.5447569
0.3442618 0.56745917 0.01922111 0.33296496 -0.32638857 0.82556874 -0.5009463 0.09123812
-0.3018806 -0.46215382 0.12392449 0.18535222 0.07581999 0.42688835 -0.0816812 -0.3541954
-0.3293523 -0.6871569 0.34456733 0.2674495 -0.747191 -0.04938097 -0.29801553 0.31860906
0.36643097 0.18784733 0.1576672 0.8357631 -0.3127096 -0.22367385 0.21848466 -0.3080931
0.09374118 0.1147233 0.19639935 -0.10187991 -0.0068997415 0.39005864 -0.904406 -0.34581813
0.2835047 -0.5147465 0.059274513 0.19064406 0.95481247 -0.034568418 -0.40923107 -0.62602127
0.27077574 -0.5859627 -0.2660172 -0.47638184 0.23706149 -0.2631534 -0.2247781 -0.24812715
-0.37355596 0.31504834 -0.096509516 -0.07625178 -0.4911073 0.44968873 0.37450853 -0.25246665
0.011975352 0.16028026 -0.26087755 0.09423283 0.25013828 -0.32331258 -0.9382804 -0.30345187
0.23970897 0.21060415 -0.17759772 -0.49874052 0.12600683 -0.49287587 1.0383627 0.1528987
0.402583 0.059116974 0.23355497 -0.3657466 -0.5201953 -0.19416136 0.3473222 0.17203422
-0.59094846 -0.12551767 -0.15053327 0.95445985 0.17176051 0.001275127 0.0012942682 -0.3268757
-0.46457684 0.42546856 0.18236707 -0.4575718 -0.2783129 0.45541218 -0.4128515 0.49183023
-0.29699138 0.08903228 -0.3705576 -0.6025901 -0.56094235 -0.8914127 0.039787486 0.66176766
0.4909985 -0.72941595 -0.24559294 0.22353461 0.3958901 0.21254686 -0.075942025 -0.2654581
-0.70923674 -0.07326437 0.11941625 -0.4147874 0.09537199 0.13615331 -0.053341392 0.2285011
00000000: b308 b83e 6006 e6bc 933f 953f cb60 a53d
00000010: 2233 bf3e 6a47 81be 7527 82bd 06c2 f3be
00000020: b432 cd3e 9e5c 103f 5661 d43e affa 1fbe
00000030: 2db6 eb3e e133 113e bfa1 afbd 8ae7 e0bd
00000040: d589 46be af2b 08bf a179 d6be dda7 06bf
00000050: 9dbc 283f a1ad 4c3e 7cd4 e3be a930 233c
00000060: 0cba 423b 2d2b 8ebd 93e6 39bf 3f39 a2bd
00000070: 5913 c83e fcf9 8dbe 46d4 243f fc4e b33d
00000080: 46c9 ccbd 9ecb 583e 3113 b1be 82a9 17bf
00000090: 97f3 593e 31ee 263f e883 1ebe fc17 1bbf
000000a0: c98a d73d 66fb af3e f17b 883e ad49 873d
000000b0: 840b ec3e bf07 8e3d e3bb cf3e 9949 723e
000000c0: d319 953f e24e 113e c4dd 493f cddc 303f
000000d0: 8795 1fbd e3ac 6d3e 8f23 6dbd 5d26 39bf
000000e0: 3669 0a3f f9a2 0cbf 9667 e53e 8c81 1ebe
000000f0: 53e9 f7be 27bc 4d3e dab0 04bd da0a 6b3e
00000100: e49d 583e f62d 4cbe 35e6 fcbe 2c46 11bd
00000110: 2af2 e53e 35af e13e 1c39 6ebe dc47 94be
00000120: 1aa8 8c3e 3bf5 89be d387 f4bc 843e bbbe
00000130: 9f9f cc3d be1c 14bf 31d8 fbbe beda b7be
00000140: 8404 ae3e c08c 6abe ed52 8cbe cff8 603e
00000150: 42e5 823e 1c23 ae3e 5ae0 3a3f c3e7 1abe
00000160: ee48 a63c 7163 133f 9c9f 0a3f 5ec3 12be
00000170: 1a89 0f3f c593 aebd 0528 553f 989c c3bd
00000180: dccc b63e 1387 04be 1528 18bf 0e69 cebe
00000190: a2a9 97be 9fe5 61be d956 af3e 3354 16be
000001a0: 1009 243f fe9b f3be 0173 103f a4ee 233b
000001b0: 1823 103f 6341 c73e 6a1f dc3d bbe1 873c
000001c0: 7ff3 b3be 118b 5fbe d6c1 893d d7e6 c8be
000001d0: 3b8a 44bf 7bfd a6be 3947 b33e 0977 8c3e
000001e0: 5c51 4bbe fec3 04bf 7afd ca3d 5414 fabc
000001f0: c1c1 00bf 3a9f dabe bc79 e0bd 3075 0bbf
00000200: 1543 b03e 0145 113f 9775 9d3c 627a aa3e
00000210: 671c a7be 7958 533f 043e 00bf 0ddb ba3d
00000220: 1890 9abe 6d9f ecbe 1fcc fd3d f9cc 3d3e
00000230: 8347 9b3d 1c91 da3e 7948 a7bd 1959 b5be
00000240: dda0 a8be 84e9 2fbf 216b b03e 24ef 883e
00000250: e947 3fbf b343 4abd 7e95 98be ba20 a33e
00000260: d79c bb3e 0d5b 403e 8373 213e 92f4 553f
00000270: 791b a0be c20a 65be 71ba 5f3e 61be 9dbe
00000280: 60fb bf3d 0df4 ea3d e91c 493e 6aa6 d0bd
00000290: 3a17 e2bb c4b5 c73e 2787 67bf 130f b1be
000002a0: 8727 913e 6dc6 03bf d5c9 723d 3238 433e
000002b0: 976e 743f 9d97 0dbd bc86 d1be ee42 20bf
000002c0: 1ea3 8a3e a701 16bf 6833 88be 52e8 f3be
000002d0: 3fc0 723e 0bbc 86be 3b2c 66be 0b15 7ebe
000002e0: ba42 bfbe 044e a13e c8a6 c5bd e529 9cbd
000002f0: 6b72 fbbe 9a3d e63e 95bf bf3e 4f43 81be
00000300: 4434 443c 8220 243e be91 85be 24fd c03d
00000310: 2012 803e 3a89 a5be 2533 70bf 0b5e 9bbe
00000320: 4576 753e 9da8 573e 2ddc 35be eb5a ffbe
00000330: ef07 013e 3a5a fcbe 12e9 843f 7a91 1c3e
00000340: 5c1f ce3e a424 723d 0929 6f3e 2343 bbbe
00000350: 852b 05bf 3cd2 46be 37d4 b13e bd29 303e
00000360: 6648 17bf b487 00be 6525 1abe 7b57 743f
00000370: fde1 2f3e 2a22 a73a 6fa4 a93a 405c a7be
00000380: 04dd edbe 04d7 d93e 6fbe 3a3e da46 eabe
00000390: 077f 8ebe c92b e93e 4661 d3be 2cd1 fb3e
000003a0: 410f 98be 8e56 b63d bab9 bdbe 5843 1abf
000003b0: eb99 0fbf 9f33 64bf 34f8 223d 9b69 293f
000003c0: 2864 fb3e 01bb 3abf b77c 7bbe 42e6 643e
000003d0: 1bb2 ca3e e2a5 593e 7e87 9bbd 20ea 87be
000003e0: 8a90 35bf a10b 96bd 8290 f43d 045f d4be
000003f0: 6452 c33d c66b 0b3e 817c 5abd 31fc 693e

network_body._body_endoder.seq_layers.0.bias f4 [128]
-0.005595219 0.0013488167 0.0035176568 0.0017636963 -0.0027787348 -0.004966778 0.008939835 -0.0006637209
0.0011751036 -0.0062801912 0.0026401777 0.0024788864 0.0032655075 -0.006884893 -0.0077355136 0.00096872286
-0.0033336272 0.0015507385 -0.0024344851 0.0008420128 -0.0061912 0.0010268594 0.0018540007 -0.0017924597
-0.0036416631 0.0056295753 0.0012330981 -0.0021272835 0.0015361217 -0.0015959338 -0.002517389 -0.0011307733
-0.0022715868 0.0040833764 -0.0055672824 0.0010526059 0.003471975 -0.0015639261 0.0005384375 0.00096561224
0.0021134957 -0.0024376889 0.0026918855 0.005040671 -0.0103912745 0.0012328372 -0.003137495 0.0043546134
-0.004629247 0.0030397582 -0.0042968034 -0.00073870784 0.010048738 -0.00050304126 0.013140899 9.4518924e-05
0.0074627046 -0.0016666984 -0.0034474418 -0.0045714793 0.0009911084 0.002616063 -6.365085e-05 -0.0011446925
0.004789322 0.0015866836 0.0033457382 0.0013567759 0.008534156 -0.0007481945 0.005490385 0.0007617479
0.00054063974 0.0010334525 0.0011537046 0.013902432 -0.0030310983 0.00057772605 -0.004010341 0.0013554948
0.00013332929 0.007732294 0.0002852498 -0.004057744 0.00012783977 0.0009657296 0.001218008 -0.0014278373
0.006641945 0.0030022974 0.0009905781 0.008522746 -0.0005446975 -0.00055278593 -0.0068528205 -0.00064790604
-0.005110079 -0.005005712 0.0006112108 -0.00046183134 -0.006873246 -0.0014078695 0.0031109129 0.0026010186
-0.0043168236 -0.0024142188 0.00983131 -0.0009116084 0.00031370463 0.008753385 0.009436746 0.0023784474
-0.0007619374 -0.00681518 0.0032523973 -0.00032326466 -0.0067524775 0.0007154065 0.0035444875 -0.0012670946
0.0072535328 0.00041469853 0.0059012277 0.00050684484 0.004490092 0.0021015352 -0.0035158682 0.00080134795
00000000: 1958 b7bb c7ca b03a 7d88 663b d42b e73a
00000010: 6f1b 36bb 5bc0 a2bb 6378 123c 8efd 2dba
00000020: ef05 9a3a 10ca cdbb d506 2d3b d074 223b
00000030: 2002 563b ab9a e1bb 317a fdbb e4f1 7d3a
00000040: fc78 5abb 2642 cb3a e28b 1fbb 86ba 5c3a
00000050: 8ddf cabb af97 863a f101 f33a f8f0 eaba
00000060: f8a8 6ebb 4d78 b83b e89f a13a e569 0bbb
00000070: b157 c93a a72e d1ba c7fa 24bb 7536 94ba
00000080: e7de 14bb d8cd 853b c06d b6bb 98f7 893a
00000090: 138a 633b a7fc ccba ee25 0d3a 2421 7d3a
000000a0: 9382 0a3b a2c1 1fbb 586a 303b 372c a53b
000000b0: 2a40 2abc 2797 a13a 6e9e 4dbb 25b1 8e3b
000000c0: f0b0 97bb ae36 473b 33cc 8cbb d8a5 41ba
000000d0: 76a3 243c 87de 03ba ed4c 573c 7638 c638
000000e0: b489 f43b 1e75 daba 7aee 61bb 59cc 95bb
000000f0: 14e8 813a 4172 2b3b 4a7c 85b8 8209 96ba
00000100: bfef 9c3b 44f8 cf3a 2c44 5b3b d8d5 b13a
00000110: d8d2 0b3c 7c22 44ba b0e8 b33b 09b0 473a
00000120: b8b9 0d3a e974 873a e737 973a 07c7 633c
00000130: 64a5 46bb 8a72 173a 2e69 83bb dcaa b13a
00000140: 4fce 0b39 2f5f fd3b 948d 9539 d3f6 84bb
00000150: ba0c 0639 0429 7d3a 91a5 9f3a 4526 bbba
00000160: aca4 d93b 31c2 443b 49d6 813a fda2 0b3c
00000170: 08ca 0eba d6e8 10ba a08d e0bb 3dd8 29ba
00000180: 7372 a7bb f506 a4bb aa39 203a f421 f2b9
00000190: f738 e1bb 4388 b8ba 75e0 4b3b da75 2a3b
000001a0: 2474 8dbb df37 1ebb 8113 213c 01f9 6eba
000001b0: b978 a439 5c6a 0f3c 959c 1a3c badf 1b3b
000001c0: c1bc 47ba e051 dfbb 2c26 553b d97b a9b9
000001d0: e343 ddbb 1e8a 3b3a a24a 683b a414 a6ba
000001e0: 0baf ed3b e56b d939 165f c13b c8dd 043a
000001f0: 9f21 933b e9b9 093b 7b6a 66bb 8d11 523a

network_body._body_endoder.seq_layers.2.weight f4 [128, 128]
0.03570125 0.020453325 -0.11922406 0.10275933 -0.018939532 -0.06669584 0.07316777 -0.13792759
0.1881782 0.014132953 -0.07863428 0.07767628 0.09405778 -0.09401185 -0.02247842 0.013555543
0.18143827 0.105261385 0.08831059 -0.0845215 -0.07545093 0.060591012 -0.07019832 -0.046106473
0.07804477 -0.024391353 -0.06826215 -0.06623275 -0.04852535 0.029247545 0.15084441 0.032935534
-0.043648038 -0.03552109 0.102833875 -0.03157574 0.08241713 0.12549877 -0.055024512 0.15757553
0.03691845 -0.0033803629 -0.05220264 0.14202195 0.106868155 0.012208744 -0.033555996 -0.043203145
-0.10201312 -0.08261786 0.05007615 0.0017860561 -0.12120135 -0.00029279184 0.0057696584 -0.044142198
-0.02463002 0.1259951 0.1687938 -0.018372683 0.053298138 0.08262747 -0.04458724 0.06316354
-0.04012866 -0.017586341 -0.008442583 0.03518056 -0.07093433 0.0810395 -0.025235597 0.032235354
-0.021910636 0.051127773 0.052691106 0.08122796 0.06687293 -0.01962368 -0.072540276 -0.07573436
-0.10639687 -0.078103766 -0.008661722 0.07146415 0.19013762 -0.098186165 0.10649798 0.0431184
-0.0780491 0.054266304 0.010866757 -0.063033804 -0.067875676 0.004257736 -0.12796414 -0.05817028
-0.10256666 -0.0674743 0.21478957 0.063064605 -0.06529184 -0.22117263 -0.035598014 0.090095155
-0.024830475 0.035251897 0.060287584 -0.020871317 -0.16300021 0.00928327 -0.12976031 -0.012173112
0.07835743 -0.109016344 0.009986902 -0.02914639 -0.061673168 0.15035748 0.061348315 -0.02765313
0.11658843 -0.15043102 0.09370504 -0.02543472 -0.202247 0.18594748 0.039524656 0.07757959
-0.0826105 -0.13154095 0.04256551 -0.14399567 0.028026486 0.1553491 0.0020055326 -0.060519103
-0.2409986 -0.0699873 -0.00086195575 -0.14413473 0.048124705 -0.06608651 0.0417744 0.12002551
0.04204059 -0.040233012 -0.049962323 -0.043859854 0.028645862 0.031501845 -0.02259061 -0.06809791
0.05108717 0.021503307 0.048094284 -0.047342002 -0.058825284 -0.01776749 -0.12683815 -0.038265288
-0.05307044 -0.12925406 -0.101013325 0.07244286 0.0956966 -0.047940854 -0.14471152 0.08743664
0.10181454 -0.14544977 0.010005267 0.034835365 -0.06871598 -0.13657269 0.12866686 -0.09948659
-0.15284084 -0.04330683 0.10905854 -0.06547262 0.06493979 0.008947815 0.03899059 0.03291984
-0.11643933 0.05363282 0.10099753 -0.066818304 0.02569911 0.010385303 -0.14988488 0.08411579
0.06577077 0.01478251 0.07899977 -0.16270664 0.05829535 -0.010859922 -0.03389797 -0.09388378
-0.09613594 0.014648444 -0.12347319 0.23797674 -0.035514228 -0.0675803 0.14577514 -0.051768366
0.017645143 0.028397823 -0.07160308 0.08005893 0.050432857 0.14754844 0.16069853 0.012219842
0.13429259 -0.11204564 0.010022607 0.13253918 0.051597632 -0.01769778 0.022083769 -0.03906144
0.046890303 -0.13621768 -0.04971918 0.07670875 0.03199759 0.04514534 -0.021616496 0.03413846
-0.08644045 -0.22147176 -0.027813511 -0.018648382 -0.018120736 -0.015596205 -0.09209069 -0.047265295
-0.077542886 -0.09886673 -0.15549736 0.03809281 0.029843932 -0.01779208 -0.09001762 -0.025432616
0.12672834 -0.0031935612 0.060110684 0.0088607 -0.03464397 0.009594453 -0.14172387 0.08135789
00000000: 793b 123d bb8d a73c be2b f4bd 7c73 d23d
00000010: 1427 9bbc d497 88bd fcd8 953d e43c 0dbe
00000020: c9b1 403e e78d 673c 020b a1bd be14 9f3d
00000030: 5ea1 c03d 4989 c0bd aa24 b8bc 1118 5e3c
00000040: f4ca 393e 4893 d73d 2fdc b43d 9c19 adbd
00000050: 0486 9abd 482e 783d 23c4 8fbd 24da 3cbd
00000060: f0d5 9f3d 60d0 c7bc 07cd 8bbd 09a5 87bd
00000070: 84c2 46bd 8c98 ef3c f576 1a3e 69e7 063d
00000080: 49c8 32bd 907e 11bd 919a d23d 9055 01bd
00000090: 50ca a83d c082 003e 6261 61bd 7b5b 213e
000000a0: cd37 173d 1489 5dbb 6fd2 55bd 346e 113e
000000b0: b1dd da3d 2f07 483c 0372 09bd c8f5 30bd
000000c0: 41ec d0bd 8d33 a9bd a61c 4d3d 191a ea3a
000000d0: 6a38 f8bd db81 99b9 670f bd3b 73ce 34bd
000000e0: e5c4 c9bc dc04 013e 48d8 2c3e 4f82 96bc
000000f0: 264f 5a3d 9738 a93d 1ca1 36bd e35b 813d
00000100: f35d 24bd 3b11 90bc c252 0abc 7e19 103d
00000110: 0546 91bd 0af8 a53d e2ba cebc 3809 043d
00000120: ef7d b3bc 5b6b 513d a1d2 573d d85a a63d
00000130: adf4 883d d7c1 a0bc ff8f 94bd 9e1a 9bbd
00000140: 9ae6 d9bd def4 9fbd e5e9 0dbc cc5b 923d
00000150: 70b3 423e d415 c9bd 9d1b da3d eb9c 303d
00000160: 35d8 9fbd 5846 5e3d 7b0a 323c de17 81bd
00000170: 6702 8bbd 7a84 8b3b 0809 03be f643 6ebd
00000180: 780e d2bd f72f 8abd ccf1 5b3e 0428 813d
00000190: bab7 85bd 147b 62be 39cf 11bd cf83 b83d
000001a0: 4869 cbbc 4b64 103d 1df0 763d 53fa aabc
000001b0: 87e9 26be db18 183c e3df 04be bb71 47bc
000001c0: dc79 a03d f643 dfbd 1aa0 233c 69c4 eebc
000001d0: 019d 7cbd 50f7 193e 5f48 7b3d d188 e2bc
000001e0: eac5 ee3d 970a 1abe 6ee8 bf3d 795c d0bc
000001f0: d619 4fbe 0469 3e3e 9be4 213d 0ce2 9e3d
00000200: b22f a9bd acb2 06be 2c59 2e3d 9a73 13be
00000210: cd97 e53c d613 1f3e 416f 033b e1e2 77bd
00000220: 56c8 76be 8055 8fbd dff4 61ba 0e98 13be
00000230: 691e 453d 5d58 87bd a21b 2b3d efcf f53d
00000240: c132 2c3d 5fcb 24bd 4ba5 4cbd 64a6 33bd
00000250: baaa ea3c 1408 013d f10f b9bc eb76 8bbd
00000260: c840 513d b427 b03c 83fe 443d b0e9 41bd
00000270: c8f2 70bd 218d 91bc dce1 01be 10bc 1cbd
00000280: 6460 59bd 2d5b 04be 13e0 cebd ec5c 943d
00000290: 94fc c33d a15d 44bd 422f 14be fb11 b33d
000002a0: 2484 d03d c9f0 14be 22ed 233c 87af 0e3d
000002b0: f7ba 8cbd b6d9 0bbe 3fc1 033e a0bf cbbd
000002c0: 4f82 1cbe 8162 31bd 155a df3d 8216 86bd
000002d0: 27ff 843d db99 123c 99b4 1f3d f4d6 063d
000002e0: be77 eebd 16ae 5b3d cbd7 ce3d 09d8 88bd
000002f0: f186 d23c 1e27 2a3c 6c7b 19be e644 ac3d
00000300: d3b2 863d 5732 723c a2ca a13d 929c 26be
00000310: 1bc7 6e3d d0ed 31bc 99d8 0abd 2446 c0bd
00000320: ebe2 c4bd 0700 703c 83df fcbd 2db0 733e
00000330: 5e77 11bd 8a67 8abd 1446 153e 110b 54bd
00000340: 8c8c 903c 8da2 e83c a3a4 92bd f0f5 a33d
00000350: af92 4e3d f016 173e 288e 243e bb35 483c
00000360: ff83 093e 2f78 e5bd dc35 243c 5ab8 073e
00000370: 0a58 533d effa 90bc 05e9 b43c e3fe 1fbd
00000380: 0c10 403d a67c 0bbe 57a6 4bbd 7a19 9d3d
00000390: e80f 033d 52ea 383d 1415 b1bc c5d4 0b3d
000003a0: b107 b1bd 7ec9 62be 29d9 e3bc 7ec4 98bc
000003b0: f071 94bc 3a87 7fbc 0b9a bcbd 4199 41bd
000003c0: cece 9ebd a47a cabd b33a 1fbe 3507 1c3d
000003d0: 437b f43c b2c0 91bc 285b b8bd 1058 d0bc
000003e0: 13c5 013e 114b 51bb 9f36 763d 782c 113c
000003f0: d6e6 0dbd 0d32 1d3c 1020 11be f79e a63d

network_body._body_endoder.seq_layers.2.bias f4 [128]
0.00083822286 0.006994954 0.001287459 -0.0044717137 0.0027890182 -0.0010010401 0.00028153017 0.00064664456
-0.00028855444 0.0044927583 0.00036805472 0.0049188505 0.0023366571 0.0006788601 -0.0045854193 -0.000955547
0.0057759047 -0.0010107164 0.003521076 0.00023104923 0.0012821958 0.0005350825 -0.0005868202 0.0027858126
0.008184688 -0.0031385412 -0.0005893881 0.0055979346 -0.0051228823 -0.00029557318 0.0021383213 0.0051447507
0.0031394756 0.000848295 -0.00060187123 0.0066139903 -0.00067630236 0.005989675 -0.0022118164 0.0028360144
-0.00016881536 0.005303651 0.0024933608 0.0019880899 0.006519494 0.00023637613 -0.00081956777 0.0042036325
-1.6513328e-05 -0.0018810213 -7.1574366e-05 -0.00077010156 0.0009472445 -0.00073029246 0.002033225 0.0031714567
-0.0028690957 -0.001920851 -0.00070443726 0.0007962272 -0.0001912288 -0.0032793288 0.005934882 0.0032976936
0.00027437045 0.0047746045 -0.0019198064 -0.0016750727 -0.0011301902 -0.0022071397 0.00079873746 -0.0019024072
-0.0034766458 -0.0024642562 0.00045051836 -0.0009949189 -0.0047762594 0.0021521333 -0.00071181706 0.0015100152
-0.00096062117 -0.0030758285 0.00053524243 -0.002375195 0.00020194649 0.00054438727 -0.0014682263 -0.00028113308
-0.0018836703 0.0009272208 0.00019718967 0.002416181 -0.0041558947 0.0013228083 -0.00016139455 -6.207674e-05
0.0053018844 -6.0914266e-05 -0.0014969633 0.0022522511 -0.0014972332 -0.0023574224 -0.0015371698 -0.0015204041
0.0024938826 0.0010462351 -0.0008869872 0.00027827246 0.00069245487 3.9412047e-05 0.002217193 -0.0020402241
0.0071774446 0.0005346645 -0.0028608036 0.0011696585 0.0003912292 0.0036856898 0.0021114408 -0.003979175
0.00040510672 -0.0021572502 -0.0028772946 0.0052297236 0.0048788367 -0.0012395323 -0.0026999335 0.0018373689
00000000: 2fbc 5b3a ed35 e53b f5bf a83a 7487 92bb
00000010: f6c7 363b 5535 83ba 579a 9339 9583 293a
00000020: 1f49 97b9 fd37 933b 78f7 c039 4f2e a13b
00000030: 9a22 193b 88f5 313a 4941 96bb ac7d 7aba
00000040: cd43 bd3b 047a 84ba dac1 663b ce45 7239
00000050: 5a0f a83a c744 0c3a d6d4 19ba 2e92 363b
00000060: 1219 063c fcaf 4dbb 2a81 1aba e16e b73b
00000070: dadd a7bb 29f7 9ab9 1423 0c3b 4c95 a83b
00000080: a9bf 4d3b 1d60 5e3a e5c6 1dba 2cba d83b
00000090: e249 31ba 0945 c43b 1ff4 10bb 6ddc 393b
000000a0: 0704 31b9 40ca ad3b a767 233b 9d4a 023b
000000b0: 7ba1 d53b bcdb 7739 43d8 56ba a0be 893b
000000c0: 1a86 8ab7 9a8c f6ba 321a 96b8 a4e0 49ba
000000d0: 8150 783a 1971 3fba db3f 053b 37d8 4f3b
000000e0: 7007 3cbb 10c5 fbba fca9 38ba e7b9 503a
000000f0: 9784 48b9 02ea 56bb 6679 c23b 1e1e 583b
00000100: 61d9 8f39 4974 9c3b 03a2 fbba 1d8e dbba
00000110: e422 94ba a9a5 10bb 5d62 513a 315a f9ba
00000120: 70d8 63bb 5c7f 21bb 8d33 ec39 f067 82ba
00000130: 2b82 9cbb ce0a 0d3b 3c99 3aba b4eb c53a
00000140: 32d2 7bba d793 49bb 834f 0c3a 29a9 1bbb
00000150: 99c1 5339 36b5 0e3a 8071 c0ba 0b65 93b9
00000160: 7de5 f6ba bc10 733a b3c4 4e39 ca58 1e3b
00000170: 2c2e 88bb 1562 ad3a 053c 29b9 322f 82b8
00000180: 6ebb ad3b 327e 7fb8 c135 c4ba 819a 133b
00000190: cf3e c4ba fc7e 1abb dc7a c9ba 4c48 c7ba
000001a0: 6870 233b d321 893a b484 68ba 19e5 9139
000001b0: dc85 353a 5d4e 2538 534e 113b 48b5 05bb
000001c0: c530 eb3b ba28 0c3a 527c 3bbb 3a4f 993a
000001d0: e51d cd39 9d8b 713b 1960 0a3b bd63 82bb
000001e0: 8164 d439 a760 0dbb fe90 3cbb 1a5e ab3b
000001f0: a6de 9f3b cd77 a2ba 5ef1 30bb dfd3 f03a

action_model._discrete_distribution.branches.0.weight f4 [2, 128]
-0.006092038 0.0041334336 0.0032435951 0.009754226 0.013200952 0.013595553 -0.013513406 0.003218332
0.0049824496 0.010430939 0.00014266123 0.0036135924 0.014634821 -0.01782442 0.0035655217 0.008766401
0.023351083 -0.017607845 -0.0030465785 0.0039462154 0.010922923 -0.005994365 -0.014253904 0.001323838
0.010788761 0.013305055 -0.0054316605 0.02058589 0.0043966277 -0.016000867 0.013766515 0.010331323
0.014296472 0.008907532 0.0024928856 0.015498491 -0.022984866 0.0039766994 -0.00036142295 -0.016805239
0.00058099267 0.007129348 -0.010459883 -0.013659162 0.019001324 -0.008126558 -0.011391584 -0.0057474715
-0.0110712955 0.0018774852 -0.01462862 0.0025610675 -0.008293711 0.00022246256 0.00104852 0.011753859
-0.0072733327 -0.0028908926 -0.0064504687 0.0030340836 -0.010257818 -0.010330934 0.00884012 0.013735298
0.0047463737 0.025530359 0.003722487 0.0007829493 -0.0060910303 -0.008424528 0.007582257 -0.0122945225
-0.0026687116 0.0022683537 0.0029907872 0.0040205503 -0.010514295 0.022555323 -0.009127566 0.0075521064
-0.007069063 -0.013639826 -0.01519012 -0.01589116 -0.0112861255 0.010461157 0.00715236 -0.006849587
-0.009795702 0.003575169 0.0025204376 0.0135735795 0.0013645722 -0.018110467 0.001011591 -0.016731022
0.009966075 -0.010230835 -0.0075106393 0.00025258318 -0.02722843 0.0007441878 -0.011697436 0.011218909
-0.0063044443 -0.005593482 0.006963428 0.0027526056 0.0022235173 -0.011396721 0.017213484 -0.019767458
0.006484337 0.0038159254 0.0051770164 0.0068132244 0.006148765 0.025483144 0.016632704 0.005640662
0.0090938965 -0.010414598 0.012348109 0.02119354 0.025524005 -0.016532378 -0.0031294494 0.007151116
0.012736121 -0.024306852 -0.0014647667 0.014341319 -0.006759158 0.0041973544 0.007362306 0.014060982
-0.00071385194 -0.011763824 -0.0077296905 -0.015845796 -0.023898704 0.007794073 0.009971569 0.0022989495
-0.019210557 0.004457872 -0.015110592 -0.003315182 -0.010614013 -0.0035877007 0.0018657594 0.015145484
-0.017841997 0.0054126726 0.01433682 -0.011173099 0.01804635 0.0012581353 -0.010385069 -0.013844337
-0.013957122 0.009096287 -0.006713274 -0.0106743565 0.015079079 -0.009629975 0.0016741077 0.005612595
0.013929583 -0.0073976163 0.014180995 0.012916177 -0.018209336 -0.014117206 0.010068383 -0.024894424
0.016478095 -0.00093120476 0.0048313397 0.0045039086 0.023453716 -0.004619627 -0.006479905 -0.012848067
-0.006829551 -0.0032855675 0.010301034 -0.0045603565 0.014720552 0.0139676565 -0.0035184172 -0.0055083563
-0.006152115 -0.0066153505 0.0044897622 0.012054782 0.004734853 0.0062272055 -0.009230559 0.0040073497
0.012708097 0.009723892 -0.009399395 -0.0011082693 -0.013634215 -0.00197716 0.0065878434 -0.010324157
0.010412365 0.004788041 0.0036387192 0.0001116827 0.00848158 0.01590406 -0.0007530542 -0.0057626115
0.007800219 0.018323915 0.0001292566 -0.01108643 0.004891558 -0.004558218 0.0012197094 0.009600232
-0.010390709 0.004374507 -0.0034320098 -0.01173971 0.005174339 0.0021258236 0.0034291989 0.007904258
-0.019987943 -0.006824362 -0.0055243173 -0.0067638583 0.0022979458 0.009924796 -0.012221639 0.0025554271
-0.023687983 -0.009558367 0.0037177145 -0.0041324235 -0.0047947834 -0.00968973 -0.0067365766 0.008900791
0.005063906 -0.0066654375 0.014800351 0.00014669112 -0.0039715245 -0.004843762 0.00047926488 -0.008802005
00000000: b89f c7bb c171 873b 7f92 543b 30d0 1f3c
00000010: ce48 583c e2bf 5e3c 5567 5dbc a7ea 523b
00000020: d143 a33b 87e6 2a3c 5597 1539 05d2 6c3b
00000030: e3c6 6f3c 8504 92bc 87ab 693b f3a0 0f3c
00000040: c54a bf3c 543e 90bc 1ba9 47bb 414f 813b
00000050: 0ff6 323c 616c c4bb 3589 69bc a284 ad3a
00000060: 58c3 303c 72fd 593c 12fc b1bb bea3 a83c
00000070: 9611 903b 4014 83bc f38c 613c b644 293c
00000080: c03b 6a3c e6f0 113c ae5f 233b 62ed 7d3c
00000090: c24a bcbc f94e 823b 5e7d bdb9 24ab 89bc
000000a0: c24d 183a 4e9d e93b ee5f 2bbc aeca 5fbc
000000b0: aaa8 9b3c 4125 05bc c4a3 3abc 4955 bcbb
000000c0: 6164 35bc f315 f63a e1ac 6fbc 95d7 273b
000000d0: 58e2 07bc d744 6939 7e6e 893a 4293 403c
000000e0: 2355 eebb 2175 3dbb 745e d3bb 7ad7 463b
000000f0: 6810 28bc 1443 29bc 27d6 103c 040a 613c
00000100: 7887 9b3b 0b25 d13c f8f4 733b d73e 4d3a
00000110: 4497 c7bb 0807 0abc 9574 f83b f76e 49bc
00000120: 8de5 2ebb a9a8 143b 1501 443b d2be 833b
00000130: 2644 2cbc f1c5 b83c c98b 15bc a977 f73b
00000140: 99a3 e7bb 9479 5fbc fbdf 78bc 2e2e 82bc
00000150: 71e9 38bc 4665 2b3c 585e ea3b 8072 e0bb
00000160: 277e 20bc 624d 6a3b ed2d 253b b863 5e3c
00000170: 72db b23a 675c 94bc 5d97 843a 7f0f 89bc
00000180: c048 233c 3b9f 27bc cf1b f6bb 246d 8439
00000190: 280e dfbc 9915 433a 9aa6 3fbc 84cf 373c
000001a0: 8395 cebb 8749 b7bb 782d e43b 0f65 343b
000001b0: 6eb8 113b 50b9 3abc 4b03 8d3c 5def a1bc
000001c0: 907a d43b 9b14 7a3b f6a3 a93b 7841 df3b
000001d0: 947b c93b 07c2 d03c 4f41 883c 4dd5 b83b
000001e0: 91fe 143c fda1 2abc b94f 4a3c 139e ad3c
000001f0: b817 d13c e96e 87bc 7317 4dbb e953 ea3b
00000200: 2aab 503c 2a1f c7bc 6afd bfba daf7 6a3c
00000210: ed7b ddbb f689 893b 803f f13b 0860 663c
00000220: cb21 3bba 0ebd 40bc 5849 fdbb 0bcf 81bc
00000230: 37c7 c3bc 6c65 ff3b cb5f 233c f9a9 163b
00000240: 755f 9dbc 5713 923b 6b92 77bc 8643 59bb
00000250: 66e6 2dbc a11f 6bbb 7f8c f43a c424 783c
00000260: 6129 92bc ca5c b13b fbe4 6a3c 600f 37bc
00000270: f0d5 933c 04e8 a43a 2326 2abc 5cd3 62bc
00000280: 6aac 64bc 9808 153c 06fb dbbb 7fe3 2ebc
00000290: 3e0e 773c 0bc7 1dbc bc6d db3a dce9 b73b
000002a0: e838 643c b467 f2bb 6757 683c 5f9e 533c
000002b0: bf2b 95bc db4b 67bc dcf5 243c 64ef cbbc
000002c0: 12fd 863c 181c 74ba 3750 9e3b 8695 933b
000002d0: 0222 c03c 3d60 97bb 6255 d4bb b380 52bc
000002e0: 6dca dfbb ad52 57bb abc5 283c 0b6f 95bb
000002f0: 782e 713c 99d8 643c 3f95 66bb 717f b4bb
00000300: ae97 c9bb 95c5 d8bb db1e 933b 6c81 453c
00000310: d326 9b3b 960d cc3b c53b 17bc 1650 833b
00000320: 9f35 503c f650 1f3c ecff 19bc 5943 91ba
00000330: 0b62 5fbc 3e93 01bb d6de d73b a726 29bc
00000340: a098 2a3c 00e5 9c3b 9477 6e3b 3137 ea38
00000350: 53f6 0a3c 3b49 823c 9d68 45ba 4ad4 bcbb
00000360: fb98 ff3b 091c 963c 0e89 0739 dca3 35bc
00000370: 5d49 a03b 1b5d 95bb a8de 9f3a 4b4a 1d3c
00000380: cb3d 2abc 0658 8f3b 92eb 60bb ea57 40bc
00000390: 808d a93b 6751 0b3b 69bc 603b dc80 013c
000003a0: c1bd a3bc e69e dfbb 5505 b5bb 5ba3 ddbb
000003b0: 2299 163b 9d9b 223c 453d 48bc f478 273b
000003c0: 4d0d c2bc b29a 1cbc e6a4 733b 4869 87bb
000003d0: 8f1d 9dbb acc1 1ebc 80be dcbb a0d4 113c
000003e0: 1fef a53b be69 dabb 2c7d 723c 19d1 1939
000003f0: 9023 82bb 6cb8 9ebb d845 fb39 4936 10bc

action_model._discrete_distribution.branches.0.bias f4 [2]
0.0015310372 -0.0015310373
00000000: 15ad c83a 16ad c8ba

52 f4 [6]
0.009321748 1.5299736 0.00781584 6.98194 0.00781584 0.00781584
00000000: 3fba 183c 2dd6 c33f 020e 003c 0d6c df40
00000010: 020e 003c 020e 003c
