results/flappy-colab-ezmodel/FlappyAgent/FlappyAgent-1000146.pt (torch, 434483 bytes, 41 tensors)

network_body.observation_encoder.processors.0.normalizer.running_mean f4 [4]
0	0x40df90c7	6.986423
1	0xc00b2531	-2.174145
2	0x40b19c99	5.550366
3	0x40873871	4.22564

network_body.observation_encoder.processors.0.normalizer.running_variance f4 [4]
0	0x49dcfb30	1.810278e+06
1	0x4c4a93f7	5.3104604e+07
2	0x4b061729	8.787753e+06
3	0x4b3c9057	1.2357719e+07

network_body.processors.0.normalizer.running_mean f4 [4]
0	0x40df90c7	6.986423
1	0xc00b2531	-2.174145
2	0x40b19c99	5.550366
3	0x40873871	4.22564

network_body.processors.0.normalizer.running_variance f4 [4]
0	0x49dcfb30	1.810278e+06
1	0x4c4a93f7	5.3104604e+07
2	0x4b061729	8.787753e+06
3	0x4b3c9057	1.2357719e+07

network_body._body_endoder.seq_layers.0.weight f4 [128, 4]
0	0xbe40a9ee	-0.18814823
1	0x3f17fc54	0.593694
2	0xbe87647b	-0.26443848
3	0x3e557d24	0.20848519
4	0xbd9fda46	-0.07805304
5	0xbcf521de	-0.029923376
6	0xbf731b8a	-0.94963896
7	0xbeee22d3	-0.46510944
8	0xbf3464c9	-0.70466286
9	0xbed38bf6	-0.4131772
10	0xbe7bf28a	-0.2460424
11	0xbfc4df67	-1.5380677
12	0x3eaaa8fa	0.33332044
13	0x3e977cac	0.29587305
14	0x3c074844	0.008256976
15	0x3e88084e	0.26568836
16	0x3f0f6712	0.5601665
17	0xbf24ce00	-0.6437683
18	0x3ee81d2b	0.45334753
19	0x3ef63cbc	0.48093212
20	0xbefae927	-0.49006006
21	0xbe758d8c	-0.23979777
22	0x3d5f21e1	0.05447567
23	0xbe17bb79	-0.14817609
24	0x3f6ad10a	0.9172522
25	0xbe84747a	-0.25870115
26	0x3d9dc4db	0.07703563
27	0x3dfc5f9b	0.12322923
28	0x3db1f026	0.08688383
29	0xbe2baae3	-0.16764407
30	0xbeee5d8c	-0.46555746
31	0xbdf0a94f	-0.11751043
32	0xbf1078ae	-0.5643414
33	0xbf33c289	-0.7021871
34	0x3f192e8d	0.59836656
35	0x3f4f6dcf	0.8102693
36	0xbf3e3034	-0.742923
37	0x3ec80934	0.3906952
38	0x3eace034	0.33764803
39	0x3dc553e8	0.096351445
40	0x3f699095	0.9123624
41	0xbfa31728	-1.2741442
42	0x3ef81424	0.48452866
43	0xbe4624d9	-0.19349994
44	0xbf1ea088	-0.619637
45	0xbe557c69	-0.2084824
46	0x3f02b258	0.5105338
47	0xbe90a120	-0.2824793
48	0xbddc5b34	-0.10759583
49	0x3ec076d2	0.37590653
50	0x3f6fa0c9	0.93604714
51	0x3f45f932	0.77333367
52	0x3f61f001	0.8825684
53	0xbcd439fe	-0.02590656
54	0xbeedb192	-0.46424538
55	0xbf84fc56	-1.0389507
56	0xbf17397e	-0.590721
57	0x3da32899	0.07966728
58	0xbefb91fa	-0.4913481
59	0xbe36ee12	-0.17864254
60	0x3f70d773	0.9407875
61	0x3ef11d4d	0.47092667
62	0x3eb3823f	0.35060307
63	0x3f1c034e	0.6094254
64	0x3f288576	0.65828645
65	0x3e29d4c3	0.16585068
66	0x3efc0bca	0.49227744
67	0x3d961c17	0.073295765
68	0xbdb89d25	-0.09014348
69	0xbea4a71f	-0.32158753
70	0x3f01266a	0.5044924
71	0x3f344554	0.70418286
72	0xbf662bb1	-0.8991042
73	0x3e6aa516	0.22914538
74	0x3f13489d	0.57532674
75	0x3d3dffe5	0.04638662
76	0x3c182b16	0.009287616
77	0x3e329fad	0.17443724
78	0xbe1ff4db	-0.15620749
79	0xbd4dbf27	-0.050231125
80	0x3edf95b5	0.43668905
81	0xbe1af8fe	-0.15134045
82	0x3eb77e28	0.35838437
83	0x3f3ce957	0.7379355
84	0x3cc63780	0.024196386
85	0x3ea26917	0.31720802
86	0x3e36f004	0.17864996
87	0xbe3ac223	-0.1823812
88	0xbf6b5e05	-0.9194034
89	0x3e28d22f	0.16486429
90	0x3e7967b9	0.24355973
91	0xbf6b5dc7	-0.9193997
92	0xbf17f9a4	-0.59365296
93	0xbf0fd78b	-0.5618827
94	0x3f188ddc	0.5959146
95	0xbe5375bb	-0.2065038
96	0x3f73fe64	0.95310044
97	0xbf4eabc9	-0.80730873
98	0x3d92dac8	0.071706355
99	0xbe3fd00c	-0.18731707
100	0x3f0f4f82	0.55980694
101	0xbe47aac3	-0.19498734
102	0xbe5c0c58	-0.21489084
103	0x3f18aac8	0.5963559
104	0xbdfc0b33	-0.123068236
105	0xbf617131	-0.8806334
106	0xbe94dcb0	-0.2907462
107	0x3f425e73	0.7592537
108	0xbe7220b2	-0.23645285
109	0xbf1abea7	-0.6044716
110	0xbe231b24	-0.15928322
111	0xbee0a419	-0.43875197
112	0x3e3e275f	0.18569706
113	0xbee45762	-0.44597918
114	0xbe02eb0f	-0.1278498
115	0x3f2d7f4e	0.67772377
116	0xbe952282	-0.2912789
117	0xbf090cc6	-0.53535116
118	0x3f488ee7	0.7834305
119	0x3ee1735c	0.44033325
120	0xbec0f31f	-0.37685487
121	0x3ee4d452	0.44693238
122	0xbf480b26	-0.7814201
123	0xbf8d04a9	-1.1017047
124	0xbf105685	-0.5638202
125	0xbeec9c36	-0.4621293
126	0x3f14d5a2	0.5813848
127	0x3f1ae8dd	0.6051157
128	0x3d7c7744	0.061637178
129	0x3eede96b	0.46467146
130	0xbe0923b5	-0.13392527
131	0xbe85b30a	-0.26113158
132	0xbee08e79	-0.43858698
133	0xbec5cb04	-0.3863145
134	0xbd931630	-0.07181966
135	0xbdf6f85c	-0.120590895
136	0x3da0c519	0.078500934
137	0xbf6e9f67	-0.9321198
138	0xbe36d1b0	-0.17853427
139	0x3e131886	0.14364824
140	0xbf7dba1d	-0.9911211
141	0x3e95df1b	0.29271778
142	0x3e8f9377	0.28042194
143	0x3f83d77e	1.0300138
144	0x3cf8dae3	0.03037781
145	0xbd34d228	-0.044145733
146	0x3e757d01	0.23973466
147	0xbebe8231	-0.37208703
148	0x3d8090ba	0.062776044
149	0xbe09c281	-0.13453104
150	0x3ec86db0	0.39146185
151	0x3e71a457	0.23597847
152	0xbe810344	-0.25197804
153	0xbe099664	-0.13436276
154	0x3f02d75f	0.5110988
155	0x3f00daa1	0.503336
156	0x3ee5c9c8	0.4488051
157	0xbec371e4	-0.3817283
158	0xbf19cd07	-0.6007847
159	0xbe8eb219	-0.27870253
160	0x3d053bfc	0.03252791
161	0x3e946b93	0.28988323
162	0x3f1195c8	0.56869173
163	0x3d107526	0.03526797
164	0x3ee8f98a	0.45502883
165	0x3e5f8132	0.21826628
166	0xbef02ee3	-0.46910772
167	0x3ea738a6	0.32660407
168	0xbf229041	-0.63501364
169	0x3e98fb12	0.2987905
170	0xbfa07d69	-1.2538272
171	0xbf4cfb5d	-0.8007105
172	0x3f18664f	0.5953111
173	0x3ed848d6	0.4224307
174	0xbeebc724	-0.4605037
175	0xbe0443c8	-0.12916481
176	0xbedf6c13	-0.43637142
177	0xbf77ccea	-0.9679705
178	0xbddfa243	-0.10919621
179	0xbf327d33	-0.6972229
180	0xbe81a068	-0.25317693
181	0x3da3516a	0.07974513
182	0x3f119894	0.5687344
183	0xbf382b9c	-0.7194154
184	0x3ed04aec	0.4068216
185	0x3f4bb51e	0.7957324
186	0xbdaf8261	-0.0856979
187	0xbee6bb64	-0.45064843
188	0xbf29e2a4	-0.6636145
189	0x3ea65d5c	0.32493103
190	0x3ed61457	0.41812393
191	0x3f4e47a1	0.8057805
192	0x3e6708b7	0.22561918
193	0x3e8f7af0	0.2802348
194	0x3ebea4e2	0.3723517
195	0x3f01fecb	0.5077941
196	0x3f331d6d	0.69966775
197	0xbf08a8ae	-0.53382385
198	0x3c8768e8	0.016529515
199	0x3e2c3ce0	0.16820097
200	0xbeca1457	-0.39468643
201	0x3e6194fd	0.22029491
202	0xbdb7e174	-0.08978549
203	0x3e5664b3	0.20936851
204	0xbf8a8e9f	-1.0824775
205	0x3f01cf90	0.5070734
206	0xbe53fe17	-0.20702396
207	0xbe7c36f8	-0.24630344
208	0x3e8923d8	0.2678516
209	0x3b845d5d	0.00403945
210	0x3f375a05	0.71621734
211	0xbf11d6dd	-0.5696848
212	0x3ec93184	0.3929559
213	0x3ea99a95	0.3312575
214	0xbe6eceb6	-0.23321041
215	0xbec7c772	-0.39019352
216	0x3e37164d	0.17879601
217	0xbe2d57f8	-0.16928089
218	0xbf0bedd9	-0.546598
219	0x3f1e668d	0.6187523
220	0x3e22f37f	0.15913199
221	0x3f54afa4	0.83080506
222	0x3def09c2	0.11671783
223	0xbfa10c30	-1.2581844
224	0x3e139d21	0.14415409
225	0x3e5a46a8	0.21316016
226	0x3dd89287	0.10574823
227	0xbda08272	-0.078373805
228	0x3f7e9e41	0.99460226
229	0x3f1a9a14	0.60391355
230	0xbf3e2423	-0.7427389
231	0x3e1641b0	0.14673495
232	0x3ea85f15	0.32885042
233	0xbd662f5d	-0.056197513
234	0xbd99a1aa	-0.07501538
235	0xbe8835b9	-0.26603487
236	0x3f94e7ab	1.16332
237	0xbd37c3a1	-0.0448643
238	0x3ead9fe9	0.33911064
239	0xbcfa32b5	-0.030541757
240	0x3e07a4b0	0.13246417
241	0x3f1be90c	0.60902476
242	0x3f0633cd	0.5242279
243	0x3f0c5008	0.5480962
244	0xbf5bf5d9	-0.8592201
245	0x3dec5656	0.11539905
246	0x3e7dbea9	0.24779762
247	0xbe432cdc	-0.19060081
248	0xbd76adc4	-0.06022431
249	0x3f282e26	0.65695417
250	0xbee8ba63	-0.45454702
251	0x3eb054a4	0.34439576
252	0x3e57b6fd	0.21065898
253	0x3e96cd49	0.29453495
254	0x3e0bda86	0.13657579
255	0x3e9af1fb	0.3026274

network_body._body_endoder.seq_layers.0.bias f4 [128]
0	0xbd8179aa	-0.06322034
1	0x3dac1fc9	0.084045
2	0xbcac97ba	-0.021068443
3	0xbd15f49b	-0.036610227
4	0x3dc4f38c	0.096167654
5	0x3d91958a	0.071086004
6	0x3d17eb0e	0.0370894
7	0x3da4f968	0.08055383
8	0xbbfc81b1	-0.00770589
9	0xbd5687af	-0.05237549
10	0x3dbc4e1e	0.09194587
11	0x3ce642b9	0.028107988
12	0x3dfa31af	0.12216508
13	0x3e073071	0.13202073
14	0xbb1c13af	-0.0023815443
15	0x3e3a311e	0.18182799
16	0x3e4ec432	0.2019203
17	0x3c44cfcf	0.012012436
18	0xbd252b21	-0.040324334
19	0x3d332f6b	0.043746393
20	0x3e19599e	0.14975592
21	0xbd7d72f8	-0.06187722
22	0xbd0bdafa	-0.03414438
23	0x3dcd5319	0.10025615
24	0x3deb0fbf	0.11477613
25	0xbe0b89aa	-0.13626733
26	0x3ccc9f8d	0.024978423
27	0x3daf84d1	0.085702546
28	0xbd855fb8	-0.065123975
29	0x3da476f8	0.08030504
30	0x3db72eb5	0.089444555
31	0x3d7ce205	0.061738987
32	0xbcec14dd	-0.028818542
33	0x3d8c9560	0.068644285
34	0x3c8019e5	0.015637347
35	0x3d9031bd	0.07040737
36	0x3de3b19d	0.111178614
37	0x3dc7b88a	0.09751995
38	0x3c4cc9d8	0.012499295
39	0x3da6395c	0.08116409
40	0x3e064c8e	0.13115141
41	0xbe036f5e	-0.12835452
42	0x3d56167f	0.052267548
43	0xbe1420c1	-0.1446562
44	0x3d8e881d	0.06959555
45	0xbd210325	-0.03930964
46	0xbd2104bb	-0.039311152
47	0x3c5b8327	0.013397968
48	0x3dbf614f	0.09344732
49	0x3deca095	0.11554066
50	0xbdb8148b	-0.08988293
51	0xbca7d165	-0.02048559
52	0x3e1b6fa5	0.15179308
53	0xbe07134c	-0.13190955
54	0xbe1690de	-0.147037
55	0xbd3a6020	-0.04550183
56	0x3db87a39	0.09007687
57	0xbdfcbb0b	-0.12340363
58	0x3d2d8eee	0.042372636
59	0x3e548abf	0.20756052
60	0x3e2fdc70	0.17173934
61	0xbccefc84	-0.025266893
62	0xbdba777a	-0.091048196
63	0xbd063519	-0.03276548
64	0xbe03371d	-0.12813993
65	0x3dc4071e	0.0957167
66	0xbbf83897	-0.0075751054
67	0xbc4fc306	-0.012680775
68	0x3ddbcec3	0.10732796
69	0xbda5bde0	-0.080928564
70	0x3de2744d	0.11057339
71	0xbe16b544	-0.14717585
72	0xbdb3f203	-0.087863944
73	0x3d7cd103	0.061722767
74	0x3d995dd5	0.074886
75	0x3dcd92c0	0.10037756
76	0x3cdec83d	0.02719509
77	0x3e35c68c	0.17751521
78	0x3e355494	0.17708045
79	0xbd96b186	-0.07358079
80	0x3cfcb8fb	0.030849924
81	0x3e3c4684	0.18386275
82	0x3e1ffbde	0.15623423
83	0x3c59465c	0.013261404
84	0x3dfdeb51	0.12398399
85	0x3df147f0	0.11781299
86	0x3ceb224f	0.028702883
87	0x3d104e49	0.03523091
88	0x3e36a2ec	0.17835587
89	0x3d8520cb	0.065003954
90	0x3da56b08	0.08077055
91	0xbe1613a6	-0.14655933
92	0x3cd9dd75	0.026594857
93	0xbdcf3865	-0.10118178
94	0xbd917424	-0.0710223
95	0x3deeeee1	0.11666656
96	0x3d816b7d	0.0631933
97	0x3e0003b6	0.12501416
98	0x3d67cfe6	0.05659475
99	0xbe680341	-0.22657491
100	0x3e552c5f	0.20817707
101	0x3c5f641a	0.013634706
102	0x3e757a0a	0.23972335
103	0xbdd78ff3	-0.10525503
104	0xbe2509ba	-0.16116992
105	0x3e033d93	0.12816457
106	0x3d3ce3d9	0.04611573
107	0x3df21f97	0.118224315
108	0x3e2d4fb1	0.16924931
109	0x3cd8985f	0.026439844
110	0x3d8bc161	0.068239935
111	0x3d3cb337	0.04606935
112	0xbd859a17	-0.06523531
113	0x3ca6d571	0.020365449
114	0xbe58baaa	-0.21164957
115	0x3e10a365	0.1412483
116	0x3dee1409	0.11624915
117	0x3e3ea2fb	0.1861686
118	0xbe0529f4	-0.13004285
119	0x3db2a886	0.087235495
120	0x3e2a76de	0.16646907
121	0x3ced5d4d	0.028975153
122	0xbdd556b9	-0.10416932
123	0x3d86be25	0.06579236
124	0xbd99fa00	-0.07518387
125	0x3e4fb353	0.2028325
126	0x3df9ef01	0.122037895
127	0x3de80712	0.113294736

network_body._body_endoder.seq_layers.2.weight f4 [128, 128]
0	0x3d573aff	0.052546497
1	0xbcea7320	-0.028619349
2	0xbd67d41f	-0.05659878
3	0x3c4672d6	0.01211234
4	0xbce69f78	-0.028152213
5	0xbe27c0ba	-0.16382113
6	0x3d76c3c9	0.06024531
7	0xbd037fb9	-0.032104228
8	0x3d11330c	0.035449073
9	0xbd9d8358	-0.076910675
10	0xbca0650c	-0.019579433
11	0xbe2f4f85	-0.17120178
12	0x3d504715	0.05084904
13	0xbd419f7e	-0.047271244
14	0xbd2975da	-0.041372158
15	0x3ba25af9	0.0049546924
16	0x3dcdeed7	0.10055321
17	0xbd81538e	-0.06314765
18	0xbdce47af	-0.10072266
19	0x3c6c8f06	0.014438396
20	0x3d983057	0.07431095
21	0x3d6309f1	0.055429403
22	0xbc938dde	-0.018011983
23	0xbd8b57e8	-0.06803876
24	0xbbf09e1e	-0.007343068
25	0x3d612563	0.054967295
26	0xbcae4b62	-0.02127618
27	0xbc918d4e	-0.017767575
28	0x3e378026	0.17919978
29	0xbe0a077b	-0.13479416
30	0xbd40d565	-0.04707851
31	0xbdb6fa1e	-0.08934425
32	0x3e1e389d	0.15451284
33	0x3ccfcfa1	0.02536756
34	0xbdca0aa4	-0.09865311
35	0xbe6d8eab	-0.23198955
36	0xbdec8726	-0.11549215
37	0xbe08447c	-0.13307375
38	0xbdea0e94	-0.11428562
39	0x3ca4b4c0	0.02010572
40	0xbd134a82	-0.035959728
41	0x3dba4955	0.09096018
42	0x3e10e813	0.1415103
43	0x3dce8592	0.1008407
44	0xbe0a4e65	-0.13506468
45	0xbe01f47f	-0.12690924
46	0xbdf25719	-0.11833019
47	0x3d039193	0.032121252
48	0xbd81a604	-0.06330493
49	0x3d19a7c1	0.0375135
50	0xbe47c2cf	-0.19507907
51	0x3d42b9c7	0.047540452
52	0x3c74dc02	0.014945032
53	0xbd84b8a6	-0.064805314
54	0x3dc26b25	0.094930924
55	0xb9014a80	-0.00012330152
56	0x3dc81b9f	0.09770893
57	0x3dce8d4e	0.100855455
58	0x3c431c47	0.011908597
59	0x3e0a9ed2	0.13537148
60	0xbdf24d95	-0.11831204
61	0xbe234173	-0.15942936
62	0xbd216097	-0.039398756
63	0x3cb0e0ec	0.021591626
64	0x3d2a3af7	0.04156014
65	0x3c80d243	0.01572526
66	0xbe55c11a	-0.20874444
67	0x3d9461e0	0.07245231
68	0x3cf757ae	0.030193176
69	0xbd46ff1c	-0.048583135
70	0x3c59a134	0.013283063
71	0xbcea81c7	-0.028626336
72	0x3d7e5cc0	0.062100172
73	0x3df1d3d3	0.118079804
74	0x3d493434	0.04912205
75	0xbe387e12	-0.18016842
76	0xbdd88e5a	-0.105740264
77	0xbcb5c35a	-0.022187877
78	0x3e7ed526	0.24885997
79	0x3d5ecc47	0.054394033
80	0xbe62ce8d	-0.22149105
81	0xbdbd3957	-0.09239452
82	0x3c06b83d	0.008222637
83	0x3e5ed561	0.21761085
84	0x3c4a48c8	0.012346454
85	0xbe468be8	-0.19389307
86	0xbde6c04c	-0.112671465
87	0x3d6efc66	0.058346175
88	0x3e132c94	0.14372474
89	0x3c1a5804	0.009420399
90	0xbe2d303a	-0.16912928
91	0xbe8c6ac5	-0.2742521
92	0x3d41894d	0.04725008
93	0xbcd6f1a3	-0.026238268
94	0xbe76931f	-0.2407956
95	0x3e2831b6	0.16425213
96	0xbe404539	-0.18776406
97	0xbd306c49	-0.04307202
98	0xbe11ee5a	-0.1425108
99	0x3dbc9a4f	0.092091195
100	0x3dcb4949	0.099260874
101	0x3c4f7473	0.012662041
102	0x3deed0ba	0.11660905
103	0x3dd36781	0.10322476
104	0x3e0a8933	0.135289
105	0xbccce9d2	-0.025013838
106	0xbce246d3	-0.027621662
107	0x3ac5156a	0.0015036289
108	0x3e58d47b	0.21174805
109	0x3cb9b4bd	0.02266919
110	0xbddb9fdb	-0.107238494
111	0x3db6bf11	0.08923162
112	0x3e3f3fef	0.18676732
113	0xbdc1fcaf	-0.09472024
114	0x3dc4c625	0.096081056
115	0xbe70c78f	-0.23513626
116	0x3d185a15	0.037195284
117	0xbe78c8bd	-0.24295326
118	0x3d3817e2	0.04494465
119	0xbc3ae322	-0.011406692
120	0xbda96e37	-0.08272975
121	0xbe3cabda	-0.18424931
122	0x3e1b3a3c	0.15158933
123	0x3ce66e7d	0.028128857
124	0xbb2e6614	-0.0026611136
125	0x3c3e46ea	0.011613587
126	0xbc235185	-0.009968166
127	0xbc9d46a8	-0.01919873
128	0x3d22d0e6	0.039750002
129	0xbd4e5eb2	-0.050383277
130	0x3d3bad21	0.045819405
131	0xbce4c3d1	-0.027925404
132	0x3d8ea6e9	0.06965429
133	0x3bd0de50	0.006374158
134	0x3d04c904	0.032418266
135	0x3d5a8119	0.053345773
136	0xbe5fb897	-0.21847759
137	0xbe65f992	-0.22458485
138	0xbdcc6551	-0.09980262
139	0xbc425bcb	-0.011862705
140	0x3dd9ce7e	0.106350884
141	0xbdaaa2d5	-0.08331839
142	0xbbe4d3b3	-0.0069832443
143	0x3d35a8b5	0.044350345
144	0x3d7b3335	0.06132813
145	0xbe198848	-0.14993393
146	0xbdb9df58	-0.090758026
147	0x3d7b9d05	0.061429042
148	0x3db629be	0.088946804
149	0xbdbe2c58	-0.09285802
150	0x3c761979	0.015020722
151	0xbe04c29c	-0.12964863
152	0x3e8bfd59	0.27341726
153	0x3ce3855a	0.027773548
154	0xbc1dd64a	-0.00963361
155	0xbd79743f	-0.060901877
156	0xbd7f65d8	-0.062352985
157	0xbd5b3c79	-0.053524468
158	0xba4fa5c4	-0.00079211243
159	0xbdeb6f27	-0.1149581
160	0xbdc9726f	-0.098362796
161	0x3c650a5e	0.0139795225
162	0x3d3af238	0.045641154
163	0x3e4456f5	0.19173796
164	0x3d998ab1	0.074971564
165	0xbe0c39ca	-0.1369392
166	0x3cbf20da	0.023331095
167	0x3e24dfd2	0.16101006
168	0x3e072858	0.13198984
169	0xbd666199	-0.05624542
170	0x3e0979e4	0.13425404
171	0xbdd30c83	-0.10305121
172	0xbd080117	-0.033204164
173	0xbd32942a	-0.04359833
174	0xbd5a6cb6	-0.05332633
175	0xbd74e005	-0.059783954
176	0x3d3a1a65	0.045435328
177	0x3e1bbe08	0.1520921
178	0xbd7e8c18	-0.062145323
179	0xbd82d300	-0.06387901
180	0x3d297f79	0.041381333
181	0x3d931ba5	0.07183007
182	0xbd287a65	-0.04113235
183	0x3db21603	0.08695605
184	0x3e23b699	0.15987624
185	0xbd11e028	-0.035614163
186	0x3d0b85d8	0.03406319
187	0xbd64369e	-0.05571615
188	0x3d8dc551	0.06922401
189	0xbdb542d6	-0.088506386
190	0xbdc5fa8a	-0.09666927
191	0xbdac1397	-0.08402174
192	0xbd861368	-0.0654667
193	0x3dca6249	0.09882028
194	0x3d6c9720	0.05776131
195	0x3d82055d	0.06348679
196	0xbc8608cc	-0.016361617
197	0xbe3e3534	-0.18574983
198	0x3c729b75	0.014807572
199	0xbe50bc03	-0.20384221
200	0x3dc8828d	0.097905256
201	0x3e3bb108	0.18329251
202	0x3d1328f6	0.035927735
203	0x3da55d29	0.080744095
204	0x3e4b8bc6	0.19877538
205	0x3dcd9b9f	0.10039448
206	0x3e027c55	0.12742741
207	0xbd260855	-0.04053529
208	0x3d9fe131	0.07806624
209	0x3dfda89e	0.12385677
210	0x3dcc0fac	0.09963927
211	0x3d14cc48	0.03632763
212	0x3e133f3d	0.14379592
213	0x398750d4	0.00025809428
214	0x3dcb227b	0.09918686
215	0x3d6661b6	0.05624553
216	0x3d98b14c	0.07455692
217	0xb99c058e	-0.00029758777
218	0xbdd72f19	-0.1050703
219	0xbbf430d3	-0.0074521094
220	0xbd824ce0	-0.06362319
221	0x3ba057d1	0.004893281
222	0xbdfb0c8f	-0.12258255
223	0x3dc896e5	0.09794406
224	0x3cbc1e9a	0.02296381
225	0xbd4a034b	-0.049319547
226	0x3d2b3f64	0.0418085
227	0xbe3ecae5	-0.18632086
228	0x3dad74be	0.084695324
229	0xbd3a7189	-0.04551843
230	0x3e6d896e	0.23196957
231	0xbb42ad01	-0.002970517
232	0xbe77eb81	-0.24210931
233	0x3e468e2a	0.19390169
234	0x3e4f3f34	0.20238954
235	0x3db59969	0.08867151
236	0x3d472808	0.04862216
237	0x3cc18ecf	0.023627667
238	0x3c281372	0.010258542
239	0x3da82806	0.08210759
240	0x3cac885e	0.021061119
241	0x3cbb516c	0.022865973
242	0xbd7e006f	-0.062012132
243	0x3e220d5e	0.15825412
244	0x3d661f8e	0.056182437
245	0x3dd3fa71	0.10350502
246	0xbe58378c	-0.2111494
247	0x3d18385f	0.037163135
248	0x3d88d0c4	0.06680444
249	0xbd739898	-0.059471697
250	0xbdf9852e	-0.12183605
251	0xbc18b7db	-0.009321178
252	0xbd6818e2	-0.056664355
253	0x3e7f0105	0.24902733
254	0x3e1d672b	0.15371387
255	0x3d81ee70	0.063443065

network_body._body_endoder.seq_layers.2.bias f4 [128]
0	0xbd94762e	-0.072491035
1	0x3e1b39d0	0.15158772
2	0x3d9ff5cc	0.07810554
3	0xbd93b562	-0.072123304
4	0xbd9f1b1c	-0.077688426
5	0xbdc4bac5	-0.09605936
6	0x3d3544c9	0.04425505
7	0x3e008a45	0.12552746
8	0xbd8c61b0	-0.0685457
9	0x3e13f0aa	0.14447275
10	0x3df9ec3f	0.122032635
11	0x3d2b2040	0.041778803
12	0x3d89792c	0.06712565
13	0xbdac7fb6	-0.084227964
14	0x3dd70205	0.10498432
15	0x3dd2cefd	0.10293386
16	0x3df67f0a	0.120359495
17	0x3e0b7221	0.13617755
18	0xbda2355d	-0.079203345
19	0xbd8d6703	-0.069044136
20	0x3e0c7305	0.13715751
21	0x3d71a81b	0.05899821
22	0xbd95f6b3	-0.07322445
23	0x3e13f9b8	0.14450729
24	0x3e21d813	0.15805082
25	0xbd8276e7	-0.06370335
26	0x3e00c26c	0.12574166
27	0xbdac29f3	-0.08406439
28	0x3e0ec206	0.13941202
29	0xbde30663	-0.110852025
30	0xbd85d49e	-0.06534694
31	0xbdb54a09	-0.08852012
32	0x3e12fd38	0.14354408
33	0x3e2900ae	0.16504166
34	0xbdfa8f92	-0.12234415
35	0xbdb3abe1	-0.08773018
36	0xbdac0c8c	-0.084008306
37	0xbdbd4f4b	-0.092436396
38	0xbda5a4e4	-0.08088091
39	0x3e1babf9	0.15202321
40	0x3d558f8e	0.052138858
41	0x3d74fb7e	0.059810154
42	0x3e0e6fd6	0.1390985
43	0x3d04f507	0.03246024
44	0xbdce1a63	-0.100636266
45	0xbdb861d2	-0.09003033
46	0xbd49fd69	-0.049313936
47	0x3de39936	0.11113207
48	0xbdedfa3c	-0.11619994
49	0xbdc595bc	-0.096477
50	0xbda94015	-0.08264176
51	0xbd9d46ac	-0.07679495
52	0x3df253c1	0.11832381
53	0x3e305cdd	0.17222925
54	0xbd2fa87a	-0.04288528
55	0x3d9556c4	0.0729194
56	0xbd8d1a6e	-0.06889807
57	0xbdb30645	-0.0874143
58	0xbda87af4	-0.082265764
59	0x3dc5e7e9	0.09663374
60	0xbe163545	-0.14668758
61	0xbd8f45e1	-0.0699575
62	0x3de8dc3c	0.113701314
63	0xbdb958b8	-0.09050125
64	0x3debb605	0.11509327
65	0x3e1d0ed0	0.15337682
66	0x3dd8b6dc	0.10581753
67	0xbd8c8ed6	-0.06863181
68	0x3daaa38d	0.08331976
69	0x3e278dfd	0.16362758
70	0x3cca546e	0.024698462
71	0x3dea3ae6	0.11437015
72	0x3dd1858e	0.10230552
73	0xbdb6655a	-0.0890605
74	0x3dd0ce35	0.10195581
75	0x3e04a8e3	0.1295505
76	0x3e0a1e91	0.13488223
77	0x3ddab06f	0.10678183
78	0x3e16b319	0.14716758
79	0xbd1efe61	-0.038816813
80	0xbd7107e3	-0.058845412
81	0x3dc377a1	0.09544302
82	0xbd82ea6c	-0.06392369
83	0xbdc93b8b	-0.0982581
84	0xbd62230f	-0.055209216
85	0xbdb6ee40	-0.08932161
86	0x3e068ea2	0.13140348
87	0x3e012d20	0.1261487
88	0x3df86c09	0.12129981
89	0xbd84d628	-0.064861596
90	0xbdac9acc	-0.08427963
91	0xbdcf76fb	-0.101301156
92	0x3ddbb234	0.10727349
93	0xbda41185	-0.08011154
94	0x3e097499	0.13423385
95	0xbcba4595	-0.022738257
96	0xbdbad5c0	-0.09122801
97	0xbdbe8daa	-0.09304364
98	0xbe0c04a5	-0.13673647
99	0x3e10bd1a	0.14134637
100	0xbd94d98b	-0.072680555
101	0x3e2e14ce	0.17000124
102	0x3d685c54	0.056728676
103	0x3e3dfb01	0.18552782
104	0xbdd1b6c7	-0.1023994
105	0x3df80a2a	0.12111314
106	0x3dcf88d6	0.10133521
107	0x3df587ae	0.119887695
108	0xbdb2d03f	-0.08731126
109	0x3da4ed72	0.080531016
110	0xbd96e5f7	-0.07368081
111	0xbd89956d	-0.06717954
112	0xbd969646	-0.07352881
113	0xbcf75531	-0.03019199
114	0x3e426494	0.1898368
115	0xbdcb16ca	-0.09916456
116	0x3d865a56	0.06560199
117	0xbd9aab3f	-0.07552194
118	0x3e0b210b	0.13586824
119	0x3d9b845d	0.07593606
120	0xbda804b4	-0.08204022
121	0xbd5b8030	-0.053589046
122	0x3dc434a6	0.095803544
123	0xbd80fefa	-0.06298633
124	0x3e30e10d	0.1727335
125	0xbd91dd54	-0.07122293
126	0x3dab5658	0.08366078
127	0xbda2813a	-0.07934804

action_model._discrete_distribution.branches.0.weight f4 [2, 128]
0	0xbdbc4c7d	-0.091942765
1	0x3e119e37	0.1422051
2	0x3d4dbe2c	0.05023019
3	0xbe1d8f39	-0.15386666
4	0xbde18087	-0.11010843
5	0xbe0f0213	-0.13965635
6	0xbc6f8821	-0.014619858
7	0x3de324d5	0.110910095
8	0xbd8847a3	-0.066542886
9	0x3db566fa	0.08857532
10	0x3cb9992a	0.022656042
11	0x3d410fdb	0.04713426
12	0x3c454bde	0.012042014
13	0xbe416e38	-0.18889701
14	0x3dadf88c	0.08494672
15	0x3db559d0	0.08855021
16	0x3e0e80b4	0.13916284
17	0x3dd1de0d	0.10247431
18	0xbdee94fc	-0.1164951
19	0xbe12ba06	-0.14328775
20	0x3dc872e3	0.09787538
21	0x3ba5cd2c	0.005059859
22	0xbe40f3e8	-0.18843043
23	0x3e157836	0.14596638
24	0x3de61eef	0.11236369
25	0xbe300454	-0.17189151
26	0x3d95987e	0.07304476
27	0xbddd6b6b	-0.10811504
28	0x3d53f72b	0.05174939
29	0xbd731928	-0.059350163
30	0xbcee0167	-0.029053403
31	0xbe0b41a2	-0.13599256
32	0x3df406cd	0.1191536
33	0x3e0e5a7b	0.13901703
34	0xbd42a7c1	-0.047523264
35	0xbe1a8f2c	-0.15093678
36	0xbe029367	-0.12751542
37	0xbe0c7654	-0.13717014
38	0xbdd6afe2	-0.10482766
39	0x3df8c2f6	0.12146561
40	0x3d8bdeb4	0.068295866
41	0x3cebb6af	0.028773634
42	0x3dcacf64	0.09902838
43	0x3d166996	0.03672179
44	0xbe013bea	-0.12620512
45	0xbdcb27c4	-0.09919694
46	0xbe482b4b	-0.19547765
47	0x3d4eaff4	0.05046077
48	0xbde552fa	-0.11197467
49	0xbdd33677	-0.10313123
50	0xbd928945	-0.07155088
51	0xbde2c702	-0.11073114
52	0x3da83a24	0.082142144
53	0x3de71a03	0.11284258
54	0xbe2fb164	-0.17157513
55	0x3cd5d7e9	0.02610393
56	0xbe0a6ab5	-0.13517268
57	0xbe0d6e69	-0.1381165
58	0xbd8e28f0	-0.06941402
59	0x3d2828f0	0.041054666
60	0xbd807bd8	-0.06273621
61	0xbd2a6767	-0.04160252
62	0x3d4eb9c9	0.050470147
63	0xbe00bdfb	-0.12572472
64	0x3d10f0f4	0.03538604
65	0x3db5db15	0.08879677
66	0x3db838da	0.089952186
67	0xbe1ebaac	-0.15500897
68	0x3d1b82d0	0.03796655
69	0x3dfeefdb	0.124480926
70	0x3cebdeda	0.028792787
71	0x3d24edca	0.040265836
72	0x3d360176	0.044434987
73	0xbd30e2cc	-0.04318504
74	0x3d2898da	0.041161396
75	0x3dbb8c7a	0.09157653
76	0x3debd9e9	0.115161724
77	0x3d0c1784	0.034202114
78	0x3dd897f8	0.10575861
79	0xbe0c94ae	-0.13728592
80	0xbe03f402	-0.1288605
81	0x3d28a0f1	0.04116911
82	0xbe15f4f3	-0.14644222
83	0xbe12ffa2	-0.14355329
84	0xbe4d5b41	-0.20054342
85	0xbe021438	-0.12703025
86	0x3de49a83	0.11162283
87	0x3da24273	0.079228304
88	0x3d8a1dec	0.067439884
89	0xbe3d2919	-0.18472709
90	0xbe402021	-0.18762256
91	0xbdb9641f	-0.090523
92	0x3da59dd8	0.08086747
93	0xbddca441	-0.107735164
94	0x3dbb13c6	0.09134631
95	0xbd95e161	-0.07318378
96	0xbdcedadb	-0.10100337
97	0xbe13fefb	-0.14452736
98	0xbdc5b604	-0.09653857
99	0x3da80e65	0.082058705
100	0xbe3d42a7	-0.18482457
101	0x3dd275f8	0.10276407
102	0x3d5c6eca	0.053816594
103	0x3e1cbd95	0.15306695
104	0xbd8d235c	-0.0689151
105	0x3db35bcb	0.087577425
106	0x3d401e22	0.046903737
107	0x3d4bb3c4	0.049731985
108	0xbe412a81	-0.1886387
109	0x3db3cbb5	0.087790884
110	0xbe3bc885	-0.18338211
111	0xbd3ba067	-0.04580727
112	0xbe001f21	-0.12511875
113	0xbe129f65	-0.14318617
114	0x3debd685	0.11515526
115	0xbde9ff91	-0.114256985
116	0x3c1c1208	0.009525783
117	0xbe40b429	-0.18818726
118	0x3d997b1c	0.074941844
119	0xbad0f79f	-0.0015942937
120	0xbdd24221	-0.10266519
121	0xbe4a0a7c	-0.19730562
122	0x3c1fd62b	0.0097556515
123	0xbde7f525	-0.113260545
124	0x3e03f501	0.1288643
125	0xbe0415c4	-0.12898928
126	0x3ba45478	0.0050149523
127	0xbdaf3bc0	-0.08556318
128	0x3dc9d4f2	0.09855069
129	0xbe0b64f7	-0.13612734
130	0xbd228c06	-0.039684318
131	0x3e2d5a41	0.1692896
132	0x3ddc9eab	0.10772451
133	0x3e05f518	0.13081777
134	0x3b9fa1c8	0.0048715807
135	0xbde6a66f	-0.112622134
136	0x3d855bb2	0.0651163
137	0xbdb05a98	-0.086110294
138	0xbcbd14d6	-0.023081224
139	0xbd83a279	-0.064274736
140	0xba685c53	-0.0008863855
141	0x3e493193	0.19647817
142	0xbda244e5	-0.07923297
143	0xbd8959af	-0.06706559
144	0xbe11546b	-0.14192359
145	0xbdd1b79f	-0.10240101
146	0x3df5b2ed	0.11997018
147	0x3e1e4ed5	0.1545976
148	0xbddceb97	-0.10787123
149	0xbcb359a0	-0.021893322
150	0x3e41f7b8	0.18942153
151	0xbe05d2d2	-0.13068703
152	0xbddb23b6	-0.10700171
153	0x3e2dc594	0.16969901
154	0xbdaa1a34	-0.08305779
155	0x3de5f3d4	0.11228147
156	0xbd82aeb0	-0.06380975
157	0x3d898a5b	0.06715842
158	0x3c0babf3	0.008524883
159	0x3dfd05bb	0.123546086
160	0xbde6b17f	-0.112643234
161	0xbe124cb8	-0.14287078
162	0x3d55324f	0.05204993
163	0x3e0e850b	0.1391794
164	0x3df77ba0	0.120841265
165	0x3e0c6431	0.13710095
166	0x3dc932da	0.09824152
167	0xbdd897bc	-0.10575816
168	0xbd919b53	-0.07109704
169	0xbd2c8ff4	-0.042129472
170	0xbdae66fb	-0.08515736
171	0xbd370d63	-0.0446905
172	0x3dde9a92	0.10869326
173	0x3dcd1f80	0.10015774
174	0x3e3db694	0.1852668
175	0xbd504e38	-0.050855845
176	0x3df0eb58	0.11763638
177	0x3df7fa1e	0.12108253
178	0x3d82f66b	0.06394657
179	0x3dd3ba3f	0.10338258
180	0xbd9764a2	-0.07392241
181	0xbdf0b01f	-0.117523424
182	0x3e311277	0.172922
183	0xbcb565f1	-0.022143336
184	0x3e08f186	0.13373384
185	0x3e0b62fd	0.1361198
186	0x3da1497d	0.07875345
187	0xbce34651	-0.02774349
188	0x3d856d24	0.065149575
189	0x3d2694ef	0.040669378
190	0xbd3d06f7	-0.04614922
191	0x3e01ddf4	0.12682325
192	0xbd156eb8	-0.036482543
193	0xbdbe590a	-0.092943266
194	0xbdc55699	-0.09635658
195	0x3e0cdd46	0.13756284
196	0xbd21a448	-0.03946331
197	0xbe0b2004	-0.13586432
198	0xbcbc69cd	-0.022999668
199	0xbce76756	-0.028247517
200	0xbd36492f	-0.044503387
201	0x3d21987a	0.039452054
202	0xbcdebf31	-0.027190777
203	0xbddef7e8	-0.10887128
204	0xbdde504d	-0.1085516
205	0xbcb17a49	-0.021664755
206	0xbdca237a	-0.09870048
207	0x3e102c11	0.1407931
208	0x3e08f24e	0.13373682
209	0xbd4f4a59	-0.050608013
210	0x3e11d62e	0.1424186
211	0x3e27bfbd	0.16381736
212	0x3e3f4984	0.18680388
213	0x3dfe331a	0.124120906
214	0xbdff023a	-0.124515966
215	0xbd4ea32a	-0.050448574
216	0xbd383e53	-0.044981312
217	0x3e403f63	0.1877418
218	0x3e359539	0.17732705
219	0x3dea90b1	0.11453379
220	0xbd9172cb	-0.07101973
221	0x3e013b10	0.12620187
222	0xbdd63b92	-0.10460581
223	0x3d93230c	0.07184419
224	0x3db4af9d	0.08822558
225	0x3e1a5c6c	0.15074319
226	0x3dd186f0	0.102308154
227	0xbdb8ab12	-0.09017004
228	0x3e40b1e4	0.1881786
229	0xbdea2506	-0.11432843
230	0xbd5b7edc	-0.05358778
231	0xbe14d3bd	-0.14533897
232	0x3d81c1b1	0.06335772
233	0xbd99a4e1	-0.07502151
234	0xbd4bdbdd	-0.049770225
235	0xbd6bce53	-0.057569813
236	0x3e3772ac	0.17914838
237	0xbd70de83	-0.058805954
238	0x3e2c2e6c	0.16814584
239	0x3d4ca95b	0.049966197
240	0x3e0273f2	0.12739542
241	0x3e1c6350	0.1527226
242	0xbddf2ffb	-0.108978234
243	0x3dd795c3	0.10526612
244	0x3c79003b	0.015197809
245	0x3e3ab235	0.18232043
246	0xbd9a61c2	-0.07538177
247	0xbc670b78	-0.014101855
248	0x3dbd8623	0.092541
249	0x3e4ee3ae	0.2020404
250	0xbcc45bd5	-0.02396957
251	0x3deed277	0.11661237
252	0xbdfa6549	-0.1222635
253	0x3e10b87a	0.14132872
254	0xbcf1c845	-0.029514441
255	0x3db50d01	0.08840371

action_model._discrete_distribution.branches.0.bias f4 [2]
0	0x3de199c8	0.110156596
1	0xbde1998d	-0.110156156

exp_avg f4 [128, 4]
0	0xb7d3eb3c	-2.52627e-05
1	0xb782b188	-1.5579877e-05
2	0x379b0e30	1.8484046e-05
3	0x37c7c3eb	2.381388e-05
4	0xba47674d	-0.00076066406
5	0xb9d4ea9f	-0.00040610597
6	0xb9d95350	-0.00041451538
7	0xb90805b1	-0.00012972091
8	0xb84acb30	-4.8349786e-05
9	0x38a8dda9	8.052152e-05
10	0x39e5c8e2	0.00043827953
11	0x3a27e2a9	0.00064043194
12	0x392a3458	0.00016231963
13	0x3907ec97	0.0001296274
14	0xb9333880	-0.00017091818
15	0xb939b7d0	-0.0001771145
16	0x39900b88	0.00027474412
17	0x39c041d2	0.00036670134
18	0xb9283f00	-0.00016045198
19	0xb9f63afa	-0.00046964717
20	0x3904ad7f	0.00012653133
21	0xb8b125be	-8.447048e-05
22	0x3a53f937	0.0008086147
23	0x3a74a9ae	0.00093331456
24	0x39d73711	0.00041049023
25	0x39d7690c	0.00041086262
26	0xb9830b08	-0.00024994486
27	0xb9f1c890	-0.00046116533
28	0xba36d8f7	-0.00069750793
29	0xb9c32962	-0.0003722413
30	0xb9e428f1	-0.00043518053
31	0xb98b78bf	-0.0002660211
32	0xb902dd25	-0.00012480149
33	0xb98679fb	-0.00025649354
34	0x3a95a8c1	0.001141809
35	0x3aca7621	0.0015446582
36	0x396d6704	0.00022640458
37	0xb946c875	-0.00018957428
38	0x3a8cdffe	0.0010747907
39	0x3a5ed5d0	0.00085004885
40	0x39aedd7d	0.00033352888
41	0x39f52e53	0.00046764556
42	0xb994a870	-0.00028354255
43	0xba3e2566	-0.00072534976
44	0x398b5757	0.0002657722
45	0x38067326	3.205533e-05
46	0x3a833004	0.0010008817
47	0x3a86ba04	0.0010278826
48	0x39b88d09	0.00035200294
49	0x39c8795d	0.00038237395
50	0xb970ccf1	-0.0002296453
51	0xb999b0d5	-0.00029314184
52	0xb91f82e0	-0.00015212176
53	0xb8e1a266	-0.00010759085
54	0xb989a646	-0.0002625456
55	0xb8e85c5d	-0.00011079826
56	0x38481300	4.770141e-05
57	0xb945a1db	-0.0001884768
58	0x3a80b7b3	0.0009820372
59	0x3a85a6b3	0.0010196775
60	0x39ccf9ca	0.0003909602
61	0x39e171f4	0.00043000246
62	0xb96b8f7a	-0.00022464796
63	0xb9984b68	-0.0002904788
64	0x3a9ad831	0.0011813698
65	0x3a812d2b	0.000985538
66	0xb9e65d8c	-0.00043938716
67	0xba68d0d5	-0.0008881216
68	0xb984c5e2	-0.00025324436
69	0xb99395c3	-0.00028149606
70	0x393bb56c	0.00017901295
71	0x39a37e01	0.00031183663
72	0x393ab9d3	0.00017807567
73	0xb9aea0ff	-0.00033307818
74	0x3ad01aec	0.0015877164
75	0x3ac63afc	0.001512378
76	0xb98d57c8	-0.00026959018
77	0xb8c1c7a7	-9.240145e-05
78	0xb98a4969	-0.00026376106
79	0xb8fb6df0	-0.0001198909
80	0x3a266680	0.0006347671
81	0x3a4f566d	0.0007909302
82	0xb9ae02d7	-0.00033189982
83	0xba2ff3af	-0.0006712032
84	0x38c0a6ce	9.186343e-05
85	0x388520f4	6.348072e-05
86	0xb92684c0	-0.00015880447
87	0xb901d114	-0.00012380286
88	0x39ebc1ed	0.0004496718
89	0x39d6bae0	0.00040956493
90	0x3a78ed40	0.0009495802
91	0x3a89905e	0.0010495295
92	0x3965a5e3	0.0002190094
93	0x383add0a	4.4551714e-05
94	0x3a7676f3	0.000940188
95	0x3a6d15cf	0.0009044082
96	0x3997bd02	0.00028941786
97	0x3983cf98	0.00025140936
98	0xb9cad82c	-0.00038689503
99	0xba8ef33b	-0.0010906229
100	0xb8d409e6	-0.000101107915
101	0xb940e3a3	-0.00018395348
102	0x36f5220d	7.305533e-06
103	0x38e02db7	0.000106896674
104	0x38e903c4	0.00011111007
105	0xb946e011	-0.00018966223
106	0x3a3c0d6d	0.00071736315
107	0x3a777fc9	0.0009441344
108	0xb9621299	-0.00021559968
109	0xb9882be8	-0.00025972654
110	0x3a08aa67	0.000521338
111	0x3a245772	0.0006269134
112	0xb80d6f24	-3.3720527e-05
113	0xb906c6f1	-0.00012853347
114	0x393bb433	0.00017900839
115	0x397388e4	0.00023225282
116	0xb9247e68	-0.00015687349
117	0xb899ebe7	-7.339549e-05
118	0x39b06031	0.00033641004
119	0x39d3336d	0.0004028337
120	0xba3938f7	-0.00070656784
121	0xb9cd7bfc	-0.00039193023
122	0xba13a35b	-0.0005631947
123	0xb90ef5cf	-0.00013633746
124	0xb980724a	-0.00024499214
125	0xb9b93ecc	-0.00035332737
126	0x3a866726	0.0010254129
127	0x3aabd327	0.0013109193
128	0xb8e4c874	-0.000109092245
129	0xb7fe14a8	-3.0288778e-05
130	0xb953186f	-0.0002013163
131	0xb8984715	-7.261165e-05
132	0x3941a1cc	0.00018466188
133	0xb91a4b13	-0.00014714552
134	0x3a8581eb	0.0010185813
135	0x3a9725ca	0.0011531648
136	0x391513e3	0.00014217156
137	0xb8e0cce6	-0.00010719318
138	0x3a2aab9b	0.00065105566
139	0x3a4b4a7b	0.0007754934
140	0xb9249e7c	-0.00015699299
141	0xba3988f3	-0.0007077597
142	0x3a7bc239	0.00096038316
143	0x3a7dc121	0.00096799625
144	0xb8dd6b02	-0.00010558033
145	0xb8265773	-3.9658928e-05
146	0xb87fe876	-6.1013234e-05
147	0xb8ba7d3d	-8.8924986e-05
148	0x389e3cfd	7.545387e-05
149	0x390683e9	0.00012828376
150	0xb78ab963	-1.653721e-05
151	0xb9326593	-0.00017013242
152	0xb999c230	-0.00029327115
153	0xb9aecc11	-0.00033339908
154	0x39a9e3c1	0.00032403882
155	0x39ecbb87	0.00045153146
156	0xba09ed2d	-0.0005261477
157	0xb9b72c4d	-0.00034937487
158	0xb9b01924	-0.00033588067
159	0xb92e130b	-0.00016601027
160	0x39d3da02	0.00040407485
161	0x39cc0f15	0.0003892115
162	0xb98c41f9	-0.00026752034
163	0xb9e085fd	-0.00042824438
164	0x390630f0	0.00012797466
165	0xb83075c6	-4.2071355e-05
166	0xb889a174	-6.562742e-05
167	0xb6eebf9a	-7.115258e-06
168	0xba00279a	-0.00048887136
169	0xb9497c65	-0.00019215194
170	0xb902a1c0	-0.00012458023
171	0x3808ba84	3.2598633e-05
172	0x38b61779	8.6828084e-05
173	0x379249b9	1.7438886e-05
174	0xb7d0ef1b	-2.4906874e-05
175	0xb88313bd	-6.250243e-05
176	0xb6ccbdbe	-6.1017627e-06
177	0xb9496c10	-0.0001920911
178	0x3a3e66e9	0.00072632596
179	0x3a484df1	0.00076410087
180	0x37e36dac	2.7111579e-05
181	0x38983454	7.257672e-05
182	0x39261c16	0.00015841456
183	0x3914d6af	0.00014194356
184	0x388fa38d	6.849235e-05
185	0x38218ea2	3.851823e-05
186	0xb914c3fa	-0.00014187387
187	0xb81b6d2c	-3.7056554e-05
188	0xb9769d63	-0.0002351902
189	0xb9f149be	-0.00046022044
190	0x39d1cb43	0.00040015028
191	0x39df803a	0.0004262941
192	0x397832a8	0.00023669994
193	0x3999d068	0.0002933771
194	0xb8f94b04	-0.00011887218
195	0xb93cf06f	-0.00018018646
196	0x3a095eb9	0.000524025
197	0x3a315188	0.0006764163
198	0xba025c0c	-0.00049728225
199	0xba9008a7	-0.0010988907
200	0xb7ccc948	-2.4412424e-05
201	0xb99ee33a	-0.00030305405
202	0x3a446269	0.0007491471
203	0x3a421616	0.0007403804
204	0x39aa787a	0.0003251469
205	0x385f6b54	5.32673e-05
206	0x3a9fe30a	0.00121984
207	0x3a85a5c8	0.0010196501
208	0x3977c71b	0.00023629928
209	0x3913b17d	0.00014085132
210	0xb915c93e	-0.00014284716
211	0xb9c3c15a	-0.00037337356
212	0x38ae40cd	8.309037e-05
213	0x38474f4e	4.7519155e-05
214	0xb8bfd2b4	-9.146836e-05
215	0xb88c70a9	-6.696705e-05
216	0xb84e1fa3	-4.914369e-05
217	0xb98d0541	-0.0002689753
218	0x39297319	0.00016159973
219	0x399688ee	0.0002871225
220	0xb8a2e09f	-7.766601e-05
221	0xb88bacfb	-6.6602566e-05
222	0xb975b9a0	-0.00023434171
223	0x378a7dae	1.6509406e-05
224	0x3911257d	0.00013842243
225	0x3977ff1a	0.00023650788
226	0xb9f090d0	-0.0004588426
227	0xb9f17f80	-0.00046062097
228	0x394ad3a5	0.00019343065
229	0x374a272d	1.204926e-05
230	0xb9652603	-0.00021853302
231	0xb965ca84	-0.00021914585
232	0xb8cc70a6	-9.7484604e-05
233	0xb8398570	-4.423171e-05
234	0xb9d3d9bb	-0.00040407278
235	0xb9be8345	-0.00036337427
236	0x39fda78a	0.00048380747
237	0x39ded1ff	0.000424996
238	0xb98fee75	-0.0002745275
239	0xba03c7ec	-0.0005027044
240	0x39fcf6d0	0.00048249075
241	0x3a0e2c69	0.0005423488
242	0xb983db5a	-0.00025149697
243	0xb987a048	-0.00025868625
244	0x39b97da1	0.0003537955
245	0xb7aa9347	-2.033416e-05
246	0x3aa79972	0.0012786819
247	0x3aa56dca	0.0012621221
248	0x3846f076	4.7430825e-05
249	0x370c1efd	8.351865e-06
250	0xb7816041	-1.542282e-05
251	0x36fa4626	7.458747e-06
252	0x38c112a4	9.206429e-05
253	0x38d3fc4a	0.000101082565
254	0xb8a0140b	-7.633128e-05
255	0xb8b92431	-8.8282286e-05

exp_avg_sq f4 [128, 4]
0	0x344e6ec6	1.9225544e-07
1	0x34291974	1.5748611e-07
2	0x3404e9e2	1.2378544e-07
3	0x33c0cc1f	8.977826e-08
4	0x37e5a717	2.7376735e-05
5	0x378085f7	1.5321171e-05
6	0x379bf6c8	1.8592356e-05
7	0x370d9055	8.43786e-06
8	0x3727ba1d	9.997309e-06
9	0x37f18a4b	2.8793836e-05
10	0x3715169a	8.886354e-06
11	0x37652879	1.3658887e-05
12	0x3440632a	1.7917469e-07
13	0x34ba2780	3.467394e-07
14	0x343497cf	1.6819034e-07
15	0x34aaebce	3.1836538e-07
16	0x36087c65	2.0337986e-06
17	0x36fcb24d	7.530942e-06
18	0x35ece570	1.7650145e-06
19	0x36742816	3.6382166e-06
20	0x37df8a81	2.6648167e-05
21	0x381980c9	3.6597983e-05
22	0x37a6700a	1.9840914e-05
23	0x37b2a2a9	2.1294998e-05
24	0x362b5b21	2.553403e-06
25	0x3715dc87	8.932438e-06
26	0x3617e48c	2.2633785e-06
27	0x36a2e65a	4.8547927e-06
28	0x37e77f7a	2.7596707e-05
29	0x379180b8	1.7345286e-05
30	0x379e3a48	1.8862207e-05
31	0x3726bcfc	9.938372e-06
32	0x388831f0	6.494287e-05
33	0x38d3ebad	0.00010105162
34	0x384a9f45	4.8308884e-05
35	0x387999eb	5.9509573e-05
36	0x381f0b8d	3.791931e-05
37	0x381434d0	3.5335135e-05
38	0x37de4eeb	2.6501211e-05
39	0x37b6a9ab	2.1775099e-05
40	0x36d0a397	6.2179274e-06
41	0x37c4d594	2.3464476e-05
42	0x36bb3831	5.579576e-06
43	0x3737fc0e	1.0966336e-05
44	0x384d704f	4.8980404e-05
45	0x38856c89	6.3621505e-05
46	0x38167636	3.587288e-05
47	0x381f754d	3.80178e-05
48	0x35dadbf8	1.6306285e-06
49	0x368ccb44	4.1959884e-06
50	0x3593024d	1.0953023e-06
51	0x36227adc	2.4211395e-06
52	0x36658ae8	3.4204513e-06
53	0x36216dba	2.4054739e-06
54	0x361dd871	2.3520809e-06
55	0x35e15463	1.6788366e-06
56	0x37e20e54	2.6947971e-05
57	0x3808d4e2	3.262319e-05
58	0x37a6af56	1.987039e-05
59	0x379ad529	1.8457491e-05
60	0x3608606c	2.0321704e-06
61	0x369511fe	4.4426406e-06
62	0x359861bb	1.1353326e-06
63	0x369ac068	4.6119567e-06
64	0x37f13b6f	2.8757115e-05
65	0x38bc2eb2	8.973236e-05
66	0x37cb31a9	2.422261e-05
67	0x38587128	5.1603798e-05
68	0x359ba10d	1.1595272e-06
69	0x3684f150	3.961999e-06
70	0x3581d9ae	9.674602e-07
71	0x36211974	2.4005685e-06
72	0x38b48cb0	8.609274e-05
73	0x38d9cadd	0.000103851526
74	0x3881a43f	6.1817926e-05
75	0x388614f3	6.39352e-05
76	0x36ab5e21	5.107155e-06
77	0x3659aa4c	3.2434646e-06
78	0x366ba460	3.5113408e-06
79	0x36006ad3	1.9135666e-06
80	0x36a44a2a	4.8962147e-06
81	0x377eb6ca	1.5182139e-05
82	0x367ab87d	3.736029e-06
83	0x37150d6b	8.884216e-06
84	0x34bee644	3.5557798e-07
85	0x356803cf	8.6432277e-07
86	0x349ad1df	2.8837437e-07
87	0x35172328	5.630304e-07
88	0x386dbc5a	5.668062e-05
89	0x38b0963c	8.420317e-05
90	0x3831bf05	4.237799e-05
91	0x3849e411	4.8134538e-05
92	0x3847a70a	4.7600864e-05
93	0x38797366	5.94737e-05
94	0x3811c2da	3.4752164e-05
95	0x3816dd08	3.596864e-05
96	0x37e53a74	2.7326147e-05
97	0x38c51f79	9.399554e-05
98	0x37cbcd18	2.429499e-05
99	0x385b4337	5.2276268e-05
100	0x349bbd5e	2.9008783e-07
101	0x355aea1d	8.155201e-07
102	0x34899cb5	2.5632258e-07
103	0x35412df5	7.196498e-07
104	0x37cebf3e	2.4646168e-05
105	0x37c9c983	2.4054903e-05
106	0x3795f07c	1.7874168e-05
107	0x3769c956	1.3934759e-05
108	0x369c701c	4.6622135e-06
109	0x3737f98f	1.0965755e-05
110	0x3689c8f3	4.1063117e-06
111	0x36c70295	5.9309627e-06
112	0x35ba8843	1.3897737e-06
113	0x35ec47e0	1.7604289e-06
114	0x358a25fc	1.0292856e-06
115	0x359907d5	1.1401668e-06
116	0x36eb75c0	7.0172537e-06
117	0x378e30f6	1.6950518e-05
118	0x36bbc9ff	5.5965497e-06
119	0x373dfc70	1.1324053e-05
120	0x3808678c	3.2521362e-05
121	0x37a2bf45	1.9400972e-05
122	0x37b958be	2.2095042e-05
123	0x373cf7f3	1.1263403e-05
124	0x382f858a	4.184762e-05
125	0x388dd3d7	6.762862e-05
126	0x3802e8d8	3.1211268e-05
127	0x382eac9d	4.164559e-05
128	0x35e31bc6	1.6920901e-06
129	0x35a7b7f7	1.249601e-06
130	0x359b682b	1.1578717e-06
131	0x354fa889	7.735876e-07
132	0x3835111a	4.316969e-05
133	0x386cc044	5.6445846e-05
134	0x380611fa	3.196483e-05
135	0x38090fe0	3.267813e-05
136	0x37b9ca6b	2.2147977e-05
137	0x37bec619	2.2742011e-05
138	0x37869cce	1.6047063e-05
139	0x375c5072	1.3131752e-05
140	0x37a7142e	1.9917348e-05
141	0x37b8b51a	2.2018841e-05
142	0x376cec18	1.4121666e-05
143	0x376660c7	1.3731601e-05
144	0x36031ec9	1.953844e-06
145	0x3657e588	3.2171101e-06
146	0x35c19461	1.4422804e-06
147	0x360a3528	2.0594543e-06
148	0x3483b478	2.453196e-07
149	0x3516a465	5.611858e-07
150	0x34368802	1.699955e-07
151	0x34a4edb8	3.0720344e-07
152	0x3659cc51	3.2454448e-06
153	0x371e3af2	9.431258e-06
154	0x3631c779	2.6491164e-06
155	0x36c402c9	5.8415794e-06
156	0x3783cdc5	1.5712236e-05
157	0x371a701d	9.205219e-06
158	0x3732daf4	1.0660606e-05
159	0x36ac8a54	5.142103e-06
160	0x369b2f0a	4.624836e-06
161	0x3761eae9	1.3465739e-05
162	0x3668bbe5	3.4680063e-06
163	0x3703e7bc	7.862163e-06
164	0x358d2d52	1.0518509e-06
165	0x3572bcc5	9.042672e-07
166	0x358b3e5b	1.0374455e-06
167	0x3573b0ab	9.078164e-07
168	0x370eb9e8	8.507144e-06
169	0x369e191b	4.7116896e-06
170	0x36c9b3de	6.011206e-06
171	0x362c6997	2.5691459e-06
172	0x35225ce7	6.0484894e-07
173	0x35074365	5.038949e-07
174	0x34d3bbbe	3.9438413e-07
175	0x34d300c4	3.930237e-07
176	0x378fc51c	1.7138715e-05
177	0x37ea5194	2.7932962e-05
178	0x375df3bf	1.3229378e-05
179	0x3785969f	1.5924974e-05
180	0x35c798b3	1.4871097e-06
181	0x36577b0a	3.2109115e-06
182	0x359c5c64	1.1649795e-06
183	0x3613df6e	2.203476e-06
184	0x348fac77	2.676131e-07
185	0x34662c31	2.1436496e-07
186	0x3468760d	2.164963e-07
187	0x34456672	1.8384324e-07
188	0x36502bdc	3.1019945e-06
189	0x36ba4290	5.550981e-06
190	0x361483e3	2.2130487e-06
191	0x366e684f	3.552548e-06
192	0x354905a3	7.488654e-07
193	0x36030b8e	1.9527247e-06
194	0x350e5d12	5.303456e-07
195	0x35a49102	1.2261155e-06
196	0x3766541e	1.3728653e-05
197	0x3850dc19	4.9796046e-05
198	0x374b4840	1.2116565e-05
199	0x37da89ac	2.6051734e-05
200	0x376f8e77	1.427868e-05
201	0x3780c338	1.5349695e-05
202	0x37294d42	1.0091173e-05
203	0x37245dcc	9.7970005e-06
204	0x386961fd	5.5642788e-05
205	0x385776d5	5.1370665e-05
206	0x38249ac0	3.924477e-05
207	0x37ff33c2	3.042247e-05
208	0x36c27f57	5.796475e-06
209	0x37a8e943	2.0135782e-05
210	0x36ab6c20	5.1087845e-06
211	0x3731fb1e	1.060849e-05
212	0x348d4cf3	2.6319285e-07
213	0x34963dd7	2.7984672e-07
214	0x346fc2c9	2.2329472e-07
215	0x3483e352	2.456605e-07
216	0x35cf2906	1.5434641e-06
217	0x362c52f5	2.5678285e-06
218	0x35a64928	1.2389255e-06
219	0x3615e1a2	2.2334066e-06
220	0x3606c9aa	2.008494e-06
221	0x3621ba59	2.4099338e-06
222	0x35c0c0ef	1.4361266e-06
223	0x35f3ab2b	1.8154727e-06
224	0x370606e7	7.9886295e-06
225	0x3794d149	1.774043e-05
226	0x36d439d1	6.324823e-06
227	0x37327085	1.0635825e-05
228	0x365a29d8	3.2508888e-06
229	0x3633f7a4	2.6817224e-06
230	0x363221ba	2.6543698e-06
231	0x36131507	2.1916946e-06
232	0x3704e6d6	7.921559e-06
233	0x374ea8b5	1.2317837e-05
234	0x36c8b8e5	5.981989e-06
235	0x3703d48a	7.857694e-06
236	0x36ad7848	5.1698044e-06
237	0x379b80e2	1.8537456e-05
238	0x36a288d9	4.8439074e-06
239	0x372ab992	1.0175996e-05
240	0x3671996f	3.6001109e-06
241	0x36edc50f	7.086091e-06
242	0x360f2dde	2.1335359e-06
243	0x36b07fe0	5.2600953e-06
244	0x388fc403	6.8552814e-05
245	0x38a12b2f	7.685122e-05
246	0x384f6b22	4.945242e-05
247	0x383e12db	4.531709e-05
248	0x34b4dbde	3.3687587e-07
249	0x34a6c27f	3.1061424e-07
250	0x348e2f42	2.6483946e-07
251	0x34858857	2.487238e-07
252	0x33a939bf	7.88018e-08
253	0x347a458b	2.3308364e-07
254	0x338b81c0	6.496293e-08
255	0x34229df6	1.5144892e-07

exp_avg f4 [128]
0	0x37564b7a	1.2772967e-05
1	0x390ec163	0.00013614217
2	0x37ac9412	2.0572948e-05
3	0xb8ae4c22	-8.3111474e-05
4	0xb9e54ec9	-0.00043736983
5	0x39cbef86	0.00038897636
6	0xb9d64898	-0.00040871347
7	0x3826877c	3.9703664e-05
8	0x3a855d7e	0.0010174958
9	0x3a094d09	0.00052376144
10	0xba2c56f7	-0.0006574238
11	0x3a03c111	0.00050260226
12	0xba0283a9	-0.00049787253
13	0x38b8a0bd	8.8037435e-05
14	0x39d87399	0.00041284857
15	0xba28c9cd	-0.0006438762
16	0xbafabcdc	-0.0019129771
17	0x39d60d8e	0.0004082736
18	0x3a7f785c	0.0009745413
19	0xb799ea27	-1.8348057e-05
20	0xba78b983	-0.00094880926
21	0xb8ec610e	-0.00011271435
22	0x394f163c	0.00019749341
23	0x3a0b41af	0.0005312217
24	0xba6bcc81	-0.0008995012
25	0x399885b6	0.00029091322
26	0x39e1097e	0.00042922416
27	0x3957d116	0.00020581888
28	0x396a3f53	0.00022339569
29	0x39e5758c	0.00043765863
30	0x382f2756	4.1759886e-05
31	0x3a8596b8	0.0010192012
32	0xb8206156	-3.8237624e-05
33	0x3a077a9c	0.00051681115
34	0x39c0ecdd	0.0003679757
35	0x3a5da9d6	0.00084557885
36	0xb966aca8	-0.00021998829
37	0xb8e89bbe	-0.00011091631
38	0x3a11be50	0.000555967
39	0x39309b6b	0.00016842566
40	0xba438904	-0.00074590766
41	0x39986827	0.000290693
42	0x366dfab7	3.5461687e-06
43	0x38c577ea	9.416028e-05
44	0x39af88aa	0.00033480424
45	0x37cffc40	2.4793786e-05
46	0x3794d6e8	1.7743048e-05
47	0x3a0ddebb	0.00054119126
48	0xb9c9e37e	-0.00038507202
49	0xba78b5e0	-0.00094875507
50	0x3a09827f	0.00052455807
51	0x39e500e7	0.00043678956
52	0xba0de55e	-0.00054129015
53	0x38b91ebc	8.827212e-05
54	0x39e00f2b	0.0004273591
55	0xb81ac14e	-3.689649e-05
56	0xba280285	-0.0006409067
57	0x390d2da2	0.00013463807
58	0xb93ce7e7	-0.00018015468
59	0xba15770d	-0.0005701639
60	0xba523e29	-0.0008020127
61	0x3a171f30	0.000576484
62	0x38d0e3a5	9.960615e-05
63	0xb8e22fe6	-0.000107854416
64	0x364d569c	3.0597794e-06
65	0x37acd780	2.0604348e-05
66	0x3a44d49a	0.0007508487
67	0x391ec6cd	0.00015142113
68	0xba3ce782	-0.0007206128
69	0x39dd4e19	0.00042210592
70	0x3940c090	0.00018382282
71	0x397b00fe	0.00023937595
72	0x393cb96c	0.00017998152
73	0xb9b4f5b9	-0.00034515353
74	0x39481e1c	0.00019084703
75	0x381589fb	3.5652873e-05
76	0x38e8ffca	0.000111102665
77	0xb9f29207	-0.00046266636
78	0xbb058c34	-0.0020377757
79	0x36c87181	5.973678e-06
80	0x388be604	6.67088e-05
81	0xba766edf	-0.00094006764
82	0xbad10862	-0.0015947933
83	0x387ae041	5.9813498e-05
84	0xb95ef512	-0.00021262866
85	0x3a0af9e6	0.000530152
86	0x396b5526	0.00022443067
87	0xb87fb73a	-6.096738e-05
88	0xba10d935	-0.00055255304
89	0xb8141933	-3.530942e-05
90	0xb8d61559	-0.000102082915
91	0x39b18842	0.0003386159
92	0x3a5625db	0.0008169093
93	0xb83fba1b	-4.5711273e-05
94	0x3a570cbb	0.0008203496
95	0xb8c1d27e	-9.2421644e-05
96	0x38fede9f	0.0001215313
97	0xb9dbbc75	-0.00041911346
98	0x38f180a3	0.00011515736
99	0x3997d273	0.0002895776
100	0xba72ae6c	-0.0009257558
101	0xb99674ba	-0.00028697198
102	0xbb076ccb	-0.002066421
103	0x39321603	0.00016983603
104	0x39b51410	0.00034537958
105	0xb99ccfb6	-0.00029909395
106	0xb9744298	-0.00023294461
107	0xb9186a0e	-0.00014535358
108	0xb983648f	-0.0002506119
109	0x396501b7	0.0002183978
110	0xb824e187	-3.9310686e-05
111	0xb9b405cb	-0.00034336591
112	0x3919a0ec	0.00014651165
113	0x39d153bd	0.00039925976
114	0x3889d38b	6.572072e-05
115	0xba3c1f4c	-0.00071762945
116	0x37a523f5	1.9686277e-05
117	0xb9ab843e	-0.0003271419
118	0x372c2377	1.0260256e-05
119	0x381d0273	3.7433998e-05
120	0xba6a640a	-0.00089412986
121	0x39228a2f	0.00015501001
122	0x391a1673	0.00014694947
123	0xb96d6f5f	-0.0002264357
124	0x39c267ea	0.00037079985
125	0xbb006fe7	-0.001959795
126	0xba0a7373	-0.00052814855
127	0xb9a477b8	-0.00031369715

exp_avg_sq f4 [128]
0	0x338fc9e1	6.695678e-08
1	0x36cbd249	6.074352e-06
2	0x37b7ea00	2.1924265e-05
3	0x3495dafd	2.7912748e-07
4	0x36bfbe22	5.714378e-06
5	0x37c9003a	2.3961173e-05
6	0x36e4394a	6.801599e-06
7	0x36fed42f	7.5944913e-06
8	0x388f8881	6.844197e-05
9	0x37b0f491	2.109472e-05
10	0x37938d29	1.7589498e-05
11	0x382d94b3	4.13849e-05
12	0x367080e5	3.5837813e-06
13	0x35ba5762	1.3883512e-06
14	0x37b02c0f	2.1001351e-05
15	0x367ab0bb	3.7355774e-06
16	0x389564ca	7.123647e-05
17	0x364c5ea4	3.0453457e-06
18	0x388d45e5	6.736423e-05
19	0x35c5f47d	1.4748799e-06
20	0x3745b578	1.17843665e-05
21	0x353aa53b	6.953084e-07
22	0x386d83c6	5.6627927e-05
23	0x3821b79e	3.8556398e-05
24	0x38902628	6.873562e-05
25	0x3533e895	6.702115e-07
26	0x376b0dcd	1.4010305e-05
27	0x37095bd9	8.187221e-06
28	0x3599c001	1.1455269e-06
29	0x37524488	1.2532932e-05
30	0x370af0bc	8.281491e-06
31	0x384380fb	4.6611745e-05
32	0x352d4a74	6.4555866e-07
33	0x3819490f	3.6546084e-05
34	0x3760bc33	1.3395259e-05
35	0x3771ae45	1.4405295e-05
36	0x362145e5	2.4031553e-06
37	0x34f946a1	4.6431254e-07
38	0x36f19935	7.2001953e-06
39	0x367d256f	3.7721727e-06
40	0x37396037	1.1049261e-05
41	0x3550ad87	7.7738554e-07
42	0x3604aa68	1.9768722e-06
43	0x34e87602	4.329923e-07
44	0x37a1ac85	1.9273031e-05
45	0x3623bd02	2.439891e-06
46	0x343fd409	1.7865399e-07
47	0x368a68c6	4.1249177e-06
48	0x35dbd419	1.63785e-06
49	0x381b375b	3.7006434e-05
50	0x372270ba	9.682199e-06
51	0x37fb4d84	2.9957628e-05
52	0x37863f2f	1.6003467e-05
53	0x349c8039	2.915056e-07
54	0x360175c2	1.9291042e-06
55	0x35d7d878	1.6081749e-06
56	0x375e22de	1.3240349e-05
57	0x360a0012	2.0563643e-06
58	0x370c88a0	8.376461e-06
59	0x3772d336	1.44735e-05
60	0x36cc7088	6.092774e-06
61	0x3848ebf2	4.7903457e-05
62	0x343fb75f	1.7854971e-07
63	0x344f0854	1.9281407e-07
64	0x35011a98	4.8094944e-07
65	0x37929de1	1.7478074e-05
66	0x375e2662	1.3241168e-05
67	0x3483eaf3	2.45716e-07
68	0x37c103a9	2.3009097e-05
69	0x3639878e	2.7646051e-06
70	0x3719de11	9.1712145e-06
71	0x3602f1a5	1.9512165e-06
72	0x34721005	2.2543834e-07
73	0x3725a007	9.872026e-06
74	0x37fee4fc	3.0385789e-05
75	0x36d60725	6.3785287e-06
76	0x370abcf6	8.269437e-06
77	0x35ef36e6	1.7822865e-06
78	0x3903d98c	0.00012574176
79	0x352905a8	6.2965637e-07
80	0x364f21ef	3.0865156e-06
81	0x38062c59	3.198939e-05
82	0x386cbce7	5.6442714e-05
83	0x34f7bab7	4.6143188e-07
84	0x360d3de2	2.1046658e-06
85	0x37ac3f29	2.0533409e-05
86	0x37045202	7.886907e-06
87	0x35080bc5	5.0681075e-07
88	0x370ce21f	8.397298e-06
89	0x3412f54b	1.3686547e-07
90	0x3694e77b	4.4376916e-06
91	0x35c57bf8	1.4713723e-06
92	0x383db49d	4.522932e-05
93	0x35650a3c	8.532404e-07
94	0x38744659	5.823965e-05
95	0x356f7cad	8.9215865e-07
96	0x36914089	4.3288496e-06
97	0x3615ff91	2.235149e-06
98	0x36b3ea6e	5.361907e-06
99	0x35ce6410	1.5377318e-06
100	0x370099fa	7.665245e-06
101	0x35cbb223	1.5176523e-06
102	0x38c32d92	9.306813e-05
103	0x34dbb030	4.0920122e-07
104	0x3571de00	9.010255e-07
105	0x3837077a	4.3637563e-05
106	0x35d08157	1.553485e-06
107	0x34aa935b	3.1772183e-07
108	0x35778814	9.221269e-07
109	0x3700de14	7.681101e-06
110	0x34c54e10	3.6750907e-07
111	0x36985dcc	4.5408724e-06
112	0x34f30540	4.5266097e-07
113	0x368227dc	3.878942e-06
114	0x3437b66d	1.7109569e-07
115	0x380c9036	3.3512908e-05
116	0x36796c68	3.7166992e-06
117	0x36014587	1.9262968e-06
118	0x33f93e0e	1.1606254e-07
119	0x358bd6fa	1.0418873e-06
120	0x37ed91f9	2.8320575e-05
121	0x3696f0f8	4.498401e-06
122	0x351e7dd9	5.904272e-07
123	0x3617613a	2.2557347e-06
124	0x3814be17	3.5462985e-05
125	0x38a30905	7.774126e-05
126	0x38a43973	7.83083e-05
127	0x35996829	1.1429703e-06
