results/flappy-colab-ezmodel/FlappyAgent/FlappyAgent-499933.onnx (onnx, 72074 bytes, 8 tensors)

network_body.observation_encoder.processors.0.normalizer.running_mean f4 [4]
0	0x40e07df4	7.015375
1	0xc029489b	-2.6450565
2	0x40a339e6	5.1008177
3	0x4070c64a	3.7621026

network_body._body_endoder.seq_layers.0.weight f4 [128, 4]
0	0xbe510ff4	-0.20416242
1	0x3f1ba164	0.6079314
2	0xbe8499e6	-0.25898665
3	0x3e4fe585	0.20302399
4	0xbdcd7315	-0.10031716
5	0xbd510a71	-0.05103535
6	0xbf75c8ba	-0.9600941
7	0xbef499ab	-0.4777349
8	0xbf354d2b	-0.70820874
9	0xbed6c049	-0.41943577
10	0xbe712b6c	-0.2355172
11	0xbfc2e93c	-1.5227427
12	0x3eaaad51	0.33335355
13	0x3e9ac4e3	0.30228338
14	0xbb98628b	-0.004650419
15	0x3e87a27b	0.2649115
16	0x3f0f5a5f	0.5599727
17	0xbf243f9d	-0.64159566
18	0x3ee817ee	0.45330757
19	0x3ef4087f	0.47662732
20	0xbef39768	-0.4757645
21	0xbe6fa90b	-0.23404329
22	0x3d77872f	0.060431655
23	0xbe0ecc32	-0.13945082
24	0x3f6d1673	0.9261238
25	0xbe805e7e	-0.25072092
26	0x3d9540f4	0.072877795
27	0x3df81eba	0.121152356
28	0x3d8619c0	0.0654788
29	0xbe3c2449	-0.18373217
30	0xbef3b231	-0.47596887
31	0xbe05f973	-0.13083439
32	0xbf0bd656	-0.54623926
33	0xbf325a5a	-0.69669116
34	0x3f1ae8dd	0.6051157
35	0x3f5290d0	0.82252216
36	0xbf39e7a2	-0.7261907
37	0x3ecf5d07	0.40500662
38	0x3eb02f88	0.34411263
39	0x3dd7d8a5	0.105393685
40	0x3f685aee	0.9076375
41	0xbfa3206d	-1.274427
42	0x3ef8f777	0.486263
43	0xbe4bd5bf	-0.19905756
44	0xbf1ab23a	-0.604282
45	0xbe4d1760	-0.20028448
46	0x3f0449cd	0.5167511
47	0xbe8c0d2b	-0.27353796
48	0xbdcf13f4	-0.10111228
49	0x3ebf9ef5	0.37425962
50	0x3f6e13e1	0.9299908
51	0x3f460ccc	0.77363276
52	0x3f5bb9be	0.85830295
53	0xbd25e69d	-0.040503133
54	0xbef0f9ab	-0.47065482
55	0xbf86ebeb	-1.0540746
56	0xbf14bc1c	-0.5809953
57	0x3da98908	0.0827809
58	0xbef619bf	-0.48066518
59	0xbe2f1fc9	-0.17101969
60	0x3f73391f	0.95009035
61	0x3ef43558	0.47696948
62	0x3eac4422	0.3364573
63	0x3f1cb7a1	0.61217695
64	0x3f2a0477	0.6641306
65	0x3e2b7d74	0.16747075
66	0x3efa87fd	0.48931876
67	0x3d8f03fd	0.069831826
68	0xbdad0255	-0.084477104
69	0xbea465cc	-0.32108915
70	0x3f01648b	0.5054404
71	0x3f3557d8	0.70837164
72	0xbf61ea3a	-0.88248026
73	0x3e77558c	0.24153727
74	0x3f144acb	0.57926625
75	0x3d61060e	0.054937415
76	0xbbe8575a	-0.0070904912
77	0x3e22253f	0.15834521
78	0xbe2aa026	-0.16662654
79	0xbd687695	-0.056753714
80	0x3ee18eb5	0.4405419
81	0xbe154d4c	-0.14580268
82	0x3eb5d56e	0.35514396
83	0x3f3d794b	0.74013203
84	0x3cb56b09	0.022145765
85	0x3ea6088e	0.32428402
86	0x3e302f02	0.17205432
87	0xbe3c3e0b	-0.18383043
88	0xbf689a86	-0.90860784
89	0x3e2e7c85	0.17039688
90	0x3e801fca	0.25024253
91	0xbf688442	-0.9082681
92	0xbf13e76a	-0.57774985
93	0xbf0e15fa	-0.55502284
94	0x3f1a735f	0.6033229
95	0xbe49ebf3	-0.19718914
96	0x3f7266fa	0.9468838
97	0xbf4e9ed6	-0.80711114
98	0x3d949936	0.07255785
99	0xbe46b3ff	-0.194046
100	0x3f0e938e	0.556939
101	0xbe4cfb1e	-0.20017669
102	0xbe59d395	-0.21272118
103	0x3f16f475	0.5896676
104	0xbdd9b1eb	-0.10629638
105	0xbf607e24	-0.87692475
106	0xbe8dbcc3	-0.27683076
107	0x3f45040c	0.769593
108	0xbe73349d	-0.23750539
109	0xbf1bd45f	-0.6087093
110	0xbe19af48	-0.1500827
111	0xbedf22db	-0.4358128
112	0x3e4c7a77	0.19968592
113	0xbee3b6c9	-0.44475392
114	0xbdee28e7	-0.11628895
115	0x3f2ecc50	0.68280506
116	0xbe8d72e9	-0.27626732
117	0xbf07a5f1	-0.5298758
118	0x3f4926cf	0.7857484
119	0x3ee63371	0.44961122
120	0xbeccdfc5	-0.40014473
121	0x3ed79b4b	0.42110667
122	0xbf4a01cc	-0.7890899
123	0xbf8ecd7f	-1.1156462
124	0xbf0be8a9	-0.54651886
125	0xbee94397	-0.4555938
126	0x3f1674d8	0.5877204
127	0x3f1d9e5b	0.61569756
128	0x3d5c3950	0.053765595
129	0x3ee9d3d1	0.45669416
130	0xbe142ebd	-0.14470954
131	0xbe86f5a8	-0.26359296
132	0xbed93399	-0.42422178
133	0xbec2b3dd	-0.3802785
134	0xbd85aaa1	-0.065266855
135	0xbde58e25	-0.112087525
136	0x3dc6398d	0.09678946
137	0xbf6c9e34	-0.924289
138	0xbe2c3a9a	-0.1681923
139	0x3e1bd2e8	0.15217173
140	0xbf7b51c2	-0.9817163
141	0x3e9ae698	0.30254054
142	0x3e961e1e	0.29319853
143	0x3f848c78	1.0355368
144	0x3cad1362	0.021127407
145	0xbd6f699c	-0.058450326
146	0x3e7303de	0.23731944
147	0xbec34d3f	-0.38144872
148	0x3da65a9e	0.081227526
149	0xbe03687d	-0.12832828
150	0x3ec35a63	0.38154897
151	0x3e70b78d	0.23507519
152	0xbe7683e0	-0.24073744
153	0xbe0606ec	-0.13088578
154	0x3f03105d	0.51196843
155	0x3f021fa6	0.5082954
156	0x3ed9a06f	0.42505214
157	0xbecb9c71	-0.39767793
158	0xbf1c7e16	-0.6112989
159	0xbe95f3f2	-0.29287678
160	0x3d0ab50e	0.033864073
161	0x3e93232d	0.28737774
162	0x3f10fab9	0.5663257
163	0x3d09ead2	0.033671208
164	0x3edf36ac	0.435964
165	0x3e5d218b	0.21594827
166	0xbee7e25b	-0.45289883
167	0x3ea54da5	0.322858
168	0xbf28d360	-0.6594753
169	0x3e8a0b50	0.26961756
170	0xbfa137cd	-1.2595154
171	0xbf4fd4d5	-0.8118413
172	0x3f0eb509	0.5574499
173	0x3edd0aa8	0.43172193
174	0xbedfb982	-0.4369622
175	0xbe0cd9f1	-0.13755013
176	0xbedab3bf	-0.4271526
177	0xbf773e7b	-0.9657971
178	0xbdd04d86	-0.101710364
179	0xbf30da2b	-0.690829
180	0xbe7a67ff	-0.24453734
181	0x3da6e668	0.08149415
182	0x3f12d63e	0.5735816
183	0xbf361490	-0.71125126
184	0x3ed546ed	0.41655675
185	0x3f4e85be	0.80672824
186	0xbdaf6ec4	-0.08566049
187	0xbee259be	-0.44209093
188	0xbf29138d	-0.6604546
189	0x3ea9c7cf	0.33160254
190	0x3ed92912	0.42414147
191	0x3f4f329b	0.8093659
192	0x3e6c9f86	0.23107728
193	0x3e91dde2	0.28489596
194	0x3ebd571c	0.36980522
195	0x3f03cf8f	0.51488584
196	0x3f328cf2	0.69746315
197	0xbf082ad6	-0.5319036
198	0x3c6e9b31	0.014563368
199	0x3e289c24	0.16465813
200	0xbec3a582	-0.3821221
201	0x3e69e8e9	0.22842754
202	0xbda30744	-0.0796037
203	0x3e59fa64	0.21286923
204	0xbf88ab27	-1.0677232
205	0x3f04ae42	0.51828396
206	0xbe492fb0	-0.19647098
207	0xbe71b3f6	-0.23603806
208	0x3e892df2	0.26792866
209	0x38dc26c5	0.00010497639
210	0x3f3743fe	0.7158812
211	0xbf1423ba	-0.57867014
212	0x3ec125ce	0.37724155
213	0x3eb04952	0.3443094
214	0xbe67007e	-0.22558782
215	0xbec7f800	-0.39056396
216	0x3e3eb923	0.18625312
217	0xbe2bfc89	-0.16795553
218	0xbf092924	-0.535784
219	0x3f1e2487	0.61774486
220	0x3e1baa67	0.15201722
221	0x3f502b20	0.81315804
222	0x3df795ab	0.12089094
223	0xbfa1b40e	-1.2633073
224	0x3e12771b	0.14303248
225	0x3e57a649	0.21059527
226	0x3dcd7470	0.10031974
227	0xbda9b210	-0.08285916
228	0x3f7531a0	0.95778847
229	0x3f1c7500	0.6111603
230	0xbf3ba7a6	-0.73302686
231	0x3e0ea3d9	0.1392969
232	0x3ea3b90b	0.31977114
233	0xbd7a74b1	-0.06114644
234	0xbda82059	-0.08209295
235	0xbe8d8294	-0.27638686
236	0x3f9654dd	1.1744648
237	0xbd1baa99	-0.03800449
238	0x3eaa40e7	0.33252642
239	0xbd1b63b8	-0.037936896
240	0x3e124298	0.14283216
241	0x3f1bfc43	0.60931796
242	0x3f050922	0.5196706
243	0x3f0de0ac	0.5542095
244	0xbf57e2e6	-0.84330595
245	0x3e010aed	0.12601824
246	0x3e822f74	0.2542683
247	0xbe39387e	-0.18087956
248	0xbd91dd08	-0.071222365
249	0x3f2ba098	0.6704192
250	0xbee17715	-0.44036165
251	0x3eb002e2	0.343772
252	0x3e5a4cb3	0.21318321
253	0x3e9e16d5	0.30876794
254	0x3e00a3c7	0.12562476
255	0x3e9b7f07	0.30370352

network_body._body_endoder.seq_layers.0.bias f4 [128]
0	0xbd1c52d3	-0.038164925
1	0x3db443e7	0.08802014
2	0xbc0a403f	-0.008438169
3	0xbd592dbc	-0.05302213
4	0x3dad8594	0.08472744
5	0x3d9c19d9	0.076221175
6	0x3c9e33bc	0.019311778
7	0x3da5570a	0.08073242
8	0xbb7953b1	-0.0038044269
9	0xbd41ae8c	-0.0472856
10	0x3daccf93	0.08438029
11	0x3d06b737	0.03288957
12	0x3dd5ba4c	0.10435924
13	0x3e0e8d6c	0.13921136
14	0x3bf70b89	0.007539217
15	0x3e1fd515	0.15608628
16	0x3e3ca0b9	0.18420686
17	0x3cb777ca	0.022395987
18	0xbd138819	-0.036018465
19	0x3d1e5be3	0.03866185
20	0x3e086e8e	0.13323423
21	0xbd95858d	-0.073008634
22	0xbce336c4	-0.027736075
23	0x3dd6947d	0.10477541
24	0x3ddc6d8f	0.10763084
25	0xbdf1a0d9	-0.117982574
26	0x3d01069e	0.03150045
27	0x3dc71480	0.09720707
28	0xbd631f31	-0.05544967
29	0x3dacc6f8	0.08436388
30	0x3dc27012	0.09494032
31	0x3d88efeb	0.06686386
32	0xbd251293	-0.040300917
33	0x3d977396	0.07395093
34	0x3c99cc4c	0.018774174
35	0x3da91e9e	0.08257793
36	0x3dd371cb	0.10324439
37	0x3da8c50b	0.08240708
38	0x3ca02074	0.019546725
39	0x3dae0eb4	0.08498898
40	0x3dece628	0.11567336
41	0xbdb5626e	-0.088566646
42	0x3d7b49f9	0.061349843
43	0xbdc90f1e	-0.098173365
44	0x3d9d115b	0.07669326
45	0xbd029eeb	-0.031889837
46	0xbd504701	-0.050848965
47	0x3ce19787	0.027538074
48	0x3d9b9daa	0.075984314
49	0x3dd5976b	0.10429271
50	0xbda2583e	-0.07926987
51	0xbc5ec2ef	-0.0135962805
52	0x3e109c8a	0.14122215
53	0xbdd92803	-0.10603335
54	0xbe0626c3	-0.13100724
55	0xbd423cd5	-0.047421295
56	0x3d99ea53	0.07515397
57	0xbdbcf31b	-0.09226056
58	0x3d0bfc90	0.03417641
59	0x3e403e45	0.18773754
60	0x3e18df51	0.14928938
61	0xbca64cc1	-0.020300271
62	0xbd7e8702	-0.062140472
63	0xbd4b490d	-0.049630214
64	0xbdd5acb1	-0.10433329
65	0x3dbff1b8	0.09372276
66	0x3bc825c5	0.006108018
67	0x3a2364cb	0.0006232976
68	0x3dc99c1a	0.09844227
69	0xbd85af05	-0.06527523
70	0x3dd2123a	0.10257383
71	0xbddcefbe	-0.10787915
72	0xbd6f347c	-0.058399662
73	0x3d43aee4	0.04777421
74	0x3da63391	0.08115304
75	0x3dd85bf4	0.10564414
76	0x3d34917f	0.04408407
77	0x3e19b19f	0.15009163
78	0x3e288b38	0.16459358
79	0xbd952374	-0.07282153
80	0x3d49745b	0.04918323
81	0x3e309a90	0.17246461
82	0x3e11c889	0.14236654
83	0x3cbad785	0.022807846
84	0x3dee29bc	0.11629054
85	0x3dfa624a	0.122257784
86	0x3d2a5c27	0.04159179
87	0x3ccfdf09	0.025374906
88	0x3e2a224a	0.16614643
89	0x3d2e3b91	0.042537276
90	0x3da13d15	0.078729786
91	0xbdfccc44	-0.12343648
92	0x3d03c78a	0.032172717
93	0xbdd03e54	-0.10168138
94	0xbd87c536	-0.06629412
95	0x3ddd9978	0.108202875
96	0x3d822af8	0.06355852
97	0x3dca01d1	0.09863628
98	0x3d973c26	0.07384519
99	0xbe2d96c4	-0.16952044
100	0x3e3afb4c	0.18259925
101	0xbb697181	-0.0035620632
102	0x3e63a785	0.22231872
103	0xbda436fe	-0.080183014
104	0xbe07a21e	-0.13245437
105	0x3dffa67a	0.12482925
106	0x3d02570d	0.0318213
107	0x3db6cd24	0.08925846
108	0x3e17d4f2	0.14827326
109	0x3cf0ab55	0.029378572
110	0x3da11852	0.07865967
111	0x3d073675	0.03301092
112	0xbd59cac4	-0.053171888
113	0x3ce11ba9	0.02747901
114	0xbe2b2844	-0.16714579
115	0x3e06b3d7	0.13154541
116	0x3de5968e	0.11210357
117	0x3e29d2c5	0.16584308
118	0xbe01ecad	-0.12687941
119	0x3dce44df	0.1007173
120	0x3e1edd05	0.15514
121	0x3d08acc1	0.033367876
122	0xbda7a190	-0.081851125
123	0x3d6636a5	0.056204457
124	0xbd8e7150	-0.069552064
125	0x3e400b00	0.18754196
126	0x3def8b2b	0.11696466
127	0x3db61a3a	0.08891721

network_body._body_endoder.seq_layers.2.weight f4 [128, 128]
0	0x3d781c6d	0.060573984
1	0xbc28dff4	-0.010307301
2	0xbd43403f	-0.04766869
3	0x3c89b843	0.016811496
4	0xbd1cd090	-0.03828484
5	0xbe258645	-0.16164501
6	0x3d64fcb0	0.055905044
7	0xbcae2372	-0.021257136
8	0x3d052a6a	0.032511152
9	0xbd98b042	-0.074554935
10	0xbcc1bcd0	-0.023649603
11	0xbe2c9805	-0.16854866
12	0x3d38e715	0.045142252
13	0xbd2658c8	-0.040612012
14	0xbc6c0f54	-0.014407951
15	0x3b8eb7bb	0.0043553985
16	0x3db61730	0.088911414
17	0xbd903843	-0.07041981
18	0xbdc7f0d3	-0.097627304
19	0x3ccd51e5	0.025063464
20	0x3d7ccde0	0.061719775
21	0x3d868a2f	0.06569325
22	0xbc0df5c9	-0.008664557
23	0xbd88f755	-0.066878
24	0xbc75ea57	-0.015009484
25	0x3d5c1970	0.053735197
26	0xbcd356ca	-0.02579822
27	0xbc6c1066	-0.014408207
28	0x3e2faf47	0.17156707
29	0xbe0d73d8	-0.13813722
30	0xbce273ab	-0.027643045
31	0xbdbd139a	-0.09232254
32	0x3e2c140e	0.16804525
33	0x3ce1c64d	0.027560377
34	0xbdce4868	-0.10072404
35	0xbe72d780	-0.23715019
36	0xbde796e9	-0.11308081
37	0xbe1391fc	-0.14411157
38	0xbdf7151a	-0.12064572
39	0x3cde1cc8	0.027113333
40	0xbd236d30	-0.03989905
41	0x3dd00d8a	0.10158832
42	0x3e285c32	0.1644142
43	0x3dedb342	0.11606456
44	0xbe0706e3	-0.13186221
45	0xbdf7adc9	-0.12093694
46	0xbdd531bf	-0.10409879
47	0x3cdcf1c1	0.026970746
48	0xbd8f2094	-0.06988636
49	0x3cad2680	0.021136522
50	0xbe445664	-0.1917358
51	0x3d850d4c	0.06496677
52	0x3c8a55dc	0.016886644
53	0xbd4d6e43	-0.050153982
54	0x3dc9a180	0.09845257
55	0x3c6b1af2	0.014349686
56	0x3dd03e50	0.10168135
57	0x3df0298e	0.11726676
58	0x3c9ac3ab	0.01889213
59	0x3e07dfce	0.13268968
60	0xbdf81784	-0.1211386
61	0xbe1cf234	-0.15326768
62	0xbceb68cf	-0.0287365
63	0x3cb868be	0.022510882
64	0x3d6887a5	0.056769986
65	0x3cd15f4e	0.02555814
66	0xbe3dad27	-0.18523084
67	0x3d829863	0.06376722
68	0x3cc1abc7	0.02364148
69	0xbd3b8423	-0.045780312
70	0x3d02b750	0.0319131
71	0xbc6e620f	-0.014549746
72	0x3d8111e8	0.063022435
73	0x3e01ed8f	0.12688278
74	0x3d80f5bf	0.06296872
75	0xbe282746	-0.16421232
76	0xbdcc2369	-0.099676915
77	0xbc823fe8	-0.015899613
78	0x3e7a1620	0.24422503
79	0x3d8eba1b	0.069690906
80	0xbe54bc75	-0.20775016
81	0xbdcc3295	-0.09970585
82	0xbbd9367f	-0.006628811
83	0x3e70f680	0.23531532
84	0x3be26a02	0.00690961
85	0xbe48a161	-0.19592811
86	0xbdde8b84	-0.10866454
87	0x3d533c36	0.051571093
88	0x3e086e09	0.13323225
89	0x3ca8f1bc	0.02062308
90	0xbe316593	-0.17323904
91	0xbe8bb592	-0.27286965
92	0x3d3fe161	0.046845797
93	0xbc23edb8	-0.010005407
94	0xbe747775	-0.23873694
95	0x3e24dc83	0.16099744
96	0xbe41e9ff	-0.18936919
97	0xbd116b08	-0.035502464
98	0xbe0def6f	-0.13860868
99	0x3dd73bd7	0.105094604
100	0x3dc4af12	0.096037045
101	0x3c8daca0	0.017294228
102	0x3dc64fe6	0.09683208
103	0x3dec3985	0.115344085
104	0x3e0fbb35	0.14036258
105	0xbcaf16a8	-0.021373108
106	0xbca76048	-0.020431653
107	0x3b8c627d	0.0042842017
108	0x3e4b8143	0.19873528
109	0x3cb22464	0.021745868
110	0xbdd6b6bf	-0.10484075
111	0x3d9eddfb	0.07757183
112	0x3e4c9700	0.19979477
113	0xbdcf45dc	-0.101207465
114	0x3de2db7b	0.11077019
115	0xbe721b80	-0.23643303
116	0x3d1248ab	0.035713833
117	0xbe80152e	-0.2501616
118	0x3d64e26c	0.055879995
119	0xbc1c694f	-0.009546592
120	0xbdaf0381	-0.0854559
121	0xbe3c2439	-0.18373193
122	0x3e282fb3	0.16424446
123	0x3ca5fcc2	0.020262126
124	0x3bbce90f	0.0057650874
125	0xbbe5cbe3	-0.0070128306
126	0xbc6d3700	-0.014478445
127	0xbc5cb506	-0.013470894
128	0x3d035f3e	0.032073252
129	0xbcf716ae	-0.030162182
130	0x3d7b9a97	0.061426725
131	0xbd011b97	-0.031520452
132	0x3d7a8e1e	0.06117069
133	0x3ca2b39a	0.019861031
134	0x3cdc7988	0.02691342
135	0x3d8ff5a4	0.07029274
136	0xbe5e72d9	-0.21723498
137	0xbe687161	-0.226995
138	0xbdcee9b2	-0.101031676
139	0xbb12828e	-0.0022355649
140	0x3dc27304	0.09494594
141	0xbda601ce	-0.08105813
142	0x3c723d57	0.014785132
143	0x3d288243	0.041139852
144	0x3d15d95f	0.036584254
145	0xbe20b1f9	-0.15692891
146	0xbdaf51ab	-0.08560499
147	0x3d6b0da4	0.057386056
148	0x3d9e0053	0.077149056
149	0xbdd20235	-0.10254327
150	0x3ced2497	0.028948111
151	0xbdf83d6f	-0.121210925
152	0x3e8937c2	0.26800352
153	0x3cdb026e	0.026734557
154	0xbb9cc9f0	-0.004784815
155	0xbd41647c	-0.04721497
156	0xbd8b3c85	-0.067986526
157	0xbd5cf607	-0.053945567
158	0x3c876c10	0.01653102
159	0xbde8002f	-0.1132816
160	0xbdd97b5e	-0.106192335
161	0x3ce9f7ae	0.028560486
162	0x3d5efd29	0.05444065
163	0x3e3d7105	0.18500145
164	0x3d9f8bbd	0.07790325
165	0xbe15ac90	-0.14616609
166	0x3c903aa3	0.017606085
167	0x3e34fb89	0.17674078
168	0x3de717ef	0.11283862
169	0xbd5f06be	-0.05444979
170	0x3e1d5184	0.15363127
171	0xbdcfe1af	-0.101504676
172	0xbca65080	-0.020302057
173	0xbd1c25fc	-0.038122162
174	0xbd7e71bb	-0.06212018
175	0xbd8f9d42	-0.070124164
176	0x3d0cc618	0.034368604
177	0x3e0b35a5	0.13594683
178	0xbd72795c	-0.05919777
179	0xbd50caa6	-0.05097451
180	0x3d2b25de	0.04178416
181	0x3d8f37d0	0.06993067
182	0xbd163b60	-0.03667772
183	0x3d9cbe6d	0.07653508
184	0x3e0d6b4b	0.1381046
185	0xbcd930a0	-0.026512444
186	0x3d0f33ec	0.034961626
187	0xbd7e02d7	-0.062014427
188	0x3d69e7b6	0.057105742
189	0xbd98d0ac	-0.07461676
190	0xbdd11727	-0.10209494
191	0xbdb8bfd8	-0.09020966
192	0xbd84b093	-0.06478991
193	0x3de87d8a	0.1135207
194	0x3d9851e1	0.07437492
195	0x3d64d40b	0.055866282
196	0xbca10687	-0.019656433
197	0xbe398c73	-0.18119983
198	0x3d0af6a5	0.033926625
199	0xbe437c24	-0.19090325
200	0x3dc83f93	0.09777751
201	0x3e34dd1a	0.17662469
202	0x3d4f55de	0.050619
203	0x3db74647	0.08948951
204	0x3e5b3105	0.21405418
205	0x3dbeb119	0.093111224
206	0x3dee9fd3	0.11651578
207	0xbd464018	-0.04840097
208	0x3dc71a59	0.09721822
209	0x3dec449a	0.11536522
210	0x3d9eab10	0.07747471
211	0x3d5c189b	0.053734403
212	0x3e18d565	0.14925154
213	0x3ab101db	0.0013504581
214	0x3de95317	0.11392801
215	0x3d56af6d	0.052413393
216	0x3d89263c	0.06696746
217	0xba8de990	-0.0010827053
218	0xbdd28587	-0.102793746
219	0xbc604ac8	-0.013689704
220	0xbd76b9f3	-0.06023593
221	0x3bd64154	0.0065385494
222	0xbddddf22	-0.10833575
223	0x3dc8dceb	0.09807762
224	0x3cd134b6	0.02553783
225	0xbd711965	-0.05886211
226	0x3d5f0ed4	0.0544575
227	0xbe380cf0	-0.17973685
228	0x3da3856d	0.07984433
229	0xbd73446c	-0.059391424
230	0x3e5f2182	0.21790126
231	0x3b889dc2	0.004169197
232	0xbe76a00e	-0.24084494
233	0x3e49c3db	0.19703619
234	0x3e40c1b6	0.18823895
235	0x3da90295	0.082524456
236	0x3d13a8e8	0.036049753
237	0x3cd8bca5	0.02645714
238	0x3cc152ca	0.023599047
239	0x3d902e1d	0.070400454
240	0x3cd1f27b	0.025628319
241	0x3c89a3d5	0.016801754
242	0xbd6ca401	-0.057773594
243	0x3e1f572d	0.15560599
244	0x3d728c4b	0.059215825
245	0x3dc1a10c	0.094545454
246	0xbe5b3068	-0.21405184
247	0x3d4defcc	0.050277516
248	0x3d809e54	0.06280199
249	0xbd65a9f9	-0.0560703
250	0xbdf43cad	-0.119256355
251	0xbc30d2b3	-0.010792422
252	0xbd3aaa17	-0.045572367
253	0x3e70c7aa	0.23513666
254	0x3e1a6bd7	0.150802
255	0x3d532bc6	0.051555417

network_body._body_endoder.seq_layers.2.bias f4 [128]
0	0xbda66b4c	-0.08125934
1	0x3e126dcb	0.14299695
2	0x3d8d99d1	0.06914104
3	0xbd87ed33	-0.06637039
4	0xbdb26ffd	-0.08712766
5	0xbdd411fb	-0.10354992
6	0x3d2980c9	0.041382585
7	0x3de3cdb3	0.111232184
8	0xbd8107eb	-0.06300338
9	0x3e054c90	0.13017488
10	0x3ded08d2	0.11573948
11	0x3d37e27a	0.04489372
12	0x3d7e058a	0.062017
13	0xbdcf756b	-0.101298176
14	0x3dcccc62	0.099999204
15	0x3dbf6e6e	0.09347235
16	0x3dd4e3f2	0.103950396
17	0x3dfcdd05	0.12346844
18	0xbd922294	-0.071355015
19	0xbd9d36af	-0.07676446
20	0x3dfc6e5d	0.123257376
21	0x3d6846a6	0.056708
22	0xbdb84051	-0.089966424
23	0x3e069234	0.1314171
24	0x3e190ec3	0.14947037
25	0xbda1d331	-0.0790161
26	0x3de9b87d	0.114121415
27	0xbda0ac1f	-0.078453295
28	0x3dec8c7e	0.11550234
29	0xbdc4d872	-0.09611596
30	0xbd55e2dc	-0.052218303
31	0xbda8b3a8	-0.08237392
32	0x3e0ac44e	0.13551447
33	0x3e1b05a0	0.15138865
34	0xbddbc96b	-0.10731777
35	0xbdc66295	-0.09686772
36	0xbd9f0869	-0.07765276
37	0xbdb57cd4	-0.088617
38	0xbd9b075a	-0.075697616
39	0x3e0d49f4	0.13797742
40	0x3d4edacf	0.05050164
41	0x3d7d0cc9	0.06177977
42	0x3e0374eb	0.1283757
43	0x3d175b66	0.0369524
44	0xbdc0dfe5	-0.094177045
45	0xbda85ea0	-0.08221173
46	0xbd808fa3	-0.062773965
47	0x3dd52bf3	0.10408773
48	0xbddd1fda	-0.10797091
49	0xbdb86eba	-0.090054944
50	0xbd8d10d8	-0.06887978
51	0xbd8fe771	-0.07026566
52	0x3de41ffd	0.11138914
53	0x3e215973	0.15756778
54	0xbd60c3db	-0.054874282
55	0x3d911a97	0.0708515
56	0xbd79addd	-0.060956825
57	0xbda669a7	-0.0812562
58	0xbd9c9013	-0.076446675
59	0x3db806b9	0.08985657
60	0xbe0acae6	-0.13553962
61	0xbd782949	-0.060586248
62	0x3dcc1e4b	0.099667154
63	0xbdac0293	-0.083989285
64	0x3dd61a06	0.10454182
65	0x3e07b7b3	0.1325367
66	0x3db7acf8	0.08968538
67	0xbda218b6	-0.079148695
68	0x3d9da436	0.076973364
69	0x3e1e191e	0.15439269
70	0x3cda0bb3	0.026616907
71	0x3dd941ff	0.10608291
72	0x3db72289	0.08942134
73	0xbda90cc8	-0.08254391
74	0x3dc6b949	0.09703309
75	0x3dfd351d	0.12363646
76	0x3df739cb	0.1207157
77	0x3dca1347	0.09866958
78	0x3e0dc76a	0.13845602
79	0xbd45287b	-0.04813431
80	0xbd88b297	-0.06674688
81	0x3db77337	0.08957522
82	0xbd687bce	-0.056758694
83	0xbde744c0	-0.1129241
84	0xbd903216	-0.07040803
85	0xbdaa27ba	-0.083083585
86	0x3def8896	0.116959736
87	0x3def2df8	0.1167869
88	0x3de296e1	0.11063934
89	0xbda40bf6	-0.08010094
90	0xbdcec1a8	-0.10095531
91	0xbdd5adf6	-0.10433571
92	0x3dcde2d0	0.10053027
93	0xbd98954c	-0.07450351
94	0x3deec5b2	0.11658801
95	0xbc79d169	-0.015247681
96	0xbdb00685	-0.085949935
97	0xbdd2473a	-0.10267492
98	0xbe0642b1	-0.13111378
99	0x3e06d1fd	0.13166042
100	0xbda666cf	-0.08125078
101	0x3e1efcb9	0.15526094
102	0x3d63844d	0.055546094
103	0x3e2df708	0.16988766
104	0xbdcf07be	-0.101088986
105	0x3de65746	0.11247115
106	0x3dc14c3b	0.09438368
107	0x3dda66c1	0.1066413
108	0xbdd30aef	-0.1030482
109	0x3da2d8af	0.07951485
110	0xbdb2c3a6	-0.08728723
111	0xbd6f19b3	-0.058374118
112	0xbd865dcc	-0.06560859
113	0xbd2aab13	-0.041667055
114	0x3e3083d8	0.17237794
115	0xbdb6ee14	-0.089321285
116	0x3d7721bc	0.060334906
117	0xbdb04e38	-0.08608669
118	0x3df205c3	0.11817505
119	0x3d90a8d6	0.07063453
120	0xbdb1b5f7	-0.08677285
121	0xbd8a64a0	-0.06757474
122	0x3db66e5d	0.08907769
123	0xbd937650	-0.07200301
124	0x3e2070bc	0.15668005
125	0xbdb0f4b3	-0.08640423
126	0x3d9e0fe2	0.07717873
127	0xbd90c28c	-0.07068357

action_model._discrete_distribution.branches.0.weight f4 [2, 128]
0	0xbd87b2b0	-0.06625879
1	0x3e16037f	0.14649771
2	0x3d7873a6	0.060657166
3	0xbe117672	-0.1420534
4	0xbdaa3397	-0.08310621
5	0xbdebf4cd	-0.115213014
6	0x3c2ef86c	0.010679346
7	0x3dac1fdb	0.084045134
8	0xbd3d8880	-0.046272755
9	0x3db89102	0.09012033
10	0x3d016263	0.03158797
11	0x3d881aaf	0.066457145
12	0x3d055118	0.03254804
13	0xbe23c458	-0.15992868
14	0x3db64ef5	0.089017786
15	0x3dbd67bb	0.09248301
16	0x3df557e3	0.11979654
17	0x3dbdf0b9	0.0927443
18	0xbddbae7f	-0.10726642
19	0xbdf036b7	-0.11729186
20	0x3db1949a	0.086709216
21	0x3c6d2a41	0.014475406
22	0xbe22e552	-0.15907791
23	0x3e04e78c	0.12978953
24	0x3df0043c	0.11719558
25	0xbe12d3bf	-0.14338587
26	0x3d8e920a	0.069614485
27	0xbdca930d	-0.09891329
28	0x3d167251	0.036730114
29	0xbd450afb	-0.048106175
30	0xbc962e92	-0.018332753
31	0xbe0104ad	-0.1259944
32	0x3e01893a	0.12650004
33	0x3e0250ee	0.12726185
34	0xbd0863b6	-0.033298217
35	0xbdffef5e	-0.124968275
36	0xbdf876b1	-0.121320136
37	0xbe02d81f	-0.12777756
38	0xbdbc23d9	-0.09186525
39	0x3de2a41c	0.11066458
40	0x3da20832	0.079117194
41	0x3d5a8820	0.053352475
42	0x3de11ac9	0.10991437
43	0x3d663cb6	0.056210242
44	0xbdf40e70	-0.11916816
45	0xbdac1cbd	-0.08403919
46	0xbe29ddec	-0.16588563
47	0x3d7e282b	0.062050026
48	0xbdb74422	-0.08948542
49	0xbdba7824	-0.09104946
50	0xbd85b692	-0.06528963
51	0xbdd12512	-0.10212149
52	0x3dab8186	0.08374314
53	0x3dd03854	0.10166994
54	0xbe121dfe	-0.14269254
55	0x3d42247d	0.04739808
56	0xbdfb41a4	-0.12268379
57	0xbe047810	-0.12936425
58	0xbd42c98c	-0.04755549
59	0x3d5ffeaa	0.054686226
60	0xbd476fc1	-0.04869056
61	0xbc9efd7f	-0.019407986
62	0x3d21ff58	0.039550155
63	0xbddf94a4	-0.10917023
64	0x3d32b19d	0.043626416
65	0x3d91284a	0.07087763
66	0x3d849d1e	0.0647528
67	0xbe01808d	-0.12646694
68	0x3d362e33	0.044477653
69	0x3dff8dfe	0.12478255
70	0x3d4f3e22	0.050596364
71	0x3d5a5229	0.05330101
72	0x3d1ea4e8	0.038731486
73	0xbd01fa95	-0.031733114
74	0x3d49fc61	0.049312953
75	0x3dc25977	0.0948972
76	0x3dd0bef1	0.10192669
77	0x3d010ced	0.031506468
78	0x3de1c298	0.11023444
79	0xbde06a36	-0.10957758
80	0xbdd1a050	-0.10235655
81	0x3d4f0ead	0.050551105
82	0xbe095d03	-0.13414387
83	0xbde900ad	-0.11377082
84	0xbe2f17c0	-0.17098904
85	0xbde710d7	-0.11282509
86	0x3dc7e558	0.09760541
87	0x3da02400	0.078193665
88	0x3d948bb0	0.07253206
89	0xbe1d7456	-0.1537641
90	0xbe21905f	-0.1577773
91	0xbd86c0c9	-0.065797396
92	0x3dc82436	0.09772532
93	0xbdd0e1a6	-0.10199289
94	0x3d8c86e6	0.06861667
95	0xbd7919df	-0.06081569
96	0xbdc5089b	-0.09620782
97	0xbdf2d873	-0.11857691
98	0xbd996056	-0.07489078
99	0x3da14db2	0.07876147
100	0xbe22d919	-0.15903129
101	0x3dbb2682	0.09138204
102	0x3d8fe151	0.070253976
103	0x3e0f1f6e	0.13976833
104	0xbd3e770a	-0.046500243
105	0x3dbe6371	0.09296311
106	0x3d611f9b	0.054961782
107	0x3d12fa38	0.03588316
108	0xbe24ab18	-0.16080892
109	0x3dcebbb6	0.10094397
110	0xbe20bd39	-0.15697183
111	0xbcbdcf43	-0.02317012
112	0xbde9bb3e	-0.11412667
113	0xbde83ab5	-0.113393225
114	0x3dd23dc8	0.1026569
115	0xbdcf1c7a	-0.10112853
116	0x3cee315c	0.02907627
117	0xbe269330	-0.16267085
118	0x3d81e4ef	0.06342494
119	0x3c938b2c	0.018010698
120	0xbd9e92ed	-0.077428676
121	0xbe2ad680	-0.16683388
122	0x3ce3e9f7	0.027821524
123	0xbdb3e6eb	-0.087842785
124	0x3df34853	0.11879029
125	0xbdcac150	-0.09900153
126	0x3c681b38	0.014166646
127	0xbd935e75	-0.071957506
128	0x3d953b12	0.072866574
129	0xbe0fca58	-0.14042032
130	0xbd4d41d5	-0.05011161
131	0x3e214181	0.15747644
132	0x3da551c2	0.08072235
133	0x3dd9db00	0.10637474
134	0xbca75868	-0.020427898
135	0xbdafa245	-0.08575872
136	0x3d37b097	0.044846144
137	0xbdb38519	-0.08765621
138	0xbd0320b8	-0.032013625
139	0xbdab356d	-0.083597995
140	0xbcaf3fc3	-0.021392709
141	0x3e2b87c0	0.16751003
142	0xbdaa9b5e	-0.08330415
143	0xbd9167f8	-0.070999086
144	0xbdfaffa0	-0.12255788
145	0xbdbdca84	-0.092671424
146	0x3de2cc6f	0.11074149
147	0x3e03b04b	0.12860219
148	0xbdc60d78	-0.09670538
149	0xbd003e00	-0.031309128
150	0x3e23e930	0.16006923
151	0xbdea84c7	-0.114511065
152	0xbde50933	-0.11183395
153	0x3e109500	0.14119339
154	0xbda31468	-0.079628766
155	0x3dd31b73	0.1030797
156	0xbd47d8a6	-0.048790596
157	0x3d65063b	0.055914145
158	0xbb0fe74f	-0.002195794
159	0x3de88b8e	0.11354743
160	0xbdf5bd62	-0.119990125
161	0xbe064344	-0.13111597
162	0x3d1aee5f	0.037824985
163	0x3de7db12	0.11321081
164	0x3deacb71	0.114645846
165	0x3e02c600	0.12770844
166	0x3daea6da	0.08527918
167	0xbdc27912	-0.094957486
168	0xbda7c4f3	-0.08191862
169	0xbd889e82	-0.06670858
170	0xbdc4b2ab	-0.09604391
171	0xbd837088	-0.06417948
172	0x3dd03153	0.10165658
173	0x3dae147b	0.085
174	0x3e1f6940	0.15567493
175	0xbd7fc6db	-0.062445503
176	0x3dc2dca6	0.095147416
177	0x3ddf3bd2	0.10900082
178	0x3d6c4765	0.057685275
179	0x3dc2184c	0.094772905
180	0xbd9aac22	-0.07552363
181	0xbdd9ceb3	-0.10635128
182	0x3e137f14	0.14403945
183	0xbd31ebc0	-0.04343772
184	0x3df84f47	0.12124496
185	0x3e026ca3	0.12736754
186	0x3d690ae2	0.056895144
187	0xbd29792e	-0.04137533
188	0x3d5152d0	0.051104367
189	0x3c975936	0.018475156
190	0xbd104d03	-0.035229694
191	0x3de1d49f	0.110268824
192	0xbd3730a7	-0.044724133
193	0xbd99a69c	-0.07502481
194	0xbd91bb57	-0.0711581
195	0x3ddf4680	0.10902119
196	0xbd3c4ff2	-0.04597468
197	0xbe0b6f37	-0.13616644
198	0xbd378405	-0.044803638
199	0xbd291883	-0.04128314
200	0xbd1eedcd	-0.038801003
201	0x3ce560aa	0.028000195
202	0xbd10c364	-0.03534259
203	0xbde5c4fc	-0.112192124
204	0xbdc3359d	-0.0953171
205	0xbc9b65dc	-0.018969469
206	0xbdd34e43	-0.103176616
207	0x3de79921	0.11308504
208	0x3ddb9cce	0.107232675
209	0xbd75b878	-0.059990376
210	0x3e053e3e	0.13012025
211	0x3e094094	0.13403541
212	0x3e210603	0.1572495
213	0x3de11ba2	0.10991599
214	0xbde24d74	-0.11049929
215	0xbd4a66f9	-0.04941461
216	0xbd4d1b28	-0.050074726
217	0x3e208aa6	0.1567789
218	0x3e170584	0.14748198
219	0x3db7ed63	0.08980825
220	0xbdb3f960	-0.08787799
221	0x3df6b3b6	0.12045996
222	0xbda7af28	-0.08187705
223	0x3d739d19	0.059475992
224	0x3daadd5f	0.083430044
225	0x3dff9365	0.12479285
226	0x3da5314b	0.080660425
227	0xbdb1ea96	-0.08687322
228	0x3e264854	0.16238528
229	0xbdd2d5b1	-0.10294665
230	0xbd8f6990	-0.07002556
231	0xbe0735ac	-0.13204068
232	0x3d27b3aa	0.040942825
233	0xbda4acc0	-0.08040762
234	0xbd6cddef	-0.05782884
235	0xbd33155c	-0.04372154
236	0x3e1af352	0.15131882
237	0xbd935f62	-0.07195927
238	0x3e11232b	0.14173572
239	0x3cdfe162	0.02732915
240	0x3dee64d7	0.116403274
241	0x3dfbc288	0.12292963
242	0xbdc59778	-0.09648031
243	0x3dbcb2b4	0.092137724
244	0xbb8ea3e9	-0.0043530357
245	0x3e20913e	0.15680405
246	0xbd82cbd8	-0.06386536
247	0xbd0a1098	-0.03370723
248	0x3d89d6fe	0.0673046
249	0x3e2fafc4	0.17156893
250	0xbd2c2dd5	-0.042035896
251	0x3dbac43d	0.09119461
252	0xbde5c322	-0.11218859
253	0x3de406eb	0.11134132
254	0xbd1e613b	-0.038666945
255	0x3d992fb4	0.07479802

action_model._discrete_distribution.branches.0.bias f4 [2]
0	0x3dc97d89	0.09838397
1	0xbdc97d79	-0.09838385

49 f4 [4]
0	0x3fca8f9a	1.5825074
1	0x40ecd8ad	7.4014497
2	0x404dfb1e	3.218452
3	0x405bd987	3.4351518
