results/flappy2/FlappyAgent/FlappyAgent-1807.onnx (onnx, 73355 bytes, 8 tensors)

network_body.observation_encoder.processors.0.normalizer.running_mean f4 [6]
000000 d5 4e 26 bf bf c5 23 41 00 00 00 00 5d 08 ad 3f
       -0.6496404 10.235778 0.0 1.3518177
000010 7c c2 a2 40 3c d1 62 40
       5.086241 3.5440207

network_body._body_endoder.seq_layers.0.weight f4 [128, 6]
000000 0d 93 99 3e 83 98 ab be ad 96 a9 3e b7 4b 18 3f
       0.29995003 -0.33514795 0.3312277 0.5949053
000010 ab 95 5d 3e 3a d6 3a 3c e8 89 c6 3d 80 03 3a be
       0.21639125 0.011403615 0.09694272 -0.18165398
000020 3c 6a e9 3e 3f 11 1d 3d da 5d d6 bd ab be 38 3f
       0.45588863 0.038346525 -0.104671195 0.72165936
000030 25 cb 57 be 8a 43 1d 3d dc f0 47 bf f8 3c 70 bf
       -0.21073587 0.03839449 -0.781019 -0.9384303
000040 8c 2b a6 be 28 98 c7 be e5 fe f2 bc 9e bc 1e 3f
       -0.324551 -0.38983274 -0.029662559 0.62006557
000050 7a 97 82 3e e0 3e d4 3d 5b 9b b9 be 63 54 2f 3f
       0.25506192 0.10363555 -0.3625134 0.6848814
000060 76 72 b4 bd bc 6c 22 bf 52 ed 12 be da 88 cb be
       -0.08810894 -0.63447165 -0.14348343 -0.39752847
000070 f0 f6 9f be e2 dc bc 3d 4e 35 30 be a6 f2 da 3c
       -0.31243086 0.092218176 -0.17207834 0.026727032
000080 15 21 c9 bd 22 6f 0f bd 16 7d 1c bf 19 b6 ac be
       -0.09820763 -0.035018094 -0.61128366 -0.3373268
000090 5a 2f 64 3e 6c a7 d4 3e f5 af 9b be 56 17 93 be
       0.22283688 0.41533983 -0.30407682 -0.2872874
0000a0 96 8e 20 be e5 70 ed 3c d7 0d 80 be 0b 07 b8 3e
       -0.15679392 0.028984496 -0.2501056 0.35942873
0000b0 03 47 cc 3d 1f fc 73 be 65 ba 46 3e 81 fb f9 be
       0.09974482 -0.23826645 0.19407041 -0.48824695
0000c0 62 a4 75 3d 76 df 01 3e 4c d1 77 3c 30 25 33 bf
       0.05997122 0.126829 0.015125584 -0.6997862
0000d0 2e 77 c8 3d 7f 5e 8c 3e f4 b8 a3 be d6 c2 74 bd
       0.09788357 0.27415845 -0.31977046 -0.059756123
0000e0 66 16 df be 20 93 d6 3e fa c8 0f 3f 32 ae df 3e
       -0.43571776 0.41909122 0.5616604 0.43687588
0000f0 e6 c0 08 bf 68 61 4a 3d b2 42 a8 3e 93 c7 15 3f
       -0.5341934 0.0494093 0.32863384 0.5850765
000100 21 c4 65 bd fd b0 ae 3e 6e 8f 3e bf f5 69 bb be
       -0.056095246 0.34119406 -0.74437606 -0.36604276
000110 8d 78 9f bd a3 a7 2e 3d 02 c5 75 be e5 f6 d0 3e
       -0.07786665 0.04264034 -0.24000934 0.40813366
000120 74 aa 20 3f 90 4d 50 3e 3e ba 19 3f f3 37 c7 be
       0.6276009 0.20342088 0.6004981 -0.38909873
000130 93 11 00 bf dc d2 bf 3d d8 ed af be 2c 54 8a 3d
       -0.50026816 0.0936639 -0.34361148 0.06754336
000140 cb 35 18 3f 30 7f c8 3e 91 a3 f5 be 9c e0 a9 3e
       0.5945708 0.39159536 -0.47976354 0.33179176
000150 45 b1 80 3e a0 61 18 bf ed 21 d5 be 5b e3 d2 be
       0.25135246 -0.59523964 -0.41627446 -0.41189083
000160 61 1a 7e 3f 89 37 f9 3d b7 1d e4 3e c1 bf c5 be
       0.99259 0.121687956 0.4455392 -0.3862286
000170 50 6d 90 be 6d 91 e7 bd ef da 42 3e 7e bf a2 bd
       -0.282084 -0.11307035 0.19028829 -0.079466805
000180 ab 60 cf 3e c8 5c cb 3e a4 8a da be 84 3e 2a 3d
       0.4050344 0.39719224 -0.426839 0.041563526
000190 c0 9b f0 bd 4b de fc be 6f 9b 2c 3e a9 c3 42 bf
       -0.11748457 -0.49388346 0.16856168 -0.76079804
0001a0 47 68 64 3e 3d 01 a3 bf b4 cc e5 be 40 b6 41 be
       0.22305404 -1.2734753 -0.4488274 -0.18917179
0001b0 cd 95 60 3e 8e 26 47 bf 62 74 56 3d 08 99 0b 3f
       0.21932144 -0.77793205 0.052357085 0.5453038
0001c0 a5 a9 59 bf 26 21 3c be 57 95 0c 3f e1 24 3e be
       -0.8502448 -0.1837202 0.54915375 -0.18568756
0001d0 4b 9f 1c 3f 39 3e cd 3e 9c 8b 0d be 45 4a e2 3e
       0.6118056 0.40086535 -0.13822788 0.44197288
0001e0 15 44 b2 3d 45 74 bb bd 15 f0 68 bf 55 15 7d be
       0.08704392 -0.09153036 -0.90991336 -0.24715169
0001f0 46 ca f4 be 22 34 52 bb 27 4e 9a 3e e8 d2 2b 3f
       -0.47810572 -0.003207453 0.3013775 0.6711869
000200 36 5f 16 3f bd 3c a2 3e 90 f8 5c 3e a2 2a d1 3e
       0.5873903 0.31686965 0.21579194 0.4085284
000210 a6 15 b6 3d 4b 4c 15 bf 9a 27 7c 3e 87 13 7d 3e
       0.08890848 -0.5831954 0.24624482 0.2471448
000220 ba c0 2a bf ee 38 bd 3e 8f 86 d1 be a0 ab 63 3d
       -0.6670033 0.36957496 -0.40922973 0.055583596
000230 65 ae 11 3f fa 33 89 be 10 98 87 3e 54 be 6b bf
       0.5690673 -0.26797467 0.26483202 -0.9208729
000240 e8 15 f6 bc 21 7e f7 bd 16 bb e9 bd 15 84 0f bf
       -0.030039743 -0.12084604 -0.11412637 -0.56060916
000250 a6 4f 39 be e4 cd c4 3e d9 ae 87 bf 3a 66 fc 3d
       -0.1809679 0.38438332 -1.0600234 0.12324186
000260 b3 b6 73 be d4 4e 53 3f a6 5d 0d 3e 36 a1 b0 3e
       -0.23800163 0.8254216 0.13805255 0.34497994
000270 87 68 f8 3c 63 db 8a 3e a2 5b 10 be c7 e9 eb 3e
       0.03032328 0.27120504 -0.14097455 0.46076795
000280 ad 9f c1 be 49 ed 84 3c 46 40 32 be 71 b8 ae 3e
       -0.37817135 0.016226428 -0.17407331 0.34125093
000290 c4 87 38 3e f8 a2 88 3e 4f ac 1d bf d2 f3 a7 3e
       0.1802054 0.26686835 -0.6159105 0.32803208
0002a0 64 dc 45 3e d5 fc 44 bf 98 16 39 be 4d bb 32 bf
       0.19322354 -0.7694829 -0.18075025 -0.6981705
0002b0 df ab 8b bf 6f 3d 54 3e 2e 67 6d 3e 8a a3 2e 3e
       -1.0911826 0.2072656 0.23183891 0.17054573
0002c0 d3 d8 1a bd a5 59 04 bf 06 9b c7 3e c7 2a 6f be
       -0.037804436 -0.51699287 0.3898546 -0.23356162
0002d0 41 71 40 bf 3c 98 06 3f 5e 08 5c be 80 78 2b 3e
       -0.7517281 0.5257604 -0.21487567 0.16745186
0002e0 6a 44 88 3c 3c fb b1 3e d2 4a 41 bf 4a 66 39 3f
       0.016634185 0.3476199 -0.7550479 0.72421706
0002f0 19 fc 32 3f c1 9d 5e 3e 98 09 ed bd 2c 11 b8 bd
       0.6991592 0.21739866 -0.115740955 -0.0898765
000300 37 cd 17 3f 34 75 ac be 31 cb f9 be 21 c1 8c 3e
       0.5929751 -0.3368317 -0.48787835 0.27491096
000310 66 93 b3 3d 77 c8 9c 3b 5b 3a 30 3e 64 d8 54 3f
       0.087683484 0.0047846395 0.17209761 0.83142686
000320 6a 74 16 3e 56 14 16 3d 4c 15 f2 be 49 46 45 be
       0.14692846 0.036640488 -0.47281873 -0.19265093
000330 9a 6a e5 3e 4a 10 dc 3e 2a 30 60 be cd be 14 be
       0.44807893 0.42981178 -0.21893373 -0.1452591
000340 f1 89 06 bf 78 77 c5 3e b0 50 47 3e e6 5d 2e 3e
       -0.5255423 0.3856771 0.19464374 0.17028007
000350 0d f4 b8 be e0 a8 a3 bf d5 da 0f be ad 2f c7 3e
       -0.36123696 -1.2785912 -0.14048322 0.3890356
000360 83 c1 2d 3d ce 01 5b 3f af 4c c8 be c7 4b a5 be
       0.042420875 0.8554963 -0.39121005 -0.32284376
000370 f1 dd 7f bd 6b d6 34 3f 74 09 7f be 10 34 91 3c
       -0.06246752 0.70639676 -0.2490595 0.01772502
000380 38 8c a0 be 59 8f fa bd 57 58 b0 be 8b b3 d5 3e
       -0.31356978 -0.12234373 -0.34442398 0.41738543
000390 63 84 46 3f 50 88 45 bf a5 7a 3f bf 66 7d 35 3e
       0.77545756 -0.7716112 -0.74796516 0.17723617
0003a0 30 17 17 3e ed c7 8d 3e f7 19 75 be 19 6e 67 3c
       0.14754939 0.27691594 -0.23935686 0.01412537
0003b0 b7 be ed bd 20 d4 c4 3e 31 ee 13 3d 56 d5 9d 3d
       -0.116086416 0.3844309 0.03611583 0.07706706
0003c0 a9 a8 8b 3e 5f 52 87 3c 51 ce b5 bd 61 b0 9d 3e
       0.27277115 0.01651877 -0.08877242 0.3079863
0003d0 9b 4d 96 3e 86 af 23 3d 5c 23 63 3d 65 7b f4 3e
       0.29356083 0.039962314 0.055453643 0.47750393
0003e0 e3 40 5a 3f 03 1b 68 be 4f 31 cd bc 8f e6 a5 be
       0.8525526 -0.22666554 -0.025047926 -0.32402465
0003f0 1a 68 94 bd 65 7a a8 be 69 62 2e bc b2 2c 10 3c
       -0.07246418 -0.3290588 -0.01064358 0.008799719

network_body._body_endoder.seq_layers.0.bias f4 [128]
000000 00 00 00 00 00 00 00 00 00 00 00 00 00 00 00 00
       0.0 0.0 0.0 0.0
000010 00 00 00 00 00 00 00 00 00 00 00 00 00 00 00 00
       0.0 0.0 0.0 0.0
000020 00 00 00 00 00 00 00 00 00 00 00 00 00 00 00 00
       0.0 0.0 0.0 0.0
000030 00 00 00 00 00 00 00 00 00 00 00 00 00 00 00 00
       0.0 0.0 0.0 0.0
000040 00 00 00 00 00 00 00 00 00 00 00 00 00 00 00 00
       0.0 0.0 0.0 0.0
000050 00 00 00 00 00 00 00 00 00 00 00 00 00 00 00 00
       0.0 0.0 0.0 0.0
000060 00 00 00 00 00 00 00 00 00 00 00 00 00 00 00 00
       0.0 0.0 0.0 0.0
000070 00 00 00 00 00 00 00 00 00 00 00 00 00 00 00 00
       0.0 0.0 0.0 0.0
000080 00 00 00 00 00 00 00 00 00 00 00 00 00 00 00 00
       0.0 0.0 0.0 0.0
000090 00 00 00 00 00 00 00 00 00 00 00 00 00 00 00 00
       0.0 0.0 0.0 0.0
0000a0 00 00 00 00 00 00 00 00 00 00 00 00 00 00 00 00
       0.0 0.0 0.0 0.0
0000b0 00 00 00 00 00 00 00 00 00 00 00 00 00 00 00 00
       0.0 0.0 0.0 0.0
0000c0 00 00 00 00 00 00 00 00 00 00 00 00 00 00 00 00
       0.0 0.0 0.0 0.0
0000d0 00 00 00 00 00 00 00 00 00 00 00 00 00 00 00 00
       0.0 0.0 0.0 0.0
0000e0 00 00 00 00 00 00 00 00 00 00 00 00 00 00 00 00
       0.0 0.0 0.0 0.0
0000f0 00 00 00 00 00 00 00 00 00 00 00 00 00 00 00 00
       0.0 0.0 0.0 0.0
000100 00 00 00 00 00 00 00 00 00 00 00 00 00 00 00 00
       0.0 0.0 0.0 0.0
000110 00 00 00 00 00 00 00 00 00 00 00 00 00 00 00 00
       0.0 0.0 0.0 0.0
000120 00 00 00 00 00 00 00 00 00 00 00 00 00 00 00 00
       0.0 0.0 0.0 0.0
000130 00 00 00 00 00 00 00 00 00 00 00 00 00 00 00 00
       0.0 0.0 0.0 0.0
000140 00 00 00 00 00 00 00 00 00 00 00 00 00 00 00 00
       0.0 0.0 0.0 0.0
000150 00 00 00 00 00 00 00 00 00 00 00 00 00 00 00 00
       0.0 0.0 0.0 0.0
000160 00 00 00 00 00 00 00 00 00 00 00 00 00 00 00 00
       0.0 0.0 0.0 0.0
000170 00 00 00 00 00 00 00 00 00 00 00 00 00 00 00 00
       0.0 0.0 0.0 0.0
000180 00 00 00 00 00 00 00 00 00 00 00 00 00 00 00 00
       0.0 0.0 0.0 0.0
000190 00 00 00 00 00 00 00 00 00 00 00 00 00 00 00 00
       0.0 0.0 0.0 0.0
0001a0 00 00 00 00 00 00 00 00 00 00 00 00 00 00 00 00
       0.0 0.0 0.0 0.0
0001b0 00 00 00 00 00 00 00 00 00 00 00 00 00 00 00 00
       0.0 0.0 0.0 0.0
0001c0 00 00 00 00 00 00 00 00 00 00 00 00 00 00 00 00
       0.0 0.0 0.0 0.0
0001d0 00 00 00 00 00 00 00 00 00 00 00 00 00 00 00 00
       0.0 0.0 0.0 0.0
0001e0 00 00 00 00 00 00 00 00 00 00 00 00 00 00 00 00
       0.0 0.0 0.0 0.0
0001f0 00 00 00 00 00 00 00 00 00 00 00 00 00 00 00 00
       0.0 0.0 0.0 0.0

network_body._body_endoder.seq_layers.2.weight f4 [128, 128]
000000 2e 12 8e bd c1 9f 8a 3d ef e8 3a 3e b5 b7 28 bd
       -0.06937061 0.06768752 0.1825292 -0.04119082
000010 f9 9d 8b bd f7 06 0b 3e 57 f8 9f bc 2e 9a 56 3e
       -0.0681724 0.13576876 -0.019527597 0.20957252
000020 a0 26 c6 3a 1a cc e0 bd 9d 61 50 be 6f de 0f 3d
       0.0015117712 -0.10976429 -0.20349737 0.03512424
000030 71 f8 67 bd a6 00 19 be ae 7e 51 3d 07 87 15 be
       -0.056633417 -0.14941654 0.0511462 -0.1460229
000040 c6 08 d1 3c 47 53 71 bd 72 0f f5 bd b7 35 7b 3d
       0.025516879 -0.05891731 -0.119658366 0.061330523
000050 5f 2c 98 bc 55 6b 69 bd d0 6f 36 3d 5e e3 88 3d
       -0.018575845 -0.056987125 0.044540226 0.06683992
000060 77 9b de bc 38 c6 db bd 20 03 a0 bd 93 a9 37 bb
       -0.02717374 -0.107311666 -0.07813096 -0.0028024658
000070 cc 4f fd bd 9a 2f 88 bd 9f 74 ca 3d cd 79 4c bd
       -0.12368736 -0.06649704 0.09885525 -0.049920846
000080 0d 3b e3 3d 1c 36 94 bc 8b 68 bb 3d 81 ec e2 3c
       0.110952474 -0.018092208 0.09150799 0.027700664
000090 5b bf 91 3d 53 ea c1 bc 0b b9 f6 3c 6d e9 d5 3b
       0.07116576 -0.023671305 0.030117532 0.0065280707
0000a0 38 67 7f bd 30 b3 d8 3d 6f 67 8a bd fb 1d df bd
       -0.062354296 0.10581052 -0.0675801 -0.1089439
0000b0 70 e5 c8 bd b5 b4 96 3d 58 2f 5f bd 8a 0a 54 bc
       -0.09809387 0.07358686 -0.05448851 -0.012941966
0000c0 01 69 27 be c9 46 a9 3d 79 cd 15 3e 23 77 8a bd
       -0.1634865 0.08265454 0.14629163 -0.06761005
0000d0 8b 4e 85 3d 93 8c c7 bd c0 3c 9b bd 74 fb 75 bd
       0.065091215 -0.09743609 -0.075799465 -0.060054258
0000e0 d8 25 00 bd 1d f0 c1 3d 59 14 fb bd 74 97 93 3b
       -0.03128609 0.09469626 -0.122597404 0.0045041386
0000f0 b3 a6 af bd 32 c2 80 bc c9 7b c8 bd 28 68 cb bb
       -0.08576717 -0.0157176 -0.09789235 -0.0062074848
000100 03 03 00 3c 2f dd d1 3d e9 f2 3d 3e 15 e3 ca 3c
       0.007813218 0.102472655 0.18549694 0.024766484
000110 c0 27 c1 bd 33 5e a0 bd 62 1b 07 3e f4 e3 12 3d
       -0.0943141 -0.07830467 0.1319404 0.035861924
000120 ee d4 f6 bd 08 d4 92 bd 20 37 7c 3d 4b e8 14 3e
       -0.12052332 -0.07169348 0.06157601 0.14541738
000130 94 4c 71 bc e3 ca d6 bd 0c 6f 1a be b6 10 e2 3d
       -0.01472773 -0.10487916 -0.15081424 0.110383436
000140 2c 56 5c bd 19 4b bf bb 60 50 21 3d ac c0 fe 3d
       -0.053793117 -0.0058378098 0.039383292 0.12439093
000150 18 33 87 3c 2b 1a 22 bd 6f b0 97 bc 37 78 79 3c
       0.016503856 -0.039575737 -0.018516747 0.015226415
000160 cc 23 83 3c 73 65 ec bd b4 0e 8c bc 7c bf d2 3d
       0.01600828 -0.115427874 -0.017096855 0.10290429
000170 95 f0 8f 3c 58 7f 8e bc 7d f4 85 3b 93 3e e8 3c
       0.017570773 -0.017394707 0.004087983 0.02835015
000180 6a 42 ff 3c db 74 aa 3d bc be 67 3d 74 ff b6 bd
       0.031159598 0.0832307 0.056578383 -0.089354426
000190 9d 5f d6 3d a9 69 70 bd 18 aa e1 bc 9a 7b 40 be
       0.104674555 -0.058694515 -0.027546927 -0.1879715
0001a0 f1 54 08 bc bf 76 8c 3c eb f1 99 be e0 ad 05 be
       -0.008321033 0.017146466 -0.3006738 -0.1305461
0001b0 df fa 27 3d bc 57 e6 bd 10 7d cc 3d f1 46 02 3e
       0.041010734 -0.11247203 0.09984791 0.12722374
0001c0 99 94 5d bd 0a cb 01 be 9a 5e 17 bd 98 0b 35 3d
       -0.054096792 -0.1267511 -0.036955453 0.04420051
0001d0 b5 c1 02 be 77 0d 9a 3c d8 55 b0 bd 92 ee 44 bd
       -0.12769206 0.018805249 -0.086101234 -0.04807908
0001e0 5c 85 6f 3e 30 d9 cd bd f4 d3 58 bc 43 ab 55 3a
       0.23390716 -0.10051191 -0.013234127 0.0008150825
0001f0 67 05 a4 3d e6 29 e2 3c 4a a2 bb 3c 3d 0e d4 3c
       0.08008843 0.02760787 0.022904534 0.025885696
000200 77 38 8e 3d e7 a5 69 bd bc 21 46 3d 97 12 5f 3d
       0.069443636 -0.057042982 0.048372015 0.054461088
000210 7c cd fc bc ef d9 a5 bc 55 b1 ef 3c 61 7f 5c be
       -0.030859701 -0.02024552 0.029259363 -0.21532966
000220 3e 35 49 3d f8 54 b7 3d 25 ad 12 bd 82 da a0 bd
       0.04912304 0.089517534 -0.035809655 -0.07854177
000230 07 0a fc bd 12 6d 75 bd 53 61 b4 3d fa 9a 17 3e
       -0.123066 -0.05991847 0.088076256 0.14805213
000240 e9 28 45 3c 0e 65 05 3d 0f 95 32 3e b8 3b 69 3e
       0.0120336795 0.032567076 0.17439674 0.22776687
000250 f5 9c 69 bd 24 da fb 3d de 21 ca 3c 28 5b 37 bd
       -0.05703445 0.122974664 0.024674352 -0.044764668
000260 be 1a 70 bc d3 04 13 bc 02 5d 06 bd 3f 60 87 3c
       -0.014654813 -0.008973318 -0.032803543 0.016525386
000270 96 be 73 3d 09 74 36 bc bd ae d2 bc 8e 3d 2e bd
       0.05950793 -0.011136063 -0.025718087 -0.042539172
000280 e8 9b 81 bd 65 f4 2d be 5a f0 74 3d 6a 59 d9 3b
       -0.06328565 -0.1698776 0.05979953 0.0066329734
000290 75 34 c9 bc 54 af 60 bd f8 3f 82 bc 78 b9 31 3d
       -0.024561146 -0.054854706 -0.015899643 0.043389767
0002a0 8f e5 c4 3d f9 58 04 3e 95 e6 c1 bd a9 db 43 bd
       0.09614097 0.12924565 -0.09467808 -0.047816906
0002b0 52 14 0d bb 8d 79 30 3e 79 76 87 bd 14 74 97 bd
       -0.0021527004 0.17233868 -0.06614394 -0.07395187
0002c0 98 14 78 be a0 3b 58 3e a8 4d f9 3b a6 d9 ff bc
       -0.24226606 0.21116495 0.0076081343 -0.031231713
0002d0 40 f6 f4 bc 87 34 b0 bd 84 71 54 3d de c8 f5 3c
       -0.029902577 -0.08603769 0.05186607 0.030003008
0002e0 8d 78 21 be 45 cb fd bc c3 f2 a6 bd 4a ef 0b 3d
       -0.15768643 -0.030980716 -0.08151772 0.03416375
0002f0 8c f4 c8 3d a9 e5 d8 3d 29 03 3c 3d 16 7f 8a 3d
       0.098122686 0.10590679 0.04590145 0.06762521
000300 e3 20 e2 3a 03 ba a7 bd 47 75 7e 3c 5d 0f 1d bd
       0.0017252233 -0.08189776 0.015530891 -0.03834473
000310 c7 d2 7f bd f9 6b 87 bd 0f 8f d4 bd 5a d8 18 be
       -0.062456872 -0.06612391 -0.10378849 -0.14926282
000320 bd 95 0c 3d cb 87 4b bd 80 a1 fc bd f1 e7 c3 bd
       0.03432249 -0.04969005 -0.12335491 -0.09565724
000330 93 97 a2 bd d1 c2 6b 3d 6f a7 35 3d b7 3f 2c 3d
       -0.07939067 0.05755884 0.04434913 0.04205295
000340 6d 0a 53 3b 63 09 b8 bd b5 36 05 3b 7a b8 5b 3e
       0.003220226 -0.089861654 0.0020326797 0.21457091
000350 4d a6 83 bc a0 76 f7 bc 45 ad 8d 3d da e1 57 bd
       -0.01607051 -0.030207932 0.06917814 -0.052705623
000360 ea f8 d2 3d f6 e8 42 bd da 3c 55 bc 7d 1f 17 3d
       0.10301383 -0.04758545 -0.013014996 0.036895264
000370 ba 4b b5 bd 98 ac 8d 3c 24 85 59 3d ba 4c 49 bc
       -0.08852334 0.017294213 0.05310549 -0.012286359
000380 76 cd ba bd f7 91 51 bd 64 5b c7 bd 95 c8 80 3d
       -0.0912122 -0.051164594 -0.09734228 0.06288258
000390 83 45 bc 3c c1 57 01 3e 7e 89 4c bd 71 0a 8c 3d
       0.022982365 0.12631132 -0.04993581 0.06837929
0003a0 82 63 26 be 41 89 02 3d 29 fc dc bd 08 05 b2 3d
       -0.16248897 0.031869177 -0.10790283 0.08692366
0003b0 e8 27 95 3c f3 f0 ef 3c 60 b7 95 3d 01 26 03 be
       0.018207505 0.029289698 0.07310367 -0.12807466
0003c0 b2 51 4e bd 56 07 4e 3b 35 59 f7 3d 8c a2 bb bd
       -0.05037088 0.0031437478 0.12077562 -0.09161863
0003d0 93 40 dd bc be ba 0c 3c 57 35 18 3d 86 60 92 3c
       -0.02700833 0.008589445 0.037160244 0.017868292
0003e0 ec 53 26 bd 6b 30 6a bd 93 14 bb bd ef 0c 17 bd
       -0.040607378 -0.05717508 -0.091347836 -0.03687757
0003f0 d3 e1 ef bb b4 c9 4b be 12 a3 f4 bd c1 e3 58 3e
       -0.0073206215 -0.19901162 -0.11945166 0.21180631

network_body._body_endoder.seq_layers.2.bias f4 [128]
000000 00 00 00 00 00 00 00 00 00 00 00 00 00 00 00 00
       0.0 0.0 0.0 0.0
000010 00 00 00 00 00 00 00 00 00 00 00 00 00 00 00 00
       0.0 0.0 0.0 0.0
000020 00 00 00 00 00 00 00 00 00 00 00 00 00 00 00 00
       0.0 0.0 0.0 0.0
000030 00 00 00 00 00 00 00 00 00 00 00 00 00 00 00 00
       0.0 0.0 0.0 0.0
000040 00 00 00 00 00 00 00 00 00 00 00 00 00 00 00 00
       0.0 0.0 0.0 0.0
000050 00 00 00 00 00 00 00 00 00 00 00 00 00 00 00 00
       0.0 0.0 0.0 0.0
000060 00 00 00 00 00 00 00 00 00 00 00 00 00 00 00 00
       0.0 0.0 0.0 0.0
000070 00 00 00 00 00 00 00 00 00 00 00 00 00 00 00 00
       0.0 0.0 0.0 0.0
000080 00 00 00 00 00 00 00 00 00 00 00 00 00 00 00 00
       0.0 0.0 0.0 0.0
000090 00 00 00 00 00 00 00 00 00 00 00 00 00 00 00 00
       0.0 0.0 0.0 0.0
0000a0 00 00 00 00 00 00 00 00 00 00 00 00 00 00 00 00
       0.0 0.0 0.0 0.0
0000b0 00 00 00 00 00 00 00 00 00 00 00 00 00 00 00 00
       0.0 0.0 0.0 0.0
0000c0 00 00 00 00 00 00 00 00 00 00 00 00 00 00 00 00
       0.0 0.0 0.0 0.0
0000d0 00 00 00 00 00 00 00 00 00 00 00 00 00 00 00 00
       0.0 0.0 0.0 0.0
0000e0 00 00 00 00 00 00 00 00 00 00 00 00 00 00 00 00
       0.0 0.0 0.0 0.0
0000f0 00 00 00 00 00 00 00 00 00 00 00 00 00 00 00 00
       0.0 0.0 0.0 0.0
000100 00 00 00 00 00 00 00 00 00 00 00 00 00 00 00 00
       0.0 0.0 0.0 0.0
000110 00 00 00 00 00 00 00 00 00 00 00 00 00 00 00 00
       0.0 0.0 0.0 0.0
000120 00 00 00 00 00 00 00 00 00 00 00 00 00 00 00 00
       0.0 0.0 0.0 0.0
000130 00 00 00 00 00 00 00 00 00 00 00 00 00 00 00 00
       0.0 0.0 0.0 0.0
000140 00 00 00 00 00 00 00 00 00 00 00 00 00 00 00 00
       0.0 0.0 0.0 0.0
000150 00 00 00 00 00 00 00 00 00 00 00 00 00 00 00 00
       0.0 0.0 0.0 0.0
000160 00 00 00 00 00 00 00 00 00 00 00 00 00 00 00 00
       0.0 0.0 0.0 0.0
000170 00 00 00 00 00 00 00 00 00 00 00 00 00 00 00 00
       0.0 0.0 0.0 0.0
000180 00 00 00 00 00 00 00 00 00 00 00 00 00 00 00 00
       0.0 0.0 0.0 0.0
000190 00 00 00 00 00 00 00 00 00 00 00 00 00 00 00 00
       0.0 0.0 0.0 0.0
0001a0 00 00 00 00 00 00 00 00 00 00 00 00 00 00 00 00
       0.0 0.0 0.0 0.0
0001b0 00 00 00 00 00 00 00 00 00 00 00 00 00 00 00 00
       0.0 0.0 0.0 0.0
0001c0 00 00 00 00 00 00 00 00 00 00 00 00 00 00 00 00
       0.0 0.0 0.0 0.0
0001d0 00 00 00 00 00 00 00 00 00 00 00 00 00 00 00 00
       0.0 0.0 0.0 0.0
0001e0 00 00 00 00 00 00 00 00 00 00 00 00 00 00 00 00
       0.0 0.0 0.0 0.0
0001f0 00 00 00 00 00 00 00 00 00 00 00 00 00 00 00 00
       0.0 0.0 0.0 0.0

action_model._discrete_distribution.branches.0.weight f4 [2, 128]
000000 e7 f3 c4 bb 84 85 b2 bc 11 52 ac bb ee 41 0b bb
       -0.0060105207 -0.02179218 -0.0052588065 -0.0021249014
000010 b0 8e 4f 3b 5f d9 3b 3c 37 f8 bd bb cd 99 2e 3c
       0.0031670742 0.0114653995 -0.005797412 0.010656786
000020 f0 52 7d bb 2b ae fb 3b de b2 9d ba bb d7 91 bc
       -0.003865417 0.0076806745 -0.0012031456 -0.017803064
000030 00 6d 9b 3b b8 17 fc bb e3 c9 9e bb 35 6f d1 bb
       0.0047432184 -0.007693257 -0.004845844 -0.0063914307
000040 3b ac 3b 3c 2e d1 0b bc 7b 2b 63 bb 2f af 7e bb
       0.011454637 -0.008533759 -0.0034663368 -0.0038861742
000050 90 40 5d 3c 42 95 4b 3c 43 30 46 bc 1b db 8c 3c
       0.013504162 0.012425723 -0.012096467 0.017194321
000060 70 c8 6d bb 7f 80 31 bb 49 f2 3d 3c 53 fb c2 bb
       -0.00362828 -0.0027084646 0.01159341 -0.0059503703
000070 dd b1 2d 3c ec 6f 94 3b 15 97 d7 bb ff b6 33 bc
       0.010601488 0.0045299437 -0.0065792897 -0.010968923
000080 5b 2f 89 3a 11 c8 40 3c 2f c0 fd 3b 83 81 09 3c
       0.0010466384 0.01176645 0.0077438573 0.008392694
000090 1c ad b9 ba 8d 33 47 bc d2 b5 57 3c 57 52 3c bc
       -0.001416597 -0.012158287 0.013165908 -0.011494241
0000a0 b5 c0 59 ba 12 84 f3 3b 74 f0 17 bc b5 e2 9f b7
       -0.00083066087 0.0074315155 -0.009273637 -1.9059846e-05
0000b0 0a 45 d6 bb 77 a8 cd 3b 64 2f 1c bb b0 20 94 3b
       -0.006538992 0.006276186 -0.0023831958 0.004520498
0000c0 49 7c c9 bb 24 66 07 3b c0 9a 44 bc 46 e6 8e 3b
       -0.006148849 0.0020660246 -0.011999786 0.004360947
0000d0 36 42 cb 3b 8b 55 18 3b 47 35 27 3b db aa 87 bb
       0.0062029613 0.0023244347 0.0025513934 -0.0041402406
0000e0 3d a3 63 ba 43 fc a8 39 b0 c0 84 3c 0f 1a 8d 3b
       -0.0008683687 0.00032231407 0.016205162 0.004306085
0000f0 90 00 82 ba 7b 37 46 ba 62 26 30 ba 6b b3 59 bc
       -0.000991838 -0.0007561368 -0.00067195867 -0.0132874055
000100 48 2e 9c ba 57 f7 cc 3b 57 bf 9e bb f7 b0 22 3c
       -0.0011915648 0.006255071 -0.004844587 0.009929887
000110 ce 7e 3e bb 3b 68 2d bb 90 f2 d6 bb 5f 25 8f 3c
       -0.002906728 -0.0026459831 -0.0065596774 0.017473875
000120 7a 08 31 bc 3f 3f 24 bc cf bd b5 3b 51 62 09 3c
       -0.010805244 -0.010024845 0.0055463086 0.008385257
000130 51 99 22 ba 7a c6 53 3c af 7d a8 3a 52 41 f0 ba
       -0.00062026555 0.0129257385 0.001285484 -0.0018330014
000140 15 db 07 3c df 57 87 39 8b c3 bc bb 6b 99 21 3c
       0.008291979 0.00025814676 -0.005760615 0.009863238
000150 e9 7a 18 bc 5e aa b2 3b f3 75 28 3b 84 06 23 3b
       -0.009306648 0.0054524383 0.002570507 0.002487571
000160 7f 1f 39 bc 20 51 86 3c 9f 23 18 3c 8d 37 47 3c
       -0.011299013 0.016396105 0.0092858365 0.01215924
000170 b8 44 50 bb 88 43 00 bc e2 a9 b6 3a 1d 37 fa 3b
       -0.003177924 -0.007828601 0.0013936127 0.0076359645
000180 6f 2c 46 bc ef 63 8a 3b 7d 00 14 bc 7b 0e 8f bc
       -0.012095555 0.004223339 -0.00903332 -0.01746296
000190 c5 6b 08 bc 65 6b c6 bb 93 b6 f8 bb 4a 93 f3 b9
       -0.0083264755 -0.006055283 -0.007590124 -0.0004645831
0001a0 4f f6 9d bb 9d 6f c0 bb c7 8f 58 ba d9 92 0d 3b
       -0.004820622 -0.0058726803 -0.00082611706 0.002160242
0001b0 48 0f 46 ba e9 1f 85 bc ee db ab 3b 6a 93 12 ba
       -0.00075553777 -0.016250568 0.0052447235 -0.00055914244
0001c0 a7 0d 37 3b bd e2 d9 3c ba 2c 66 ba 15 a8 f9 3b
       0.0027931721 0.026597375 -0.00087804685 0.007618914
0001d0 4c 19 25 3c 92 ff 64 3a 50 69 a6 39 34 02 bc 3b
       0.010076832 0.0008735593 0.0003174045 0.0057375673
0001e0 28 00 39 bb bf 56 51 bc 65 6f cb 3b 7a 82 69 bb
       -0.0028228853 -0.01277703 0.0062083476 -0.0035630749
0001f0 df d9 b7 bc 8f b1 48 3c af 5d 39 bb b7 9b 3d bb
       -0.022442756 0.0122493645 -0.00282846 -0.0028931925
000200 12 75 5f 3b 65 cf 50 3c c2 31 ef bb 6b d3 41 3a
       0.003409688 0.012744759 -0.0072996328 0.00073938695
000210 c6 e0 9a ba 33 86 9e bb e8 6e 0a bc 3e de a9 b8
       -0.0011816255 -0.004837775 -0.008449294 -8.099944e-05
000220 d0 f5 e5 bb 05 5d f2 3c 1b 78 7c 3c 35 99 4c 3b
       -0.0070178285 0.02958537 0.015409495 0.0031219248
000230 8b a7 3f bb 67 5e 53 bb 7b 59 c5 3a 3f 5f bf 3b
       -0.002924415 -0.0032252313 0.0015056574 0.0058402116
000240 ee 05 cb bb be f5 9f 3b bd de 8a bb 6b a9 47 bc
       -0.0061957752 0.0048815897 -0.0042379783 -0.0121863885
000250 30 ed 18 3c 7f b8 52 bb 00 15 40 bc 31 c4 15 ba
       0.009333894 -0.0032153425 -0.011723757 -0.0005713134
000260 6e 33 97 3b 50 38 3e bc ff c8 12 3c 5f 84 68 3b
       0.004614285 -0.011610106 0.008959054 0.003547929
000270 51 92 29 3c 72 24 ff 3a cb be de bb 65 3d 47 bc
       0.010349826 0.0019465818 -0.0067976466 -0.012160634
000280 df ee 37 bb ff 50 7b ba 6f 25 e1 3a 20 a1 4b bc
       -0.0028065962 -0.00095869595 0.0017177294 -0.012428552
000290 93 3c 5e bc 5f 39 14 bb 9d dc d0 bb cd 41 41 3c
       -0.013564247 -0.0022617204 -0.0063739554 0.011795473
0002a0 29 d5 87 bb 0f 34 05 bb 9f a5 84 bc 52 fa 26 ba
       -0.0041452837 -0.0020325219 -0.016192256 -0.0006369698
0002b0 69 2f 82 3b 50 37 b0 bb bf 29 15 bc 35 6c 55 bb
       0.003972937 -0.0053776875 -0.009104191 -0.0032565717
0002c0 a3 c4 18 bc 2f d2 79 bc 22 83 41 3b 93 fe 89 bc
       -0.009324226 -0.015247866 0.0029527624 -0.016845023
0002d0 af 79 7e 3a 5a 00 e6 3a 93 55 1d 3b 43 cd 4a bb
       0.00097074633 0.0017547712 0.0024007305 -0.00309451
0002e0 8e 0c 0e 3a df ae 2f bc 97 6f ff bb 5b f4 1b bb
       0.0005418741 -0.010722845 -0.007795285 -0.002379677
0002f0 5b 84 92 3a 9d 48 82 3c 3b b2 be bb c3 57 5a bc
       0.0011178361 0.015903765 -0.0058195866 -0.013326588
000300 78 04 33 39 d2 dd 08 bc da 8a ba b9 1f 3c 99 3b
       0.00017072435 -0.008353667 -0.00035580137 0.0046763564
000310 fa e8 f2 3b b7 f9 1e bb 72 81 31 bb 09 1f 88 bb
       0.007413027 -0.0024257728 -0.0027085212 -0.0041540903
000320 7f 75 04 3c a8 8d 61 bc 86 6a 13 bc 95 2f c3 3a
       0.008084654 -0.013766684 -0.008997565 0.00148915
000330 7b e1 83 ba a7 dd ee bb 46 a4 c1 ba 20 44 d8 38
       -0.0010061705 -0.0072896066 -0.0014773689 0.00010312372
000340 0e c1 1b ba 0f 34 30 3c da 68 30 bc eb 1d 2a 3c
       -0.0005941548 0.010754599 -0.010767186 0.01038311
000350 f3 73 30 bb 99 0d 25 bb 77 02 f4 bb 2b c0 1a ba
       -0.002692458 -0.0025185107 -0.007446583 -0.0005903269
000360 03 02 11 3c e2 fd 64 bb 73 92 09 bc 83 03 2b bc
       0.008850577 -0.0034941365 -0.008396733 -0.010437849
000370 22 65 87 bc a2 95 2d bb ca ad 74 ba da 83 5b 3c
       -0.016527716 -0.0026486893 -0.0009333758 0.013398135
000380 97 ed ef 3a 5c a8 43 bc 97 a3 12 3c fa 72 87 39
       0.001830506 -0.0119419955 0.008950136 0.0002583487
000390 cd 19 d2 3b 51 da 92 3b ca 68 6b 3b fd d3 e1 3b
       0.006411767 0.0044815917 0.0035920613 0.006891726
0003a0 91 b8 06 3c 96 4a 36 bb cd f6 ff ba 42 92 a9 bb
       0.008222715 -0.0027815453 -0.0019528508 -0.005174906
0003b0 6c e0 2a 3c 5d 90 1e 3b 67 d4 c7 ba 8c 51 1e bc
       0.010429483 0.0024194934 -0.0015245796 -0.009662997
0003c0 09 92 b4 3b fc c8 00 ba 6f fd a1 bc d0 8c 5f bb
       0.005510573 -0.00049127615 -0.019774167 -0.003411103
0003d0 1d 9e 30 3c cb cb 22 3c 35 ee ae bb c9 00 a8 bb
       0.010779885 0.009936283 -0.005338455 -0.0051270467
0003e0 e7 27 83 ba 35 cf 21 3c 53 d7 03 3c 37 bc 82 3b
       -0.0010006399 0.009876062 0.008046943 0.003989722
0003f0 6a a2 4d bb 30 b9 7c bc 02 9c 56 bb 0e 0e 4a 3b
       -0.0031377324 -0.0154250115 -0.0032746796 0.003083113

action_model._discrete_distribution.branches.0.bias f4 [2]
000000 00 00 00 00 00 00 00 00
       0.0 0.0

52 f4 [6]
000000 79 c3 e5 3c 13 fd c6 3f de a8 c0 3c b0 15 df 40
       0.02804731 1.5545982 0.023518022 6.9713974
000010 5d 92 65 40 68 9a 4f 40
       3.5870583 3.2437992
