results/flappy2/FlappyAgent/FlappyAgent-1807.pt (torch, 151514 bytes, 19 tensors)

network_body.observation_encoder.processors.0.normalizer.running_mean f4 [6]
-0.6496404 10.235778 0.0 1.3518177 5.086241 3.5440207
00000000: d54e 26bf bfc5 2341 0000 0000 5d08 ad3f
00000010: 7cc2 a240 3cd1 6240

network_body.observation_encoder.processors.0.normalizer.running_variance f4 [6]
1.422266 4369.5303 1.0 87869.49 23263.514 19024.197
00000000: d00c b63f 3e8c 8845 0000 803f bf9e ab47
00000010: 07bf b546 65a0 9446

network_body.processors.0.normalizer.running_mean f4 [6]
-0.6496404 10.235778 0.0 1.3518177 5.086241 3.5440207
00000000: d54e 26bf bfc5 2341 0000 0000 5d08 ad3f
00000010: 7cc2 a240 3cd1 6240

network_body.processors.0.normalizer.running_variance f4 [6]
1.422266 4369.5303 1.0 87869.49 23263.514 19024.197
00000000: d00c b63f 3e8c 8845 0000 803f bf9e ab47
00000010: 07bf b546 65a0 9446

network_body._body_endoder.seq_layers.0.weight f4 [128, 6]
0.29995003 -0.33514795 0.3312277 0.5949053 0.21639125 0.011403615 0.09694272 -0.18165398
0.45588863 0.038346525 -0.104671195 0.72165936 -0.21073587 0.03839449 -0.781019 -0.9384303
-0.324551 -0.38983274 -0.029662559 0.62006557 0.25506192 0.10363555 -0.3625134 0.6848814
-0.08810894 -0.63447165 -0.14348343 -0.39752847 -0.31243086 0.092218176 -0.17207834 0.026727032
-0.09820763 -0.035018094 -0.61128366 -0.3373268 0.22283688 0.41533983 -0.30407682 -0.2872874
-0.15679392 0.028984496 -0.2501056 0.35942873 0.09974482 -0.23826645 0.19407041 -0.48824695
0.05997122 0.126829 0.015125584 -0.6997862 0.09788357 0.27415845 -0.31977046 -0.059756123
-0.43571776 0.41909122 0.5616604 0.43687588 -0.5341934 0.0494093 0.32863384 0.5850765
-0.056095246 0.34119406 -0.74437606 -0.36604276 -0.07786665 0.04264034 -0.24000934 0.40813366
0.6276009 0.20342088 0.6004981 -0.38909873 -0.50026816 0.0936639 -0.34361148 0.06754336
0.5945708 0.39159536 -0.47976354 0.33179176 0.25135246 -0.59523964 -0.41627446 -0.41189083
0.99259 0.121687956 0.4455392 -0.3862286 -0.282084 -0.11307035 0.19028829 -0.079466805
0.4050344 0.39719224 -0.426839 0.041563526 -0.11748457 -0.49388346 0.16856168 -0.76079804
0.22305404 -1.2734753 -0.4488274 -0.18917179 0.21932144 -0.77793205 0.052357085 0.5453038
-0.8502448 -0.1837202 0.54915375 -0.18568756 0.6118056 0.40086535 -0.13822788 0.44197288
0.08704392 -0.09153036 -0.90991336 -0.24715169 -0.47810572 -0.003207453 0.3013775 0.6711869
0.5873903 0.31686965 0.21579194 0.4085284 0.08890848 -0.5831954 0.24624482 0.2471448
-0.6670033 0.36957496 -0.40922973 0.055583596 0.5690673 -0.26797467 0.26483202 -0.9208729
-0.030039743 -0.12084604 -0.11412637 -0.56060916 -0.1809679 0.38438332 -1.0600234 0.12324186
-0.23800163 0.8254216 0.13805255 0.34497994 0.03032328 0.27120504 -0.14097455 0.46076795
-0.37817135 0.016226428 -0.17407331 0.34125093 0.1802054 0.26686835 -0.6159105 0.32803208
0.19322354 -0.7694829 -0.18075025 -0.6981705 -1.0911826 0.2072656 0.23183891 0.17054573
-0.037804436 -0.51699287 0.3898546 -0.23356162 -0.7517281 0.5257604 -0.21487567 0.16745186
0.016634185 0.3476199 -0.7550479 0.72421706 0.6991592 0.21739866 -0.115740955 -0.0898765
0.5929751 -0.3368317 -0.48787835 0.27491096 0.087683484 0.0047846395 0.17209761 0.83142686
0.14692846 0.036640488 -0.47281873 -0.19265093 0.44807893 0.42981178 -0.21893373 -0.1452591
-0.5255423 0.3856771 0.19464374 0.17028007 -0.36123696 -1.2785912 -0.14048322 0.3890356
0.042420875 0.8554963 -0.39121005 -0.32284376 -0.06246752 0.70639676 -0.2490595 0.01772502
-0.31356978 -0.12234373 -0.34442398 0.41738543 0.77545756 -0.7716112 -0.74796516 0.17723617
0.14754939 0.27691594 -0.23935686 0.01412537 -0.116086416 0.3844309 0.03611583 0.07706706
0.27277115 0.01651877 -0.08877242 0.3079863 0.29356083 0.039962314 0.055453643 0.47750393
0.8525526 -0.22666554 -0.025047926 -0.32402465 -0.07246418 -0.3290588 -0.01064358 0.008799719
00000000: 0d93 993e 8398 abbe ad96 a93e b74b 183f
00000010: ab95 5d3e 3ad6 3a3c e889 c63d 8003 3abe
00000020: 3c6a e93e 3f11 1d3d da5d d6bd abbe 383f
00000030: 25cb 57be 8a43 1d3d dcf0 47bf f83c 70bf
00000040: 8c2b a6be 2898 c7be e5fe f2bc 9ebc 1e3f
00000050: 7a97 823e e03e d43d 5b9b b9be 6354 2f3f
00000060: 7672 b4bd bc6c 22bf 52ed 12be da88 cbbe
00000070: f0f6 9fbe e2dc bc3d 4e35 30be a6f2 da3c
00000080: 1521 c9bd 226f 0fbd 167d 1cbf 19b6 acbe
00000090: 5a2f 643e 6ca7 d43e f5af 9bbe 5617 93be
000000a0: 968e 20be e570 ed3c d70d 80be 0b07 b83e
000000b0: 0347 cc3d 1ffc 73be 65ba 463e 81fb f9be
000000c0: 62a4 753d 76df 013e 4cd1 773c 3025 33bf
000000d0: 2e77 c83d 7f5e 8c3e f4b8 a3be d6c2 74bd
000000e0: 6616 dfbe 2093 d63e fac8 0f3f 32ae df3e
000000f0: e6c0 08bf 6861 4a3d b242 a83e 93c7 153f
00000100: 21c4 65bd fdb0 ae3e 6e8f 3ebf f569 bbbe
00000110: 8d78 9fbd a3a7 2e3d 02c5 75be e5f6 d03e
00000120: 74aa 203f 904d 503e 3eba 193f f337 c7be
00000130: 9311 00bf dcd2 bf3d d8ed afbe 2c54 8a3d
00000140: cb35 183f 307f c83e 91a3 f5be 9ce0 a93e
00000150: 45b1 803e a061 18bf ed21 d5be 5be3 d2be
00000160: 611a 7e3f 8937 f93d b71d e43e c1bf c5be
00000170: 506d 90be 6d91 e7bd efda 423e 7ebf a2bd
00000180: ab60 cf3e c85c cb3e a48a dabe 843e 2a3d
00000190: c09b f0bd 4bde fcbe 6f9b 2c3e a9c3 42bf
000001a0: 4768 643e 3d01 a3bf b4cc e5be 40b6 41be
000001b0: cd95 603e 8e26 47bf 6274 563d 0899 0b3f
000001c0: a5a9 59bf 2621 3cbe 5795 0c3f e124 3ebe
000001d0: 4b9f 1c3f 393e cd3e 9c8b 0dbe 454a e23e
000001e0: 1544 b23d 4574 bbbd 15f0 68bf 5515 7dbe
000001f0: 46ca f4be 2234 52bb 274e 9a3e e8d2 2b3f
00000200: 365f 163f bd3c a23e 90f8 5c3e a22a d13e
00000210: a615 b63d 4b4c 15bf 9a27 7c3e 8713 7d3e
00000220: bac0 2abf ee38 bd3e 8f86 d1be a0ab 633d
00000230: 65ae 113f fa33 89be 1098 873e 54be 6bbf
00000240: e815 f6bc 217e f7bd 16bb e9bd 1584 0fbf
00000250: a64f 39be e4cd c43e d9ae 87bf 3a66 fc3d
00000260: b3b6 73be d44e 533f a65d 0d3e 36a1 b03e
00000270: 8768 f83c 63db 8a3e a25b 10be c7e9 eb3e
00000280: ad9f c1be 49ed 843c 4640 32be 71b8 ae3e
00000290: c487 383e f8a2 883e 4fac 1dbf d2f3 a73e
000002a0: 64dc 453e d5fc 44bf 9816 39be 4dbb 32bf
000002b0: dfab 8bbf 6f3d 543e 2e67 6d3e 8aa3 2e3e
000002c0: d3d8 1abd a559 04bf 069b c73e c72a 6fbe
000002d0: 4171 40bf 3c98 063f 5e08 5cbe 8078 2b3e
000002e0: 6a44 883c 3cfb b13e d24a 41bf 4a66 393f
000002f0: 19fc 323f c19d 5e3e 9809 edbd 2c11 b8bd
00000300: 37cd 173f 3475 acbe 31cb f9be 21c1 8c3e
00000310: 6693 b33d 77c8 9c3b 5b3a 303e 64d8 543f
00000320: 6a74 163e 5614 163d 4c15 f2be 4946 45be
00000330: 9a6a e53e 4a10 dc3e 2a30 60be cdbe 14be
00000340: f189 06bf 7877 c53e b050 473e e65d 2e3e
00000350: 0df4 b8be e0a8 a3bf d5da 0fbe ad2f c73e
00000360: 83c1 2d3d ce01 5b3f af4c c8be c74b a5be
00000370: f1dd 7fbd 6bd6 343f 7409 7fbe 1034 913c
00000380: 388c a0be 598f fabd 5758 b0be 8bb3 d53e
00000390: 6384 463f 5088 45bf a57a 3fbf 667d 353e
000003a0: 3017 173e edc7 8d3e f719 75be 196e 673c
000003b0: b7be edbd 20d4 c43e 31ee 133d 56d5 9d3d
000003c0: a9a8 8b3e 5f52 873c 51ce b5bd 61b0 9d3e
000003d0: 9b4d 963e 86af 233d 5c23 633d 657b f43e
000003e0: e340 5a3f 031b 68be 4f31 cdbc 8fe6 a5be
000003f0: 1a68 94bd 657a a8be 6962 2ebc b22c 103c

network_body._body_endoder.seq_layers.0.bias f4 [128]
0.0 0.0 0.0 0.0 0.0 0.0 0.0 0.0
0.0 0.0 0.0 0.0 0.0 0.0 0.0 0.0
0.0 0.0 0.0 0.0 0.0 0.0 0.0 0.0
0.0 0.0 0.0 0.0 0.0 0.0 0.0 0.0
0.0 0.0 0.0 0.0 0.0 0.0 0.0 0.0
0.0 0.0 0.0 0.0 0.0 0.0 0.0 0.0
0.0 0.0 0.0 0.0 0.0 0.0 0.0 0.0
0.0 0.0 0.0 0.0 0.0 0.0 0.0 0.0
0.0 0.0 0.0 0.0 0.0 0.0 0.0 0.0
0.0 0.0 0.0 0.0 0.0 0.0 0.0 0.0
0.0 0.0 0.0 0.0 0.0 0.0 0.0 0.0
0.0 0.0 0.0 0.0 0.0 0.0 0.0 0.0
0.0 0.0 0.0 0.0 0.0 0.0 0.0 0.0
0.0 0.0 0.0 0.0 0.0 0.0 0.0 0.0
0.0 0.0 0.0 0.0 0.0 0.0 0.0 0.0
0.0 0.0 0.0 0.0 0.0 0.0 0.0 0.0
00000000: 0000 0000 0000 0000 0000 0000 0000 0000
00000010: 0000 0000 0000 0000 0000 0000 0000 0000
00000020: 0000 0000 0000 0000 0000 0000 0000 0000
00000030: 0000 0000 0000 0000 0000 0000 0000 0000
00000040: 0000 0000 0000 0000 0000 0000 0000 0000
00000050: 0000 0000 0000 0000 0000 0000 0000 0000
00000060: 0000 0000 0000 0000 0000 0000 0000 0000
00000070: 0000 0000 0000 0000 0000 0000 0000 0000
00000080: 0000 0000 0000 0000 0000 0000 0000 0000
00000090: 0000 0000 0000 0000 0000 0000 0000 0000
000000a0: 0000 0000 0000 0000 0000 0000 0000 0000
000000b0: 0000 0000 0000 0000 0000 0000 0000 0000
000000c0: 0000 0000 0000 0000 0000 0000 0000 0000
000000d0: 0000 0000 0000 0000 0000 0000 0000 0000
000000e0: 0000 0000 0000 0000 0000 0000 0000 0000
000000f0: 0000 0000 0000 0000 0000 0000 0000 0000
00000100: 0000 0000 0000 0000 0000 0000 0000 0000
00000110: 0000 0000 0000 0000 0000 0000 0000 0000
00000120: 0000 0000 0000 0000 0000 0000 0000 0000
00000130: 0000 0000 0000 0000 0000 0000 0000 0000
00000140: 0000 0000 0000 0000 0000 0000 0000 0000
00000150: 0000 0000 0000 0000 0000 0000 0000 0000
00000160: 0000 0000 0000 0000 0000 0000 0000 0000
00000170: 0000 0000 0000 0000 0000 0000 0000 0000
00000180: 0000 0000 0000 0000 0000 0000 0000 0000
00000190: 0000 0000 0000 0000 0000 0000 0000 0000
000001a0: 0000 0000 0000 0000 0000 0000 0000 0000
000001b0: 0000 0000 0000 0000 0000 0000 0000 0000
000001c0: 0000 0000 0000 0000 0000 0000 0000 0000
000001d0: 0000 0000 0000 0000 0000 0000 0000 0000
000001e0: 0000 0000 0000 0000 0000 0000 0000 0000
000001f0: 0000 0000 0000 0000 0000 0000 0000 0000

network_body._body_endoder.seq_layers.2.weight f4 [128, 128]
-0.06937061 0.06768752 0.1825292 -0.04119082 -0.0681724 0.13576876 -0.019527597 0.20957252
0.0015117712 -0.10976429 -0.20349737 0.03512424 -0.056633417 -0.14941654 0.0511462 -0.1460229
0.025516879 -0.05891731 -0.119658366 0.061330523 -0.018575845 -0.056987125 0.044540226 0.06683992
-0.02717374 -0.107311666 -0.07813096 -0.0028024658 -0.12368736 -0.06649704 0.09885525 -0.049920846
0.110952474 -0.018092208 0.09150799 0.027700664 0.07116576 -0.023671305 0.030117532 0.0065280707
-0.062354296 0.10581052 -0.0675801 -0.1089439 -0.09809387 0.07358686 -0.05448851 -0.012941966
-0.1634865 0.08265454 0.14629163 -0.06761005 0.065091215 -0.09743609 -0.075799465 -0.060054258
-0.03128609 0.09469626 -0.122597404 0.0045041386 -0.08576717 -0.0157176 -0.09789235 -0.0062074848
0.007813218 0.102472655 0.18549694 0.024766484 -0.0943141 -0.07830467 0.1319404 0.035861924
-0.12052332 -0.07169348 0.06157601 0.14541738 -0.01472773 -0.10487916 -0.15081424 0.110383436
-0.053793117 -0.0058378098 0.039383292 0.12439093 0.016503856 -0.039575737 -0.018516747 0.015226415
0.01600828 -0.115427874 -0.017096855 0.10290429 0.017570773 -0.017394707 0.004087983 0.02835015
0.031159598 0.0832307 0.056578383 -0.089354426 0.104674555 -0.058694515 -0.027546927 -0.1879715
-0.008321033 0.017146466 -0.3006738 -0.1305461 0.041010734 -0.11247203 0.09984791 0.12722374
-0.054096792 -0.1267511 -0.036955453 0.04420051 -0.12769206 0.018805249 -0.086101234 -0.04807908
0.23390716 -0.10051191 -0.013234127 0.0008150825 0.08008843 0.02760787 0.022904534 0.025885696
0.069443636 -0.057042982 0.048372015 0.054461088 -0.030859701 -0.02024552 0.029259363 -0.21532966
0.04912304 0.089517534 -0.035809655 -0.07854177 -0.123066 -0.05991847 0.088076256 0.14805213
0.0120336795 0.032567076 0.17439674 0.22776687 -0.05703445 0.122974664 0.024674352 -0.044764668
-0.014654813 -0.008973318 -0.032803543 0.016525386 0.05950793 -0.011136063 -0.025718087 -0.042539172
-0.06328565 -0.1698776 0.05979953 0.0066329734 -0.024561146 -0.054854706 -0.015899643 0.043389767
0.09614097 0.12924565 -0.09467808 -0.047816906 -0.0021527004 0.17233868 -0.06614394 -0.07395187
-0.24226606 0.21116495 0.0076081343 -0.031231713 -0.029902577 -0.08603769 0.05186607 0.030003008
-0.15768643 -0.030980716 -0.08151772 0.03416375 0.098122686 0.10590679 0.04590145 0.06762521
0.0017252233 -0.08189776 0.015530891 -0.03834473 -0.062456872 -0.06612391 -0.10378849 -0.14926282
0.03432249 -0.04969005 -0.12335491 -0.09565724 -0.07939067 0.05755884 0.04434913 0.04205295
0.003220226 -0.089861654 0.0020326797 0.21457091 -0.01607051 -0.030207932 0.06917814 -0.052705623
0.10301383 -0.04758545 -0.013014996 0.036895264 -0.08852334 0.017294213 0.05310549 -0.012286359
-0.0912122 -0.051164594 -0.09734228 0.06288258 0.022982365 0.12631132 -0.04993581 0.06837929
-0.16248897 0.031869177 -0.10790283 0.08692366 0.018207505 0.029289698 0.07310367 -0.12807466
-0.05037088 0.0031437478 0.12077562 -0.09161863 -0.02700833 0.008589445 0.037160244 0.017868292
-0.040607378 -0.05717508 -0.091347836 -0.03687757 -0.0073206215 -0.19901162 -0.11945166 0.21180631
00000000: 2e12 8ebd c19f 8a3d efe8 3a3e b5b7 28bd
00000010: f99d 8bbd f706 0b3e 57f8 9fbc 2e9a 563e
00000020: a026 c63a 1acc e0bd 9d61 50be 6fde 0f3d
00000030: 71f8 67bd a600 19be ae7e 513d 0787 15be
00000040: c608 d13c 4753 71bd 720f f5bd b735 7b3d
00000050: 5f2c 98bc 556b 69bd d06f 363d 5ee3 883d
00000060: 779b debc 38c6 dbbd 2003 a0bd 93a9 37bb
00000070: cc4f fdbd 9a2f 88bd 9f74 ca3d cd79 4cbd
00000080: 0d3b e33d 1c36 94bc 8b68 bb3d 81ec e23c
00000090: 5bbf 913d 53ea c1bc 0bb9 f63c 6de9 d53b
000000a0: 3867 7fbd 30b3 d83d 6f67 8abd fb1d dfbd
000000b0: 70e5 c8bd b5b4 963d 582f 5fbd 8a0a 54bc
000000c0: 0169 27be c946 a93d 79cd 153e 2377 8abd
000000d0: 8b4e 853d 938c c7bd c03c 9bbd 74fb 75bd
000000e0: d825 00bd 1df0 c13d 5914 fbbd 7497 933b
000000f0: b3a6 afbd 32c2 80bc c97b c8bd 2868 cbbb
00000100: 0303 003c 2fdd d13d e9f2 3d3e 15e3 ca3c
00000110: c027 c1bd 335e a0bd 621b 073e f4e3 123d
00000120: eed4 f6bd 08d4 92bd 2037 7c3d 4be8 143e
00000130: 944c 71bc e3ca d6bd 0c6f 1abe b610 e23d
00000140: 2c56 5cbd 194b bfbb 6050 213d acc0 fe3d
00000150: 1833 873c 2b1a 22bd 6fb0 97bc 3778 793c
00000160: cc23 833c 7365 ecbd b40e 8cbc 7cbf d23d
00000170: 95f0 8f3c 587f 8ebc 7df4 853b 933e e83c
00000180: 6a42 ff3c db74 aa3d bcbe 673d 74ff b6bd
00000190: 9d5f d63d a969 70bd 18aa e1bc 9a7b 40be
000001a0: f154 08bc bf76 8c3c ebf1 99be e0ad 05be
000001b0: dffa 273d bc57 e6bd 107d cc3d f146 023e
000001c0: 9994 5dbd 0acb 01be 9a5e 17bd 980b 353d
000001d0: b5c1 02be 770d 9a3c d855 b0bd 92ee 44bd
000001e0: 5c85 6f3e 30d9 cdbd f4d3 58bc 43ab 553a
000001f0: 6705 a43d e629 e23c 4aa2 bb3c 3d0e d43c
00000200: 7738 8e3d e7a5 69bd bc21 463d 9712 5f3d
00000210: 7ccd fcbc efd9 a5bc 55b1 ef3c 617f 5cbe
00000220: 3e35 493d f854 b73d 25ad 12bd 82da a0bd
00000230: 070a fcbd 126d 75bd 5361 b43d fa9a 173e
00000240: e928 453c 0e65 053d 0f95 323e b83b 693e
00000250: f59c 69bd 24da fb3d de21 ca3c 285b 37bd
00000260: be1a 70bc d304 13bc 025d 06bd 3f60 873c
00000270: 96be 733d 0974 36bc bdae d2bc 8e3d 2ebd
00000280: e89b 81bd 65f4 2dbe 5af0 743d 6a59 d93b
00000290: 7534 c9bc 54af 60bd f83f 82bc 78b9 313d
000002a0: 8fe5 c43d f958 043e 95e6 c1bd a9db 43bd
000002b0: 5214 0dbb 8d79 303e 7976 87bd 1474 97bd
000002c0: 9814 78be a03b 583e a84d f93b a6d9 ffbc
000002d0: 40f6 f4bc 8734 b0bd 8471 543d dec8 f53c
000002e0: 8d78 21be 45cb fdbc c3f2 a6bd 4aef 0b3d
000002f0: 8cf4 c83d a9e5 d83d 2903 3c3d 167f 8a3d
00000300: e320 e23a 03ba a7bd 4775 7e3c 5d0f 1dbd
00000310: c7d2 7fbd f96b 87bd 0f8f d4bd 5ad8 18be
00000320: bd95 0c3d cb87 4bbd 80a1 fcbd f1e7 c3bd
00000330: 9397 a2bd d1c2 6b3d 6fa7 353d b73f 2c3d
00000340: 6d0a 533b 6309 b8bd b536 053b 7ab8 5b3e
00000350: 4da6 83bc a076 f7bc 45ad 8d3d dae1 57bd
00000360: eaf8 d23d f6e8 42bd da3c 55bc 7d1f 173d
00000370: ba4b b5bd 98ac 8d3c 2485 593d ba4c 49bc
00000380: 76cd babd f791 51bd 645b c7bd 95c8 803d
00000390: 8345 bc3c c157 013e 7e89 4cbd 710a 8c3d
000003a0: 8263 26be 4189 023d 29fc dcbd 0805 b23d
000003b0: e827 953c f3f0 ef3c 60b7 953d 0126 03be
000003c0: b251 4ebd 5607 4e3b 3559 f73d 8ca2 bbbd
000003d0: 9340 ddbc beba 0c3c 5735 183d 8660 923c
000003e0: ec53 26bd 6b30 6abd 9314 bbbd ef0c 17bd
000003f0: d3e1 efbb b4c9 4bbe 12a3 f4bd c1e3 583e

network_body._body_endoder.seq_layers.2.bias f4 [128]
0.0 0.0 0.0 0.0 0.0 0.0 0.0 0.0
0.0 0.0 0.0 0.0 0.0 0.0 0.0 0.0
0.0 0.0 0.0 0.0 0.0 0.0 0.0 0.0
0.0 0.0 0.0 0.0 0.0 0.0 0.0 0.0
0.0 0.0 0.0 0.0 0.0 0.0 0.0 0.0
0.0 0.0 0.0 0.0 0.0 0.0 0.0 0.0
0.0 0.0 0.0 0.0 0.0 0.0 0.0 0.0
0.0 0.0 0.0 0.0 0.0 0.0 0.0 0.0
0.0 0.0 0.0 0.0 0.0 0.0 0.0 0.0
0.0 0.0 0.0 0.0 0.0 0.0 0.0 0.0
0.0 0.0 0.0 0.0 0.0 0.0 0.0 0.0
0.0 0.0 0.0 0.0 0.0 0.0 0.0 0.0
0.0 0.0 0.0 0.0 0.0 0.0 0.0 0.0
0.0 0.0 0.0 0.0 0.0 0.0 0.0 0.0
0.0 0.0 0.0 0.0 0.0 0.0 0.0 0.0
0.0 0.0 0.0 0.0 0.0 0.0 0.0 0.0
00000000: 0000 0000 0000 0000 0000 0000 0000 0000
00000010: 0000 0000 0000 0000 0000 0000 0000 0000
00000020: 0000 0000 0000 0000 0000 0000 0000 0000
00000030: 0000 0000 0000 0000 0000 0000 0000 0000
00000040: 0000 0000 0000 0000 0000 0000 0000 0000
00000050: 0000 0000 0000 0000 0000 0000 0000 0000
00000060: 0000 0000 0000 0000 0000 0000 0000 0000
00000070: 0000 0000 0000 0000 0000 0000 0000 0000
00000080: 0000 0000 0000 0000 0000 0000 0000 0000
00000090: 0000 0000 0000 0000 0000 0000 0000 0000
000000a0: 0000 0000 0000 0000 0000 0000 0000 0000
000000b0: 0000 0000 0000 0000 0000 0000 0000 0000
000000c0: 0000 0000 0000 0000 0000 0000 0000 0000
000000d0: 0000 0000 0000 0000 0000 0000 0000 0000
000000e0: 0000 0000 0000 0000 0000 0000 0000 0000
000000f0: 0000 0000 0000 0000 0000 0000 0000 0000
00000100: 0000 0000 0000 0000 0000 0000 0000 0000
00000110: 0000 0000 0000 0000 0000 0000 0000 0000
00000120: 0000 0000 0000 0000 0000 0000 0000 0000
00000130: 0000 0000 0000 0000 0000 0000 0000 0000
00000140: 0000 0000 0000 0000 0000 0000 0000 0000
00000150: 0000 0000 0000 0000 0000 0000 0000 0000
00000160: 0000 0000 0000 0000 0000 0000 0000 0000
00000170: 0000 0000 0000 0000 0000 0000 0000 0000
00000180: 0000 0000 0000 0000 0000 0000 0000 0000
00000190: 0000 0000 0000 0000 0000 0000 0000 0000
000001a0: 0000 0000 0000 0000 0000 0000 0000 0000
000001b0: 0000 0000 0000 0000 0000 0000 0000 0000
000001c0: 0000 0000 0000 0000 0000 0000 0000 0000
000001d0: 0000 0000 0000 0000 0000 0000 0000 0000
000001e0: 0000 0000 0000 0000 0000 0000 0000 0000
000001f0: 0000 0000 0000 0000 0000 0000 0000 0000

action_model._discrete_distribution.branches.0.weight f4 [2, 128]
-0.0060105207 -0.02179218 -0.0052588065 -0.0021249014 0.0031670742 0.0114653995 -0.005797412 0.010656786
-0.003865417 0.0076806745 -0.0012031456 -0.017803064 0.0047432184 -0.007693257 -0.004845844 -0.0063914307
0.011454637 -0.008533759 -0.0034663368 -0.0038861742 0.013504162 0.012425723 -0.012096467 0.017194321
-0.00362828 -0.0027084646 0.01159341 -0.0059503703 0.010601488 0.0045299437 -0.0065792897 -0.010968923
0.0010466384 0.01176645 0.0077438573 0.008392694 -0.001416597 -0.012158287 0.013165908 -0.011494241
-0.00083066087 0.0074315155 -0.009273637 -1.9059846e-05 -0.006538992 0.006276186 -0.0023831958 0.004520498
-0.006148849 0.0020660246 -0.011999786 0.004360947 0.0062029613 0.0023244347 0.0025513934 -0.0041402406
-0.0008683687 0.00032231407 0.016205162 0.004306085 -0.000991838 -0.0007561368 -0.00067195867 -0.0132874055
-0.0011915648 0.006255071 -0.004844587 0.009929887 -0.002906728 -0.0026459831 -0.0065596774 0.017473875
-0.010805244 -0.010024845 0.0055463086 0.008385257 -0.00062026555 0.0129257385 0.001285484 -0.0018330014
0.008291979 0.00025814676 -0.005760615 0.009863238 -0.009306648 0.0054524383 0.002570507 0.002487571
-0.011299013 0.016396105 0.0092858365 0.01215924 -0.003177924 -0.007828601 0.0013936127 0.0076359645
-0.012095555 0.004223339 -0.00903332 -0.01746296 -0.0083264755 -0.006055283 -0.007590124 -0.0004645831
-0.004820622 -0.0058726803 -0.00082611706 0.002160242 -0.00075553777 -0.016250568 0.0052447235 -0.00055914244
0.0027931721 0.026597375 -0.00087804685 0.007618914 0.010076832 0.0008735593 0.0003174045 0.0057375673
-0.0028228853 -0.01277703 0.0062083476 -0.0035630749 -0.022442756 0.0122493645 -0.00282846 -0.0028931925
0.003409688 0.012744759 -0.0072996328 0.00073938695 -0.0011816255 -0.004837775 -0.008449294 -8.099944e-05
-0.0070178285 0.02958537 0.015409495 0.0031219248 -0.002924415 -0.0032252313 0.0015056574 0.0058402116
-0.0061957752 0.0048815897 -0.0042379783 -0.0121863885 0.009333894 -0.0032153425 -0.011723757 -0.0005713134
0.004614285 -0.011610106 0.008959054 0.003547929 0.010349826 0.0019465818 -0.0067976466 -0.012160634
-0.0028065962 -0.00095869595 0.0017177294 -0.012428552 -0.013564247 -0.0022617204 -0.0063739554 0.011795473
-0.0041452837 -0.0020325219 -0.016192256 -0.0006369698 0.003972937 -0.0053776875 -0.009104191 -0.0032565717
-0.009324226 -0.015247866 0.0029527624 -0.016845023 0.00097074633 0.0017547712 0.0024007305 -0.00309451
0.0005418741 -0.010722845 -0.007795285 -0.002379677 0.0011178361 0.015903765 -0.0058195866 -0.013326588
0.00017072435 -0.008353667 -0.00035580137 0.0046763564 0.007413027 -0.0024257728 -0.0027085212 -0.0041540903
0.008084654 -0.013766684 -0.008997565 0.00148915 -0.0010061705 -0.0072896066 -0.0014773689 0.00010312372
-0.0005941548 0.010754599 -0.010767186 0.01038311 -0.002692458 -0.0025185107 -0.007446583 -0.0005903269
0.008850577 -0.0034941365 -0.008396733 -0.010437849 -0.016527716 -0.0026486893 -0.0009333758 0.013398135
0.001830506 -0.0119419955 0.008950136 0.0002583487 0.006411767 0.0044815917 0.0035920613 0.006891726
0.008222715 -0.0027815453 -0.0019528508 -0.005174906 0.010429483 0.0024194934 -0.0015245796 -0.009662997
0.005510573 -0.00049127615 -0.019774167 -0.003411103 0.010779885 0.009936283 -0.005338455 -0.0051270467
-0.0010006399 0.009876062 0.008046943 0.003989722 -0.0031377324 -0.0154250115 -0.0032746796 0.003083113
00000000: e7f3 c4bb 8485 b2bc 1152 acbb ee41 0bbb
00000010: b08e 4f3b 5fd9 3b3c 37f8 bdbb cd99 2e3c
00000020: f052 7dbb 2bae fb3b deb2 9dba bbd7 91bc
00000030: 006d 9b3b b817 fcbb e3c9 9ebb 356f d1bb
00000040: 3bac 3b3c 2ed1 0bbc 7b2b 63bb 2faf 7ebb
00000050: 9040 5d3c 4295 4b3c 4330 46bc 1bdb 8c3c
00000060: 70c8 6dbb 7f80 31bb 49f2 3d3c 53fb c2bb
00000070: ddb1 2d3c ec6f 943b 1597 d7bb ffb6 33bc
00000080: 5b2f 893a 11c8 403c 2fc0 fd3b 8381 093c
00000090: 1cad b9ba 8d33 47bc d2b5 573c 5752 3cbc
000000a0: b5c0 59ba 1284 f33b 74f0 17bc b5e2 9fb7
000000b0: 0a45 d6bb 77a8 cd3b 642f 1cbb b020 943b
000000c0: 497c c9bb 2466 073b c09a 44bc 46e6 8e3b
000000d0: 3642 cb3b 8b55 183b 4735 273b dbaa 87bb
000000e0: 3da3 63ba 43fc a839 b0c0 843c 0f1a 8d3b
000000f0: 9000 82ba 7b37 46ba 6226 30ba 6bb3 59bc
00000100: 482e 9cba 57f7 cc3b 57bf 9ebb f7b0 223c
00000110: ce7e 3ebb 3b68 2dbb 90f2 d6bb 5f25 8f3c
00000120: 7a08 31bc 3f3f 24bc cfbd b53b 5162 093c
00000130: 5199 22ba 7ac6 533c af7d a83a 5241 f0ba
00000140: 15db 073c df57 8739 8bc3 bcbb 6b99 213c
00000150: e97a 18bc 5eaa b23b f375 283b 8406 233b
00000160: 7f1f 39bc 2051 863c 9f23 183c 8d37 473c
00000170: b844 50bb 8843 00bc e2a9 b63a 1d37 fa3b
00000180: 6f2c 46bc ef63 8a3b 7d00 14bc 7b0e 8fbc
00000190: c56b 08bc 656b c6bb 93b6 f8bb 4a93 f3b9
000001a0: 4ff6 9dbb 9d6f c0bb c78f 58ba d992 0d3b
000001b0: 480f 46ba e91f 85bc eedb ab3b 6a93 12ba
000001c0: a70d 373b bde2 d93c ba2c 66ba 15a8 f93b
000001d0: 4c19 253c 92ff 643a 5069 a639 3402 bc3b
000001e0: 2800 39bb bf56 51bc 656f cb3b 7a82 69bb
000001f0: dfd9 b7bc 8fb1 483c af5d 39bb b79b 3dbb
00000200: 1275 5f3b 65cf 503c c231 efbb 6bd3 413a
00000210: c6e0 9aba 3386 9ebb e86e 0abc 3ede a9b8
00000220: d0f5 e5bb 055d f23c 1b78 7c3c 3599 4c3b
00000230: 8ba7 3fbb 675e 53bb 7b59 c53a 3f5f bf3b
00000240: ee05 cbbb bef5 9f3b bdde 8abb 6ba9 47bc
00000250: 30ed 183c 7fb8 52bb 0015 40bc 31c4 15ba
00000260: 6e33 973b 5038 3ebc ffc8 123c 5f84 683b
00000270: 5192 293c 7224 ff3a cbbe debb 653d 47bc
00000280: dfee 37bb ff50 7bba 6f25 e13a 20a1 4bbc
00000290: 933c 5ebc 5f39 14bb 9ddc d0bb cd41 413c
000002a0: 29d5 87bb 0f34 05bb 9fa5 84bc 52fa 26ba
000002b0: 692f 823b 5037 b0bb bf29 15bc 356c 55bb
000002c0: a3c4 18bc 2fd2 79bc 2283 413b 93fe 89bc
000002d0: af79 7e3a 5a00 e63a 9355 1d3b 43cd 4abb
000002e0: 8e0c 0e3a dfae 2fbc 976f ffbb 5bf4 1bbb
000002f0: 5b84 923a 9d48 823c 3bb2 bebb c357 5abc
00000300: 7804 3339 d2dd 08bc da8a bab9 1f3c 993b
00000310: fae8 f23b b7f9 1ebb 7281 31bb 091f 88bb
00000320: 7f75 043c a88d 61bc 866a 13bc 952f c33a
00000330: 7be1 83ba a7dd eebb 46a4 c1ba 2044 d838
00000340: 0ec1 1bba 0f34 303c da68 30bc eb1d 2a3c
00000350: f373 30bb 990d 25bb 7702 f4bb 2bc0 1aba
00000360: 0302 113c e2fd 64bb 7392 09bc 8303 2bbc
00000370: 2265 87bc a295 2dbb caad 74ba da83 5b3c
00000380: 97ed ef3a 5ca8 43bc 97a3 123c fa72 8739
00000390: cd19 d23b 51da 923b ca68 6b3b fdd3 e13b
000003a0: 91b8 063c 964a 36bb cdf6 ffba 4292 a9bb
000003b0: 6ce0 2a3c 5d90 1e3b 67d4 c7ba 8c51 1ebc
000003c0: 0992 b43b fcc8 00ba 6ffd a1bc d08c 5fbb
000003d0: 1d9e 303c cbcb 223c 35ee aebb c900 a8bb
000003e0: e727 83ba 35cf 213c 53d7 033c 37bc 823b
000003f0: 6aa2 4dbb 30b9 7cbc 029c 56bb 0e0e 4a3b

action_model._discrete_distribution.branches.0.bias f4 [2]
0.0 0.0
00000000: 0000 0000 0000 0000

network_body.observation_encoder.processors.0.normalizer.running_mean f4 [6]
-0.6496404 10.235778 0.0 1.3518177 5.086241 3.5440207
00000000: d54e 26bf bfc5 2341 0000 0000 5d08 ad3f
00000010: 7cc2 a240 3cd1 6240

network_body.observation_encoder.processors.0.normalizer.running_variance f4 [6]
1.422266 4369.5303 1.0 87869.49 23263.514 19024.197
00000000: d00c b63f 3e8c 8845 0000 803f bf9e ab47
00000010: 07bf b546 65a0 9446

network_body.processors.0.normalizer.running_mean f4 [6]
-0.6496404 10.235778 0.0 1.3518177 5.086241 3.5440207
00000000: d54e 26bf bfc5 2341 0000 0000 5d08 ad3f
00000010: 7cc2 a240 3cd1 6240

network_body.processors.0.normalizer.running_variance f4 [6]
1.422266 4369.5303 1.0 87869.49 23263.514 19024.197
00000000: d00c b63f 3e8c 8845 0000 803f bf9e ab47
00000010: 07bf b546 65a0 9446

network_body._body_endoder.seq_layers.0.weight f4 [128, 6]
0.09589238 -0.004800388 -0.0063431566 -0.07615126 0.3223448 -0.07946716 0.010760534 0.29413083
-0.70573986 -0.26824984 -0.029990725 0.2501949 0.18153189 0.23895341 0.37213808 -0.19527948
-0.08015468 -0.98957783 0.11503685 0.29721913 -0.100201875 0.06233237 -0.33299422 0.18855973
-0.32742408 -0.24071644 -0.23397607 -0.34835443 0.64657557 -0.20646368 -0.09384183 -0.24800056
-0.5493186 0.30428758 -0.19392844 0.32266405 0.45044303 0.6061459 -0.04515276 0.17946732
0.25986797 0.48669505 -0.029997211 -0.029594831 -0.47840354 -0.2551841 0.6009864 -0.7698194
-0.274711 -0.8615494 -0.23184925 0.19992064 -0.13608277 0.10616329 -0.046080235 -0.78381574
-0.061799888 0.24471615 0.4179978 -0.26240617 0.9564299 -0.71140575 -0.59463185 0.16669984
-0.369025 -0.039369226 -0.12298208 -0.45495057 -0.09621514 -0.66531456 0.1637867 0.6466819
-0.58847934 0.6125006 -0.062706426 0.09087682 0.044483557 -0.07099243 -0.6277537 0.72715986
0.66878957 -0.09707537 -0.093749404 -0.6295359 -0.6209845 1.4500211 -0.21938473 -0.455679
-0.8016437 0.32651204 -0.49763423 0.6883062 0.019442115 -0.19803117 0.34242582 0.03531802
0.29187432 0.7196296 0.15081821 -0.011854616 -0.390359 -0.024378305 0.09912672 0.07664365
0.13973759 0.15504894 -0.12503296 0.43252778 0.46276653 1.0656772 0.13537368 -0.25382677
-0.09507996 0.031222247 -0.10091417 0.22134888 0.37925 0.39845747 0.32146674 -0.39656553
-0.53999174 -0.35892382 0.29040948 -0.17495416 0.108593725 -0.5915811 0.28736246 -0.22875427
-0.112761505 -0.11723273 -0.07867712 0.28253204 0.21712518 0.26847664 0.53857094 0.2944367
-0.19285248 -0.030673247 0.3121851 0.5990486 -0.20617391 -0.7694573 0.473673 -0.046860565
-0.5067884 0.39340532 -1.2054336 -0.0840561 0.4081362 -0.16841148 0.01307262 -0.40382147
-0.6383771 0.1666528 -0.21210343 0.55921966 -0.23519644 -0.06499714 -0.3042341 -0.52676004
-0.6397642 0.30572942 -0.41193366 0.03221766 0.06824466 -0.50330544 -0.28822878 0.37798226
0.041268505 0.07700495 0.34003162 0.07893844 -0.8172396 -0.24390547 0.20915444 0.39663023
0.1300845 0.95426565 -0.6874239 -0.8109305 0.16877516 0.028952138 0.22876601 -0.1942109
-0.41932112 -0.077935115 0.025875049 0.17095411 0.32448933 0.43469867 0.20470108 -0.86976683
0.10643174 0.34456894 -0.24854371 -0.2656311 -0.4831686 -0.11621097 0.19562013 0.07654607
-0.49058527 0.26089025 0.64412206 0.29126185 -0.05665741 -0.0115819145 -0.13499103 0.3440344
-0.6828993 -0.2710208 0.18874803 0.38926885 0.04048458 -0.19184169 -0.5454293 0.39983276
0.11119294 0.39825273 0.11605099 -0.3101578 0.03386305 -0.060735807 -0.07185241 0.14608258
0.08543755 -0.3950562 0.51534826 0.025396228 -0.62121236 -0.0902482 -0.3488309 0.4778624
0.48628655 0.6842821 0.6303772 0.29524228 -0.3251007 0.16750109 0.24284439 0.22251824
-0.36144394 0.49524382 0.08238126 0.10553717 -0.21526994 -0.36902052 -0.20135744 -0.45794106
-0.61515933 0.04427987 -0.076867014 -0.30217338 0.3248506 0.2607896 -0.015238121 0.07985588
00000000: 3963 c43d 934c 9dbb 41da cfbb 31f5 9bbd
00000010: 610a a53e aebf a2bd f34c 303c 5198 963e
00000020: 5eab 34bf 0b58 89be 1caf f5bc 8c19 803e
00000030: 7fe3 393e 34b0 743e e288 be3e 58f7 47be
00000040: 2328 a4bd f954 7dbf 7198 eb3d 1b2d 983e
00000050: a436 cdbd 3a50 7f3d 387e aabe cd15 413e
00000060: 21a4 a7be 5f7e 76be 6c97 6fbe 835b b2be
00000070: fa85 253f 376b 53be 2530 c0bd dcf3 7dbe
00000080: 25a0 0cbf 95cb 9b3e 2d95 46be 3934 a53e
00000090: 78a0 e63e 612c 1b3f 1af2 38bd 48c6 373e
000000a0: 6a0d 853e 1830 f93e b6bc f5bc dc70 f2bc
000000b0: 4ff1 f4be 7ea7 82be 3fda 193f e212 45bf
000000c0: eca6 8cbe 808e 5cbf e469 6dbe ffb7 4c3e
000000d0: 4859 0bbe 246c d93d a1be 3cbd 26a8 48bf
000000e0: e121 7dbd df96 7a3e cf03 d63e 1a5a 86be
000000f0: 97d8 743f b01e 36bf cb39 18bf 5db3 2a3e
00000100: d8f0 bcbe a041 21bd 07de fbbd 48ef e8be
00000110: 710c c5bd 0e52 2abf b3b7 273e f28c 253f
00000120: 95a6 16bf d7cc 1c3f 3a6c 80bd a01d ba3d
00000130: 6434 363d 7b64 91bd 77b4 20bf 2627 3a3f
00000140: cb35 2b3f 74cf c6bd b0ff bfbd 4429 21bf
00000150: d7f8 1ebf 4b9a b93f 64a6 60be c24e e9be
00000160: 8638 4dbf 962c a73e eac9 febe d634 303f
00000170: 1245 9f3c afc8 4abe 7052 af3e a1a9 103d
00000180: 8d70 953e a539 383f 1770 1a3e dd39 42bc
00000190: 23dd c7be 03b5 c7bc f302 cb3d 59f7 9c3d
000001a0: 5f17 0f3e 26c5 1e3e a408 00be 4874 dd3e
000001b0: bcef ec3e 1c68 883f 669f 0a3e 95f5 81be
000001c0: 48b9 c2bd ccc5 ff3c 17ac cebd 48a9 623e
000001d0: 0e2d c23e 9e02 cc3e 4a97 a43e a30a cbbe
000001e0: e63c 0abf ddc4 b7be 8db0 943e 2f27 33be
000001f0: 6366 de3d dc71 17bf 2c21 933e 8f3e 6abe
00000200: 81ef e6bd b717 f0bd 7821 a1bd 0aa8 903e
00000210: 1056 5e3e c575 893e c9df 093f 68c0 963e
00000220: 1f7b 45be 7646 fbbc bad6 9f3e 405b 193f
00000230: 411f 53be 27fb 44bf 4485 f23e ddf0 3fbd
00000240: e2bc 01bf 6c6c c93e a64b 9abf 9b25 acbd
00000250: 3af7 d03e 0f74 2cbe 8b2e 563c b0c1 cebe
00000260: ae6c 23bf 08a7 2a3e a431 59be 0529 0f3f
00000270: 56d7 70be 381d 85bd 92c4 9bbe bfd9 06bf
00000280: 96c7 23bf 9188 9c3e f8e8 d2be aaf6 033d
00000290: dbc3 8b3d a0d8 00bf b992 93be e486 c13e
000002a0: 2a09 293d c5b4 9d3d a018 ae3e 7aaa a13d
000002b0: 9d36 51bf 5bc2 79be 952c 563e 1e13 cb3e
000002c0: df34 053e c14a 743f 03fb 2fbf 2499 4fbf
000002d0: 65d3 2c3e 092d ed3c a341 6a3e 39df 46be
000002e0: 42b1 d6be 729c 9fbd e9f7 d33c 980e 2f3e
000002f0: 7723 a63e d390 de3e 299d 513e 0aa9 5ebf
00000300: e2f8 d93d 576b b03e 3e82 7ebe cd00 88be
00000310: e061 f7be 0400 eebd a550 483e 30c4 9c3d
00000320: fe2d fbbe 6893 853e 2fe5 243f 4620 953e
00000330: 9a11 68bd 12c2 3dbc 173b 0abe 4725 b03e
00000340: 7dd2 2ebf 3dc3 8abe 2a47 413e 3f4e c73e
00000350: 29d3 253d 2672 44be 41a1 0bbf e1b6 cc3e
00000360: 20b9 e33d c8e7 cb3e 24ac ed3d 01cd 9ebe
00000370: fbb3 0a3d 1cc6 78bd 5b27 93bd ac96 153e
00000380: e2f9 ae3d ce44 cabe dded 033f c00b d03c
00000390: c607 1fbf 0cd4 b8bd f799 b2be 61aa f43e
000003a0: 8dfa f83e 1d2d 2f3f 6660 213f ff29 973e
000003b0: 9973 a6be 6885 2b3e 33ac 783e d2db 633e
000003c0: 2e0f b9be 9990 fd3e 82b7 a83d df23 d83d
000003d0: b96f 5cbe 42f0 bcbe a530 4ebe 4077 eabe
000003e0: 157b 1dbf cf5e 353d 746c 9dbd 78b6 9abe
000003f0: d152 a63e 3786 853e 50a9 79bc 7b8b a33d

network_body._body_endoder.seq_layers.0.bias f4 [128]
0.0 0.0 0.0 0.0 0.0 0.0 0.0 0.0
0.0 0.0 0.0 0.0 0.0 0.0 0.0 0.0
0.0 0.0 0.0 0.0 0.0 0.0 0.0 0.0
0.0 0.0 0.0 0.0 0.0 0.0 0.0 0.0
0.0 0.0 0.0 0.0 0.0 0.0 0.0 0.0
0.0 0.0 0.0 0.0 0.0 0.0 0.0 0.0
0.0 0.0 0.0 0.0 0.0 0.0 0.0 0.0
0.0 0.0 0.0 0.0 0.0 0.0 0.0 0.0
0.0 0.0 0.0 0.0 0.0 0.0 0.0 0.0
0.0 0.0 0.0 0.0 0.0 0.0 0.0 0.0
0.0 0.0 0.0 0.0 0.0 0.0 0.0 0.0
0.0 0.0 0.0 0.0 0.0 0.0 0.0 0.0
0.0 0.0 0.0 0.0 0.0 0.0 0.0 0.0
0.0 0.0 0.0 0.0 0.0 0.0 0.0 0.0
0.0 0.0 0.0 0.0 0.0 0.0 0.0 0.0
0.0 0.0 0.0 0.0 0.0 0.0 0.0 0.0
00000000: 0000 0000 0000 0000 0000 0000 0000 0000
00000010: 0000 0000 0000 0000 0000 0000 0000 0000
00000020: 0000 0000 0000 0000 0000 0000 0000 0000
00000030: 0000 0000 0000 0000 0000 0000 0000 0000
00000040: 0000 0000 0000 0000 0000 0000 0000 0000
00000050: 0000 0000 0000 0000 0000 0000 0000 0000
00000060: 0000 0000 0000 0000 0000 0000 0000 0000
00000070: 0000 0000 0000 0000 0000 0000 0000 0000
00000080: 0000 0000 0000 0000 0000 0000 0000 0000
00000090: 0000 0000 0000 0000 0000 0000 0000 0000
000000a0: 0000 0000 0000 0000 0000 0000 0000 0000
000000b0: 0000 0000 0000 0000 0000 0000 0000 0000
000000c0: 0000 0000 0000 0000 0000 0000 0000 0000
000000d0: 0000 0000 0000 0000 0000 0000 0000 0000
000000e0: 0000 0000 0000 0000 0000 0000 0000 0000
000000f0: 0000 0000 0000 0000 0000 0000 0000 0000
00000100: 0000 0000 0000 0000 0000 0000 0000 0000
00000110: 0000 0000 0000 0000 0000 0000 0000 0000
00000120: 0000 0000 0000 0000 0000 0000 0000 0000
00000130: 0000 0000 0000 0000 0000 0000 0000 0000
00000140: 0000 0000 0000 0000 0000 0000 0000 0000
00000150: 0000 0000 0000 0000 0000 0000 0000 0000
00000160: 0000 0000 0000 0000 0000 0000 0000 0000
00000170: 0000 0000 0000 0000 0000 0000 0000 0000
00000180: 0000 0000 0000 0000 0000 0000 0000 0000
00000190: 0000 0000 0000 0000 0000 0000 0000 0000
000001a0: 0000 0000 0000 0000 0000 0000 0000 0000
000001b0: 0000 0000 0000 0000 0000 0000 0000 0000
000001c0: 0000 0000 0000 0000 0000 0000 0000 0000
000001d0: 0000 0000 0000 0000 0000 0000 0000 0000
000001e0: 0000 0000 0000 0000 0000 0000 0000 0000
000001f0: 0000 0000 0000 0000 0000 0000 0000 0000

network_body._body_endoder.seq_layers.2.weight f4 [128, 128]
-0.019182628 0.10620402 0.006174844 0.1520797 0.012432396 0.049576964 0.0127526745 -0.032085553
0.08868506 -0.021179829 -0.06678393 0.17142239 0.13833642 -0.08363467 -0.06288018 0.06211279
0.05220635 -0.10720062 0.029054843 -0.054395016 0.119927116 0.18877405 -0.08477873 -0.09938621
0.24891627 -0.19168508 0.2683907 0.026242252 0.06495381 0.04891353 -0.070681676 0.052411996
0.06732725 -0.07318954 -0.04917487 -0.040586133 0.06894251 -0.11957262 0.0095168175 0.15188201
-0.03574032 -0.06616266 0.075440206 0.03082769 0.06423694 0.074000426 0.08155143 0.029940775
0.16232033 -0.10146159 0.068260424 0.061986316 -0.08854362 0.007432683 0.05282353 0.0825247
-0.02353291 -0.07270477 0.14562513 0.11106376 0.15306953 -0.017937666 0.04146427 -0.032303017
0.018325975 -0.08725129 -0.04234764 -0.02632633 0.011388816 0.022756657 0.06499168 -0.0013701253
-0.080000415 -0.020797933 0.044912267 0.008389596 0.0013894413 0.18082982 0.07144965 0.15649424
-0.0408361 0.12777214 -0.038010355 0.029057033 0.077603735 0.036659323 0.09937997 0.09796265
-0.011161027 -0.11386426 0.09893174 0.015514859 -0.02562682 0.099101156 0.09517894 0.1783923
-0.028783586 -0.120201774 -0.0887735 -0.048396163 0.019457616 -0.057944816 0.0303593 -0.13599822
-0.115201004 0.121817574 0.07285619 0.06974444 -0.045851536 -0.0825941 0.03627426 -0.05297376
-0.05931011 -0.08055036 0.07340856 0.05835407 -0.04727499 0.09000073 0.10035143 0.20907888
-0.10075728 -0.06804482 0.049718693 0.112516046 0.0069666766 0.1930554 -0.13317001 -0.17524652
-0.10168462 0.009724892 0.07212575 0.055182856 0.028433567 -0.05857144 -0.13057947 -0.08544737
-0.0074169165 -0.035525974 0.118452355 -0.070441276 0.14123495 -0.08740203 -0.023675028 0.030553881
-0.032463152 -0.030448359 0.09262574 0.1280635 0.007729448 -0.028269483 -0.05545737 0.024774637
-0.07344332 0.06185522 -0.03202733 0.03289816 0.008286406 0.056972988 0.0020640527 0.09932246
-0.033505198 -0.03410034 0.06741274 0.05618938 -0.09174545 -0.057134498 0.019965485 -0.09138447
-0.1706678 0.04493894 0.05899399 0.058701206 0.20348676 -0.036181644 -0.021527763 -0.09161229
-0.019791497 0.02305705 -0.037450887 0.09563977 0.011289158 -0.06705379 0.13444054 -0.04851745
0.0070657525 0.074504666 0.085291035 0.0863778 -0.14814304 0.009777061 -0.13250333 0.068247534
0.17351462 0.031795986 -0.033395 -0.11487164 0.048556045 0.043402612 0.11530407 0.09177729
-0.14916937 0.00744299 0.012015774 0.0073653646 -0.10962469 0.0084444545 0.07066369 -0.17485052
-0.044317093 0.0056951987 0.06881212 -0.013276932 -0.07749297 -0.120291136 -0.008004198 0.0042343475
-0.04445748 -0.21397881 -0.15463075 -0.03172606 0.01981032 -0.090903826 -0.051998388 0.039110143
0.061989073 0.009504153 -0.07733482 -0.2112045 -0.0517801 0.059431534 0.072837755 -0.081112586
-0.09935854 0.10403572 0.104636155 -0.0032635895 -0.16131715 0.14730199 -0.077865675 -0.08349072
0.009376933 0.084166065 -0.030842857 0.08074362 0.079104766 0.03339157 0.11533092 -0.007941347
-0.09439359 -0.013025534 0.02685379 -0.055960525 -0.105600916 -0.06303775 0.02746259 0.005049388
00000000: e324 9dbc 7e81 d93d 5956 ca3b c8ba 1b3e
00000010: 40b1 4b3c 3711 4b3d 98f0 503c 246c 03bd
00000020: 83a0 b53d 5281 adbc 03c6 88bd 5a89 2f3e
00000030: 10a8 0d3e a748 abbd 53c7 80bd fb69 7e3d
00000040: 53d6 553d 008c dbbd 6c04 ee3c 4fcd 5ebd
00000050: 599c f53d fc4d 413e 79a0 adbd ff8a cbbd
00000060: e8e3 7e3e 1849 44be 816a 893e fef9 d63c
00000070: 8106 853d 8e59 483d 8ec1 90bd f6ad 563d
00000080: dfe2 893d 66e4 95bd 976b 49bd a53d 26bd
00000090: bb31 8d3d 7de2 f4bd 6dec 1b3c f586 1b3e
000000a0: 7164 12bd 4a80 87bd 6580 9a3d 5a8a fc3c
000000b0: a88e 833d 898d 973d 7004 a73d 5b46 f53c
000000c0: 4d37 263e 18cb cfbd 1fcc 8b3d 5de5 7d3d
000000d0: 5c56 b5bd dd8d f33b 7c5d 583d b602 a93d
000000e0: 17c8 c0bc 3de6 94bd c11e 153e 6675 e33d
000000f0: 42be 1c3e 03f2 92bc 70d6 293d 2b50 04bd
00000100: 5b20 963c ceb0 b2bd b874 2dbd 51aa d7bc
00000110: 2898 3a3c 2b6c ba3c 5c1a 853d c795 b3ba
00000120: 42d7 a3bd 6d60 aabc edf5 373d 8474 093c
00000130: ea1d b63a 742b 393e 3254 923d 0740 203e
00000140: c143 27bd b3d6 023e bfb0 1bbd 0409 ee3c
00000150: b5ee 9e3d 1628 163d ba87 cb3d a4a0 c83d
00000160: bddc 36bc aa31 e9bd b99c ca3d 0932 7e3c
00000170: 56ef d1bc 8cf5 ca3d 2ded c23d 79ac 363e
00000180: 8ecb ebbc 592c f6bd e1ce b5bd 0e3b 46bd
00000190: 9465 9f3c 8b57 6dbd 11b4 f83c 1e43 0bbe
000001a0: 81ee ebbd 7e7b f93d a035 953d 2cd6 8e3d
000001b0: d2ce 3bbd 1827 a9bd 5294 143d 03fb 58bd
000001c0: 28ef 72bd 96f7 a4bd 3a57 963d ad04 6f3d
000001d0: 6ba3 41bd 4d52 b83d 0d85 cd3d c618 563e
000001e0: d559 cebd 155b 8bbd d4a5 4b3d d06e e63d
000001f0: b848 e43b 51b0 453e b85d 08be d373 33be
00000200: 0740 d0bd 2755 1f3c aab6 933d 6b07 623d
00000210: 83ed e83c 9be8 6fbd a0b6 05be 08ff aebd
00000220: 9b09 f3bb af83 11bd 2697 f23d 8443 90bd
00000230: e59f 103e d6ff b2bd 22f2 c1bc 224c fa3c
00000240: 15f8 04bd d66e f9bc 90b2 bd3d 1423 033e
00000250: 4f47 fd3b 6795 e7bc 4427 63bd 2ef4 ca3c
00000260: 7469 96bd e65b 7d3d 172f 03bd 39c0 063d
00000270: b5c3 073c 825c 693d 0f45 073b 9369 cb3d
00000280: bf3c 09bd ccac 0bbd b10f 8a3d d626 663d
00000290: 0ae5 bbbd dd05 6abd a88e a33c c827 bbbd
000002a0: 8ac3 2ebe e511 383d afa3 713d ad70 703d
000002b0: d55e 503e 3433 14bd fe5a b0bc 399f bbbd
000002c0: c721 a2bc 23e2 bc3c 1a66 19bd c9de c33d
000002d0: 29f6 383c 7f53 89bd c8aa 093e 3cba 46bd
000002e0: d487 e73b e795 983d 11ad ae3d d8e6 b03d
000002f0: cfb2 17be f72f 203c f4ae 07be 5dc5 8b3d
00000300: d1ad 313e 823c 023d 32c9 08bd d341 ebbd
00000310: b4e2 463d f0c6 313d 8a24 ec3d bbf5 bb3d
00000320: dbbf 18be 53e4 f33b cfdd 443c 2859 f13b
00000330: e982 e0bd 9c5a 0a3c 20b8 903d 040c 33be
00000340: d785 35bd ca9e ba3b 5eed 8c3d 7d87 59bc
00000350: a2b4 9ebd 335b f6bd 0a24 03bc 48c0 8a3b
00000360: 0c19 36bd 431d 5bbe 8657 1ebe 2ff3 01bd
00000370: 4149 a23c c92b babd 43fc 54bd f531 203d
00000380: 41e8 7d3d 4fb7 1b3c b861 9ebd fe45 58be
00000390: 5f17 54bd 7b6e 733d f62b 953d 5b1e a6bd
000003a0: 7d7c cbbd ae10 d53d 7b4b d63d f2e1 55bb
000003b0: 5330 25be 55d6 163e 0a78 9fbd 2ffd aabd
000003c0: b5a1 193c 425f ac3d 29aa fcbc e95c a53d
000003d0: ae01 a23d 99c5 083d 9e32 ec3d 6c1c 02bc
000003e0: 6d51 c1bd 0d69 55bc 7bfc db3c dd36 65bd
000003f0: 4b45 d8bd f019 81bd 3af9 e03c 5675 a53b

network_body._body_endoder.seq_layers.2.bias f4 [128]
0.0 0.0 0.0 0.0 0.0 0.0 0.0 0.0
0.0 0.0 0.0 0.0 0.0 0.0 0.0 0.0
0.0 0.0 0.0 0.0 0.0 0.0 0.0 0.0
0.0 0.0 0.0 0.0 0.0 0.0 0.0 0.0
0.0 0.0 0.0 0.0 0.0 0.0 0.0 0.0
0.0 0.0 0.0 0.0 0.0 0.0 0.0 0.0
0.0 0.0 0.0 0.0 0.0 0.0 0.0 0.0
0.0 0.0 0.0 0.0 0.0 0.0 0.0 0.0
0.0 0.0 0.0 0.0 0.0 0.0 0.0 0.0
0.0 0.0 0.0 0.0 0.0 0.0 0.0 0.0
0.0 0.0 0.0 0.0 0.0 0.0 0.0 0.0
0.0 0.0 0.0 0.0 0.0 0.0 0.0 0.0
0.0 0.0 0.0 0.0 0.0 0.0 0.0 0.0
0.0 0.0 0.0 0.0 0.0 0.0 0.0 0.0
0.0 0.0 0.0 0.0 0.0 0.0 0.0 0.0
0.0 0.0 0.0 0.0 0.0 0.0 0.0 0.0
00000000: 0000 0000 0000 0000 0000 0000 0000 0000
00000010: 0000 0000 0000 0000 0000 0000 0000 0000
00000020: 0000 0000 0000 0000 0000 0000 0000 0000
00000030: 0000 0000 0000 0000 0000 0000 0000 0000
00000040: 0000 0000 0000 0000 0000 0000 0000 0000
00000050: 0000 0000 0000 0000 0000 0000 0000 0000
00000060: 0000 0000 0000 0000 0000 0000 0000 0000
00000070: 0000 0000 0000 0000 0000 0000 0000 0000
00000080: 0000 0000 0000 0000 0000 0000 0000 0000
00000090: 0000 0000 0000 0000 0000 0000 0000 0000
000000a0: 0000 0000 0000 0000 0000 0000 0000 0000
000000b0: 0000 0000 0000 0000 0000 0000 0000 0000
000000c0: 0000 0000 0000 0000 0000 0000 0000 0000
000000d0: 0000 0000 0000 0000 0000 0000 0000 0000
000000e0: 0000 0000 0000 0000 0000 0000 0000 0000
000000f0: 0000 0000 0000 0000 0000 0000 0000 0000
00000100: 0000 0000 0000 0000 0000 0000 0000 0000
00000110: 0000 0000 0000 0000 0000 0000 0000 0000
00000120: 0000 0000 0000 0000 0000 0000 0000 0000
00000130: 0000 0000 0000 0000 0000 0000 0000 0000
00000140: 0000 0000 0000 0000 0000 0000 0000 0000
00000150: 0000 0000 0000 0000 0000 0000 0000 0000
00000160: 0000 0000 0000 0000 0000 0000 0000 0000
00000170: 0000 0000 0000 0000 0000 0000 0000 0000
00000180: 0000 0000 0000 0000 0000 0000 0000 0000
00000190: 0000 0000 0000 0000 0000 0000 0000 0000
000001a0: 0000 0000 0000 0000 0000 0000 0000 0000
000001b0: 0000 0000 0000 0000 0000 0000 0000 0000
000001c0: 0000 0000 0000 0000 0000 0000 0000 0000
000001d0: 0000 0000 0000 0000 0000 0000 0000 0000
000001e0: 0000 0000 0000 0000 0000 0000 0000 0000
000001f0: 0000 0000 0000 0000 0000 0000 0000 0000

value_heads.value_heads.extrinsic.weight f4 [1, 128]
-0.19224858 -0.091163225 0.18144906 -0.08866967 -0.14494884 0.11882219 -0.072726905 -0.03143403
-0.048566014 0.023788646 0.08061758 0.112984926 0.18394575 -0.16412723 -0.046334088 0.19983715
-0.20153093 0.016314149 0.12091792 0.13930917 -0.14278293 0.058353037 -0.023535863 -0.008210719
-0.02369599 -0.21455905 0.0057228208 -0.009241626 0.050224394 0.013215065 -0.106783986 0.13716963
0.15562594 0.0016656369 -0.043699324 0.07572043 0.04713884 0.18016717 0.15986186 -0.05820933
0.10746673 0.18062133 0.15963921 0.079621464 0.037124425 0.20561701 0.006129563 -0.09872895
0.19765955 -0.1735508 -0.08031446 -0.13851622 -0.19860293 0.2075598 -0.04652241 -0.017439052
0.13923147 0.08976257 0.12534755 -0.17963478 -0.04249069 0.08184296 -0.13600005 -0.027667895
-0.14215639 0.008950576 0.2072309 0.030626222 -0.022415861 0.19227576 -0.20466521 -0.10044748
0.011554569 0.053109616 -0.06653702 0.15990281 -0.18423404 -0.10963832 -0.1829795 0.15215635
-0.13473919 0.06167072 0.042190164 0.18353182 0.115027934 0.06911501 -0.18931563 0.036171347
-0.02560462 -0.027412012 0.116491824 0.122611225 -0.19125482 -0.03345579 0.15622759 -0.023018777
-0.20052807 0.16560602 -0.10166572 -0.06865594 0.09673628 0.15254906 0.1397424 0.20003098
0.20911306 -0.097882435 -0.19271225 -0.017247185 0.214593 -0.0019311607 0.14945278 0.087003976
-0.012160569 -0.005463332 0.17308518 0.19858924 0.07793924 0.14634934 -0.16348197 -0.21146937
-0.022313729 -0.20723656 -0.18346977 0.1200476 0.08619082 -0.047364876 0.069087595 -0.03072904
00000000: d0dc 44be c9b3 babd c8cd 393e 7298 b5bd
00000010: 786d 14be 0c59 f33d d8f1 94bd f8c0 00bd
00000020: 28ed 46bd 68e0 c23c d41a a53d a464 e73d
00000030: 465c 3c3e f810 28be d0c8 3dbd 1ca2 4c3e
00000040: 205e 4ebe 40a5 853c d0a3 f73d 10a7 0e3e
00000050: b035 12be 9803 6f3d 48ce c0bc 4086 06bc
00000060: 181e c2bc 5eb5 5bbe 8086 bb3b 306a 17bc
00000070: 18b8 4d3d 0084 583c 90b1 dabd 3276 0c3e
00000080: 685c 1f3e 8051 da3a 10fe 32bd 5013 9b3d
00000090: a814 413d be7d 383e d4b2 233e e86c 6ebd
000000a0: 8417 dc3d ccf4 383e 7678 233e 9410 a33d
000000b0: c80f 183d 448d 523e 80da c83b 6732 cabd
000000c0: 4467 4a3e 4db7 31be e87b a4bd 32d7 0dbe
000000d0: 915e 4bbe 8e8a 543e 488e 3ebd 58dc 8ebc
000000e0: b292 0e3e 70d5 b73d 1c5b 003e 2ef2 37be
000000f0: b80a 2ebd 489d a73d 9943 0bbe c8a7 e2bc
00000100: 7291 11be 70a5 123c 5634 543e d8e3 fa3c
00000110: 78a1 b7bc f0e3 443e c293 51be 69b7 cdbd
00000120: 604f 3d3c 7889 593d 9044 88bd 90bd 233e
00000130: d9a7 3cbe 0e8a e0bd fa5e 3bbe e0ce 1b3e
00000140: 12f9 09be 709a 7c3d 98cf 2c3d c4ef 3b3e
00000150: c493 eb3d 2c8c 8d3d f5db 41be 6828 143d
00000160: c8c0 d1bc 288f e0bc 4493 ee3d 981b fb3d
00000170: 4ed8 43be f008 09bd 20fa 1f3e e091 bcbc
00000180: 3b57 4dbe a094 293e 1e36 d0bd 7c9b 8cbd
00000190: ac1d c63d d235 1c3e a218 0f3e ecd4 4c3e
000001a0: bc21 563e 9676 c8bd 5c56 45be f849 8dbc
000001b0: 44be 5b3e 001f fdba 260a 193e 242f b23d
000001c0: 203d 47bc c005 b3bb 3e3d 313e fa5a 4b3e
000001d0: 9c9e 9f3d 9adc 153e d167 27be 6d8b 58be
000001e0: 48cb b6bc d235 54be 80df 3bbe 84db f53d
000001f0: d084 b03d ac01 42bd cc7d 8d3d 78bb fbbc
