results/flappy2/FlappyAgent/FlappyAgent-100022.onnx (onnx, 73355 bytes, 8 tensors)

network_body.observation_encoder.processors.0.normalizer.running_mean f4 [6]
00000000: da64 26bf b6a3 2141 0000 0000 d83d 323f
00000010: 8b58 a540 9fcb 6340
-0.6499764 10.1024685 0.0 0.69625616 5.1670585 3.559303

network_body._body_endoder.seq_layers.0.weight f4 [128, 6]
00000000: 07bf d0be 5333 1e3d 10e7 403f 3d6f 6d3f
00000010: d83a 55bd e180 39be 91a0 8a3e 742c 0bbc
00000020: b28a 5e3e 3bc2 05bf b5a5 9f3e 0384 583e
00000030: dc0a bd3d ffc5 273d eab7 0ebf cfed 823f
00000040: a521 d1bd 20ff 4ebe d03e c6be d9ee 39be
00000050: 4e2f 973e 5d31 673e 16cb 0f3f b24b d5bd
00000060: d47c df3c 9b2f 1fbf 5e59 443f 81c5 35be
00000070: 77dd a83e beb9 6c3d 7b61 45bf b030 dbbe
00000080: b0e7 5bbe ec15 afbe 3323 783e 3e47 33bf
00000090: fd9e 633f c93d 1dbe 9c13 59be 50d4 7ebe
000000a0: 1990 7abe 6e80 69be 745e 413e 5b07 713e
000000b0: 56e2 b9be bf9e a2be fb8d 733f cb14 133f
000000c0: c80b 60bd 18d7 803f 68a8 4abf e75c 8d3e
000000d0: 7d56 18bf b533 8b3d fa90 e9be 19ea d33d
000000e0: 476f 393e beb3 943d 7c88 02bf fb63 463e
000000f0: 9076 d2be 8542 09bf 4490 823e bb94 8aba
00000100: 3c65 1ebe 5f30 afbe 0d67 4b3e 5649 8ebe
00000110: 3bf2 b43e 3c10 e73e 9bff 1c3f 0414 223e
00000120: 588d bcbe 6ee1 31be 7b3d 713d a545 dcbe
00000130: 7ba5 0fbe 43f8 143e 63aa 853e 3aa7 5ebe
00000140: 7c43 783d 3a90 203f 41c0 1d3f 98e1 44bd
00000150: 161b c83d 39d5 64be 41b3 efbe 846d 13be
00000160: 3e8a e53e e5b7 ac3c 1ad6 a9be 5e91 d5bd
00000170: 9eac 103e 53cd 20bc acbf dc3d 53c1 6cbf
00000180: 90c2 8a3e 409c d9be e863 7dbc ac49 5f3e
00000190: c473 8f3e 06ec b13e 7b0a b4be d1e2 3ebe
000001a0: 73f3 14be 15a8 fbbe 8ea1 66bf ed9c 583f
000001b0: d793 823d 53f2 ff3c 63e5 4b3e 0d5b 5cbe
000001c0: 12d6 8c3f 1711 31be 8630 99be 19a1 31bd
000001d0: de42 c1bd 81c6 743e 7a22 fb3e 05db 6f3e
000001e0: 8f7e 3bbe 9039 c73e 3bf1 aa3d 3a0d eb3e
000001f0: 1bae 54be fa69 2d3d 535e 993e 1e82 3cbf
00000200: ef43 e93e 441a b13e 4d72 f0bd 6ef2 9f3c
00000210: 2610 82bd c7c6 4ebf 46d8 b33e 7612 a93e
00000220: f4c7 55be fabf 9fbe f418 a3be f798 3b3e
00000230: 4aaa 94be 47ab c0be f367 203f 27e3 7e3e
00000240: 065c cd3d 92f1 bb3e 37d5 d23e 0205 73be
00000250: a234 b7be a6b9 ffbd bd0a 913f fe87 b63d
00000260: 693b cfbe 012b c73e b37a e23e 0630 a93e
00000270: 5360 553e 684b f63e f6dc 203e 5416 ad3d
00000280: 8d19 7bbf d729 973e 6363 0ebf aa0e 2b3f
00000290: 637f 0bbf 0079 c2be 9331 693e c9b7 e03c
000002a0: f363 cfbd 6816 823e 88dc babe dac2 613e
000002b0: 625e 97bd db6c 623e 2e77 113e e523 25bf
000002c0: f77d c3be 13c5 8c3e b56a 063f d848 2b3f
000002d0: 8463 143f 09bf 65be a3dd 5fbf 3591 5cbe
000002e0: 7b08 ebbd 092d c4be c187 72bc 936f 0fbf
000002f0: 2a77 7fbd 77fc 85bd 8329 3f3f ac2d f3be
00000300: fdf3 423e 9e11 453e 0c5a fcbc f578 b83e
00000310: e002 9e3e a076 13bf 9d2b 1e3f 514f ac3e
00000320: e3d1 df3e 8fe3 fcbd 87bb 68be 674b 39bb
00000330: 8704 b4bd 9866 adbd db99 ecbc 7d8a c33e
00000340: 39a1 20be 8148 bcbe 68b1 8b3d a886 5f3d
00000350: 1ae6 4fbe 17d2 463e 8600 bcbe 86d9 e93c
00000360: f5cc 913d fa34 18bf e092 fcbd 88e9 b1bd
00000370: 2894 b33d 2ec3 61bd 36fb 113e b097 f4be
00000380: fef0 e0bd a2f0 973e 7504 8f3d dab3 0a3e
00000390: 5b2a 51bc e41e 433e ab8c da3e 0daa 393f
000003a0: 8884 1ebf 51bd 1a3f 01e6 053f 13fe 37be
000003b0: c762 8e3f 22eb 02be ec77 b7be 621e 133f
000003c0: e6e2 8dbe b7ec efbd b460 21bd 2904 993e
000003d0: c230 8fbe 2443 b6be d60b 07bd 8dfd 8cbe
000003e0: f510 a53e 90aa 253f 0155 4fbf 7c8c 93be
000003f0: 6fb4 debd 18ec fc3e 77c1 13bf faaa 203e
-0.40770742 0.038623165 0.75352573 0.9274786 -0.05205807 -0.1811557 0.27075627 -0.008494485
0.21732596 -0.522495 0.31181112 0.21144108 0.09230587 0.04096031 -0.5574938 1.0228823
-0.10211495 -0.2021451 -0.38719797 -0.1815752 0.29528278 0.22577424 0.5616926 -0.10414828
0.027281202 -0.62182015 0.76698864 -0.17751123 0.32981464 0.057794325 -0.7710187 -0.42810583
-0.214751 -0.34196413 0.24232177 -0.7003058 0.8891447 -0.153556 -0.21198887 -0.24885678
-0.24469031 -0.22802898 0.18883687 0.23537962 -0.36305493 -0.3176174 0.9513852 0.574536
-0.054698735 1.0065641 -0.7916322 0.2760994 -0.5950697 0.06796972 -0.4561842 0.10347385
0.18108855 0.072608456 -0.5098951 0.19374077 -0.4110608 -0.53617126 0.2550069 -0.001057289
-0.15468305 -0.34216592 0.1986353 -0.27790326 0.35341057 0.45129573 0.61327523 0.15827948
-0.36826587 -0.17371151 0.058896523 -0.43021885 -0.1402797 0.1454783 0.26106557 -0.2174348
0.060611233 0.6272007 0.6162148 -0.048066705 0.09770791 -0.22346963 -0.46816447 -0.14397246
0.44832033 0.021083781 -0.3317116 -0.10428117 0.14128348 -0.009814578 0.10778746 -0.9248249
0.27101564 -0.42502022 -0.015465714 0.21805447 0.2801801 0.34750384 -0.35164246 -0.18641211
-0.14545994 -0.49151674 -0.9009026 0.8461445 0.063758545 0.031243479 0.19911723 -0.21519108
1.1002829 -0.17291676 -0.29919833 -0.043366525 -0.09436582 0.23903848 0.4904974 0.23423393
-0.18309997 0.38911104 0.08346792 0.4590853 -0.20769541 0.042337395 0.29954776 -0.73636043
0.45559642 0.34590352 -0.11740551 0.01952478 -0.06350736 -0.8077206 0.3512594 0.33021897
-0.20877057 -0.31201154 -0.31854975 0.1832007 -0.2903617 -0.37630674 0.62658614 0.24891339
0.10027318 0.3670774 0.41178295 -0.23732379 -0.35782343 -0.124865815 1.1331402 0.08912657
-0.40475014 0.38899997 0.44234237 0.3304445 0.20837526 0.48104405 0.1570929 0.084515244
-0.9808586 0.2952411 -0.556204 0.6681925 -0.5449125 -0.3798294 0.22772817 0.027431386
-0.10126486 0.2540772 -0.36496377 0.22046986 -0.07391049 0.22111838 0.1420562 -0.64507896
-0.3818204 0.27494106 0.5250657 0.66908026 0.5796435 -0.22436155 -0.87447566 -0.21539767
-0.11476227 -0.3831561 -0.014802874 -0.56029624 -0.062369503 -0.065422945 0.74672717 -0.47495782
0.19038387 0.19245002 -0.030804656 0.36029783 0.30861568 -0.5760288 0.617853 0.33654264
0.43714818 -0.12348091 -0.22727786 -0.0028273703 -0.08789926 -0.08466834 -0.028881958 0.38191596
-0.15686502 -0.36774066 0.06820947 0.054571778 -0.2030262 0.1941608 -0.3671915 0.028546106
0.071191706 -0.59455836 -0.12332702 -0.08687121 0.08768493 -0.05511778 0.14255986 -0.47771978
-0.109834656 0.29675776 0.06983272 0.1354517 -0.012766446 0.19054753 0.42685446 0.725251
-0.61920977 0.60445124 0.52304083 -0.17968015 1.1123894 -0.12785009 -0.3583368 0.57468235
-0.27712172 -0.11715072 -0.039398864 0.29885986 -0.27966887 -0.355981 -0.032970272 -0.27537194
0.322395 0.6471338 -0.8098908 -0.2881812 -0.10874259 0.49398875 -0.5771708 0.15690222

network_body._body_endoder.seq_layers.0.bias f4 [128]
00000000: 6a40 81bc 836e a2bc 0e2e 023d cc57 303d
00000010: 4987 02bd 6d6f b6bc 3921 193d be86 ee3c
00000020: bb5a 3ebc bfb4 13bd 8cb7 ecbc c1eb 1c3d
00000030: 4d6f ce3b a321 593d 655b 23bc 6b81 413d
00000040: 4bba bdbc 64bf c4bc 4d69 0d3d 1616 e3bc
00000050: 8daa c13b e50b 033d 74d6 9abc 2d1c 283d
00000060: 7fa8 2abd 6a2c 0abd d2a9 cebc dc9a da3c
00000070: bb13 2cbd bdd9 b5bc 6270 dcbc ce50 2c3d
00000080: 313d 723d 1baa 8e3c c189 293d 27ec 04bc
00000090: d41a bd3c 0861 f43a 8286 b83c 1335 d1bc
000000a0: a9ca 95bc 5e63 0d3d eca2 1bbd ec64 20bd
000000b0: 0761 4b3d 9656 17bd 1eb3 18bd 8a0f 2a3d
000000c0: d7be 463d c7b0 e7bc 0c20 5f3d 60e3 243d
000000d0: a32c 2e3d 0b4a ac3c 6b2e d3bc 5bb7 153d
000000e0: 3b45 10bd 1762 f6bc 9888 203d 92fd 1abd
000000f0: c5df 3a3d 2a8c cbbc 4787 203d 21d7 efbc
00000100: b844 d3bc 7989 1c3d 0a8a 31bc 413e 75bc
00000110: f3a0 3f3d c8f7 263c df79 313d e4ba c83c
00000120: 606a 3b3d 8d15 3b3d 04bf f63b 7eb9 b3bc
00000130: 7e90 423d 55b2 3a3d da5c 003c d41a 283d
00000140: 5f79 f2bc 9a73 423d 9fdc a23c 1a91 613d
00000150: e7cf dfbc 9e16 d0bc e704 37bd ebe4 04bd
00000160: d562 28bd 23dd 15bd 5ca1 b03c 11b8 a5bc
00000170: f617 2c3d ee0b 343d ff3c 34bc 065b e33b
00000180: 1abf d9bb 165b b5bc e865 573d d0ee db3c
00000190: e392 5d3d d7f5 e5bc be99 82bc c7b5 79bc
000001a0: c52f a03c 38b0 dcbc 7cc5 f7bc d85b 1d3d
000001b0: 9073 b7bc 0a29 263d b335 343d 6862 11bd
000001c0: 3486 173d 196c 193d bfc2 f3bc 55df dcbc
000001d0: e2cd 273d 4c6a 23bc 67c5 47bd 203a 5b3d
000001e0: 7ef9 e8bc 8d63 efbc 43f3 d4bc 7fe5 493d
000001f0: 4a10 32bd fc35 043d af63 9dbc 984b 253b
-0.015777785 -0.019828087 0.031782202 0.04305248 -0.0318673 -0.022269929 0.0373852 0.029116984
-0.0116183115 -0.036061045 -0.028896116 0.03831077 0.006299889 0.053010594 -0.009970521 0.047242563
-0.02316012 -0.024017043 0.03452425 -0.027720492 0.005910224 0.031993765 -0.018901087 0.041042496
-0.041664597 -0.033733763 -0.025227461 0.02668517 -0.042011004 -0.022198552 -0.026909057 0.04206925
0.059140388 0.017415097 0.041391138 -0.008112944 0.023084082 0.001864464 0.022525076 -0.025538003
-0.018285112 0.034518592 -0.03799717 -0.039158747 0.04965308 -0.03694781 -0.037280194 0.041518725
0.048521843 -0.028282536 0.05447392 0.040255904 0.042523038 0.0210314 -0.02577897 0.036551815
-0.035222273 -0.03007607 0.039192766 -0.03783948 0.04562356 -0.024847109 0.03919151 -0.029277386
-0.025789604 0.03821704 -0.010836134 -0.014968456 0.046784353 0.010190912 0.043329116 0.024503179
0.045755744 0.04567485 0.007530095 -0.021939036 0.04750108 0.045580227 0.007834638 0.04104121
-0.02959889 0.047473527 0.019880591 0.05507002 -0.027320815 -0.02540141 -0.04468241 -0.032444876
-0.04110988 -0.036587846 0.021561317 -0.020229371 0.04201504 0.04395669 -0.011000871 0.006938341
-0.0066450955 -0.02213816 0.05258742 0.026847273 0.05409516 -0.028071327 -0.01594245 -0.015241093
0.019554028 -0.026939496 -0.030245535 0.038417667 -0.022393972 0.04056648 0.043996524 -0.03549424
0.03699322 0.037456606 -0.029755948 -0.026961962 0.04096783 -0.009974074 -0.048772242 0.05352223
-0.02843928 -0.029222274 -0.025994902 0.04929113 -0.043472566 0.032278046 -0.019212572 0.002522206

network_body._body_endoder.seq_layers.2.weight f4 [128, 128]
00000000: 2e94 3b3d 286a 19ba 3b53 d9bd 0fc6 98bd
00000010: c8d9 923e 27d7 323c 064e 0f3e 63b4 c0bd
00000020: 57fa 023e e208 923d d4a0 743d b9c9 e33d
00000030: 2d98 f03d c08c e03d b8db 2ebd f464 41bc
00000040: 343d fcbc 859f fbbd ae4b e8bd 7995 e5bc
00000050: 42ee 1d3d 1aa9 ef3d 5510 ecbc b262 903c
00000060: b2cf 11bd 7a90 94bc 566e 8e3e 6ebe e3bd
00000070: d2a6 3f3e 31f9 17bb 7b7d 08be e27f 913d
00000080: 6ce5 2dbe 97ba 58be 4237 4ebd a8a9 12bd
00000090: fe57 bfbc 02d4 243d 8364 2cbd 56a3 5a3d
000000a0: beba edbd 9232 53bc 47e1 4bba b2f3 36be
000000b0: 3491 febd d9fc 7d3d 0be8 6fbd e4a9 903a
000000c0: 4b9a cfbd dfd1 e6bd 68bf b63b 964d 3f3d
000000d0: aed8 5a3b db56 a03d 6a95 333d 6002 02be
000000e0: cb4a d0ba f121 183e 482a 13bd 754e b03d
000000f0: f8da d93c 9155 0d3d 8824 89bd 6382 c03d
00000100: 00c0 3a3e 79f2 de3c 1436 7e3d 908f 403c
00000110: 8043 533d a693 9e3d eff7 39bc fe1c 20bd
00000120: 120a c03b a7d7 b03c 09c8 e73d aabc 11bd
00000130: a3f8 adbc 94ee 9bbd ab00 a43c 1c81 71bd
00000140: 73d4 303d 6034 a3bb 97a7 713d 8a0e 793d
00000150: 9af9 7c3d f4d5 4e3c a652 e2bc 4acf 183e
00000160: 15d2 2a3e 107e 2cbc 892f 06be 6f34 903d
00000170: bfba c43d 77cd a8bd e4f8 a73c 3fb5 393c
00000180: aaf7 60bd a072 7fba 9fbb 363d 0656 ff3d
00000190: 05e0 38bb 978f 093e 8295 87bd 0e31 203d
000001a0: 826a 203e 8623 123e 92e8 3f3e 7099 b13d
000001b0: 8104 b2bd 5f88 4b3e 4fea bc3d 9226 43bc
000001c0: ab68 db3d d552 85bd 5d65 913d 270f 4c3d
000001d0: 4506 9ebd 609d 343e 05c7 d83d e14e b6bd
000001e0: c0f5 ea3c 5157 e93d a796 653d 011a c63d
000001f0: a92b 33bd a8d7 d23a a830 8dbc 8005 663d
00000200: 21d6 14b9 5dc7 b7bd f73f 4ebd b36b 9c3c
00000210: d1f3 b33d 3283 ac3d 9f16 003e 09d0 21bd
00000220: 4ef0 ffbc 2ffd 593e eaff 91ba b8c9 60bd
00000230: 9ae9 a7bc 4ddd 383d efb4 2b3d 2984 11be
00000240: ac01 cebb 3a13 3f3c 3ab1 2bbc 8c97 90bc
00000250: 490c b4bd 950e b6bd 0ff2 40bd 2f5e a33c
00000260: fd77 473c c4cf b33c af28 f6bc 5a43 023e
00000270: 10c6 173d 3377 473b 33e0 3b3e 66fc 55bd
00000280: a8ae 193e 0e58 823d e377 22bb debd edbc
00000290: ab42 943d f31f 293d 5ffd b9bc 548c e23d
000002a0: ccb5 c8bd e5da b43d e8ee b13c 15c3 bf3c
000002b0: 79c4 823b 49e7 2ebe f6ea edbc 2499 e7bd
000002c0: b703 b5bb 0187 e73c 3b85 84bd ca34 a93c
000002d0: 0137 0c3d 280b 90bc e2bd 213e fb32 0abd
000002e0: db58 36bc 7842 47bd b0b0 853b 59fc f137
000002f0: 70ac b83d c0b8 1f3d 006a acbd 499b 4b3e
00000300: 1d07 873d ef5f a73c 9674 81bd cfe7 093e
00000310: 9057 f0bd 8819 90bb 062d 6f3d 9045 1dbd
00000320: c16c 4cbe c625 13be a02f 33be 0b5e 083e
00000330: ef1e b5bd 3156 bd3c cd23 a3bc c2cb 163d
00000340: c1f8 c5bd afbf 7abc ea19 f23d a6a4 6d3d
00000350: 470d 0dbd c90b af3d d5b1 073e f104 15bd
00000360: 3a36 adbd 51d6 86bd 36a0 cf3c 44e0 59bd
00000370: 93ec 17bd 1a92 ecbd 6305 433b b2ab 2d3e
00000380: aab9 e3bd d669 b53d 08eb 96bd c925 283d
00000390: f20b a5bd 248d 4a3d adc0 debd 21e5 2a3e
000003a0: a0c6 43bc 8eb8 e63d 6a81 ae3d 2aca b0bc
000003b0: ff40 ddbd e054 d8bd 3d27 22bd 657a b3bd
000003c0: b86e 1bbc fc91 13be a729 463d 301b 213b
000003d0: 719e 80bd 9f59 ffbd 8b64 d43c 6adf 193d
000003e0: 4d76 cbbd d143 f8bc c0c2 67bd 44eb ddbd
000003f0: 7c30 f4bc e32e 52bd 3d11 2abd a4ea 363d
0.045795612 -0.00058523053 -0.10611578 -0.07459652 0.2868178 0.010915554 0.13994607 -0.09409406
0.1279081 0.071306005 0.05972369 0.1112246 0.11747775 0.10964346 -0.04269001 -0.011803854
-0.030790903 -0.12286285 -0.1134256 -0.028025376 0.0385573 0.117021754 -0.028816381 0.017625187
-0.035598464 -0.018135298 0.27818555 -0.11120306 0.1871598 -0.00231893 -0.13329117 0.0710447
-0.16982049 -0.21164928 -0.050345667 -0.035806328 -0.023357388 0.04024125 -0.042088043 0.053378426
-0.11607884 -0.012890475 -0.00077774044 -0.178664 -0.12430039 0.062008712 -0.058570903 0.001103696
-0.10136851 -0.112704985 0.0055770166 0.04670485 0.0033393311 0.07829066 0.043843664 -0.12696218
-0.0015891431 0.14856698 -0.035928994 0.086087145 0.02659367 0.03450543 -0.06696421 0.09399869
0.18237305 0.02721523 0.06206329 0.011752978 0.051578045 0.077430055 -0.011350616 -0.03909015
0.0058605755 0.021587206 0.113174506 -0.035580315 -0.021236723 -0.076138645 0.02001985 -0.05896102
0.043171357 -0.004980609 0.058997717 0.06080488 0.061761476 0.012624253 -0.0276273 0.14922825
0.16681702 -0.0105281025 -0.1310407 0.07041251 0.096059315 -0.08242314 0.020504422 0.011334716
-0.05492369 -0.00097445585 0.044612523 0.124675795 -0.0028209698 0.13433681 -0.06620313 0.039109282
0.1566563 0.14271364 0.18741062 0.08671844 -0.08692265 0.1987624 0.09224378 -0.011911051
0.10713323 -0.065099396 0.07099412 0.049819138 -0.077160396 0.17638159 0.10584835 -0.08901764
0.028681636 0.113936074 0.056051876 0.096729286 -0.04374281 0.0016085999 -0.017235115 0.05615759
-0.00014194149 -0.089735724 -0.05035397 0.019094324 0.08786739 0.08423461 0.1250863 -0.03950504
-0.031242516 0.21287988 -0.001113889 -0.054879874 -0.020497132 0.045132924 0.0419206 -0.14210571
-0.0062868204 0.011662299 -0.010479266 -0.017650388 -0.08791406 -0.088895 -0.047105845 0.019942371
0.0121746035 0.021949656 -0.030048696 0.12721005 0.03705412 0.0030436039 0.18347244 -0.05224266
0.15008032 0.06364451 -0.0024790696 -0.0290212 0.072392784 0.041290235 -0.022703825 0.11061922
-0.098003 0.08830813 0.021720365 0.023408452 0.0039907065 -0.17080416 -0.029042702 -0.11308506
-0.0055241245 0.028262617 -0.06470724 0.020655055 0.034232143 -0.017583445 0.15795091 -0.033740025
-0.011129583 -0.048647374 0.0040799007 2.8846947e-05 0.09017265 0.03899455 -0.084186554 0.19883455
0.065931536 0.020431487 -0.06321065 0.13467334 -0.11735451 -0.004397575 0.058392547 -0.038396418
-0.19963361 -0.14369878 -0.17498636 0.13317125 -0.08843791 0.023112388 -0.019914532 0.036815412
-0.09666587 -0.01530449 0.11821349 0.05801835 -0.03443649 0.0854717 0.13251431 -0.036381666
-0.084576085 -0.06583846 0.02534495 -0.053192392 -0.03709085 -0.11551304 0.002975785 0.16960028
-0.11119397 0.08858077 -0.073690474 0.04105166 -0.08058919 0.04945101 -0.10876594 0.16688968
-0.011949211 0.1126567 0.085207775 -0.021580774 -0.10803413 -0.105630636 -0.0395882 -0.08763579
-0.009486847 -0.14411157 0.048379567 0.0024582855 -0.0628022 -0.12468266 0.025926849 0.03756658
-0.099346735 -0.030305775 -0.056582212 -0.10835889 -0.029808275 -0.051314246 -0.041520346 0.044657364

network_body._body_endoder.seq_layers.2.bias f4 [128]
00000000: 0244 c5bc 747c 08bd ff8d ebbc eb0e 4b3d
00000010: 72c4 0c3d d289 dabc 4194 413d acbe 0c3d
00000020: faaf bdbc b245 cfbc 15a8 4a3d 0c45 d8bc
00000030: 7986 2e3d 3897 09bd 58bc cbbc 799c 243d
00000040: 0fc6 963c 53f3 093d d983 d4bc ce3b 15bd
00000050: 55b3 abbc e280 b0bc ca5f 3e3d 944b c4bc
00000060: b928 1d3d c2b7 ddbc 0b39 c3bc 2b1a 393d
00000070: a61b e7bc 7f2b 083d a0db 30bd ea9e 423d
00000080: 06a6 fbbc 793a 173d edde 42bc 63bb cfbc
00000090: fb47 333d 4177 3e3d 0fb2 2c3d 324f 263d
000000a0: 262e 013d 181c 2f3d c480 dcbc 4810 293d
000000b0: 7c12 1cbd a25f 2c3d 3dee 083d 1e61 b0bc
000000c0: bfa1 f1bb 8b9c 67bc bb5b a8bb 8828 b1bc
000000d0: 2131 383d 0174 133d 0c73 203d ecd1 37bd
000000e0: db24 2f3d 875e d2bc a4ce 343d ed3a d13c
000000f0: 1f98 a2bc c810 dbbc a0cc c2bc 0033 c5bc
00000100: a1e5 433d 9a86 d03c b8db a03c b30c edbc
00000110: 6163 123d e549 e9bc 091b 013d 8752 453d
00000120: 6f3e e2bc d27e 203d e140 2a3d f418 cebc
00000130: bb81 ec3c 3a14 e5bc 1988 0dbd 91f7 eabc
00000140: 719f 253d 4ba6 08bd f2a0 1cbd ebd5 503d
00000150: 054b 24bd dc5d 523d 7435 2dbc 7ed8 ff3c
00000160: 57a8 153d f0e3 dbbc d054 09bd 74a1 3e3d
00000170: 56ea 0ebd 2039 babc 0016 143d d2fe c1bc
00000180: 6e31 f4bc f2fb 173d f01a fcbc b001 193d
00000190: d4a7 0a3d 68f2 043d 8b83 0a3d 9d45 263d
000001a0: 3dfa d4bc 712a de3c 2901 b4bc baae fe3c
000001b0: 1da8 2dbd e4d1 3a3d 802f febc 3967 0fbd
000001c0: 7314 fbbc d05a 03bd fe44 0dbd 8c16 363d
000001d0: cccc fbbc d50c d9bc c3ab 97bc bc60 033d
000001e0: fd9c 243d 0e42 eabc 905d 173d bb7e 2c3d
000001f0: c3cc 213d ffd3 18bd 9676 0abd bb3b 36bd
-0.02408028 -0.033321813 -0.028754232 0.049574774 0.034367032 -0.026677046 0.047260527 0.034361526
-0.023155201 -0.025301788 0.0494767 -0.026400112 0.042608712 -0.03359148 -0.024870083 0.040188286
0.018404989 0.033679318 -0.025941776 -0.036433987 -0.020959536 -0.021545831 0.04647807 -0.02396182
0.038368914 -0.027065162 -0.023830911 0.04519097 -0.028211426 0.033244606 -0.0431782 0.047514834
-0.030718815 0.036921 -0.01189397 -0.025357908 0.043769818 0.04650045 0.042161997 0.04060287
0.03153815 0.0427514 -0.026916869 0.041275293 -0.038103566 0.04208339 0.033430327 -0.021530684
-0.007374018 -0.014136444 -0.0051378882 -0.021625772 0.044968728 0.0359993 0.039172217 -0.04487793
0.042759757 -0.02567984 0.04414238 0.025540793 -0.019847928 -0.0267414 -0.023779213 -0.02407217
0.047826413 0.025454808 0.01963602 -0.02893672 0.035739306 -0.028477618 0.031519923 0.048174407
-0.027617661 0.039183445 0.04156578 -0.025158383 0.028870454 -0.027963746 -0.03455362 -0.028682502
0.04043526 -0.033361714 -0.038239427 0.050985258 -0.040110607 0.051359043 -0.010571826 0.031231161
0.036537495 -0.026842088 -0.03352815 0.046540692 -0.03489145 -0.022732317 0.036153793 -0.023681078
-0.029808726 0.03710551 -0.030774564 0.037355125 0.03385146 0.03245774 0.033816855 0.040593732
-0.02599823 0.027119847 -0.02197321 0.031089175 -0.042396653 0.045610324 -0.03102851 -0.03501055
-0.0306494 -0.032069027 -0.034489624 0.044455096 -0.030737303 -0.026495377 -0.01851452 0.032074675
0.04018878 -0.02859595 0.036954463 0.042113047 0.039501917 -0.03731155 -0.0338045 -0.044490557

action_model._discrete_distribution.branches.0.weight f4 [2, 128]
00000000: a360 88bc a3b3 e7bc 848d 86bb 6de0 743d
00000010: 94aa 903c cf7b 4ebd ceb2 ea3c f3ad 1a3c
00000020: 58f1 b8bc f7a6 55bc 03a9 b13c 4a3c 91bc
00000030: f922 f03c 673e a6bc f208 febc ce43 373d
00000040: 2f74 c13b 5e47 be3b 456d 50bd 99b5 bdbc
00000050: 6842 e0bc ad2b 5abc 2038 0e3d a25d a7bc
00000060: a0ed b43c 21b5 94bc e4f3 17bd 335a e93c
00000070: 3730 f3bc c9ff f43b 0e3d e6bc e5c1 f33c
00000080: c009 94bc 4b51 f43c 36f9 9bba 35dd eabc
00000090: 7520 f73c 151c 253d b3c2 973c c103 1f3d
000000a0: 77cb 5e3c c71c 433d 4008 f3bc 86b6 163d
000000b0: be23 a6bc 8a1e f93c 62b8 183d 0537 a8bb
000000c0: 082a 193b 42dd 65bb 868b 2d3a ab00 22bc
000000d0: 7640 103d 7155 013d 2b27 613d 5d18 90bc
000000e0: 5727 1e3d 22d7 42bb 5de3 dd3c 1fd7 543c
000000f0: 646b 02bd a246 f7bc e5a0 85bc 94f5 f4bc
00000100: 3300 043d 263d 8d3b 2538 9a3c ca7f f1bc
00000110: ecd3 fa3b 98d3 9ebc 6d78 e43c 3c24 d43c
00000120: 6e37 51bc 8323 9a3c ead9 043d 28a5 c7bc
00000130: 7fd9 ca3b 543d 93bc b8dd cbbc 26b1 e7bc
00000140: 7716 393d ca8b fcbc a9e3 f2bc 72ce ea3c
00000150: 2a56 a9bc 59dc 483d f07f 3bbc a84a f93b
00000160: 693b 043d a049 e9bc 3893 72bc 840c 373d
00000170: 6aed b9bc 2406 a6bc b70e c73c ffe3 05bd
00000180: 173e 70bc 749c 083d 98c4 cebc 7d9c 993c
00000190: 9530 da3c 3af8 413c 6d6f 0a3d 1b54 c83c
000001a0: e0a9 07bd 3b35 2b3b 9596 4dbb bcf8 8c3c
000001b0: 39d1 a2bc e2aa 1a3d cd2a e5bc 0fe7 68bc
000001c0: c738 94bc f483 90bc b0b3 c6bc 4a5e 103d
000001d0: 30c2 1fbd 1827 5bbc a1a7 8c3b 8d63 ce3c
000001e0: 7d49 903c 6542 02bd a123 3a3c a6d5 dd3c
000001f0: ff93 113d c88d 00bd 977c 17bd 3b27 87bc
00000200: 1cea 063d 9655 303c e6b0 db3c 88af 20bd
00000210: 12b4 d2bc aed7 693d 105f 04bd 3022 02bd
00000220: eb7c b63c 443d 983c 3388 12bd fc97 b43c
00000230: 7596 d3bc 9081 8e3c 7e11 b13c d926 09bd
00000240: dcee 16bc 73bc a7bc aa96 363d ecef c83b
00000250: fe0f a13c a1dc 043c 4582 8dbc c226 e33c
00000260: 4cfe 3abc e61e 9b3c c1b7 9d3c 4222 0ebd
00000270: 050e 153d 9dcb 9cbc d3ce 253d 3d8f 1cbd
00000280: f21a d33b ca3c bfbc b2f2 483a 094d af3c
00000290: 61fc bcbc cd86 6cbd 633e fabc 89dc 20bd
000002a0: 581a eab9 d612 dabc d330 013d 3dce 50bd
000002b0: c234 c63c 8a66 c4bc ed1f fcbc f3c3 863c
000002c0: 58ef 5db9 d0a5 8a3a 69d2 10bc 529e 093d
000002d0: 0992 11bd b80b 06bd a0f6 36bd 643c 423d
000002e0: 768e 1bbd f8de 8a3c c489 f1bc 5f34 46bc
000002f0: c8a8 083d 0bca 2c3d db23 af3b f80d 273d
00000300: 4f99 14bd 1db2 cabc 8d0d 03bb a68f a13c
00000310: 7ca2 98bc 6ee9 8c3c 6ff2 50bc 2fda 17bd
00000320: e06a d83b 5531 e2bc a0d0 2fbc fc62 d93c
00000330: baf2 d8bb 4596 913c 6d36 303d eca1 e23c
00000340: 7313 32bd 6f24 d33c ec7c d93c f858 a3bc
00000350: 9fe4 8b3c 34df 1abd ef09 833c 7440 1cbc
00000360: 75fc 2bbd 12e3 9e3c 7c3f f63c 492c 32bd
00000370: 619f ae3c 7a44 053d 803e 4dbc 7007 a43c
00000380: 7482 b33c faf0 c8bc 4af7 953c 69fa e1bc
00000390: 46ba 1abd 4962 6fbc b118 b8bc 4a7b b9bc
000003a0: 7892 8d3c cdbd 1dbc 4501 fd3c da4e bebc
000003b0: 771c 023d e44b 3bbd 3fb6 d33c a7d8 c43c
000003c0: 9834 7d3c a825 c63c f3a8 8b3c 1a30 08bd
000003d0: 848f 083d cec8 c13c 875d 463c 6b38 2abc
000003e0: aae0 dfbc b97a c13c ef0c 4fbd 65f6 efbc
000003f0: 1f34 eebc 2164 9f3c e7ff 023d 5a27 073d
-0.016647642 -0.0282839 -0.0041062254 0.05978434 0.017659463 -0.05041104 0.028649714 0.009440887
-0.02257602 -0.013040296 0.021687036 -0.017728943 0.029313551 -0.020293428 -0.031010125 0.044742398
0.0059037427 0.0058068475 -0.050885458 -0.023157882 -0.027375415 -0.013316077 0.034721494 -0.02043039
0.022085965 -0.018152775 -0.037097827 0.028485393 -0.029686077 0.007476781 -0.028105285 0.029755542
-0.018071055 0.02982392 -0.0011899832 -0.028669933 0.030166844 0.040309984 0.018525457 0.03882194
0.0135983145 0.047634866 -0.02966702 0.03679516 -0.020280715 0.03041007 0.037285216 -0.005133512
0.0023371 -0.0035074507 0.0006620217 -0.009887855 0.035217725 0.031575624 0.054968994 -0.017589742
0.038611736 -0.002973028 0.027085954 0.012990742 -0.031840697 -0.030185048 -0.016312072 -0.029902257
0.032226752 0.004310268 0.0188256 -0.02947988 0.0076546576 -0.019388005 0.027889455 0.025896184
-0.012769563 0.018815761 0.03243438 -0.024370745 0.0061904783 -0.01797358 -0.024885997 -0.028282713
0.04518744 -0.030828375 -0.029649572 0.028662894 -0.020670969 0.049038265 -0.011444077 0.0076077767
0.03228322 -0.02847749 -0.0148056075 0.04468967 -0.022696216 -0.0202666 0.024299009 -0.032688137
-0.014663241 0.03335233 -0.025240228 0.018751377 0.026634494 0.011838967 0.03379767 0.024454167
-0.03312099 0.0026124257 -0.0031370271 0.01720845 -0.019875156 0.037760623 -0.02797451 -0.014215245
-0.01809348 -0.017641045 -0.024255604 0.03524617 -0.03900355 -0.01337602 0.004292444 0.025193954
0.017613167 -0.0318016 0.011361034 0.027079415 0.03554153 -0.031385213 -0.036984053 -0.016498199
0.032938108 0.010762593 0.02681775 -0.0392299 -0.02572063 0.057090454 -0.03231722 -0.031770885
0.022276362 0.018583901 -0.03577442 0.022045128 -0.02582858 0.017395765 0.021614786 -0.033484314
-0.009212222 -0.020475602 0.04457728 0.0061321165 0.019660946 0.008109243 -0.017274031 0.027728442
-0.011413168 0.018935632 0.01925266 -0.03470064 0.036390323 -0.01914006 0.040480446 -0.03822254
0.006442421 -0.023344416 0.0007665559 0.021399038 -0.023069562 -0.057745744 -0.030547326 -0.03927282
-0.00044651586 -0.02662031 0.031540703 -0.050977934 0.024195079 -0.023974676 -0.030776942 0.016450858
-0.00021165365 0.001057798 -0.008839228 0.03359825 -0.03553966 -0.03272602 -0.044668794 0.047420874
-0.03797766 0.016952023 -0.029484637 -0.012097447 0.033364087 0.04218487 0.0053448505 0.040784806
-0.03627902 -0.024743134 -0.001999709 0.019721817 -0.018632166 0.017201152 -0.012753113 -0.03707331
0.0066045374 -0.027611414 -0.010730892 0.026536457 -0.006620732 0.01777185 0.043020654 0.027665101
-0.04347558 0.025774209 0.026548825 -0.019939885 0.017076788 -0.03781052 0.015995948 -0.009536851
-0.04198881 0.019395385 0.030059569 -0.043499265 0.021316232 0.032536007 -0.012527108 0.020023078
0.02191279 -0.02452897 0.018306393 -0.027585225 -0.0377753 -0.014610835 -0.022472711 -0.022641797
0.017281756 -0.009627772 0.030884394 -0.023230959 0.031765427 -0.04572667 0.025843738 0.02402909
0.015454434 0.024187878 0.017048335 -0.033249 0.033339992 0.023655321 0.01210726 -0.010389428
-0.027328808 0.023618089 -0.050549444 -0.029292295 -0.029077588 0.019456925 0.03198233 0.032996513

action_model._discrete_distribution.branches.0.bias f4 [2]
00000000: b00e e33c ae0e e3bc
0.027716964 -0.02771696

52 f4 [6]
00000000: 2925 773b db90 c23f 1d38 4f3b b13c eb40
00000010: 12c3 6240 a448 4f40
0.0037711358 1.5200456 0.003161914 7.3511586 3.5431561 3.2388086
