results/flappy2/FlappyAgent/FlappyAgent-131364.pt (torch, 439634 bytes, 41 tensors)

network_body.observation_encoder.processors.0.normalizer.running_mean f4 [6]
-0.6499764 10.037217 0.0 0.58077276 5.205245 3.5808961
00000000: da64 26bf 7198 2041 0000 0000 86ad 143f
00000010: 5e91 a640 672d 6540

network_body.observation_encoder.processors.0.normalizer.running_variance f4 [6]
1.4224739 312731.5 1.0 7.248759e+06 1.6364624e+06 1.3826478e+06
00000000: a013 b63f 70b3 9848 0000 803f ee36 dd4a
00000010: 73c3 c749 bec7 a849

network_body.processors.0.normalizer.running_mean f4 [6]
-0.6499764 10.037217 0.0 0.58077276 5.205245 3.5808961
00000000: da64 26bf 7198 2041 0000 0000 86ad 143f
00000010: 5e91 a640 672d 6540

network_body.processors.0.normalizer.running_variance f4 [6]
1.4224739 312731.5 1.0 7.248759e+06 1.6364624e+06 1.3826478e+06
00000000: a013 b63f 70b3 9848 0000 803f ee36 dd4a
00000010: 73c3 c749 bec7 a849

network_body._body_endoder.seq_layers.0.weight f4 [128, 6]
-0.41313395 0.046590656 0.75352573 0.9288226 -0.046722665 -0.16501035 0.2827539 -0.020487828
0.21732596 -0.5329757 0.32396275 0.20499627 0.08144206 0.040286124 -0.5574938 1.0245262
-0.092254564 -0.1891816 -0.4009516 -0.17715947 0.29528278 0.23862891 0.56112295 -0.104274064
0.04672981 -0.626404 0.76698864 -0.17929164 0.33703226 0.054321777 -0.7510955 -0.43502858
-0.214751 -0.35037556 0.25109583 -0.7177074 0.8942297 -0.1684205 -0.21198887 -0.25510642
-0.23283134 -0.24659461 0.17900307 0.23668781 -0.36305493 -0.31618467 0.9506926 0.5702652
-0.061937727 0.99702305 -0.7916322 0.26229835 -0.59476745 0.0638723 -0.43511134 0.1293284
0.18108855 0.089025214 -0.51510763 0.20088248 -0.3913515 -0.54012775 0.2550069 -0.0042582783
-0.14397521 -0.34807175 0.18184724 -0.27977756 0.35341057 0.46911213 0.61952704 0.1577171
-0.35548562 -0.18417685 0.058896523 -0.44878766 -0.11807584 0.13812593 0.24454184 -0.22094896
0.060611233 0.64397055 0.62542135 -0.050540045 0.10243246 -0.2352705 -0.46816447 -0.14288022
0.4636893 0.021639774 -0.3469808 -0.09974649 0.14128348 -0.0044144914 0.106913544 -0.921784
0.28265738 -0.4308626 -0.015465714 0.21143255 0.28544036 0.3501315 -0.33825108 -0.18645664
-0.14545994 -0.4862069 -0.8908382 0.8485389 0.052667383 0.038629618 0.19911723 -0.20717923
1.0978018 -0.1746908 -0.29577875 -0.040012285 -0.09436582 0.24858561 0.49573258 0.24240966
-0.17128527 0.4168854 0.08346792 0.4559288 -0.21741496 0.0544014 0.29917595 -0.7525589
0.45559642 0.34049177 -0.095441364 0.00036121812 -0.04899704 -0.81744826 0.3512594 0.32094055
-0.19903825 -0.32674903 -0.3296859 0.1875307 -0.2903617 -0.37632796 0.62409216 0.24491741
0.10203115 0.3602238 0.41178295 -0.24939266 -0.35998535 -0.12976353 1.1418782 0.104876414
-0.40475014 0.3866931 0.43814638 0.3442859 0.21430999 0.498845 0.1570929 0.09130791
-0.97956955 0.30024973 -0.57034886 0.6562074 -0.5449125 -0.39185297 0.23097816 0.020688893
-0.085822895 0.28070095 -0.36496377 0.22953351 -0.08239572 0.23092054 0.1546338 -0.6506013
-0.3818204 0.2616562 0.53000844 0.6688875 0.59698445 -0.23491105 -0.87447566 -0.22307421
-0.09786824 -0.40098345 -0.02647035 -0.5621156 -0.062369503 -0.05410164 0.75092757 -0.48665282
0.17273295 0.18362027 -0.030804656 0.36425295 0.3196626 -0.58012223 0.6390784 0.35539198
0.43714818 -0.11723143 -0.22072229 -0.0010001208 -0.10602304 -0.09669398 -0.028881958 0.38543668
-0.15112296 -0.37120208 0.08296595 0.072992794 -0.2030262 0.20876567 -0.36842284 0.045060806
0.09194123 -0.6009619 -0.12332702 -0.09017701 0.10599347 -0.06125187 0.1385305 -0.49181977
-0.109834656 0.2964435 0.07880389 0.12746084 -0.031624053 0.20276299 0.42685446 0.7213627
-0.60954845 0.6259381 0.53853554 -0.17654859 1.1123894 -0.12634362 -0.35188007 0.5793606
-0.2870907 -0.1265366 -0.039398864 0.3051482 -0.27946365 -0.36012158 -0.052820094 -0.29102772
0.322395 0.6439893 -0.80766046 -0.29501486 -0.1042244 0.5102791 -0.5771708 0.16041853
00000000: 4b86 d3be d8d5 3e3d 10e7 403f 51c7 6d3f
00000010: 4460 3fbd 79f8 28be 1fc5 903e 17d6 a7bc
00000020: b28a 5e3e 1871 08bf 72de a53e 8bea 513e
00000030: 18cb a63d 1003 253d eab7 0ebf ad23 833f
00000040: f6ef bcbd d2b8 41be 8749 cdbe 4b69 35be
00000050: 4e2f 973e 235b 743e c1a5 0f3f a48d d5bd
00000060: c267 3f3d 035c 20bf 5e59 443f 3a98 37be
00000070: 7e8f ac3e 8380 5e3d cb47 40bf 11bc debe
00000080: b0e7 5bbe 6d64 b3be a28f 803e acbb 37bf
00000090: 3dec 643f 6c76 2cbe 9c13 59be 4f9d 82be
000000a0: 576b 6ebe 4c83 7cbe 954c 373e 4a5e 723e
000000b0: 56e2 b9be f5e2 a1be 9760 733f e6fc 113f
000000c0: 6ab2 7dbd e73c 7f3f 68a8 4abf f84b 863e
000000d0: ae42 18bf 7bcf 823d eac6 debe aa6e 043e
000000e0: 476f 393e da52 b63d 18de 03bf 23b4 4d3e
000000f0: 395f c8be d045 0abf 4490 823e 0789 8bbb
00000100: 3d6e 13be 7636 b2be 2a36 3a3e 013f 8fbe
00000110: 3bf2 b43e 772f f03e 5399 1e3f 9780 213e
00000120: 3602 b6be db98 3cbe 7b3d 713d 7fc7 e5be
00000130: bfd1 f1bd e270 0d3e 2d69 7a3e 7240 62be
00000140: 7c43 783d 41db 243f 9d1b 203f 1403 4fbd
00000150: 1cc8 d13d c0ea 70be 41b3 efbe 314f 12be
00000160: af68 ed3e e545 b13c 78a7 b1be e347 ccbd
00000170: 9eac 103e 70a7 90bb 7df5 da3d 09fa 6bbf
00000180: 78b8 903e 069a dcbe e863 7dbc c681 583e
00000190: 3d25 923e 7044 b33e 3f2f adbe 7dee 3ebe
000001a0: 73f3 14be 1cf0 f8be f90d 64bf d839 593f
000001b0: c1b9 573d 173a 1e3d 63e5 4b3e cb26 54be
000001c0: c584 8c3f 25e2 32be 5070 97be ece3 23bd
000001d0: de42 c1bd 3a8d 7e3e a9d0 fd3e 3d3a 783e
000001e0: 6865 2fbe 0172 d53e 3bf1 aa3d 806f e93e
000001f0: 07a2 5ebe 01d4 5e3d 972d 993e b3a7 40bf
00000200: ef43 e93e f054 ae3e c376 c3bd e061 bd39
00000210: 1fb1 48bd 4a44 51bf 46d8 b33e 5252 a43e
00000220: afd0 4bbe a64b a7be 97cc a8be 0c08 403e
00000230: 4aaa 94be 0fae c0be 81c4 1f3f a1cb 7a3e
00000240: b5f5 d03d 416f b83e 37d5 d23e ca60 7fbe
00000250: 0050 b8be bbe0 04be 1129 923f 72c9 d63d
00000260: 693b cfbe a3fc c53e b954 e03e 3e46 b03e
00000270: 1474 5b3e 9d68 ff3e f6dc 203e a4ff ba3d
00000280: 12c5 7abf 55ba 993e 6202 12bf 35fd 273f
00000290: 637f 0bbf f4a0 c8be 8a85 6c3e c17b a93c
000002a0: eac3 afbd 09b8 8f3e 88dc babe d50a 6b3e
000002b0: 16bf a8bd 6f76 6c3e 5358 1e3e cf8d 26bf
000002c0: f77d c3be cdf7 853e a2ae 073f 363c 2b3f
000002d0: f9d3 183f 868c 70be a3dd 5fbf 916d 64be
000002e0: 256f c8bd b44d cdbe 59d8 d8bc cfe6 0fbf
000002f0: 2a77 7fbd ae99 5dbd ca3c 403f 8f2a f9be
00000300: e8e0 303e f406 3c3e 0c5a fcbc 5d7f ba3e
00000310: d1aa a33e e482 14bf a49a 233f f0f5 b53e
00000320: e3d1 df3e 0817 f0bd 0605 62be 7c16 83ba
00000330: 9c22 d9bd 7e07 c6bd db99 ecbc f557 c53e
00000340: fabf 1abe 330e bebe 0dea a93d 3f7d 953d
00000350: 1ae6 4fbe abc6 553e eba1 bcbe ae91 383d
00000360: af4b bc3d a4d8 19bf e092 fcbd b9ae b8bd
00000370: 1b13 d93d 3ee3 7abd f0da 0d3e cdcf fbbe
00000380: fef0 e0bd 71c7 973e ef63 a13d 1885 023e
00000390: 3988 01bd 1aa1 4f3e ab8c da3e 3aab 383f
000003a0: 5e0b 1cbf 7b3d 203f 77dd 093f 27c9 34be
000003b0: c762 8e3f 3960 01be a029 b4be fa50 143f
000003c0: 8dfd 92be cf92 01be b460 21bd 633c 9c3e
000003d0: dc15 8fbe db61 b8be e259 58bd 9601 95be
000003e0: f510 a53e 7cdc 243f d6c2 4ebf 300c 97be
000003f0: 9a73 d5bd a7a1 023f 77c1 13bf c144 243e

network_body._body_endoder.seq_layers.0.bias f4 [128]
-0.011631124 -0.02967688 0.040989928 0.054636136 -0.048780426 -0.039746527 0.033107415 0.037230458
-0.0052312864 -0.05376654 -0.046005446 0.05258626 -0.0049230107 0.06724905 -0.014030705 0.06009307
-0.03301245 -0.035166036 0.043765318 -0.030222407 -0.0040677297 0.032265607 -0.03123231 0.05027612
-0.043055374 -0.04085844 -0.030195098 0.038433734 -0.0553331 -0.03279335 -0.042124733 0.051523693
0.07432557 -0.001644741 0.05732409 -0.021013677 0.004272092 0.005126093 0.037492596 -0.038751334
-0.0099734925 0.051383015 -0.04178546 -0.054259416 0.048696745 -0.049633544 -0.0448918 0.04834232
0.06275186 -0.044992737 0.06812594 0.052128024 0.05343408 0.018936608 -0.03762029 0.04634931
-0.044710632 -0.04234455 0.051257506 -0.046525635 0.05563667 -0.036456596 0.042678528 -0.044117574
-0.039786667 0.046921015 -0.023508303 -0.016056301 0.061475255 0.016852133 0.057218306 0.028551174
0.05970155 0.057023495 0.00894787 -0.039769154 0.056588504 0.056125194 0.0008933303 0.053018253
-0.04717414 0.062058628 0.025734983 0.068374686 -0.03887595 -0.03256969 -0.058248494 -0.04620557
-0.054979645 -0.051289584 0.029184556 -0.02855189 0.05423028 0.048134502 -0.018219506 -0.015940618
-0.016562251 -0.028023053 0.06602966 0.032611366 0.065085664 -0.03313659 -0.029849024 -0.030548068
0.031005055 -0.04480075 -0.028872274 0.04677523 -0.027296133 0.049895372 0.052512374 -0.054092046
0.054791044 0.04841755 -0.05337335 -0.044884805 0.049703564 -0.022347333 -0.065488085 0.06520944
-0.042575467 -0.03598579 -0.032368436 0.061362725 -0.05646855 0.04611841 -0.020184014 0.0010564916
00000000: 7890 3ebc ee1c f3bc 0ee5 273d 24ca 5f3d
00000010: fccd 47bd 41cd 22bd a49b 073d f77e 183d
00000020: 366b abbb 4e3a 5cbd 3570 3cbd b164 573d
00000030: 3551 a1bb dfb9 893d 0be1 65bc 2724 763d
00000040: 1038 07bd 430a 10bd 4343 333d fb94 f7bc
00000050: 974a 85bb f128 043d e7da ffbc 55ee 4d3d
00000060: d55a 30bd 2e5b 27bd b65b f7bc b16c 1d3d
00000070: f6a4 62bd 5252 06bd fc8a 2cbd 820a 533d
00000080: 0138 983d 5a94 d7ba aacc 6a3d e024 acbc
00000090: e8fc 8b3b c9f8 a73b d691 193d b8b9 1ebd
000000a0: dc67 23bc ff76 523d 3b27 2bbd 1f3f 5ebd
000000b0: 3d76 473d 8b4c 4bbd 77e0 37bd 9902 463d
000000c0: 0c84 803d 4e4a 38bd 9d85 8b3d 3284 553d
000000d0: b2dd 5a3d f220 9b3c bc17 1abd c6d8 3d3d
000000e0: 7f22 37bd 7b71 2dbd 64f3 513d aa91 3ebd
000000f0: 47e3 633d 8353 15bd aecf 2e3d a1b4 34bd
00000100: 58f7 22bd 4030 403d 7c94 c0bc 8188 83bc
00000110: 7acd 7b3d 7c0d 8a3c be5d 6a3d 27e4 e93c
00000120: 9d89 743d 7891 693d 169a 123c fbe4 22bd
00000130: 59c9 673d 88e3 653d 622e 6a3a ab29 593d
00000140: ac39 41bd 3031 7e3d 2cd2 d23c 0708 8c3d
00000150: 633c 1fbd cc67 05bd f995 6ebd 0d42 3dbd
00000160: 5632 61bd 0715 52bd 7314 ef3c a7e5 e9bc
00000170: 9220 5e3d af28 453d 1341 95bc e695 82bc
00000180: 8fad 87bc 9a90 e5bc 8f3a 873d 7f93 053d
00000190: a24b 853d 3cba 07bd f185 f4bc f13f fabc
000001a0: 50fe fd3c fe80 37bd 8c85 ecbc 6297 3f3d
000001b0: 249c dfbc 175f 4c3d 3717 573d 9f8f 5dbd
000001c0: 936c 603d 7b51 463d 049e 5abd 21d9 37bd
000001d0: f795 4b3d c111 b7bc 9e1e 86bd 878c 853d
000001e0: 9d63 2ebd d665 13bd c494 04bd 7b57 7b3d
000001f0: 914b 67bd a8e6 3c3d f258 a5bc fa79 8a3a

network_body._body_endoder.seq_layers.2.weight f4 [128, 128]
0.041131016 0.0044152318 -0.111786455 -0.073444135 0.29295948 0.015403178 0.14052494 -0.09340677
0.13714896 0.075488895 0.06306003 0.10703601 0.119766705 0.10228935 -0.03452648 -0.00796978
-0.029048579 -0.13308409 -0.10607051 -0.02980147 0.046375707 0.116684146 -0.027637135 0.020116773
-0.033587653 -0.020352798 0.29097396 -0.111239865 0.19336435 7.95933e-05 -0.12891713 0.07665135
-0.17439176 -0.20758697 -0.057118744 -0.03413548 -0.01899749 0.039354607 -0.04356839 0.048920024
-0.121026896 -0.02029099 0.009947521 -0.17174862 -0.121533334 0.06674944 -0.057935324 0.0057119816
-0.102127805 -0.106066525 0.005453774 0.047540553 0.00039904614 0.091899134 0.04816521 -0.118623756
-0.0015993336 0.14317724 -0.03798392 0.08529086 0.02766736 0.040020082 -0.062671356 0.09282626
0.17514502 0.024238702 0.06315513 0.0135541735 0.044427466 0.07301516 -0.009292572 -0.037410527
0.0059051695 0.027506325 0.115369126 -0.039278083 -0.02275538 -0.07865425 0.025252998 -0.0525479
0.04699464 -0.013423499 0.060871813 0.06538406 0.059013158 0.013288528 -0.025907697 0.15442814
0.1707921 -0.01383908 -0.13642393 0.07056701 0.100453176 -0.078973666 0.019780373 0.014976782
-0.0559048 0.00019076228 0.04331928 0.12740204 0.0036601715 0.13910636 -0.059244867 0.042389896
0.15468283 0.14797254 0.18541418 0.0927122 -0.07970656 0.20211832 0.095593594 -0.017583843
0.10414189 -0.06482133 0.07339426 0.05266102 -0.07146937 0.17600358 0.1126266 -0.09001006
0.023947204 0.11560302 0.0666685 0.101340644 -0.04537732 -0.0038421256 -0.012926785 0.048991296
-0.004631987 -0.08109849 -0.055889513 0.022049228 0.0975019 0.092329845 0.12775664 -0.038379133
-0.016147649 0.21604905 0.0044751978 -0.05938969 -0.01538594 0.036427155 0.054195505 -0.1357239
-0.0027001156 -0.0012065215 0.0005472461 -0.019627823 -0.07673241 -0.08823553 -0.044613834 0.024346784
0.012950403 0.019693457 -0.012967828 0.12667917 0.04474736 0.0074975207 0.19070266 -0.04287779
0.14394966 0.06714002 -0.012385914 -0.02902484 0.07968544 0.041234534 -0.021503035 0.10462767
-0.106052235 0.07740925 0.03622658 0.033896483 0.010094353 -0.16699569 -0.028342158 -0.10461771
-0.006015656 0.03854563 -0.065448746 0.021991493 0.03290062 -0.0004037464 0.16558719 -0.022944225
-0.011388777 -0.055566955 0.0024488352 -0.00011420813 0.09115504 0.046045087 -0.07622382 0.1999512
0.055195626 0.019099839 -0.060523648 0.1384724 -0.12715587 -0.008773488 0.06355851 -0.03478974
-0.20038265 -0.13366017 -0.17071371 0.12894182 -0.08986667 0.0220044 -0.011568325 0.04735741
-0.08942788 -0.02626831 0.122174144 0.06594199 -0.03637998 0.0882338 0.13252234 -0.03094202
-0.07816066 -0.07070712 0.018088687 -0.05078396 -0.029545395 -0.113161825 0.0033566605 0.17595609
-0.11169448 0.090290144 -0.075409435 0.047309525 -0.07010738 0.056493543 -0.10171413 0.17251019
-0.01445912 0.121130325 0.084745854 -0.011642692 -0.09999061 -0.098629236 -0.033170518 -0.0964411
-0.014405938 -0.1428362 0.05337092 0.007503449 -0.055532347 -0.12346648 0.032606475 0.03680466
-0.104217626 -0.026918937 -0.04307544 -0.10055869 -0.032670267 -0.057883512 -0.033573255 0.03367461
00000000: ff78 283d a6ad 903b 4cf0 e4bd e169 96bd
00000010: c9fe 953e 9c5d 7c3c c5e5 0f3e 0c4c bfbd
00000020: c770 0c3e ec99 9a3d 9e25 813d b235 db3d
00000030: 3f48 f53d 147d d13d a36b 0dbd ae93 02bc
00000040: 49f7 edbc 3247 08be 7f3b d9bd 3622 f4bc
00000050: 74f4 3d3d 19f8 ee3d 4667 e2bc eecb a43c
00000060: 3593 09bd e9ba a6bc 8afa 943e bad1 e3bd
00000070: 4e01 463e 54eb a638 da02 04be 62fb 9c3d
00000080: c193 32be ae91 54be 58f5 69bd a5d1 0bbd
00000090: a0a0 9bbc 4c32 213d c574 32bd 5d60 483d
000000a0: f3dc f7bd 4a39 a6bc edfa 223c dfde 2fbe
000000b0: 78e6 f8bd eeb3 883d 974d 6dbd 932b bb3b
000000c0: 6228 d1bd 6839 d9bd 92b5 b23b e2b9 423d
000000d0: 1137 d139 9d35 bc3d e248 453d 03f1 f2bd
000000e0: bba0 d1ba 0e9d 123e 0795 1bbd f9ac ae3d
000000f0: a9a6 e23c 19ec 233d d759 80bd b21b be3d
00000100: 3759 333e 3e90 c63c 7a57 813d 5312 5e3c
00000110: 93f9 353d f988 953d df3f 18bc c83b 19bd
00000120: 2780 c13b f254 e13c a646 ec3d 0ee2 20bd
00000130: 7e69 babc 7b15 a1bd 60df ce3c 773c 57bd
00000140: 747d 403d 3cee 5bbc b954 793d 14e8 853d
00000150: c8b7 713d 20b8 593c 613c d4bc 6922 1e3e
00000160: 20e4 2e3e 4fbd 62bc b7b2 0bbe 7085 903d
00000170: 65ba cd3d f2bc a1bd 730a a23c 2d61 753c
00000180: 6efc 64bd 5c07 4839 8f6f 313d ae75 023e
00000190: 7ddf 6f3b e671 0e3e bfaa 72bd 07a1 2d3d
000001a0: 2d65 1e3e 1d86 173e 37dd 3d3e e5df bd3d
000001b0: 313d a3bd 1bf8 4e3e 93c6 c33d fe0b 90bc
000001c0: 5848 d53d 0cc1 84bd bb4f 963d 15b3 573d
000001d0: 885e 92bd 483a 343e c6a8 e63d 3257 b8bd
000001e0: ed2c c43c 47c1 ec3d 7f89 883d af8b cf3d
000001f0: 92dd 39bd 2ccc 7bbb deca 53bc 19ab 483d
00000200: ecc7 97bb f716 a6bd 67ec 64bd 95a0 b43c
00000210: 13af c73d 6e17 bd3d a3d2 023e 7033 1dbd
00000220: 1348 84bc f63b 5d3e aea4 923b 9b42 73bd
00000230: 4f15 7cbc a434 153d 1bfc 5d3d 35fb 0abe
00000240: 6cf4 30bb 2524 9eba 1075 0f3a 87ca a0bc
00000250: e225 9dbd d4b4 b4bd ffbc 36bd e872 c73c
00000260: ed2d 543c 2c54 a13c 0377 54bc 2fb8 013e
00000270: 0249 373d c3ad f53b 8f47 433e 9fa0 2fbd
00000280: 8a67 133e b580 893d 4aee 4abc 80c5 edbc
00000290: 1f32 a33d 8be5 283d 2227 b0bc 0847 d63d
000002a0: ea31 d9bd be88 9e3d 5362 143d 0ad7 0a3d
000002b0: c962 253c eb00 2bbe d02d e8bc cf41 d6bd
000002c0: fb1e c5bb 06e2 1d3d fe09 86bd 8127 b43c
000002d0: cdc2 063d edad d3b9 b08f 293e 87f5 bbbc
000002e0: fe97 3abc 2d9a 63bd a37c 203b 0683 efb8
000002f0: 7eaf ba3d c699 3c3d 3c1b 9cbd 02c0 4c3e
00000300: cf14 623d 4477 9c3c a5e7 77bd b5cb 0d3e
00000310: 2635 02be adbe 0fbc f72a 823d b07f 0ebd
00000320: 1c31 4dbe 36de 08be 93cf 2ebe 5309 043e
00000330: 040c b8bd 9242 b43c 1289 3dbc d8f9 413d
00000340: f725 b7bd a430 d7bc 7036 fa3d 980c 873d
00000350: 2d03 15bd ecb3 b43d f0b3 073e 1e7a fdbc
00000360: b212 a0bd e5ce 90bd ba2e 943c d702 50bd
00000370: 2f09 f2bc 63c1 e7bd 6bfb 5b3b d52d 343e
00000380: 13c0 e4bd 0aea b83d 4370 9abd a2c7 413d
00000390: 7594 8fbd c665 673d 7f4f d0bd 83a6 303e
000003a0: f2e5 6cbc 2d13 f83d 3c8f ad3d fdc0 3ebc
000003b0: e0c7 ccbd 20fe c9bd cfdd 07bd e982 c5bd
000003c0: e206 6cbc a743 12be 779b 5a3d 7edf f53b
000003d0: e375 63bd fedb fcbd 5e8e 053d 7cc0 163d
000003e0: 0d70 d5bd 1a85 dcbc df6f 30bd b7f1 cdbd
000003f0: 42d1 05bd 4317 6dbd 1c84 09bd 63ee 093d

network_body._body_endoder.seq_layers.2.bias f4 [128]
-0.03905015 -0.049985122 -0.044410426 0.060665876 0.05121418 -0.02382639 0.057805967 0.047160927
-0.033439517 -0.03892103 0.060708195 -0.040931147 0.053413074 -0.051034387 -0.02704257 0.05317237
0.024762934 0.0422924 -0.03133548 -0.049505163 -0.024652196 -0.031117843 0.061505735 -0.033980913
0.051826023 -0.043329787 -0.036298867 0.05804788 -0.045283016 0.049000017 -0.041248728 0.057877023
-0.043764293 0.047774307 -0.011338772 -0.027867004 0.060766164 0.059331603 0.054004166 0.05062265
0.047448553 0.051074475 -0.04184133 0.052804347 -0.043737337 0.05359194 0.043029886 -0.030629769
-0.0073228288 -0.02443087 0.008344611 -0.024161946 0.05872553 0.047472935 0.04950987 -0.051494677
0.05229316 -0.03727748 0.054706812 0.03878973 -0.03160891 -0.04011499 -0.036648996 -0.037616357
0.05947552 0.034279704 0.035958033 -0.04397443 0.047704168 -0.043515373 0.04302035 0.061840314
-0.027246116 0.05258318 0.057202738 -0.03698673 0.043098483 -0.040838514 -0.03614571 -0.034688693
0.04963688 -0.031569388 -0.03983232 0.06601306 -0.045311604 0.063517466 -0.030971924 0.05164986
0.049382742 -0.032753807 -0.04717132 0.061016995 -0.051314037 -0.024055509 0.047000222 -0.038571626
-0.043202586 0.048489645 -0.0373411 0.046448868 0.046934042 0.042736955 0.04586687 0.055364348
-0.029687697 0.04249148 -0.034605503 0.043049004 -0.048087016 0.05857049 -0.04550833 -0.052860845
-0.047538333 -0.0488582 -0.051612005 0.054669645 -0.04649787 -0.03930215 -0.02532893 0.044973552
0.05061777 -0.034091935 0.051603474 0.053485956 0.049538296 -0.043322768 -0.040018868 -0.056331243
00000000: 0df3 1fbd 33bd 4cbd b5e7 35bd c87c 783d
00000010: f6c5 513d 902f c3bc f3c5 6c3d d12b 413d
00000020: e0f7 08bd a86b 1fbd 28a9 783d 6ba7 27bd
00000030: abc7 5a3d 6f09 51bd 6188 ddbc 45cb 593d
00000040: a3db ca3c cc3a 2d3d a259 00bd edc5 4abd
00000050: 67f3 c9bc d9ea febc 70ed 7b3d 922f 0bbd
00000060: 8647 543d 937a 31bd 1fae 14bd 9dc3 6d3d
00000070: af7a 39bd 3eb4 483d 6df4 28bd 7510 6d3d
00000080: 3042 33bd feae 433d 42c6 39bc 5849 e4bc
00000090: f1e5 783d b205 733d 7933 5d3d b259 4f3d
000000a0: 6a59 423d 7833 513d d061 2bbd 5f49 583d
000000b0: ec25 33bd 3983 5b3d 1b40 303d 48eb fabc
000000c0: 57f4 efbb 3f23 c8bc d6b7 083c 46ef c5bc
000000d0: 2e8a 703d fb72 423d ddca 4a3d 15ec 52bd
000000e0: 5a31 563d 45b0 18bd 4014 603d fbe1 1e3d
000000f0: 5878 01bd 9e4f 24bd 421d 16bd 9c13 1abd
00000100: 9a9c 733d e068 0c3d bb48 133d 881e 34bd
00000110: 7265 433d 2d3d 32bd 1b36 303d 454c 7d3d
00000120: 3f33 dfbc 7661 573d 6b4d 6a3d 667f 17bd
00000130: 0988 303d 4946 27bd 860d 14bd bb15 0ebd
00000140: 0b50 4b3d e74e 01bd 3727 23bd db31 873d
00000150: a998 39bd 7215 823d d5b8 fdbc ce8e 533d
00000160: 8f45 4a3d db28 06bd b736 41bd f5ec 793d
00000170: ab2e 52bd 0f10 c5bc 4e83 403d 48fd 1dbd
00000180: 32f5 30bd 149d 463d fbf2 18bd 2b41 3e3d
00000190: e93d 403d f20c 2f3d e6de 3b3d bac5 623d
000001a0: 9d33 f3bc 8c0b 2e3d 80be 0dbd 2754 303d
000001b0: e4f6 44bd 9ce7 6f3d f166 3abd 9d84 58bd
000001c0: 8eb7 42bd 891f 48bd 1c67 53bd 47ed 5f3d
000001d0: 8d74 3ebd 4bfb 20bd 9e7e cfbc 3036 383d
000001e0: 9454 4f3d fca3 0bbd 2a5e 533d 1714 5b3d
000001f0: abe8 4a3d 3773 31bd d3ea 23bd 97bb 66bd

action_model._discrete_distribution.branches.0.weight f4 [2, 128]
-0.022072611 -0.032166664 -0.0064749513 0.0661225 0.029550247 -0.070990585 0.03295525 0.016092533
-0.025795054 -0.018416997 0.030342944 -0.024448812 0.030782698 -0.027727384 -0.041556988 0.058710042
0.0016560772 0.00873241 -0.06592586 -0.022781363 -0.04540707 -0.013508307 0.044157676 -0.03066697
0.025254495 -0.023467464 -0.046783257 0.036807604 -0.039342184 0.013015688 -0.04402684 0.032803115
-0.024005163 0.034232248 0.0020573053 -0.041225016 0.039568044 0.047903083 0.023380706 0.045076296
0.019669188 0.048951108 -0.037498835 0.048474286 -0.03544317 0.03846614 0.046044048 -0.0075164265
-0.00012902408 -0.004307617 0.004367371 -0.024369737 0.04748925 0.036748488 0.061569065 -0.032709017
0.041997522 -0.0020685878 0.032748602 0.02022367 -0.03494245 -0.035818253 -0.016122418 -0.034188446
0.039557543 0.0047338707 0.025202822 -0.033416454 0.009304138 -0.025644448 0.03252446 0.03393781
-0.024687884 0.025930999 0.040791303 -0.032765966 0.009632229 -0.023315197 -0.042137247 -0.04183754
0.053040724 -0.050250296 -0.047243558 0.03819162 -0.035337023 0.05798312 -0.0294318 0.01635437
0.042074848 -0.031215163 -0.016976526 0.05783081 -0.029514765 -0.036074392 0.027164713 -0.036926243
-0.02190498 0.039060045 -0.041423514 0.016481318 0.040108394 0.013204115 0.036942646 0.035178073
-0.05123494 0.0063262335 -0.0077404804 0.017958775 -0.035496034 0.048393726 -0.026890963 -0.020184161
-0.022999737 -0.024221662 -0.03263932 0.03882565 -0.04478565 -0.014312724 0.0019393426 0.031811398
0.02176811 -0.04630927 0.021912366 0.029472278 0.038568273 -0.045816913 -0.05073253 -0.027863739
0.03836308 0.014645384 0.02918648 -0.045568023 -0.03761143 0.077669986 -0.03662276 -0.038422506
0.025495397 0.02396061 -0.044430345 0.028765 -0.027297698 0.024829721 0.03216162 -0.047451958
-0.0049645556 -0.023401156 0.05961768 0.0057556042 0.037692618 0.00830147 -0.026710188 0.037965026
-0.01458171 0.024250323 0.028938077 -0.043022852 0.04604643 -0.02467897 0.056401998 -0.041270114
0.012376528 -0.027752753 -0.0024807309 0.033954136 -0.03247079 -0.06533884 -0.035402585 -0.045527175
-0.0065173926 -0.027936557 0.039372522 -0.06265706 0.03935754 -0.03203077 -0.039535772 0.01883378
0.0022544719 0.0018579632 -0.012544579 0.048080094 -0.047811188 -0.037898887 -0.051268857 0.062540166
-0.041363444 0.016047586 -0.03514731 -0.019330373 0.03646585 0.047818072 0.005155204 0.045070987
-0.0436098 -0.025166731 -0.008376939 0.02365839 -0.02028165 0.023457602 -0.017388115 -0.045114916
0.018522864 -0.034726627 -0.019087808 0.034931675 -0.010062483 0.023113469 0.060271896 0.041219927
-0.051328864 0.04519614 0.044142816 -0.029468577 0.031742856 -0.046755373 0.033983655 -0.018283445
-0.051780436 0.022133064 0.03223049 -0.056640405 0.028134784 0.048343807 -0.0153928 0.024261214
0.02915453 -0.030236691 0.03448966 -0.02531516 -0.051249202 -0.015975984 -0.025617683 -0.03336571
0.035395708 -0.01334158 0.03548782 -0.023981288 0.047386285 -0.05635977 0.02476019 0.029998
0.020360695 0.030768499 0.025432065 -0.036828477 0.03912209 0.024592016 0.014460365 -0.017006865
-0.03148375 0.03812575 -0.06110078 -0.03168515 -0.032104325 0.03388863 0.04573081 0.04436205
00000000: 9fd1 b4bc 31c1 03bd d42b d4bb 3c6b 873d
00000010: 5c13 f23c 8363 91bd 16fc 063d 7dd4 833c
00000020: 2650 d3bc 3edf 96bc c491 f83c e048 c8bc
00000030: ff2b fc3c 8a24 e3bc a937 2abd f179 703d
00000040: bb10 d93a 6212 0f3c 2304 87bd fb9f babc
00000050: c4fc 39bd f251 5dbc aede 343d 4c39 fbbc
00000060: 84e2 ce3c d73e c0bc cd9f 3fbd 92c3 163d
00000070: 4525 21bd c13f 553c 7d55 34bd 8f5c 063d
00000080: 7aa6 c4bc 1d37 0c3d dbd3 063b 90db 28bd
00000090: 1a12 223d 0636 443d e588 bf3c eca1 383d
000000a0: 4721 a13c f580 483d 6198 19bd f98c 463d
000000b0: dc2c 11bd ac8e 1d3d af98 3c3d 5b4c f6bb
000000c0: a34a 07b9 e926 8dbb 2a1c 8f3b 0ba3 c7bc
000000d0: 1684 423d 9585 163d d82f 7c3d e4f9 05bd
000000e0: 9805 2c3d 2591 07bb 6623 063d 1cac a53c
000000f0: d01f 0fbd 29b6 12bd 2913 84bc 2f09 0cbd
00000100: 1707 223d 961e 9b3b 2676 ce3c b1df 08bd
00000110: 6270 183c 4e14 d2bc 5e38 053d 6002 0b3d
00000120: 3f3e cabc 3f6d d43c c814 273d 9b35 06bd
00000130: 7fd0 1d3c 83ff bebc 1b98 2cbd d75d 2bbd
00000140: 3b41 593d 41d3 4dbd 7682 41bd d16e 1c3d
00000150: 8ebd 10bd b57f 6d3d f51a f1bc 9af9 853c
00000160: ad56 2c3d f1b6 ffbc 5b12 8bbc 00e0 6c3d
00000170: f3c8 f1bc bec2 13bd 8888 de3c f93f 17bd
00000180: 1372 b3bc 6dfd 1f3d b4ab 29bd d403 873c
00000190: b348 243d 1356 583c 2c51 173d e216 103d
000001a0: badb 51bd 4b4c cf3b dba3 fdbb 481e 933c
000001b0: 4a64 11bd 8038 463d 704a dcbc 4159 a5bc
000001c0: f269 bcbc 826c c6bc cfb0 05bd a507 1f3d
000001d0: 2871 37bd ea7f 6abc 8a31 fe3a ab4c 023d
000001e0: 0953 b23c caae 3dbd 9081 b33c d96f f13c
000001f0: c4f9 1d3d 84aa 3bbd eacc 4fbd 7f42 e4bc
00000200: 9b22 1d3d 31f3 6f3c 7c18 ef3c 89a5 3abd
00000210: 710e 1abd 7111 9f3d bf01 16bd eb60 1dbd
00000220: b9db d03c 0b49 c43c 98fc 35bd 94a4 eb3c
00000230: 6c9f dfbc b367 cb3c e7bb 033d fc5c 42bd
00000240: b6ad a2bb c8b3 bfbc ab31 743d 8299 bc3b
00000250: 9363 1a3d e402 083c 53cf dabc 3781 1b3d
00000260: 20e8 6ebc 9da8 c63c 8c0f ed3c bb38 30bd
00000270: 2e9b 3c3d 8d2b cabc c805 673d da0a 29bd
00000280: ecc6 4a3c be59 e3bc c293 22bb 7e13 0b3d
00000290: 1700 05bd 5fd0 85bd 4d02 11bd b47a 3abd
000002a0: da8f d5bb 35db e4bc 1545 213d 5852 80bd
000002b0: 5f35 213d b232 03bd 43f0 21bd 4d49 9a3c
000002c0: c3bf 133b e686 f33a c787 4dbc a2ef 443d
000002d0: aad5 43bd dd3b 1bbd 4bff 51bd 0f15 803d
000002e0: b76c 29bd 3a76 833c a0f6 0fbd bb5a 9ebc
000002f0: 375d 153d e2dc 433d fcec a83b 5b9c 383d
00000300: 31a0 32bd 762a cebc 6e3f 09bc 3dcf c13c
00000310: b425 a6bc 282a c03c 8571 8ebc 6bca 38bd
00000320: 43bd 973c 823d 0ebd 095e 9cbc 8414 0f3d
00000330: 1ddd 24bc 7558 bd3c aadf 763d 3ad6 283d
00000340: 373e 52bd 961f 393d 19cf 343d 1668 f1bc
00000350: cc04 023d 9082 3fbd 7232 0b3d 2ac7 95bc
00000360: b917 54bd 6650 b53c 1e04 043d c5ff 67bd
00000370: eb7a e63c 2804 463d 1532 7cbc 74bf c63c
00000380: 7bd5 ee3c f0b2 f7bc 0845 0d3d bd61 cfbc
00000390: afea 51bd 11e0 82bc 2ddc d1bc 7caa 08bd
000003a0: 17fb 103d a496 5abc ad5b 113d 6874 c4bc
000003b0: 1f18 423d 81d9 66bd e2d5 ca3c 5ebe f53c
000003c0: 79cb a63c 380e fc3c e856 d03c 75d9 16bd
000003d0: 7c3e 203d 3275 c93c 2beb 6c3c fb51 8bbc
000003e0: 1bf5 00bd bf29 1c3d d044 7abd 4ac8 01bd
000003f0: d37f 03bd cece 0a3d 3b50 3b3d fbb4 353d

action_model._discrete_distribution.branches.0.bias f4 [2]
0.03702226 -0.037022255
00000000: a7a4 173d a6a4 17bd

exp_avg f4 [128, 6]
-2.3078677e-07 1.41031605e-05 0.0 0.0001292341 -6.8912e-05 -1.4034667e-05 -1.0876745e-06 -0.0003305651
0.0 -0.00028980532 -4.5368433e-05 -0.00013297793 -1.9146405e-06 9.069922e-05 0.0 0.00053090777
-0.0003333424 -0.00011259548 1.4985068e-07 0.0005876232 0.0 0.00045277443 5.9682756e-05 0.00019452514
-3.2579635e-06 -0.00074229384 0.0 -0.00081651285 6.530694e-05 -7.5100514e-05 -1.8967221e-06 -0.0003788196
0.0 -0.0004552364 9.662807e-05 5.252108e-05 -1.0242263e-06 -8.828978e-05 0.0 -0.00010126001
-4.8729416e-06 -1.1242663e-05 5.0111225e-08 0.00028453817 0.0 0.00011813677 0.00010141432 0.00013318704
2.10654e-06 2.3399953e-05 0.0 6.279342e-05 -0.00014111037 -4.7427606e-05 2.58483e-07 -0.00042758044
0.0 -0.00063166086 2.8686925e-05 -0.00013500603 -3.2952014e-06 -0.0006962646 0.0 -0.0007684034
1.9564992e-05 -7.672807e-05 -6.166205e-07 0.00024626256 0.0 0.0001910496 -8.197567e-06 0.00016592818
-7.855371e-07 -0.00025554094 0.0 -0.00020388018 -3.6868612e-05 -5.8889702e-05 -1.0423662e-06 0.00038827787
0.0 0.0003056768 -0.00015812166 4.340199e-05 -1.4991311e-06 -0.00034541386 0.0 -0.0003301337
3.1900963e-05 -5.2387913e-05 1.6385604e-06 0.000629753 0.0 0.0008250439 -0.00011755301 -0.0001189473
-1.3331133e-06 -0.0004487434 0.0 -0.00038043092 -3.0646544e-05 -0.00013556678 -1.647051e-06 -0.0005195587
0.0 -0.00060672214 -6.3868676e-05 -0.00020368525 1.6664601e-06 0.00091053586 0.0 0.0004990956
0.00013000556 0.00025119982 -3.7553752e-07 -7.738022e-05 0.0 -6.4037245e-05 -2.1116859e-05 -5.284426e-06
6.742239e-07 -2.559968e-05 0.0 5.3255103e-06 -4.907072e-05 -3.5250305e-05 -1.2145068e-06 -0.00017028404
0.0 -0.00015259419 -3.2170028e-05 -2.5192434e-05 -3.1987895e-06 -0.00057390414 0.0 -0.0007085867
2.9456236e-05 1.7679871e-05 9.273485e-07 0.00063537026 0.0 0.00048163568 0.00015610433 0.00023862158
7.5588866e-07 1.3247112e-05 0.0 -2.5757772e-05 3.200769e-05 5.0137427e-05 5.3091384e-07 -0.00016921236
0.0 3.5864286e-05 -7.476235e-05 -0.00010663874 1.3415955e-06 -0.00015318397 0.0 -0.0002224925
-0.0001558825 -0.00014144827 2.9520723e-07 0.00035886373 0.0 0.0003214821 8.045644e-05 0.00014985567
1.0371339e-06 -0.00025459912 0.0 -0.00021508097 -3.1832664e-05 -0.00013814599 -2.4719484e-06 -0.0008535778
0.0 -0.00075259287 4.3897624e-05 -0.00023158305 -2.0890634e-06 -0.00039122 0.0 -0.00041095988
9.891935e-06 -2.495652e-05 -8.65444e-07 -1.2705117e-05 0.0 -0.000104855135 2.2485878e-05 3.0709853e-05
-1.1290748e-06 0.0004101267 0.0 0.00042172155 -0.0001708047 -0.00010262875 -2.3432247e-07 -0.00012584432
0.0 -0.00012569736 -3.6039615e-05 -6.570304e-05 -4.7196767e-07 0.00019265646 0.0 0.00030858952
-0.00015867829 -6.193685e-05 -1.527288e-07 -8.288465e-05 0.0 -3.9798455e-05 -4.4727734e-05 -4.56661e-05
-2.2070883e-06 -0.0004465436 0.0 -0.00043780945 1.799814e-05 -7.279607e-05 -9.75094e-07 -9.018838e-05
0.0 -4.8224585e-05 -7.585161e-05 -7.436873e-05 -4.81054e-07 2.6289392e-05 0.0 0.00028331383
-0.00014085932 -2.4839814e-05 -1.4038e-06 -0.0007933989 0.0 -0.0008045205 -9.850836e-05 -0.0003543154
-1.938316e-07 0.00010834796 0.0 0.00016464114 -9.3054296e-05 -4.585793e-05 -1.593395e-08 0.000438398
0.0 0.0005942355 -0.00020372041 -3.295396e-05 2.6249763e-06 -0.00016061612 0.0 -0.00017906411
00000000: 2fce 77b4 9d9c 6c37 0000 0000 0483 0739
00000010: d984 90b8 7076 6bb7 36fc 91b5 b24f adb9
00000020: 0000 0000 03f1 97b9 fc49 3eb8 fe6f 0bb9
00000030: 467d 00b6 c635 be38 0000 0000 9e2c 0b3a
00000040: 76c4 aeb9 3d21 ecb8 a4e6 2034 ba0a 1a3a
00000050: 0000 0000 5b62 ed39 df53 7a38 72f9 4b39
00000060: 63a3 5ab6 7f96 42ba 0000 0000 400b 56ba
00000070: 65f5 8838 487f 9db8 e092 feb5 4e9c c6b9
00000080: 0000 0000 ccac eeb9 cda4 ca38 154a 5c38
00000090: 2678 89b5 3728 b9b8 0000 0000 8e5b d4b8
000000a0: 4082 a3b6 df9e 3cb7 e039 5733 112e 9539
000000b0: 0000 0000 32c0 f738 66ae d438 20a8 0b39
000000c0: 155e 0d36 044b c437 0000 0000 f6af 8338
000000d0: 07f7 13b9 01ed 46b8 a2c5 8a34 e02c e0b9
000000e0: 0000 0000 0b96 25ba b4a4 f037 6890 0db9
000000f0: 2123 5db6 8785 36ba 0000 0000 ae6e 49ba
00000100: 801f a437 12e9 a0b8 d785 25b5 cd1c 8139
00000110: 0000 0000 7d54 4839 4888 09b7 02fd 2d39
00000120: b3dd 52b5 20fa 85b9 0000 0000 abc8 55b9
00000130: 5fa3 1ab8 5600 77b8 6ee7 8bb5 c691 cb39
00000140: 0000 0000 3f43 a039 76cd 25b9 880a 3638
00000150: c135 c9b5 aa18 b5b9 0000 0000 cc15 adb9
00000160: 66cd 0538 18bb 5bb8 82ec db35 0216 253a
00000170: 0000 0000 c247 583a cb86 f6b8 5873 f9b8
00000180: 6ded b2b5 5245 ebb9 0000 0000 9374 c7b9
00000190: 7a8a 00b8 ee26 0eb9 3e10 ddb5 fe32 08ba
000001a0: 0000 0000 6f0c 1fba 3cf1 85b8 5894 55b9
000001b0: 22ab df35 07b1 6e3a 0000 0000 bdd5 023a
000001c0: 1a52 0839 78b3 8339 7c9d c9b4 3047 a2b8
000001d0: 0000 0000 bc4b 86b8 1c24 b1b7 e050 b1b6
000001e0: 50fc 3435 e5be d6b7 0000 0000 c9b1 b236
000001f0: 49d1 4db8 bad9 13b8 2302 a3b5 468e 32b9
00000200: 0000 0000 b101 20b9 4eee 06b8 5754 d3b7
00000210: c9aa 56b6 0e72 16ba 0000 0000 73c0 39ba
00000220: c918 f737 3c4f 9437 e7ee 7835 fa8e 263a
00000230: 0000 0000 0c84 fc39 f0af 2339 7e36 7a39
00000240: 46e8 4a35 ea3f 5e37 0000 0000 6512 d8b7
00000250: ff3f 0638 a74a 5238 1f84 0e35 996e 31b9
00000260: 0000 0000 fc6c 1638 bbc9 9cb8 3da3 dfb8
00000270: df10 b435 02a0 20b9 0000 0000 e04c 69b9
00000280: 6474 23b9 bb51 14b9 f97c 9e34 e025 bc39
00000290: 0000 0000 998c a839 b9ba a838 9322 1d39
000002a0: a633 8b35 b77b 85b9 0000 0000 5c87 61b9
000002b0: 1084 05b8 48db 10b9 c0e3 25b6 a3c2 5fba
000002c0: 0000 0000 a749 45ba b71e 3838 1ad5 72b9
000002d0: d631 0cb6 a91c cdb9 0000 0000 1a76 d7b9
000002e0: 8af5 2537 b859 d1b7 dc50 68b5 1028 55b7
000002f0: 0000 0000 ace5 dbb8 0ea0 bc37 74ce 0038
00000300: b78a 97b5 4606 d739 0000 0000 821a dd39
00000310: 0a1a 33b9 643a d7b8 129a 7bb4 14f5 03b9
00000320: 0000 0000 a1cd 03b9 3e29 17b8 0dca 89b8
00000330: be62 fdb4 d303 4a39 0000 0000 2fca a139
00000340: e162 26b9 18e4 81b8 c6fd 23b4 5cd2 adb8
00000350: 0000 0000 44ed 26b8 0a9a 3bb8 9a89 3fb8
00000360: 7d1d 14b6 111e eab9 0000 0000 ca89 e5b9
00000370: b6fa 9637 18aa 98b8 fadf 82b5 8523 bdb8
00000380: 0000 0000 c144 4ab8 8612 9fb8 68f6 9bb8
00000390: c721 01b5 0a88 dc37 0000 0000 bd89 9439
000003a0: a3b3 13b9 185f d0b7 336a bcb5 19fc 4fba
000003b0: 0000 0000 75e6 52ba 4696 ceb8 68c3 b9b9
000003c0: 0620 50b4 de38 e338 0000 0000 85a3 2c39
000003d0: 2526 c3b8 9457 40b8 20df 88b2 c9d8 e539
000003e0: 0000 0000 78c6 1b3a c89d 55b9 0c38 0ab8
000003f0: c028 3036 106b 28b9 0000 0000 28c3 3bb9

exp_avg_sq f4 [128, 6]
3.0908267e-13 8.905652e-09 0.0 1.0811991e-08 6.725673e-09 7.2804354e-09 3.0165002e-12 2.2051348e-07
0.0 1.9040785e-07 4.0070784e-08 4.5937217e-08 6.2388033e-12 2.1854216e-07 0.0 1.8825588e-07
1.4840022e-07 1.5528998e-07 3.6244292e-11 1.5903759e-06 0.0 1.1230678e-06 4.6831104e-07 4.2742911e-07
1.3186041e-11 1.0230126e-06 0.0 8.527071e-07 1.4587211e-07 1.0040102e-07 3.0824837e-12 3.2261966e-07
0.0 1.955264e-07 4.343442e-08 3.4251837e-08 6.6968203e-13 5.0847444e-08 0.0 4.1828848e-08
1.9178374e-08 1.26635635e-08 1.1899189e-11 2.5714306e-07 0.0 3.411758e-07 1.6715698e-07 1.8559116e-07
4.4732065e-12 6.983919e-08 0.0 8.609705e-08 8.819633e-08 1.0077339e-07 1.0206646e-11 1.971895e-07
0.0 2.1027303e-07 1.9365514e-07 2.288177e-07 1.18942824e-11 1.14881e-06 0.0 7.754065e-07
1.428908e-07 1.02078694e-07 9.9948895e-12 4.079281e-07 0.0 2.3220787e-07 1.3112655e-07 1.4791242e-07
2.2716722e-12 2.2439336e-07 0.0 1.3227306e-07 3.4019678e-08 2.8650232e-08 2.3266816e-11 9.988773e-07
0.0 4.676765e-07 3.1008895e-07 2.409313e-07 1.6709798e-12 1.3931118e-07 0.0 1.5109781e-07
2.2876897e-08 1.968711e-08 3.374148e-11 1.8599051e-06 0.0 1.3051654e-06 5.017625e-07 3.2533174e-07
7.971249e-12 4.6446678e-07 0.0 4.315446e-07 1.0944057e-07 1.0664774e-07 1.2523811e-11 7.1016524e-07
0.0 7.689841e-07 1.844109e-07 2.6660135e-07 7.208427e-11 3.4194697e-06 0.0 2.9439268e-06
9.922361e-07 7.50857e-07 6.0584095e-13 2.0066176e-08 0.0 3.2565826e-08 1.0630241e-08 1.0845291e-08
1.1202556e-12 1.8948052e-08 0.0 2.0066665e-08 1.8382858e-08 2.2179263e-08 8.0469914e-13 9.880064e-08
0.0 8.9229545e-08 1.22509345e-08 9.364586e-09 1.3370801e-11 1.424603e-06 0.0 1.0630708e-06
1.6750803e-07 1.182887e-07 3.0609994e-11 9.5091843e-07 0.0 1.2431159e-06 4.1746807e-07 4.0652188e-07
5.2727023e-13 7.6674525e-09 0.0 1.3213618e-08 1.4367792e-08 1.3024153e-08 5.404557e-12 8.191083e-08
0.0 9.085428e-08 8.3576e-08 9.3517315e-08 9.283333e-12 1.6870683e-07 0.0 1.7246589e-07
2.4088092e-07 2.7512257e-07 1.0738164e-11 1.6239106e-07 0.0 3.1290028e-07 1.5391372e-07 1.8511571e-07
7.2925424e-12 1.00947126e-07 0.0 1.2169454e-07 1.1271969e-07 1.5893455e-07 3.5439447e-11 2.7240292e-06
0.0 1.7893263e-06 4.893192e-07 4.086781e-07 3.1334442e-12 3.5389522e-07 0.0 2.6431934e-07
3.6078248e-08 2.6080478e-08 6.359257e-12 3.2004536e-07 0.0 1.7515607e-07 9.3539825e-08 5.5530993e-08
2.4514868e-11 6.2625446e-07 0.0 4.163855e-07 3.7494448e-07 2.5487006e-07 3.5028144e-13 5.3697913e-09
0.0 8.655766e-09 4.3907744e-09 9.085801e-09 2.9750436e-12 1.633184e-07 0.0 6.628033e-08
6.804607e-08 4.6042906e-08 3.8937056e-13 7.006633e-09 0.0 7.934681e-09 6.3742696e-09 7.24876e-09
2.855053e-12 2.8427962e-07 0.0 2.2796203e-07 3.1544833e-08 2.289179e-08 9.374617e-13 1.0327123e-07
0.0 8.917046e-08 2.3438256e-08 1.6360007e-08 1.1376607e-12 2.6069557e-08 0.0 3.3538978e-08
3.136056e-08 4.2841688e-08 2.4027379e-11 8.7593816e-07 0.0 8.629031e-07 3.0887242e-07 4.7734557e-07
7.149675e-13 6.287428e-08 0.0 1.7781273e-08 2.014564e-08 1.3256401e-08 1.1275752e-11 7.448472e-07
0.0 2.4251193e-07 3.4689333e-07 2.3207765e-07 1.4796744e-11 2.1214449e-07 0.0 2.69373e-07
00000000: 82ff ad2a 79ff 1832 0000 0000 a4bf 3932
00000010: a517 e731 6327 fa31 7044 542c 49c6 6c34
00000020: 0000 0000 e972 4c34 4b1a 2c33 814c 4533
00000030: 2582 db2c 69a8 6a34 0000 0000 6223 4a34
00000040: f157 1f34 c9bd 2634 7267 1f2e e674 d535
00000050: 0000 0000 51bc 9635 2e6c fb34 6979 e534
00000060: a6f8 672d 724e 8935 0000 0000 96e5 6435
00000070: 05a1 1c34 0b9c d733 17e9 582c 8234 ad34
00000080: 0000 0000 e3f1 5134 a68c 3a33 4b1c 1333
00000090: ad7f 3c2b 5b63 5a33 0000 0000 4ea7 3333
000000a0: b1bd a432 f18e 5932 2f55 512d 790d 8a34
000000b0: 0000 0000 d82a b734 c37b 3334 e946 4734
000000c0: 1063 9d2c 80fa 9533 0000 0000 5be4 b833
000000d0: 7266 bd33 c268 d833 a68e 332d 09bb 5334
000000e0: 0000 0000 69c7 6134 85ef 4f34 eeb0 7534
000000f0: 163f 512d d030 9a35 0000 0000 8725 5035
00000100: 866d 1934 5b36 db33 fbd4 2f2d 3601 db34
00000110: 0000 0000 d054 7934 cbcb 0c34 dbd1 1e34
00000120: cfda 1f2c c7f0 7034 0000 0000 f106 0e34
00000130: 081d 1233 871a f632 36a8 cc2d 2a11 8635
00000140: 0000 0000 f814 fb34 4d7a a634 5959 8134
00000150: 642b eb2b 9195 1534 0000 0000 733d 2234
00000160: d482 c432 6a1c a932 8765 142e daa1 f935
00000170: 0000 0000 242d af35 dbb0 0635 41a9 ae34
00000180: 503b 0c2d d45b f934 0000 0000 0aaf e734
00000190: 9705 eb33 3706 e533 3b52 5c2d 2fa2 3e35
000001a0: 0000 0000 2f6c 4e35 7b02 4634 6921 8f34
000001b0: d683 9e2e 0b7a 6536 0000 0000 4790 4536
000001c0: f92c 8535 808e 4935 7187 2a2b fd5d ac32
000001d0: 0000 0000 81de 0b33 4ba0 3632 1852 3a32
000001e0: 76a9 9d2b 35c3 a232 0000 0000 105f ac32
000001f0: 55e8 9d32 b784 be32 af80 622b 3a2c d433
00000200: 0000 0000 769e bf33 2e78 5232 e3e1 2032
00000210: bc38 6b2d fd34 bf35 0000 0000 d6ae 8e35
00000220: 42dc 3334 e705 fe33 ca9f 062e 9e42 7f35
00000230: 0000 0000 23d9 a635 6020 e034 f13f da34
00000240: d369 142b d0b9 0332 0000 0000 1b02 6332
00000250: 38d6 7632 d5c0 5f32 ec27 be2c f4e6 af33
00000260: 0000 0000 ab1b c333 647a b333 b0d3 c833
00000270: 6a50 232d c825 3534 0000 0000 102f 3934
00000280: 6c52 8134 8fb4 9334 64e8 3c2d b75d 2e34
00000290: 0000 0000 b0fc a734 7b43 2534 38c4 4634
000002a0: b14a 002d 45c8 d833 0000 0000 24ab 0234
000002b0: 4e10 f233 99a7 2a34 45dd 1b2e 77ce 3636
000002c0: 0000 0000 c928 f035 c259 0335 4a68 db34
000002d0: 1d7f 5c2c fdfe bd34 0000 0000 c6e7 8d34
000002e0: 74f4 1a33 9407 e032 18bf df2c b3d2 ab34
000002f0: 0000 0000 8912 3c34 10e0 c833 f980 6e33
00000300: 93a2 d72d e11b 2835 0000 0000 968b df34
00000310: fa4b c934 13d5 8834 e030 c52a 2f81 b831
00000320: 0000 0000 76b4 1432 a9dd 9631 c617 1c32
00000330: 9f59 512c 9f5c 2f34 0000 0000 ff55 8e33
00000340: b920 9233 b6c0 4533 3632 db2a ffbe f031
00000350: 0000 0000 1951 0832 ab04 db31 c410 f931
00000360: 10e8 482c 189f 9834 0000 0000 bac5 7434
00000370: e97b 0733 94a3 c432 9eef 832b f6c5 dd33
00000380: 0000 0000 fb7d bf33 4555 c932 0988 8c32
00000390: 8c1c a02b 90ef df32 0000 0000 7f0c 1033
000003a0: 4db1 0633 ef00 3833 d958 d32d 0322 6b35
000003b0: 0000 0000 40a2 6735 1ad3 a534 f022 0035
000003c0: d63e 492b 8005 8733 0000 0000 6fbd 9832
000003d0: bb0c ad32 45be 6332 795d 462d 83f1 4735
000003e0: 0000 0000 9632 8234 a83c ba34 0531 7934
000003f0: 4e27 822d d5c9 6334 0000 0000 589e 9034

exp_avg f4 [128]
3.224515e-05 0.0001519692 0.00026751164 -2.094129e-05 0.000455203 0.0002650112 0.00014310752 -7.0018723e-06
-0.00029432905 -3.6114034e-05 0.00046040342 8.614492e-05 0.000109751076 0.00014562908 0.0002094567 -0.00022893216
0.00018626123 0.00023011549 -0.0002328371 5.246901e-05 -9.419971e-05 0.00016968882 0.00044693117 -0.00012956964
-0.00010561474 -7.417674e-05 -0.00018745841 -4.1250736e-05 -0.00014490422 0.00034538112 0.00029188333 0.00012091983
0.00015774541 3.2740158e-05 6.5944354e-05 2.1339167e-05 0.00030837505 0.00013624162 6.72074e-05 0.00019613115
2.7085203e-05 2.2288368e-06 -0.00036676618 0.00035150608 0.00016318154 -6.9477383e-06 -5.3967222e-05 3.9213257e-05
-0.00016988763 0.0004918745 -7.6661134e-05 -6.830747e-05 -0.000217412 -3.8073737e-05 0.00034292965 7.935639e-05
-1.6048998e-05 0.000120124445 9.9293306e-05 -0.00010461047 4.2391708e-05 -5.80345e-05 0.00024120545 0.00058801344
0.00017049597 -0.0003468679 0.0006327195 -0.00028307375 -4.438545e-05 3.1802803e-05 -0.0002511298 3.2654483e-05
-6.858804e-05 -0.0004435259 -3.5226825e-05 0.0003881268 5.124073e-05 -0.0003025872 0.00012920299 2.7363603e-06
9.282724e-05 0.00022750515 -1.05831605e-05 1.8886107e-05 0.00029387497 -2.8263155e-05 -2.894531e-05 -4.6224923e-05
0.0005526535 0.00021159208 7.429165e-05 0.00016915877 -0.00017430654 2.5805813e-05 0.00026470874 0.00042513933
4.2788655e-05 -6.5721324e-05 -0.00021896351 7.4805896e-05 -4.657336e-05 -0.00031435877 1.767751e-05 0.00043994864
5.1414798e-05 0.00048586848 -0.00020883259 -2.3920496e-05 -3.5556794e-05 -0.00020642919 -0.00047222155 0.00010724766
-0.00023898185 -0.0002571864 0.0006417846 0.00055733207 4.7597583e-05 0.00016909454 -1.8637862e-05 0.000367961
0.00021966989 -0.00016531126 -0.00026133002 -0.00012620201 9.989998e-05 3.065183e-05 -9.857378e-05 0.0001122136
00000000: f73e 0738 ec59 1f39 ce40 8c39 14ab afb7
00000010: 50a8 ee39 33f1 8a39 220f 1639 a0f1 eab6
00000020: 2d50 9ab9 2679 17b8 4d62 f139 b4a8 b438
00000030: 292a e638 02b4 1839 9ba1 5b39 820d 70b9
00000040: 1e4f 4339 284b 7139 bc25 74b9 2c12 5c38
00000050: 168d c5b8 7fee 3139 1652 ea39 16dd 07b9
00000060: 7b7d ddb8 568f 9bb8 7c90 44b9 a404 2db8
00000070: 6ef1 17b9 4514 b539 eb07 9939 5796 fd38
00000080: 7668 2539 7a52 0938 9b4b 8a38 8301 b337
00000090: 66ad a139 15dc 0e39 b3f1 8c38 8ea8 4d39
000000a0: 0835 e337 2093 1536 864a c0b9 594a b839
000000b0: b61b 2b39 9e20 e9b6 dd5a 62b8 ea78 2438
000000c0: dd23 32b9 24f1 003a 22c5 a0b8 4b40 8fb8
000000d0: 17f9 63b9 5db1 1fb8 3dcb b339 236c a638
000000e0: f6a0 86b7 52eb fb38 b03b d038 5262 dbb8
000000f0: c0cd 3138 126a 73b8 18ec 7c39 ea24 1a3a
00000100: 2ac7 3239 d2db b5b9 16dd 253a 8469 94b9
00000110: 842a 3ab8 0064 0538 12aa 83b9 7cf6 0838
00000120: ecd6 8fb8 0a89 e8b9 84c0 13b8 7f7d cb39
00000130: 51eb 5638 91a4 9eb9 aa7a 0739 50a2 3736
00000140: 3fac c238 738e 6e39 548e 31b7 9b6d 9e37
00000150: 3b13 9a39 aa16 edb7 94cf f2b7 a2e1 41b8
00000160: f3df 103a d1de 5d39 07cd 9b38 3660 3139
00000170: 0ec6 36b9 9079 d837 9bc8 8a39 3ce5 de39
00000180: f877 3338 ded3 89b8 9299 65b9 1ce1 9c38
00000190: c457 43b8 85d0 a4b9 2a4a 9437 e8a8 e639
000001a0: 38a6 5738 2abc fe39 12fa 5ab9 e0a8 c8b7
000001b0: d122 15b8 ea74 58b9 8194 f7b9 26ea e038
000001c0: 3497 7ab9 f9d6 86b9 6f3d 283a ec19 123a
000001d0: 84a3 4738 f84e 3139 8158 9cb7 e4ea c039
000001e0: 3057 6639 6757 2db9 1f03 89b9 1855 04b9
000001f0: 6581 d138 2790 0038 65b9 ceb8 3854 eb38

exp_avg_sq f4 [128]
9.775584e-09 7.4955366e-08 1.5828721e-07 9.41503e-07 3.1921053e-07 7.3814384e-08 1.7692239e-08 3.3203366e-07
1.08070246e-07 2.6690225e-07 2.9093147e-07 2.5236054e-07 5.2703946e-08 5.851998e-07 3.978943e-08 9.0350136e-07
2.0319301e-07 3.347545e-07 1.935683e-06 2.0336882e-08 2.7656682e-08 2.0887189e-08 3.380589e-07 8.297608e-07
1.3182164e-08 1.5107105e-07 2.4013912e-07 2.9928398e-07 1.8255285e-07 9.134783e-07 7.379315e-08 1.8860482e-07
6.331451e-07 7.850574e-09 7.200803e-08 9.434339e-09 6.366685e-08 2.4950806e-08 3.173312e-08 6.0045153e-07
1.811802e-08 2.9202084e-07 3.8024336e-07 3.0886287e-07 5.825352e-08 5.656249e-08 1.8901649e-07 3.0012413e-07
1.5054958e-06 4.9958527e-07 1.0455062e-06 6.1244896e-07 3.3664554e-07 6.690732e-09 3.4518723e-07 5.8296266e-08
1.578992e-07 4.740711e-07 1.0570665e-06 1.1996855e-07 1.6649509e-06 7.157109e-08 6.213202e-08 7.354962e-07
3.4367685e-07 8.314367e-07 9.3801316e-07 2.3504991e-07 1.4405803e-07 7.7576825e-09 6.95641e-07 4.93639e-08
4.461391e-07 2.2919335e-06 5.8032263e-09 2.0257887e-07 2.3410314e-06 1.2744488e-06 3.782965e-08 3.7986993e-07
3.3159075e-08 7.635535e-07 3.9481044e-08 4.5646485e-07 6.299602e-07 1.3772794e-08 1.05061865e-07 6.088104e-07
9.018803e-07 5.9763366e-08 8.550574e-08 2.2046032e-07 6.2458e-07 2.346053e-08 1.2897591e-07 7.637981e-08
1.0850853e-08 3.6365783e-08 1.1177925e-06 4.0242625e-08 6.0811806e-07 3.6554107e-07 1.21822605e-08 3.3174976e-07
5.1027403e-08 5.030095e-07 1.327748e-07 5.8252544e-07 1.2821655e-08 7.3647703e-07 2.892242e-06 6.2470704e-08
1.5510147e-07 1.578366e-06 2.8484024e-07 2.1779734e-07 7.756818e-08 1.0262132e-07 1.135525e-07 6.5351634e-07
1.3654831e-07 1.8463186e-07 6.799512e-07 5.451248e-07 4.4437195e-07 4.6727607e-08 4.4192205e-08 1.9793903e-08
00000000: 79f1 2732 26f7 a033 a8f5 2934 98bb 7c35
00000010: f65f ab34 e383 9e33 a5f9 9732 5c42 b234
00000020: 3f14 e833 c44a 8f34 5131 9c34 2b7c 8734
00000030: 9a5c 6233 a016 1d35 f1e4 2a33 2488 7235
00000040: 452d 5a34 4fb8 b334 c8e6 0136 47b1 ae32
00000050: b091 ed32 6a6b b332 767e b534 babc 5e35
00000060: c577 6232 1836 2234 78ec 8034 47ad a034
00000070: bf03 4434 c035 7535 3778 9e33 4c83 4a34
00000080: 66f5 2935 31df 0632 d5a2 9a33 a914 2232
00000090: 39b9 8833 6753 d632 ef4a 0833 b72e 2135
000000a0: f3a1 9b32 0ac7 9c34 4024 cc34 cad1 a534
000000b0: 6c32 7a33 1eef 7233 75f4 4a34 bf20 a134
000000c0: 7110 ca35 3d1b 0635 5253 8c35 2c67 2435
000000d0: 36bc b434 4de4 e531 2c52 b934 6c61 7a33
000000e0: 008b 2934 d683 fe34 87e0 8d35 b4d0 0034
000000f0: 4777 df35 9fb2 9933 706d 8533 ea6e 4535
00000100: 9682 b834 e52f 5f35 c6cb 7b35 0762 7c34
00000110: 5fae 1a34 a646 0532 16bc 3a35 2f04 5433
00000120: e484 ef34 1ecf 1936 b865 c731 7584 5934
00000130: 9d1a 1d36 ba0d ab35 247a 2233 edf0 cb34
00000140: ca6a 0e33 fff6 4c35 de91 2933 0d10 f534
00000150: 891a 2935 639d 6c32 5f9e e133 226d 2335
00000160: be18 7235 4257 8033 479f b733 acb7 6c34
00000170: d0a8 2735 4086 c932 a17c 0a34 3f06 a433
00000180: 8e6a 3a32 9a30 1c33 0f07 9635 3cd7 2c33
00000190: 8e3d 2335 953f c434 264a 5132 571b b234
000001a0: 3929 5b33 8d06 0735 dc90 0e34 d85e 1c35
000001b0: 3c46 5c32 51b2 4535 5718 4236 a227 8633
000001c0: f889 2634 3ed8 d335 25ec 9834 addb 6934
000001d0: 8f93 a633 ab60 dc33 26da f333 4d6d 2f35
000001e0: 1d9e 1234 383f 4634 e485 3635 b154 1235
000001f0: 0492 ee34 8cb1 4833 d8cd 3d33 4107 aa32
