results/flappy2/FlappyAgent/FlappyAgent-100022.pt (torch, 439634 bytes, 41 tensors)

network_body.observation_encoder.processors.0.normalizer.running_mean f4 [6]
-0.6499764 10.1024685 0.0 0.69625616 5.1670585 3.559303
00000000: da64 26bf b6a3 2141 0000 0000 d83d 323f
00000010: 8b58 a540 9fcb 6340

network_body.observation_encoder.processors.0.normalizer.running_variance f4 [6]
1.4224735 231107.02 1.0 5.4051965e+06 1.2556844e+06 1.0492294e+06
00000000: 9d13 b63f c1b0 6148 0000 803f 19f4 a44a
00000010: 2348 9949 6b14 8049

network_body.processors.0.normalizer.running_mean f4 [6]
-0.6499764 10.1024685 0.0 0.69625616 5.1670585 3.559303
00000000: da64 26bf b6a3 2141 0000 0000 d83d 323f
00000010: 8b58 a540 9fcb 6340

network_body.processors.0.normalizer.running_variance f4 [6]
1.4224735 231107.02 1.0 5.4051965e+06 1.2556844e+06 1.0492294e+06
00000000: 9d13 b63f c1b0 6148 0000 803f 19f4 a44a
00000010: 2348 9949 6b14 8049

network_body._body_endoder.seq_layers.0.weight f4 [128, 6]
-0.40770742 0.038623165 0.75352573 0.9274786 -0.05205807 -0.1811557 0.27075627 -0.008494485
0.21732596 -0.522495 0.31181112 0.21144108 0.09230587 0.04096031 -0.5574938 1.0228823
-0.10211495 -0.2021451 -0.38719797 -0.1815752 0.29528278 0.22577424 0.5616926 -0.10414828
0.027281202 -0.62182015 0.76698864 -0.17751123 0.32981464 0.057794325 -0.7710187 -0.42810583
-0.214751 -0.34196413 0.24232177 -0.7003058 0.8891447 -0.153556 -0.21198887 -0.24885678
-0.24469031 -0.22802898 0.18883687 0.23537962 -0.36305493 -0.3176174 0.9513852 0.574536
-0.054698735 1.0065641 -0.7916322 0.2760994 -0.5950697 0.06796972 -0.4561842 0.10347385
0.18108855 0.072608456 -0.5098951 0.19374077 -0.4110608 -0.53617126 0.2550069 -0.001057289
-0.15468305 -0.34216592 0.1986353 -0.27790326 0.35341057 0.45129573 0.61327523 0.15827948
-0.36826587 -0.17371151 0.058896523 -0.43021885 -0.1402797 0.1454783 0.26106557 -0.2174348
0.060611233 0.6272007 0.6162148 -0.048066705 0.09770791 -0.22346963 -0.46816447 -0.14397246
0.44832033 0.021083781 -0.3317116 -0.10428117 0.14128348 -0.009814578 0.10778746 -0.9248249
0.27101564 -0.42502022 -0.015465714 0.21805447 0.2801801 0.34750384 -0.35164246 -0.18641211
-0.14545994 -0.49151674 -0.9009026 0.8461445 0.063758545 0.031243479 0.19911723 -0.21519108
1.1002829 -0.17291676 -0.29919833 -0.043366525 -0.09436582 0.23903848 0.4904974 0.23423393
-0.18309997 0.38911104 0.08346792 0.4590853 -0.20769541 0.042337395 0.29954776 -0.73636043
0.45559642 0.34590352 -0.11740551 0.01952478 -0.06350736 -0.8077206 0.3512594 0.33021897
-0.20877057 -0.31201154 -0.31854975 0.1832007 -0.2903617 -0.37630674 0.62658614 0.24891339
0.10027318 0.3670774 0.41178295 -0.23732379 -0.35782343 -0.124865815 1.1331402 0.08912657
-0.40475014 0.38899997 0.44234237 0.3304445 0.20837526 0.48104405 0.1570929 0.084515244
-0.9808586 0.2952411 -0.556204 0.6681925 -0.5449125 -0.3798294 0.22772817 0.027431386
-0.10126486 0.2540772 -0.36496377 0.22046986 -0.07391049 0.22111838 0.1420562 -0.64507896
-0.3818204 0.27494106 0.5250657 0.66908026 0.5796435 -0.22436155 -0.87447566 -0.21539767
-0.11476227 -0.3831561 -0.014802874 -0.56029624 -0.062369503 -0.065422945 0.74672717 -0.47495782
0.19038387 0.19245002 -0.030804656 0.36029783 0.30861568 -0.5760288 0.617853 0.33654264
0.43714818 -0.12348091 -0.22727786 -0.0028273703 -0.08789926 -0.08466834 -0.028881958 0.38191596
-0.15686502 -0.36774066 0.06820947 0.054571778 -0.2030262 0.1941608 -0.3671915 0.028546106
0.071191706 -0.59455836 -0.12332702 -0.08687121 0.08768493 -0.05511778 0.14255986 -0.47771978
-0.109834656 0.29675776 0.06983272 0.1354517 -0.012766446 0.19054753 0.42685446 0.725251
-0.61920977 0.60445124 0.52304083 -0.17968015 1.1123894 -0.12785009 -0.3583368 0.57468235
-0.27712172 -0.11715072 -0.039398864 0.29885986 -0.27966887 -0.355981 -0.032970272 -0.27537194
0.322395 0.6471338 -0.8098908 -0.2881812 -0.10874259 0.49398875 -0.5771708 0.15690222
00000000: 07bf d0be 5333 1e3d 10e7 403f 3d6f 6d3f
00000010: d83a 55bd e180 39be 91a0 8a3e 742c 0bbc
00000020: b28a 5e3e 3bc2 05bf b5a5 9f3e 0384 583e
00000030: dc0a bd3d ffc5 273d eab7 0ebf cfed 823f
00000040: a521 d1bd 20ff 4ebe d03e c6be d9ee 39be
00000050: 4e2f 973e 5d31 673e 16cb 0f3f b24b d5bd
00000060: d47c df3c 9b2f 1fbf 5e59 443f 81c5 35be
00000070: 77dd a83e beb9 6c3d 7b61 45bf b030 dbbe
00000080: b0e7 5bbe ec15 afbe 3323 783e 3e47 33bf
00000090: fd9e 633f c93d 1dbe 9c13 59be 50d4 7ebe
000000a0: 1990 7abe 6e80 69be 745e 413e 5b07 713e
000000b0: 56e2 b9be bf9e a2be fb8d 733f cb14 133f
000000c0: c80b 60bd 18d7 803f 68a8 4abf e75c 8d3e
000000d0: 7d56 18bf b533 8b3d fa90 e9be 19ea d33d
000000e0: 476f 393e beb3 943d 7c88 02bf fb63 463e
000000f0: 9076 d2be 8542 09bf 4490 823e bb94 8aba
00000100: 3c65 1ebe 5f30 afbe 0d67 4b3e 5649 8ebe
00000110: 3bf2 b43e 3c10 e73e 9bff 1c3f 0414 223e
00000120: 588d bcbe 6ee1 31be 7b3d 713d a545 dcbe
00000130: 7ba5 0fbe 43f8 143e 63aa 853e 3aa7 5ebe
00000140: 7c43 783d 3a90 203f 41c0 1d3f 98e1 44bd
00000150: 161b c83d 39d5 64be 41b3 efbe 846d 13be
00000160: 3e8a e53e e5b7 ac3c 1ad6 a9be 5e91 d5bd
00000170: 9eac 103e 53cd 20bc acbf dc3d 53c1 6cbf
00000180: 90c2 8a3e 409c d9be e863 7dbc ac49 5f3e
00000190: c473 8f3e 06ec b13e 7b0a b4be d1e2 3ebe
000001a0: 73f3 14be 15a8 fbbe 8ea1 66bf ed9c 583f
000001b0: d793 823d 53f2 ff3c 63e5 4b3e 0d5b 5cbe
000001c0: 12d6 8c3f 1711 31be 8630 99be 19a1 31bd
000001d0: de42 c1bd 81c6 743e 7a22 fb3e 05db 6f3e
000001e0: 8f7e 3bbe 9039 c73e 3bf1 aa3d 3a0d eb3e
000001f0: 1bae 54be fa69 2d3d 535e 993e 1e82 3cbf
00000200: ef43 e93e 441a b13e 4d72 f0bd 6ef2 9f3c
00000210: 2610 82bd c7c6 4ebf 46d8 b33e 7612 a93e
00000220: f4c7 55be fabf 9fbe f418 a3be f798 3b3e
00000230: 4aaa 94be 47ab c0be f367 203f 27e3 7e3e
00000240: 065c cd3d 92f1 bb3e 37d5 d23e 0205 73be
00000250: a234 b7be a6b9 ffbd bd0a 913f fe87 b63d
00000260: 693b cfbe 012b c73e b37a e23e 0630 a93e
00000270: 5360 553e 684b f63e f6dc 203e 5416 ad3d
00000280: 8d19 7bbf d729 973e 6363 0ebf aa0e 2b3f
00000290: 637f 0bbf 0079 c2be 9331 693e c9b7 e03c
000002a0: f363 cfbd 6816 823e 88dc babe dac2 613e
000002b0: 625e 97bd db6c 623e 2e77 113e e523 25bf
000002c0: f77d c3be 13c5 8c3e b56a 063f d848 2b3f
000002d0: 8463 143f 09bf 65be a3dd 5fbf 3591 5cbe
000002e0: 7b08 ebbd 092d c4be c187 72bc 936f 0fbf
000002f0: 2a77 7fbd 77fc 85bd 8329 3f3f ac2d f3be
00000300: fdf3 423e 9e11 453e 0c5a fcbc f578 b83e
00000310: e002 9e3e a076 13bf 9d2b 1e3f 514f ac3e
00000320: e3d1 df3e 8fe3 fcbd 87bb 68be 674b 39bb
00000330: 8704 b4bd 9866 adbd db99 ecbc 7d8a c33e
00000340: 39a1 20be 8148 bcbe 68b1 8b3d a886 5f3d
00000350: 1ae6 4fbe 17d2 463e 8600 bcbe 86d9 e93c
00000360: f5cc 913d fa34 18bf e092 fcbd 88e9 b1bd
00000370: 2894 b33d 2ec3 61bd 36fb 113e b097 f4be
00000380: fef0 e0bd a2f0 973e 7504 8f3d dab3 0a3e
00000390: 5b2a 51bc e41e 433e ab8c da3e 0daa 393f
000003a0: 8884 1ebf 51bd 1a3f 01e6 053f 13fe 37be
000003b0: c762 8e3f 22eb 02be ec77 b7be 621e 133f
000003c0: e6e2 8dbe b7ec efbd b460 21bd 2904 993e
000003d0: c230 8fbe 2443 b6be d60b 07bd 8dfd 8cbe
000003e0: f510 a53e 90aa 253f 0155 4fbf 7c8c 93be
000003f0: 6fb4 debd 18ec fc3e 77c1 13bf faaa 203e

network_body._body_endoder.seq_layers.0.bias f4 [128]
-0.015777785 -0.019828087 0.031782202 0.04305248 -0.0318673 -0.022269929 0.0373852 0.029116984
-0.0116183115 -0.036061045 -0.028896116 0.03831077 0.006299889 0.053010594 -0.009970521 0.047242563
-0.02316012 -0.024017043 0.03452425 -0.027720492 0.005910224 0.031993765 -0.018901087 0.041042496
-0.041664597 -0.033733763 -0.025227461 0.02668517 -0.042011004 -0.022198552 -0.026909057 0.04206925
0.059140388 0.017415097 0.041391138 -0.008112944 0.023084082 0.001864464 0.022525076 -0.025538003
-0.018285112 0.034518592 -0.03799717 -0.039158747 0.04965308 -0.03694781 -0.037280194 0.041518725
0.048521843 -0.028282536 0.05447392 0.040255904 0.042523038 0.0210314 -0.02577897 0.036551815
-0.035222273 -0.03007607 0.039192766 -0.03783948 0.04562356 -0.024847109 0.03919151 -0.029277386
-0.025789604 0.03821704 -0.010836134 -0.014968456 0.046784353 0.010190912 0.043329116 0.024503179
0.045755744 0.04567485 0.007530095 -0.021939036 0.04750108 0.045580227 0.007834638 0.04104121
-0.02959889 0.047473527 0.019880591 0.05507002 -0.027320815 -0.02540141 -0.04468241 -0.032444876
-0.04110988 -0.036587846 0.021561317 -0.020229371 0.04201504 0.04395669 -0.011000871 0.006938341
-0.0066450955 -0.02213816 0.05258742 0.026847273 0.05409516 -0.028071327 -0.01594245 -0.015241093
0.019554028 -0.026939496 -0.030245535 0.038417667 -0.022393972 0.04056648 0.043996524 -0.03549424
0.03699322 0.037456606 -0.029755948 -0.026961962 0.04096783 -0.009974074 -0.048772242 0.05352223
-0.02843928 -0.029222274 -0.025994902 0.04929113 -0.043472566 0.032278046 -0.019212572 0.002522206
00000000: 6a40 81bc 836e a2bc 0e2e 023d cc57 303d
00000010: 4987 02bd 6d6f b6bc 3921 193d be86 ee3c
00000020: bb5a 3ebc bfb4 13bd 8cb7 ecbc c1eb 1c3d
00000030: 4d6f ce3b a321 593d 655b 23bc 6b81 413d
00000040: 4bba bdbc 64bf c4bc 4d69 0d3d 1616 e3bc
00000050: 8daa c13b e50b 033d 74d6 9abc 2d1c 283d
00000060: 7fa8 2abd 6a2c 0abd d2a9 cebc dc9a da3c
00000070: bb13 2cbd bdd9 b5bc 6270 dcbc ce50 2c3d
00000080: 313d 723d 1baa 8e3c c189 293d 27ec 04bc
00000090: d41a bd3c 0861 f43a 8286 b83c 1335 d1bc
000000a0: a9ca 95bc 5e63 0d3d eca2 1bbd ec64 20bd
000000b0: 0761 4b3d 9656 17bd 1eb3 18bd 8a0f 2a3d
000000c0: d7be 463d c7b0 e7bc 0c20 5f3d 60e3 243d
000000d0: a32c 2e3d 0b4a ac3c 6b2e d3bc 5bb7 153d
000000e0: 3b45 10bd 1762 f6bc 9888 203d 92fd 1abd
000000f0: c5df 3a3d 2a8c cbbc 4787 203d 21d7 efbc
00000100: b844 d3bc 7989 1c3d 0a8a 31bc 413e 75bc
00000110: f3a0 3f3d c8f7 263c df79 313d e4ba c83c
00000120: 606a 3b3d 8d15 3b3d 04bf f63b 7eb9 b3bc
00000130: 7e90 423d 55b2 3a3d da5c 003c d41a 283d
00000140: 5f79 f2bc 9a73 423d 9fdc a23c 1a91 613d
00000150: e7cf dfbc 9e16 d0bc e704 37bd ebe4 04bd
00000160: d562 28bd 23dd 15bd 5ca1 b03c 11b8 a5bc
00000170: f617 2c3d ee0b 343d ff3c 34bc 065b e33b
00000180: 1abf d9bb 165b b5bc e865 573d d0ee db3c
00000190: e392 5d3d d7f5 e5bc be99 82bc c7b5 79bc
000001a0: c52f a03c 38b0 dcbc 7cc5 f7bc d85b 1d3d
000001b0: 9073 b7bc 0a29 263d b335 343d 6862 11bd
000001c0: 3486 173d 196c 193d bfc2 f3bc 55df dcbc
000001d0: e2cd 273d 4c6a 23bc 67c5 47bd 203a 5b3d
000001e0: 7ef9 e8bc 8d63 efbc 43f3 d4bc 7fe5 493d
000001f0: 4a10 32bd fc35 043d af63 9dbc 984b 253b

network_body._body_endoder.seq_layers.2.weight f4 [128, 128]
0.045795612 -0.00058523053 -0.10611578 -0.07459652 0.2868178 0.010915554 0.13994607 -0.09409406
0.1279081 0.071306005 0.05972369 0.1112246 0.11747775 0.10964346 -0.04269001 -0.011803854
-0.030790903 -0.12286285 -0.1134256 -0.028025376 0.0385573 0.117021754 -0.028816381 0.017625187
-0.035598464 -0.018135298 0.27818555 -0.11120306 0.1871598 -0.00231893 -0.13329117 0.0710447
-0.16982049 -0.21164928 -0.050345667 -0.035806328 -0.023357388 0.04024125 -0.042088043 0.053378426
-0.11607884 -0.012890475 -0.00077774044 -0.178664 -0.12430039 0.062008712 -0.058570903 0.001103696
-0.10136851 -0.112704985 0.0055770166 0.04670485 0.0033393311 0.07829066 0.043843664 -0.12696218
-0.0015891431 0.14856698 -0.035928994 0.086087145 0.02659367 0.03450543 -0.06696421 0.09399869
0.18237305 0.02721523 0.06206329 0.011752978 0.051578045 0.077430055 -0.011350616 -0.03909015
0.0058605755 0.021587206 0.113174506 -0.035580315 -0.021236723 -0.076138645 0.02001985 -0.05896102
0.043171357 -0.004980609 0.058997717 0.06080488 0.061761476 0.012624253 -0.0276273 0.14922825
0.16681702 -0.0105281025 -0.1310407 0.07041251 0.096059315 -0.08242314 0.020504422 0.011334716
-0.05492369 -0.00097445585 0.044612523 0.124675795 -0.0028209698 0.13433681 -0.06620313 0.039109282
0.1566563 0.14271364 0.18741062 0.08671844 -0.08692265 0.1987624 0.09224378 -0.011911051
0.10713323 -0.065099396 0.07099412 0.049819138 -0.077160396 0.17638159 0.10584835 -0.08901764
0.028681636 0.113936074 0.056051876 0.096729286 -0.04374281 0.0016085999 -0.017235115 0.05615759
-0.00014194149 -0.089735724 -0.05035397 0.019094324 0.08786739 0.08423461 0.1250863 -0.03950504
-0.031242516 0.21287988 -0.001113889 -0.054879874 -0.020497132 0.045132924 0.0419206 -0.14210571
-0.0062868204 0.011662299 -0.010479266 -0.017650388 -0.08791406 -0.088895 -0.047105845 0.019942371
0.0121746035 0.021949656 -0.030048696 0.12721005 0.03705412 0.0030436039 0.18347244 -0.05224266
0.15008032 0.06364451 -0.0024790696 -0.0290212 0.072392784 0.041290235 -0.022703825 0.11061922
-0.098003 0.08830813 0.021720365 0.023408452 0.0039907065 -0.17080416 -0.029042702 -0.11308506
-0.0055241245 0.028262617 -0.06470724 0.020655055 0.034232143 -0.017583445 0.15795091 -0.033740025
-0.011129583 -0.048647374 0.0040799007 2.8846947e-05 0.09017265 0.03899455 -0.084186554 0.19883455
0.065931536 0.020431487 -0.06321065 0.13467334 -0.11735451 -0.004397575 0.058392547 -0.038396418
-0.19963361 -0.14369878 -0.17498636 0.13317125 -0.08843791 0.023112388 -0.019914532 0.036815412
-0.09666587 -0.01530449 0.11821349 0.05801835 -0.03443649 0.0854717 0.13251431 -0.036381666
-0.084576085 -0.06583846 0.02534495 -0.053192392 -0.03709085 -0.11551304 0.002975785 0.16960028
-0.11119397 0.08858077 -0.073690474 0.04105166 -0.08058919 0.04945101 -0.10876594 0.16688968
-0.011949211 0.1126567 0.085207775 -0.021580774 -0.10803413 -0.105630636 -0.0395882 -0.08763579
-0.009486847 -0.14411157 0.048379567 0.0024582855 -0.0628022 -0.12468266 0.025926849 0.03756658
-0.099346735 -0.030305775 -0.056582212 -0.10835889 -0.029808275 -0.051314246 -0.041520346 0.044657364
00000000: 2e94 3b3d 286a 19ba 3b53 d9bd 0fc6 98bd
00000010: c8d9 923e 27d7 323c 064e 0f3e 63b4 c0bd
00000020: 57fa 023e e208 923d d4a0 743d b9c9 e33d
00000030: 2d98 f03d c08c e03d b8db 2ebd f464 41bc
00000040: 343d fcbc 859f fbbd ae4b e8bd 7995 e5bc
00000050: 42ee 1d3d 1aa9 ef3d 5510 ecbc b262 903c
00000060: b2cf 11bd 7a90 94bc 566e 8e3e 6ebe e3bd
00000070: d2a6 3f3e 31f9 17bb 7b7d 08be e27f 913d
00000080: 6ce5 2dbe 97ba 58be 4237 4ebd a8a9 12bd
00000090: fe57 bfbc 02d4 243d 8364 2cbd 56a3 5a3d
000000a0: beba edbd 9232 53bc 47e1 4bba b2f3 36be
000000b0: 3491 febd d9fc 7d3d 0be8 6fbd e4a9 903a
000000c0: 4b9a cfbd dfd1 e6bd 68bf b63b 964d 3f3d
000000d0: aed8 5a3b db56 a03d 6a95 333d 6002 02be
000000e0: cb4a d0ba f121 183e 482a 13bd 754e b03d
000000f0: f8da d93c 9155 0d3d 8824 89bd 6382 c03d
00000100: 00c0 3a3e 79f2 de3c 1436 7e3d 908f 403c
00000110: 8043 533d a693 9e3d eff7 39bc fe1c 20bd
00000120: 120a c03b a7d7 b03c 09c8 e73d aabc 11bd
00000130: a3f8 adbc 94ee 9bbd ab00 a43c 1c81 71bd
00000140: 73d4 303d 6034 a3bb 97a7 713d 8a0e 793d
00000150: 9af9 7c3d f4d5 4e3c a652 e2bc 4acf 183e
00000160: 15d2 2a3e 107e 2cbc 892f 06be 6f34 903d
00000170: bfba c43d 77cd a8bd e4f8 a73c 3fb5 393c
00000180: aaf7 60bd a072 7fba 9fbb 363d 0656 ff3d
00000190: 05e0 38bb 978f 093e 8295 87bd 0e31 203d
000001a0: 826a 203e 8623 123e 92e8 3f3e 7099 b13d
000001b0: 8104 b2bd 5f88 4b3e 4fea bc3d 9226 43bc
000001c0: ab68 db3d d552 85bd 5d65 913d 270f 4c3d
000001d0: 4506 9ebd 609d 343e 05c7 d83d e14e b6bd
000001e0: c0f5 ea3c 5157 e93d a796 653d 011a c63d
000001f0: a92b 33bd a8d7 d23a a830 8dbc 8005 663d
00000200: 21d6 14b9 5dc7 b7bd f73f 4ebd b36b 9c3c
00000210: d1f3 b33d 3283 ac3d 9f16 003e 09d0 21bd
00000220: 4ef0 ffbc 2ffd 593e eaff 91ba b8c9 60bd
00000230: 9ae9 a7bc 4ddd 383d efb4 2b3d 2984 11be
00000240: ac01 cebb 3a13 3f3c 3ab1 2bbc 8c97 90bc
00000250: 490c b4bd 950e b6bd 0ff2 40bd 2f5e a33c
00000260: fd77 473c c4cf b33c af28 f6bc 5a43 023e
00000270: 10c6 173d 3377 473b 33e0 3b3e 66fc 55bd
00000280: a8ae 193e 0e58 823d e377 22bb debd edbc
00000290: ab42 943d f31f 293d 5ffd b9bc 548c e23d
000002a0: ccb5 c8bd e5da b43d e8ee b13c 15c3 bf3c
000002b0: 79c4 823b 49e7 2ebe f6ea edbc 2499 e7bd
000002c0: b703 b5bb 0187 e73c 3b85 84bd ca34 a93c
000002d0: 0137 0c3d 280b 90bc e2bd 213e fb32 0abd
000002e0: db58 36bc 7842 47bd b0b0 853b 59fc f137
000002f0: 70ac b83d c0b8 1f3d 006a acbd 499b 4b3e
00000300: 1d07 873d ef5f a73c 9674 81bd cfe7 093e
00000310: 9057 f0bd 8819 90bb 062d 6f3d 9045 1dbd
00000320: c16c 4cbe c625 13be a02f 33be 0b5e 083e
00000330: ef1e b5bd 3156 bd3c cd23 a3bc c2cb 163d
00000340: c1f8 c5bd afbf 7abc ea19 f23d a6a4 6d3d
00000350: 470d 0dbd c90b af3d d5b1 073e f104 15bd
00000360: 3a36 adbd 51d6 86bd 36a0 cf3c 44e0 59bd
00000370: 93ec 17bd 1a92 ecbd 6305 433b b2ab 2d3e
00000380: aab9 e3bd d669 b53d 08eb 96bd c925 283d
00000390: f20b a5bd 248d 4a3d adc0 debd 21e5 2a3e
000003a0: a0c6 43bc 8eb8 e63d 6a81 ae3d 2aca b0bc
000003b0: ff40 ddbd e054 d8bd 3d27 22bd 657a b3bd
000003c0: b86e 1bbc fc91 13be a729 463d 301b 213b
000003d0: 719e 80bd 9f59 ffbd 8b64 d43c 6adf 193d
000003e0: 4d76 cbbd d143 f8bc c0c2 67bd 44eb ddbd
000003f0: 7c30 f4bc e32e 52bd 3d11 2abd a4ea 363d

network_body._body_endoder.seq_layers.2.bias f4 [128]
-0.02408028 -0.033321813 -0.028754232 0.049574774 0.034367032 -0.026677046 0.047260527 0.034361526
-0.023155201 -0.025301788 0.0494767 -0.026400112 0.042608712 -0.03359148 -0.024870083 0.040188286
0.018404989 0.033679318 -0.025941776 -0.036433987 -0.020959536 -0.021545831 0.04647807 -0.02396182
0.038368914 -0.027065162 -0.023830911 0.04519097 -0.028211426 0.033244606 -0.0431782 0.047514834
-0.030718815 0.036921 -0.01189397 -0.025357908 0.043769818 0.04650045 0.042161997 0.04060287
0.03153815 0.0427514 -0.026916869 0.041275293 -0.038103566 0.04208339 0.033430327 -0.021530684
-0.007374018 -0.014136444 -0.0051378882 -0.021625772 0.044968728 0.0359993 0.039172217 -0.04487793
0.042759757 -0.02567984 0.04414238 0.025540793 -0.019847928 -0.0267414 -0.023779213 -0.02407217
0.047826413 0.025454808 0.01963602 -0.02893672 0.035739306 -0.028477618 0.031519923 0.048174407
-0.027617661 0.039183445 0.04156578 -0.025158383 0.028870454 -0.027963746 -0.03455362 -0.028682502
0.04043526 -0.033361714 -0.038239427 0.050985258 -0.040110607 0.051359043 -0.010571826 0.031231161
0.036537495 -0.026842088 -0.03352815 0.046540692 -0.03489145 -0.022732317 0.036153793 -0.023681078
-0.029808726 0.03710551 -0.030774564 0.037355125 0.03385146 0.03245774 0.033816855 0.040593732
-0.02599823 0.027119847 -0.02197321 0.031089175 -0.042396653 0.045610324 -0.03102851 -0.03501055
-0.0306494 -0.032069027 -0.034489624 0.044455096 -0.030737303 -0.026495377 -0.01851452 0.032074675
0.04018878 -0.02859595 0.036954463 0.042113047 0.039501917 -0.03731155 -0.0338045 -0.044490557
00000000: 0244 c5bc 747c 08bd ff8d ebbc eb0e 4b3d
00000010: 72c4 0c3d d289 dabc 4194 413d acbe 0c3d
00000020: faaf bdbc b245 cfbc 15a8 4a3d 0c45 d8bc
00000030: 7986 2e3d 3897 09bd 58bc cbbc 799c 243d
00000040: 0fc6 963c 53f3 093d d983 d4bc ce3b 15bd
00000050: 55b3 abbc e280 b0bc ca5f 3e3d 944b c4bc
00000060: b928 1d3d c2b7 ddbc 0b39 c3bc 2b1a 393d
00000070: a61b e7bc 7f2b 083d a0db 30bd ea9e 423d
00000080: 06a6 fbbc 793a 173d edde 42bc 63bb cfbc
00000090: fb47 333d 4177 3e3d 0fb2 2c3d 324f 263d
000000a0: 262e 013d 181c 2f3d c480 dcbc 4810 293d
000000b0: 7c12 1cbd a25f 2c3d 3dee 083d 1e61 b0bc
000000c0: bfa1 f1bb 8b9c 67bc bb5b a8bb 8828 b1bc
000000d0: 2131 383d 0174 133d 0c73 203d ecd1 37bd
000000e0: db24 2f3d 875e d2bc a4ce 343d ed3a d13c
000000f0: 1f98 a2bc c810 dbbc a0cc c2bc 0033 c5bc
00000100: a1e5 433d 9a86 d03c b8db a03c b30c edbc
00000110: 6163 123d e549 e9bc 091b 013d 8752 453d
00000120: 6f3e e2bc d27e 203d e140 2a3d f418 cebc
00000130: bb81 ec3c 3a14 e5bc 1988 0dbd 91f7 eabc
00000140: 719f 253d 4ba6 08bd f2a0 1cbd ebd5 503d
00000150: 054b 24bd dc5d 523d 7435 2dbc 7ed8 ff3c
00000160: 57a8 153d f0e3 dbbc d054 09bd 74a1 3e3d
00000170: 56ea 0ebd 2039 babc 0016 143d d2fe c1bc
00000180: 6e31 f4bc f2fb 173d f01a fcbc b001 193d
00000190: d4a7 0a3d 68f2 043d 8b83 0a3d 9d45 263d
000001a0: 3dfa d4bc 712a de3c 2901 b4bc baae fe3c
000001b0: 1da8 2dbd e4d1 3a3d 802f febc 3967 0fbd
000001c0: 7314 fbbc d05a 03bd fe44 0dbd 8c16 363d
000001d0: cccc fbbc d50c d9bc c3ab 97bc bc60 033d
000001e0: fd9c 243d 0e42 eabc 905d 173d bb7e 2c3d
000001f0: c3cc 213d ffd3 18bd 9676 0abd bb3b 36bd

action_model._discrete_distribution.branches.0.weight f4 [2, 128]
-0.016647642 -0.0282839 -0.0041062254 0.05978434 0.017659463 -0.05041104 0.028649714 0.009440887
-0.02257602 -0.013040296 0.021687036 -0.017728943 0.029313551 -0.020293428 -0.031010125 0.044742398
0.0059037427 0.0058068475 -0.050885458 -0.023157882 -0.027375415 -0.013316077 0.034721494 -0.02043039
0.022085965 -0.018152775 -0.037097827 0.028485393 -0.029686077 0.007476781 -0.028105285 0.029755542
-0.018071055 0.02982392 -0.0011899832 -0.028669933 0.030166844 0.040309984 0.018525457 0.03882194
0.0135983145 0.047634866 -0.02966702 0.03679516 -0.020280715 0.03041007 0.037285216 -0.005133512
0.0023371 -0.0035074507 0.0006620217 -0.009887855 0.035217725 0.031575624 0.054968994 -0.017589742
0.038611736 -0.002973028 0.027085954 0.012990742 -0.031840697 -0.030185048 -0.016312072 -0.029902257
0.032226752 0.004310268 0.0188256 -0.02947988 0.0076546576 -0.019388005 0.027889455 0.025896184
-0.012769563 0.018815761 0.03243438 -0.024370745 0.0061904783 -0.01797358 -0.024885997 -0.028282713
0.04518744 -0.030828375 -0.029649572 0.028662894 -0.020670969 0.049038265 -0.011444077 0.0076077767
0.03228322 -0.02847749 -0.0148056075 0.04468967 -0.022696216 -0.0202666 0.024299009 -0.032688137
-0.014663241 0.03335233 -0.025240228 0.018751377 0.026634494 0.011838967 0.03379767 0.024454167
-0.03312099 0.0026124257 -0.0031370271 0.01720845 -0.019875156 0.037760623 -0.02797451 -0.014215245
-0.01809348 -0.017641045 -0.024255604 0.03524617 -0.03900355 -0.01337602 0.004292444 0.025193954
0.017613167 -0.0318016 0.011361034 0.027079415 0.03554153 -0.031385213 -0.036984053 -0.016498199
0.032938108 0.010762593 0.02681775 -0.0392299 -0.02572063 0.057090454 -0.03231722 -0.031770885
0.022276362 0.018583901 -0.03577442 0.022045128 -0.02582858 0.017395765 0.021614786 -0.033484314
-0.009212222 -0.020475602 0.04457728 0.0061321165 0.019660946 0.008109243 -0.017274031 0.027728442
-0.011413168 0.018935632 0.01925266 -0.03470064 0.036390323 -0.01914006 0.040480446 -0.03822254
0.006442421 -0.023344416 0.0007665559 0.021399038 -0.023069562 -0.057745744 -0.030547326 -0.03927282
-0.00044651586 -0.02662031 0.031540703 -0.050977934 0.024195079 -0.023974676 -0.030776942 0.016450858
-0.00021165365 0.001057798 -0.008839228 0.03359825 -0.03553966 -0.03272602 -0.044668794 0.047420874
-0.03797766 0.016952023 -0.029484637 -0.012097447 0.033364087 0.04218487 0.0053448505 0.040784806
-0.03627902 -0.024743134 -0.001999709 0.019721817 -0.018632166 0.017201152 -0.012753113 -0.03707331
0.0066045374 -0.027611414 -0.010730892 0.026536457 -0.006620732 0.01777185 0.043020654 0.027665101
-0.04347558 0.025774209 0.026548825 -0.019939885 0.017076788 -0.03781052 0.015995948 -0.009536851
-0.04198881 0.019395385 0.030059569 -0.043499265 0.021316232 0.032536007 -0.012527108 0.020023078
0.02191279 -0.02452897 0.018306393 -0.027585225 -0.0377753 -0.014610835 -0.022472711 -0.022641797
0.017281756 -0.009627772 0.030884394 -0.023230959 0.031765427 -0.04572667 0.025843738 0.02402909
0.015454434 0.024187878 0.017048335 -0.033249 0.033339992 0.023655321 0.01210726 -0.010389428
-0.027328808 0.023618089 -0.050549444 -0.029292295 -0.029077588 0.019456925 0.03198233 0.032996513
00000000: a360 88bc a3b3 e7bc 848d 86bb 6de0 743d
00000010: 94aa 903c cf7b 4ebd ceb2 ea3c f3ad 1a3c
00000020: 58f1 b8bc f7a6 55bc 03a9 b13c 4a3c 91bc
00000030: f922 f03c 673e a6bc f208 febc ce43 373d
00000040: 2f74 c13b 5e47 be3b 456d 50bd 99b5 bdbc
00000050: 6842 e0bc ad2b 5abc 2038 0e3d a25d a7bc
00000060: a0ed b43c 21b5 94bc e4f3 17bd 335a e93c
00000070: 3730 f3bc c9ff f43b 0e3d e6bc e5c1 f33c
00000080: c009 94bc 4b51 f43c 36f9 9bba 35dd eabc
00000090: 7520 f73c 151c 253d b3c2 973c c103 1f3d
000000a0: 77cb 5e3c c71c 433d 4008 f3bc 86b6 163d
000000b0: be23 a6bc 8a1e f93c 62b8 183d 0537 a8bb
000000c0: 082a 193b 42dd 65bb 868b 2d3a ab00 22bc
000000d0: 7640 103d 7155 013d 2b27 613d 5d18 90bc
000000e0: 5727 1e3d 22d7 42bb 5de3 dd3c 1fd7 543c
000000f0: 646b 02bd a246 f7bc e5a0 85bc 94f5 f4bc
00000100: 3300 043d 263d 8d3b 2538 9a3c ca7f f1bc
00000110: ecd3 fa3b 98d3 9ebc 6d78 e43c 3c24 d43c
00000120: 6e37 51bc 8323 9a3c ead9 043d 28a5 c7bc
00000130: 7fd9 ca3b 543d 93bc b8dd cbbc 26b1 e7bc
00000140: 7716 393d ca8b fcbc a9e3 f2bc 72ce ea3c
00000150: 2a56 a9bc 59dc 483d f07f 3bbc a84a f93b
00000160: 693b 043d a049 e9bc 3893 72bc 840c 373d
00000170: 6aed b9bc 2406 a6bc b70e c73c ffe3 05bd
00000180: 173e 70bc 749c 083d 98c4 cebc 7d9c 993c
00000190: 9530 da3c 3af8 413c 6d6f 0a3d 1b54 c83c
000001a0: e0a9 07bd 3b35 2b3b 9596 4dbb bcf8 8c3c
000001b0: 39d1 a2bc e2aa 1a3d cd2a e5bc 0fe7 68bc
000001c0: c738 94bc f483 90bc b0b3 c6bc 4a5e 103d
000001d0: 30c2 1fbd 1827 5bbc a1a7 8c3b 8d63 ce3c
000001e0: 7d49 903c 6542 02bd a123 3a3c a6d5 dd3c
000001f0: ff93 113d c88d 00bd 977c 17bd 3b27 87bc
00000200: 1cea 063d 9655 303c e6b0 db3c 88af 20bd
00000210: 12b4 d2bc aed7 693d 105f 04bd 3022 02bd
00000220: eb7c b63c 443d 983c 3388 12bd fc97 b43c
00000230: 7596 d3bc 9081 8e3c 7e11 b13c d926 09bd
00000240: dcee 16bc 73bc a7bc aa96 363d ecef c83b
00000250: fe0f a13c a1dc 043c 4582 8dbc c226 e33c
00000260: 4cfe 3abc e61e 9b3c c1b7 9d3c 4222 0ebd
00000270: 050e 153d 9dcb 9cbc d3ce 253d 3d8f 1cbd
00000280: f21a d33b ca3c bfbc b2f2 483a 094d af3c
00000290: 61fc bcbc cd86 6cbd 633e fabc 89dc 20bd
000002a0: 581a eab9 d612 dabc d330 013d 3dce 50bd
000002b0: c234 c63c 8a66 c4bc ed1f fcbc f3c3 863c
000002c0: 58ef 5db9 d0a5 8a3a 69d2 10bc 529e 093d
000002d0: 0992 11bd b80b 06bd a0f6 36bd 643c 423d
000002e0: 768e 1bbd f8de 8a3c c489 f1bc 5f34 46bc
000002f0: c8a8 083d 0bca 2c3d db23 af3b f80d 273d
00000300: 4f99 14bd 1db2 cabc 8d0d 03bb a68f a13c
00000310: 7ca2 98bc 6ee9 8c3c 6ff2 50bc 2fda 17bd
00000320: e06a d83b 5531 e2bc a0d0 2fbc fc62 d93c
00000330: baf2 d8bb 4596 913c 6d36 303d eca1 e23c
00000340: 7313 32bd 6f24 d33c ec7c d93c f858 a3bc
00000350: 9fe4 8b3c 34df 1abd ef09 833c 7440 1cbc
00000360: 75fc 2bbd 12e3 9e3c 7c3f f63c 492c 32bd
00000370: 619f ae3c 7a44 053d 803e 4dbc 7007 a43c
00000380: 7482 b33c faf0 c8bc 4af7 953c 69fa e1bc
00000390: 46ba 1abd 4962 6fbc b118 b8bc 4a7b b9bc
000003a0: 7892 8d3c cdbd 1dbc 4501 fd3c da4e bebc
000003b0: 771c 023d e44b 3bbd 3fb6 d33c a7d8 c43c
000003c0: 9834 7d3c a825 c63c f3a8 8b3c 1a30 08bd
000003d0: 848f 083d cec8 c13c 875d 463c 6b38 2abc
000003e0: aae0 dfbc b97a c13c ef0c 4fbd 65f6 efbc
000003f0: 1f34 eebc 2164 9f3c e7ff 023d 5a27 073d

action_model._discrete_distribution.branches.0.bias f4 [2]
0.027716964 -0.02771696
00000000: b00e e33c ae0e e3bc

exp_avg f4 [128, 6]
-1.2466572e-08 -5.635193e-07 0.0 -3.00476e-05 1.0206106e-05 -2.7835283e-06 2.217535e-07 0.00033049396
0.0 0.00020768582 -5.502947e-05 -1.7390797e-05 5.091138e-07 0.00025281822 0.0 -5.4401284e-05
-1.2046428e-05 0.00023078754 3.0499577e-06 -0.00046927205 0.0 -0.0005129196 -0.00017554298 0.0003642624
-1.4192797e-06 0.00052167947 0.0 0.00033172307 6.206122e-05 7.935705e-06 -1.8190028e-07 0.00032833676
0.0 0.0003143718 -1.6185648e-05 3.668061e-05 7.138683e-07 0.00023844953 0.0 0.00014996165
-8.25796e-05 6.8735e-05 1.9700074e-06 -0.00018574587 0.0 0.00010273517 -0.00012782334 0.00021339735
-4.1594745e-07 7.8318495e-05 0.0 1.3344492e-05 1.39572185e-05 -0.00012273584 -1.7322533e-06 -9.700621e-05
0.0 -0.00015609774 0.0001775942 -0.000216007 -6.2153697e-07 0.00070541725 0.0 0.000579928
9.04738e-06 2.70315e-05 1.3744726e-06 3.587573e-05 0.0 -0.00024518324 -9.712255e-05 0.00027468044
2.8587638e-07 0.00041575343 0.0 0.00035831163 -3.6802652e-05 2.4709658e-05 3.0767185e-06 8.401605e-05
0.0 -0.00044252124 -0.0002588184 0.0003723623 7.503557e-08 0.00022728833 0.0 7.475321e-05
-3.1673502e-05 8.150594e-05 3.8925045e-06 -0.00074475346 0.0 -0.00066040497 -0.00031449003 0.00011095847
-9.1531723e-07 0.0003944027 0.0 0.00026904588 1.593594e-05 -8.061461e-05 -1.748395e-07 0.0006526938
0.0 0.00011669938 -6.7037145e-05 -2.0417174e-05 4.8469874e-06 -0.0010254749 0.0 -0.0005768328
-0.00024905612 0.00038012743 -3.2769043e-07 8.555453e-05 0.0 -2.8913357e-05 1.9034673e-05 1.837064e-05
-4.9190214e-07 -7.785073e-05 0.0 -1.8875806e-05 4.858901e-05 -8.620937e-05 6.890441e-07 0.00040938333
0.0 0.00020509513 -0.00010105061 9.027859e-05 -4.838033e-07 0.0009166591 0.0 0.00081667426
-5.0627932e-05 7.058302e-05 3.180679e-06 -0.00048341253 0.0 0.00013108492 -0.00017680784 0.00026775576
-2.00199e-07 1.9137913e-05 0.0 2.6851132e-05 1.50116975e-05 -3.3629996e-05 -1.5789251e-06 -8.775267e-05
0.0 -3.514828e-05 0.0001524301 -0.00016529804 -7.994929e-07 -8.7600565e-05 0.0 -0.0001536872
0.0001052646 -0.00014557628 2.417035e-06 5.602908e-05 0.0 0.00041128835 -0.00019056369 0.00024267424
-1.6193794e-06 -0.00018388077 0.0 -0.00018453514 0.00014485138 -0.00023211134 -1.5526333e-06 0.0008389494
0.0 0.0010080831 1.3412951e-05 -0.00016031593 1.5069392e-07 0.0004953314 0.0 0.0003525654
-4.8875907e-05 6.071385e-05 2.0888226e-06 -3.0016265e-05 0.0 -0.00023277792 -0.00018109918 0.00014843175
4.490478e-06 0.00023590281 0.0 -0.00012311914 -0.00041997805 0.00039244583 2.0387174e-07 1.46210305e-05
0.0 -3.716938e-06 -2.169544e-05 -4.392845e-06 8.646108e-07 0.00012488864 0.0 -0.00017229737
-9.7572054e-05 9.090572e-05 -3.5833506e-07 1.11611425e-05 0.0 -6.161253e-05 3.1443735e-05 -1.6885233e-05
1.3095352e-07 0.00038789486 0.0 0.00025879612 -3.2252497e-05 5.9186194e-05 3.5123387e-07 0.00031270387
0.0 6.679714e-05 -7.662798e-05 5.0878156e-05 -1.5642428e-07 6.683776e-05 0.0 8.898428e-05
2.7180835e-05 6.995036e-05 -1.2118454e-06 0.0004463868 0.0 0.00010650561 4.6408924e-05 -0.00019675987
1.2128099e-07 5.8986683e-05 0.0 -0.000116160394 -2.0112126e-05 8.762998e-06 1.5259984e-06 0.00019944133
0.0 -0.00034431132 -0.00022387244 0.00014714425 -1.6350568e-06 -0.00018044194 0.0 -0.00023557253
00000000: 902c 56b2 c044 17b5 0000 0000 bb0e fcb7
00000010: e43a 2b37 a7cc 3ab6 231b 6e34 2646 ad39
00000020: 0000 0000 3dc6 5939 72cf 66b8 74e2 91b7
00000030: 09aa 0835 b08c 8439 0000 0000 ef2c 64b8
00000040: 041b 4ab7 8fff 7139 e0ad 4c36 a108 f6b9
00000050: 0000 0000 7475 06ba f611 38b9 79fa be39
00000060: 147e beb5 51c1 083a 0000 0000 1eeb ad39
00000070: dd26 8238 9823 0537 5e50 43b4 9d24 ac39
00000080: 0000 0000 45d2 a439 6ac6 87b7 81d9 1938
00000090: a8a0 3f35 4f08 7a39 0000 0000 063f 1d39
000000a0: 962e adb8 d225 9038 7834 0436 c7c4 42b9
000000b0: 0000 0000 8673 d738 5108 06b9 6ac3 5f39
000000c0: 624f dfb4 ec3e a438 0000 0000 28e2 5f37
000000d0: cc29 6a37 a7b2 00b9 c57f e8b5 d06f cbb8
000000e0: 0000 0000 2bae 23b9 9438 3a39 f07f 62b9
000000f0: b2d7 26b5 c0eb 383a 0000 0000 4f06 183a
00000100: 34ca 1737 b4c1 e237 857a b835 4679 1638
00000110: 0000 0000 f08b 80b9 46ae cbb8 fc02 9039
00000120: 8d7a 9934 7bf9 d939 0000 0000 c6db bb39
00000130: 8c5c 1ab8 9647 cf37 9f79 4e36 c631 b038
00000140: 0000 0000 3202 e8b9 05b2 87b9 9f39 c339
00000150: 3e23 a133 3f54 6e39 0000 0000 d3c4 9c38
00000160: 2ad9 04b8 2bee aa38 5c9c 8236 8f3b 43ba
00000170: 0000 0000 071f 2dba 23e2 a4b9 60b2 e838
00000180: 1fb4 75b5 d6c7 ce39 0000 0000 ba0e 8d39
00000190: 2cae 8537 a40f a9b8 84bb 3bb4 8a19 2b3a
000001a0: 0000 0000 81bc f438 4b96 8cb8 8c45 abb7
000001b0: 4ea3 a236 3a69 86ba 0000 0000 9836 17ba
000001c0: bf93 82b9 d74b c739 6eed afb4 bd6b b338
000001d0: 0000 0000 f68a f2b7 a6ac 9f37 a61a 9a37
000001e0: 420b 04b5 cb43 a3b8 0000 0000 7c57 9eb7
000001f0: 0dcc 4b38 4ecb b4b8 c0f6 3835 80a2 d639
00000200: 0000 0000 ce0e 5739 22eb d3b8 f353 bd38
00000210: b6de 01b5 f34b 703a 0000 0000 1516 563a
00000220: 5459 54b8 f805 9438 a673 5536 8872 fdb9
00000230: 0000 0000 d773 0939 7e65 39b9 9261 8c39
00000240: 48f6 56b4 5b8a a037 0000 0000 5e3e e137
00000250: c0da 7b37 ef0d 0db8 74eb d3b5 db07 b8b8
00000260: 0000 0000 2e6c 13b8 a5d5 1f39 db53 2db9
00000270: bc9c 56b5 32b6 b7b8 0000 0000 1827 21b9
00000280: 80c1 dc38 d6a5 18b9 5834 2236 c400 6b38
00000290: 0000 0000 30a2 d739 0dd2 47b9 5f76 7e39
000002a0: 7459 d9b5 1ed0 40b9 0000 0000 c67f 41b9
000002b0: 3fe3 1739 ea62 73b9 1364 d0b5 f1ec 5b3a
000002c0: 0000 0000 a821 843a 3008 6137 7b1a 28b9
000002d0: 6ece 2134 21d9 013a 0000 0000 87d8 b839
000002e0: 1b00 4db8 00a7 7e38 b32d 0c36 70cb fbb7
000002f0: 0000 0000 d915 74b9 71e5 3db9 58a4 1b39
00000300: eaac 9636 ae5c 7739 0000 0000 8b19 01b9
00000310: 8030 dcb9 30c1 cd39 d6e7 5a34 d94c 7537
00000320: 0000 0000 8270 79b6 9afe b5b7 4066 93b6
00000330: 9a17 6835 8af4 0239 0000 0000 b9aa 34b9
00000340: 999f ccb8 a3a4 be38 3261 c0b4 be40 3b37
00000350: 0000 0000 fa35 81b8 74e2 0338 c3a4 8db7
00000360: 3b9c 0c34 5e5e cb39 0000 0000 07af 8739
00000370: db46 07b8 b13e 7838 3791 bc34 67f2 a339
00000380: 0000 0000 7115 8c38 55b3 a0b8 0166 5538
00000390: 94f5 27b4 402b 8c38 0000 0000 129d ba38
000003a0: 6602 e437 50b2 9238 b1a6 a2b5 0609 ea39
000003b0: 0000 0000 c45b df38 34a7 4238 5351 4eb9
000003c0: 7739 0234 7868 7738 0000 0000 239b f3b8
000003d0: 76b6 a8b7 ca04 1337 e8d0 cc35 2021 5139
000003e0: 0000 0000 af84 b4b9 4dbf 6ab9 bc4a 1a39
000003f0: 2074 dbb5 0435 3db9 0000 0000 0504 77b9

exp_avg_sq f4 [128, 6]
1.6056899e-13 6.756163e-09 0.0 8.1869596e-09 5.4557194e-09 5.0546185e-09 7.6619055e-13 9.249246e-08
0.0 7.7169545e-08 1.801138e-08 2.1877062e-08 2.5496304e-12 1.5122679e-07 0.0 1.0522455e-07
8.0122376e-08 7.010682e-08 1.548555e-11 9.337662e-07 0.0 5.977532e-07 2.6140688e-07 2.525179e-07
4.365185e-12 4.2077914e-07 0.0 3.4123264e-07 7.14687e-08 5.00108e-08 9.239818e-13 1.2802262e-07
0.0 7.278286e-08 2.0988066e-08 1.5127037e-08 3.1053846e-13 2.3551138e-08 0.0 1.7502197e-08
1.1255309e-08 7.489598e-09 6.491887e-12 1.5853855e-07 0.0 2.1380328e-07 1.16069195e-07 1.3127206e-07
1.3967266e-12 2.5696622e-08 0.0 3.4750084e-08 2.7283441e-08 3.453063e-08 4.2096496e-12 1.0639427e-07
0.0 1.0996706e-07 9.243192e-08 1.14904154e-07 4.1651084e-12 5.9456187e-07 0.0 3.4253043e-07
7.3814945e-08 5.3193475e-08 3.60624e-12 2.445128e-07 0.0 1.16338335e-07 6.577885e-08 7.380824e-08
4.9198005e-13 9.521261e-08 0.0 4.9815963e-08 1.1403475e-08 1.0351501e-08 9.361547e-12 5.587373e-07
0.0 2.3972612e-07 1.5976607e-07 1.3091322e-07 4.3769033e-13 4.231746e-08 0.0 5.0139878e-08
1.0197088e-08 9.049899e-09 1.7147974e-11 1.1287232e-06 0.0 7.740673e-07 3.0972365e-07 2.0978688e-07
3.2582162e-12 2.414809e-07 0.0 2.1447934e-07 6.090619e-08 6.667898e-08 5.381979e-12 4.490473e-07
0.0 4.5843743e-07 1.15006614e-07 1.7422761e-07 3.54164e-11 2.0495088e-06 0.0 1.6765946e-06
6.2868435e-07 5.148874e-07 3.6378095e-13 1.1696158e-08 0.0 1.8968965e-08 8.925505e-09 8.028159e-09
3.215428e-13 7.4125244e-09 0.0 8.0168014e-09 7.649095e-09 9.42969e-09 3.1313193e-13 5.5456475e-08
0.0 3.876216e-08 6.8944446e-09 5.625054e-09 5.2129967e-12 7.7060724e-07 0.0 5.4456706e-07
9.578712e-08 6.6462306e-08 1.5190448e-11 5.146181e-07 0.0 6.954794e-07 2.7049543e-07 2.7917432e-07
1.7829721e-13 3.757896e-09 0.0 7.101251e-09 5.1972573e-09 4.7488298e-09 2.774531e-12 5.442287e-08
0.0 5.9107013e-08 5.4988632e-08 5.9346313e-08 3.6660163e-12 8.249521e-08 0.0 9.0246076e-08
1.0928782e-07 1.3047264e-07 6.0020847e-12 9.595747e-08 0.0 1.9889596e-07 1.06040815e-07 1.282443e-07
2.7692599e-12 4.99743e-08 0.0 5.701027e-08 4.769681e-08 7.125218e-08 1.494161e-11 1.5845278e-06
0.0 9.614674e-07 2.8231418e-07 2.6284675e-07 8.3583574e-13 1.5373824e-07 0.0 1.0342239e-07
1.4796155e-08 1.0460864e-08 4.028055e-12 2.7450517e-07 0.0 1.5081324e-07 7.406515e-08 4.4772765e-08
1.16078544e-11 3.4628184e-07 0.0 2.3421158e-07 1.9387873e-07 1.4646714e-07 6.00198e-14 1.2121584e-09
0.0 2.0849948e-09 1.2555151e-09 2.558939e-09 1.013747e-12 8.185393e-08 0.0 3.399879e-08
2.988241e-08 1.9786302e-08 1.1954397e-13 4.3196415e-09 0.0 3.8520773e-09 3.4922258e-09 3.4142273e-09
5.4436983e-13 8.942646e-08 0.0 6.099973e-08 9.583914e-09 7.422874e-09 3.9633493e-13 6.618262e-08
0.0 5.1487046e-08 1.4059713e-08 9.703112e-09 5.09996e-13 1.8240392e-08 0.0 2.3767464e-08
2.3898586e-08 2.2677145e-08 8.320119e-12 4.286241e-07 0.0 3.9048032e-07 1.493357e-07 2.486855e-07
2.314561e-13 2.7367019e-08 0.0 9.295317e-09 8.678462e-09 5.396292e-09 4.9288997e-12 4.8282067e-07
0.0 1.5962681e-07 1.8679708e-07 1.225081e-07 5.9913203e-12 1.02605746e-07 0.0 1.3517871e-07
00000000: dcc8 342a d723 e831 0000 0000 a1a6 0c32
00000010: 0475 bb31 e5ac ad31 d9a9 572b 45a0 c633
00000020: 0000 0000 68b8 a533 72b7 9a32 2bec bb32
00000030: 0f6a 332c e760 2234 0000 0000 cff7 e133
00000040: be0f ac33 a28d 9633 5c36 882d eda7 7a35
00000050: 0000 0000 4a75 2035 7d57 8c34 cc91 8734
00000060: 1796 992c 72e7 e134 0000 0000 a832 b734
00000070: 557a 9933 75cb 5633 f409 822b 9776 0934
00000080: 0000 0000 cd4c 9c33 3f49 b432 b5f0 8132
00000090: 4fd1 ae2a 804d ca32 0000 0000 bd57 9632
000000a0: 5f5d 4132 9aab 0032 b869 e42c bf3a 2a34
000000b0: 0000 0000 cc91 6534 b741 f933 caf3 0c34
000000c0: 6192 c42b 78bb dc32 0000 0000 1f40 1533
000000d0: ec5c ea32 d44e 1433 271d 942c de7a e433
000000e0: 0000 0000 0827 ec33 fc7e c633 3ac1 f633
000000f0: f68b 922c fb99 1f35 0000 0000 06e5 b734
00000100: 3284 9e33 d876 6433 3fc4 7d2c 9545 8334
00000110: 0000 0000 add5 f933 4e42 8d33 8280 9e33
00000120: e67a 0a2b b077 cc33 0000 0000 3bf5 5533
00000130: 03e9 4332 62d6 3132 a9b0 242d 23fc 1535
00000140: 0000 0000 b5b3 8034 2a8c 2b34 2791 0c34
00000150: d365 f62a 8ac0 3533 0000 0000 6159 5733
00000160: 442f 2f32 e079 1b32 ced5 962d a27e 9735
00000170: 0000 0000 80c9 4f35 1848 a634 c741 6134
00000180: ce46 652c e2a4 8134 0000 0000 a24b 6634
00000190: 88cb 8233 2831 8f33 8f5c bd2c 9714 f134
000001a0: 0000 0000 291f f634 8ef9 f633 5213 3b34
000001b0: 52c3 1b2e 4b8a 0936 0000 0000 5a07 e135
000001c0: dcc2 2835 cb36 0a35 5cca cc2a 3ff0 4832
000001d0: 0000 0000 32f1 a232 c956 1932 37ec 0932
000001e0: 3303 b52a 41b1 fe31 0000 0000 44ba 0932
000001f0: 1369 0332 3700 2232 1147 b02a 0a2f 6e33
00000200: 0000 0000 727b 2633 2de4 ec31 8046 c131
00000210: 806a b72c badb 4e35 0000 0000 5d2e 1235
00000220: 87b3 cd33 0aba 8e33 d99d 852d 4924 0a35
00000230: 0000 0000 fbb0 3a35 9c38 9134 6de1 9534
00000240: acbe 482a ce1e 8131 0000 0000 44ff f331
00000250: 8f93 b231 262b a331 823d 432c 94be 6933
00000260: 0000 0000 d9dc 7d33 a42c 6c33 f6e3 7e33
00000270: 8afc 802c 3928 b133 0000 0000 4ecd c133
00000280: 9db1 ea33 0c18 0c34 f92d d32c 2d11 ce33
00000290: 0000 0000 1b90 5534 8eb8 e333 86b3 0934
000002a0: 8dde 422c 53a3 5633 0000 0000 74db 7433
000002b0: 32db 4c33 4d03 9933 846d 832d f6ab d435
000002c0: 0000 0000 c50b 8135 f790 9734 621d 8d34
000002d0: 5044 6b2b 3f13 2534 0000 0000 0f19 de33
000002e0: 2e32 7e32 5eb7 3332 7eb9 8d2c b45f 9334
000002f0: 0000 0000 3aef 2134 bf0d 9f33 2d4c 4033
00000300: 2135 4c2d 9de8 b934 0000 0000 977b 7b34
00000310: fb2c 5034 9544 1d34 0f27 8729 0899 a630
00000320: 0000 0000 9e47 0f31 838e ac30 55d9 2f31
00000330: 16ac 8e2b adc7 af33 0000 0000 1106 1233
00000340: 0f58 0033 8af6 a932 3498 062a f86b 9431
00000350: 0000 0000 3b5b 8431 e3fb 6f31 b99f 6a31
00000360: fb39 192b b70a c033 0000 0000 f5fe 8233
00000370: 80a6 2432 4a0c ff31 e21d df2a 4820 8e33
00000380: 0000 0000 9b22 5d33 468b 7132 bdb2 2632
00000390: 168d 0f2b 0caf 9c32 0000 0000 3529 cc32
000003a0: 8c49 cd32 92cb c232 7c5e 122d a61d e634
000003b0: 0000 0000 35a3 d134 1659 2034 1383 8534
000003c0: 574c 822a b614 eb32 0000 0000 3db1 1f32
000003d0: 4818 1532 496a b931 956b ad2c 2f9b 0135
000003e0: 0000 0000 e265 2b34 6492 4834 c58a 0334
000003f0: 04cd d22c 1b58 dc33 0000 0000 a425 1134

exp_avg f4 [128]
2.068958e-06 -3.6867776e-05 -8.472694e-05 -0.0005073779 0.00023609953 3.0262077e-05 -0.000118743425 -0.00032771885
6.919582e-05 0.0002881744 0.000103403436 -0.00022866094 -4.754401e-05 -0.0005118137 -1.2480983e-05 -0.00064749236
0.00015228076 2.9122737e-05 -0.0008062972 5.450997e-05 8.182401e-05 -0.000114613045 8.049318e-05 -0.000529111
3.330584e-05 0.00026265343 0.00013300253 -0.00040207148 0.00026938945 0.0002583193 -2.50596e-05 -0.0003474633
-0.0007469657 -3.3907414e-05 -0.00014383174 5.9603262e-05 -2.177501e-05 -5.8417907e-05 2.5999885e-05 0.00020163204
-2.0174488e-05 -0.0002538536 0.0002720023 0.00019730895 -0.00023650713 0.00014532903 0.0002061381 -0.0004017201
-0.0008834321 0.00018344392 -0.0009015071 -0.0004925165 -0.00036871346 -1.951001e-05 5.8096306e-05 -0.00015536966
0.0002745405 0.0002536455 -0.0006861063 0.00027918766 -0.0009858543 0.00012592072 -0.00033992148 8.399867e-05
0.00019733194 -0.0004093865 2.6867208e-05 0.00015152097 -0.00017730179 5.0090343e-06 -0.0006504895 -1.1443886e-05
-0.0005251814 -0.0009536207 5.3061874e-05 8.7973676e-05 -0.0010934618 -0.00076953345 5.9613303e-05 -0.00053836516
7.0555485e-05 -0.0006232558 -0.00012081803 -0.00071285357 9.9533805e-05 2.613505e-05 0.0002394068 0.00038734678
0.00027477552 0.00011717385 -2.4075687e-05 6.2007224e-05 -0.0005378312 -0.0001514105 -0.00011340479 -1.3437692e-05
0.00013452521 6.513411e-05 -0.0008764297 -0.00023273582 -0.00061359233 0.00013185768 0.00010038672 3.5875502e-05
-0.000177688 0.00012606599 0.00020501074 -0.00046651438 8.046325e-05 -0.00050088536 -0.00083303096 0.00014850055
-0.00026100746 -0.0006871761 0.00012840034 0.00012268426 -0.00020222244 -2.740786e-05 0.00022796325 -0.0007281454
8.116857e-05 0.00020281311 0.00030879848 -0.00055288745 0.000216747 -6.8345435e-06 6.621958e-05 -1.6685691e-06
00000000: 6ed8 0a36 79a2 1ab8 6eaf b1b8 8e01 05ba
00000010: 7c91 7739 51db fd37 e405 f9b8 aed1 abb9
00000020: 391d 9138 1d16 9739 4cda d838 b4c4 6fb9
00000030: fe69 47b8 3c2b 06ba 6a65 51b7 7abc 29ba
00000040: 8ead 1f39 9a4c f437 b05d 53ba a2a1 6438
00000050: ee98 ab38 695c f0b8 72ce a838 0ab4 0aba
00000060: e0b1 0b38 bfb4 8939 9876 0b39 1fcd d2b9
00000070: d73c 8d39 086f 8739 1537 d2b7 bc2b b6b9
00000080: 05d0 43ba cf37 0eb8 8ad1 16b9 84fe 7938
00000090: 7aa9 b6b7 c005 75b8 541a da37 306d 5339
000000a0: 623c a9b7 a717 85b9 889b 8e39 b8e4 4e39
000000b0: e6fe 77b9 7763 1839 c626 5839 f69d d2b9
000000c0: 2096 67ba da5a 4039 1e53 6cba 391c 01ba
000000d0: e24f c1b9 6da9 a3b7 6fac 7338 baea 22b9
000000e0: 34f0 8f39 b9fb 8439 d0db 33ba ef5f 9239
000000f0: c837 81ba 9609 0439 7d37 b2b9 7128 b038
00000100: e4ea 4e39 eda2 d6b9 e460 e137 9ae1 1e39
00000110: 16ea 39b9 4713 a836 9d85 2aba 1eff 3fb7
00000120: 54ac 09ba 67fc 79ba c18e 5e38 827e b838
00000130: 7d52 8fba 84ba 49ba 4c09 7a38 1321 0dba
00000140: 30f7 9338 fd61 23ba b05f fdb8 cbde 3aba
00000150: cebc d038 983c db37 4609 7b39 ce14 cb39
00000160: bf0f 9039 3bbb f538 25f6 c9b7 e009 8238
00000170: 3efd 0cba f2c3 1eb9 bcd3 edb8 7372 61b7
00000180: 560f 0d39 9c98 8838 34c0 65ba 8c0a 74b9
00000190: 7cd9 20ba 4743 0a39 b686 d238 0779 1638
000001a0: c251 3ab9 9530 0439 27f8 5639 8096 f4b9
000001b0: 61be a838 d94d 03ba c35f 5aba d0b6 1b39
000001c0: d4d7 88b9 9c23 34ba 34a3 0639 cea4 0039
000001d0: ac0b 54b9 eee9 e5b7 6b09 6f39 03e1 3eba
000001e0: 0b39 aa38 3baa 5439 3be6 a139 a6ef 10ba
000001f0: 9446 6339 4854 e5b6 5edf 8a38 99f3 dfb5

exp_avg_sq f4 [128]
7.4013133e-09 3.1406596e-08 8.75073e-08 5.424174e-07 1.4597923e-07 3.102047e-08 1.1009292e-08 2.3358064e-07
4.694532e-08 1.5183745e-07 1.3888551e-07 1.2731388e-07 1.6671367e-08 3.1290938e-07 1.5736864e-08 5.917067e-07
1.1248273e-07 1.9770704e-07 1.2487699e-06 1.6936006e-08 1.1884129e-08 1.1541055e-08 1.801862e-07 5.435287e-07
6.3756183e-09 1.0321406e-07 1.3225593e-07 2.1359517e-07 9.357787e-08 5.196817e-07 2.825967e-08 1.4942631e-07
3.8453103e-07 2.1315727e-09 3.2832318e-08 4.1340393e-09 1.7254187e-08 1.4869941e-08 2.0629967e-08 2.913972e-07
8.581666e-09 1.6964134e-07 2.094675e-07 1.362141e-07 4.347132e-08 3.8072994e-08 9.798763e-08 2.0364132e-07
8.883966e-07 2.2146558e-07 6.728528e-07 3.5980577e-07 2.0024255e-07 2.388919e-09 1.5728499e-07 4.567901e-08
9.2078665e-08 2.862403e-07 6.2304224e-07 8.098686e-08 1.2910825e-06 3.3243126e-08 5.0289238e-08 4.2393134e-07
2.0684693e-07 4.953023e-07 5.137733e-07 1.1812981e-07 6.725548e-08 3.5249499e-09 4.5934087e-07 4.1309434e-08
2.8897009e-07 1.4750557e-06 2.8107163e-09 9.0211564e-08 1.5223635e-06 7.7573253e-07 1.867279e-08 2.6480478e-07
1.2539042e-08 4.5212508e-07 2.9435185e-08 3.504908e-07 3.3915802e-07 9.565385e-09 6.652085e-08 3.5608056e-07
4.4709418e-07 4.190717e-08 5.0052627e-08 1.37723e-07 3.9808444e-07 2.1320854e-08 8.0499284e-08 2.7162232e-08
8.069803e-09 2.1384412e-08 7.224326e-07 3.2776526e-08 4.1185217e-07 1.7908562e-07 6.175155e-09 1.4507073e-07
2.9696125e-08 2.2672077e-07 7.644862e-08 4.3916575e-07 5.7895835e-09 4.968643e-07 1.919732e-06 3.995193e-08
8.192922e-08 1.0142523e-06 1.09950406e-07 1.1212163e-07 6.6631976e-08 4.4255067e-08 5.9255893e-08 4.601912e-07
6.7256536e-08 1.074196e-07 4.0629263e-07 3.7119108e-07 2.3784908e-07 2.159767e-08 2.2421773e-08 1.1295048e-08
00000000: a44e fe31 ebe3 0633 a6eb bb33 a49a 1135
00000010: 77be 1c34 5e3b 0533 6123 3d32 28ce 7a34
00000020: eda0 4933 c308 2334 8f20 1534 c6b3 0834
00000030: b934 8f32 f0fd a734 bb2d 8732 c6d5 1e35
00000040: 098e f133 4c49 5434 689b a735 ac7a 9132
00000050: f42a 4c32 1946 4632 3579 4134 02e7 1135
00000060: 8810 db31 88a6 dd33 3c02 0e34 9858 6534
00000070: faf4 c833 4180 0b35 acbf f232 fe71 2034
00000080: 8b71 ce34 067b 1231 8403 0d33 650b 8e31
00000090: 5c36 9432 b176 7f32 c735 b132 5471 9c34
000000a0: 916e 1332 a826 3634 fde9 6034 3f42 1234
000000b0: 39b5 3a33 b385 2333 456d d233 80a8 5a34
000000c0: 267a 6e35 ffcb 6d34 189e 3435 542b c134
000000d0: 4102 5734 4f2a 2431 2be2 2834 9a30 4433
000000e0: c8bc c533 91ac 9934 233f 2735 ffea ad33
000000f0: 4249 ad35 34c7 0e33 9afd 5733 ae98 e334
00000100: a719 5e34 eaf4 0435 3bea 0935 8dae fd33
00000110: 176e 9033 933b 7231 549b f634 346c 3133
00000120: bf23 9b34 87fa c535 a526 4131 55ba c133
00000130: 0354 cc35 ef3b 5035 e665 a032 7e2a 8e34
00000140: 4a6b 5732 99bb f234 a8d8 fc32 172b bc34
00000150: 8615 b634 0255 2432 39da 8e33 572b bf34
00000160: 2808 f034 6cfd 3333 72f9 5633 03e1 1334
00000170: 4fb8 d534 0e25 b732 f3de ac33 6152 e932
00000180: 5ea3 0a32 d2b0 b732 31ed 4135 2cc6 0c33
00000190: 881c dd34 ae4a 4034 3d2d d431 bdc4 1b34
000001a0: 7816 ff32 8870 7334 132c a433 7bc6 eb34
000001b0: b7ed c631 4160 0535 bfd4 0036 9d97 2b33
000001c0: 11f1 af33 7221 8835 e01d ec33 85c7 f033
000001d0: 5117 8f33 f612 3e33 8b80 7e33 3210 f734
000001e0: ac6e 9033 8dae e633 6f20 da34 1d48 c734
000001f0: 7563 7f34 c785 b932 009a c032 250c 4232
